models/tmp/nets/0_policy_net.pt (torch, 58874 bytes, 6 tensors)

layer1.weight f4 [128, 9]
00000000: e66a 7bbe 336b e1bd aba8 17be 59a2 01bd
00000010: 42fe 87bd 301e ccbd 7720 ad3d 8740 ad3e
00000020: ceeb ecbd 2134 debd 848e 7b3e c4e6 f0bd
00000030: 33a8 983e 6ab9 ad3d f1ae 4e3d 6488 a33e
00000040: 6246 61be bdba ab3e a70d 433d ae15 9c3d
00000050: 235b 9ebe 586e 3d3c 6716 fabd 165a 913d
00000060: e528 73be ef71 413e b2f6 e7bc c2c0 a03c
00000070: 3dca 95be 3422 923e 5a38 8b3e e7d3 97bd
00000080: 50a8 91be 7548 aabd 193c fd3d 164d 053e
00000090: ce4f 3fbc 73bd a9bd 7448 1cbd d829 90bd
000000a0: 22de 823d 8bf9 a83e 5e0d d93c 5688 70bd
000000b0: d9e6 903e 4efa 8fbe 3532 a93d 92e9 06bd
000000c0: 0c06 e7bd d0b6 0d3e 0a62 273e b646 20bd
000000d0: 8889 94be 3481 693e 89f0 833e b9c1 133e
000000e0: 4faa 23be 847e 36be 658a 7a3e cc3b 443e
000000f0: ac42 a1be 9191 7bbe 9c98 513e 8446 6a3e
00000100: 82bb 36be 0176 81be f19b 913e 733f 833e
00000110: 40c6 90be e8af babd 3d0b 5cbe 4d0c c1bd
00000120: 13cc 7abe bab5 a23e cb69 2b3e 3396 213d
00000130: 1e3e ee3d 1c52 d43c 651b 113e e78e a5bd
00000140: d212 903e 0614 c03d 3d73 e2bc eb4d c63d
00000150: 1dac 433e 5145 d8bc 3377 c3bd d5e9 45be
00000160: 224a 86be 224e 2e3d 8510 cd3d b1e8 82be
00000170: 7a7b 2f3e d9cf 173e 4b1e 53be b98e 3c3e
00000180: 344b 11bd 2441 45be 991e 82be e6e0 9d3e
00000190: af00 963e a8e0 593e 3cd1 94bc 0e08 eb3c
000001a0: 3a01 073e d21d 85be fa98 463d 4943 a03d
000001b0: 20e0 2939 9c75 653e 8fb2 4fbe abd6 3ebe
000001c0: 3083 7e3e 97b3 58be 09ca 633e b923 ed3d
000001d0: e571 a03e 71e6 02bd 88e6 48be d1a6 12be
000001e0: 4ff3 ca3c 79c9 3bbe 3d6a 4e3e 1908 fa3d
000001f0: 5329 553d 5ad2 ecbc f45a 1b3e 4739 e43d
00000200: b327 a83e a62b 5e3e 59c7 a03e bb5e 413e
00000210: 6d8d 0fbe 4cd8 ecbd 0221 03bd 93f7 aa3e
00000220: d654 1ebe baa0 08be e172 aa3d f16b 6ebe
00000230: fdfd 613d c5f1 963d 8fa7 cf3d 8d1c eabd
00000240: 25f2 23be 25cf 72be bb81 92bd 1ed3 f93d
00000250: 72ce 56be f1a3 a13e 94d7 cfbd 7412 ea3c
00000260: 0f9d 803e e932 373e 9803 3d3e 12e2 773e
00000270: b3f1 9cbe 3638 943e fc45 84be f775 23be
00000280: bd1a 5f3e b0d8 a53e f9b8 8ebb c08a 013e
00000290: e122 aabb c2ca 58be 75ab e73d 230f 4c3e
000002a0: 3c3b d33d a7ed 79be 9db4 083e c983 1c3d
000002b0: 8e64 26be a97d 01be 895f 1b3e a5d5 28be
000002c0: cf77 9a3e d95a 343e b4f3 863d 4acc 04bd
000002d0: 8efe 503e c867 3b3e 177a cfbe 7720 8c3e
000002e0: 4db6 a13e 4294 303d bb1f 4fbe 7e38 8bbd
000002f0: bff5 873d 4d83 b13d 0fa0 93be 824e 84be
00000300: 4686 4e3e 98cf f1bc cac5 273e d72e 613e
00000310: d918 6a3d c285 2d3e 353e c83d 9e0e c8bd
00000320: 64fb 74be c395 f63c 2b23 e4bd d294 1e3e
00000330: a248 7dbd ca33 633e c032 afbc ed95 50be
00000340: fa7f ebbd 588b 573e 22b2 873e 6f74 4b3e
00000350: ddde ccbd 39dd 5dbe f68d 243c 52e1 853e
00000360: 58a4 80bd 8ecb 5ebe 4605 a4be 8369 00be
00000370: b967 173e 0894 5a3e 7217 963e dc05 93be
00000380: 6665 d7bd db22 913e fb60 a6be 062b bc3e
00000390: e331 853e 30ac 73be aeb5 9a3c 0808 25be
000003a0: dfe5 8a3e 6939 08be cbc4 973e 08d0 8f3e
000003b0: 78b9 5fbe d0fe 903d 23df 95bd b160 39be
000003c0: 36cc a13b 79e4 2dbe 6415 51bd a6c7 e7bc
000003d0: b066 06be a76a 88be 72f0 163e c9b7 683d
000003e0: 3516 97be a486 07be 59c8 abbe 8fba a23e
000003f0: da36 0dbe 60e5 9b3e 4e7f 663d b45b 60be
-0.24552497 -0.11006775 -0.14810435 -0.031648967 -0.06640293 -0.09966695 0.08453458 0.33838293
-0.11568414 -0.108497865 0.24566084 -0.11762765 0.29815826 0.084826306 0.050459806 0.31939995
-0.21999505 0.33540908 0.04762044 0.076213226 -0.30928907 0.0115619525 -0.12211304 0.07097261
-0.23746069 0.18891118 -0.028315876 0.019623164 -0.29255858 0.2854172 0.2719143 -0.07413464
-0.28448725 -0.08314601 0.12364978 0.13017687 -0.011676742 -0.08288088 -0.038155034 -0.07039231
0.06390025 0.33002886 0.026495632 -0.05872377 0.28301123 -0.28120655 0.08261529 -0.032937594
-0.1128045 0.13839269 0.16345993 -0.039129935 -0.29011178 0.22803193 0.2576945 0.14429368
-0.15982936 -0.178217 0.24466856 0.19163436 -0.3149618 -0.24567248 0.20468372 0.22878462
-0.17844966 -0.25285342 0.28439286 0.25634345 -0.28276253 -0.09115583 -0.21488662 -0.09426174
-0.2449191 0.3177927 0.16739576 0.03944988 0.11632942 0.025918059 0.14170606 -0.08083897
0.2813936 0.09378819 -0.02764284 0.096828304 0.19108625 -0.02640024 -0.0954422 -0.19327481
-0.26228434 0.042554982 0.100129165 -0.25568154 0.17136946 0.14825381 -0.20617025 0.1841382
-0.03547211 -0.1926313 -0.2541397 0.30835646 0.29297397 0.21277106 -0.018166177 0.028690364
0.13184062 -0.25999314 0.048485734 0.078253336 0.00016200589 0.22408146 -0.20282958 -0.18636577
0.24854732 -0.21162258 0.22245039 0.11579079 0.31336895 -0.031958047 -0.1961919 -0.14321448
0.024774222 -0.18338574 0.20157714 0.12208576 0.052041363 -0.028908897 0.15171415 0.11143737
0.32842788 0.21696338 0.3140209 0.18883793 -0.14018793 -0.11564693 -0.0320139 0.3339201
-0.1546205 -0.13342562 0.08322693 -0.23283364 0.055173863 0.07370333 0.10139381 -0.11431227
-0.1601034 -0.23711832 -0.071536504 0.121984705 -0.2097719 0.3157039 -0.1014854 0.028573252
0.25119826 0.17890514 0.18458402 0.24207333 -0.30653152 0.28949136 -0.25834644 -0.15962969
0.21787544 0.32391882 -0.0043555466 0.12650585 -0.005192146 -0.21171096 0.11312 0.19927649
0.103140324 -0.24407063 0.13350148 0.038211618 -0.16249296 -0.12645592 0.15173163 -0.16487749
0.30169532 0.1761278 0.065894514 -0.032421388 0.20409605 0.18301308 -0.40522835 0.2736852
0.31584397 0.04311014 -0.20226948 -0.067978844 0.06638669 0.08667622 -0.28833053 -0.25841147
0.20168409 -0.029517934 0.16384044 0.21990524 0.057152603 0.16945556 0.0977749 -0.09768413
-0.23924023 0.030100709 -0.1113952 0.15486458 -0.061836846 0.22187725 -0.021386504 -0.20369692
-0.11499019 0.21049249 0.26503092 0.19868635 -0.10003445 -0.21666421 0.010043612 0.26148468
-0.06281346 -0.21757337 -0.32035273 -0.1254025 0.14785661 0.21345532 0.29314762 -0.28715408
-0.10517387 0.28346905 -0.32495865 0.36751574 0.26014623 -0.23796153 0.01888546 -0.16116345
0.27128503 -0.1330315 0.2964233 0.28088403 -0.21848094 0.070798516 -0.073179506 -0.18103291
0.004937674 -0.16981687 -0.05104579 -0.028293442 -0.1312511 -0.2664387 0.1474016 0.056815896
-0.2950913 -0.13234955 -0.3355129 0.31782958 -0.13790455 0.30448437 0.05627375 -0.21909982

layer1.bias f4 [128]
00000000: f59f a13e 937a e9bd ea2c a23e 53f5 39bc
00000010: 5d73 093e c04e 31be 21e3 6e3c 0705 ad3e
00000020: 8ef0 663e 4dc5 5cbd 55d5 a43e 024e 3d3d
00000030: 8267 3abe d320 513e 9408 813e 7d28 37be
00000040: e9d3 cfbc 5a5e 21bd 86da acbb 5f93 0d3d
00000050: 277a 6cbe b85e f7bd 75a9 4abc 0154 8ebe
00000060: 0178 b53e 3f88 ea3c 7d50 8e3e 1ce9 23be
00000070: 97a2 ed3b e483 813e 7c7c a13e df97 8dbd
00000080: ee77 1dbd b961 5dbe fb31 75be 779d 213e
00000090: d935 e4bd f527 ffbd 83f0 90be 9a4e 223e
000000a0: 3413 0d3e 0fa8 01be cd8e e63d 7710 81be
000000b0: 653e 563e f8ab 54bb ae8a 73be 46a8 673e
000000c0: c06c 26be ab1f 54be e2c7 9cbd 96a9 b13d
000000d0: 1909 743d 76e8 35be 3a77 493d ab25 9ebe
000000e0: edfa b23c ec43 3abd 6e42 9ebc 9a54 cd3d
000000f0: 11c2 21bd cf67 a73e 448c fa3d 3417 053b
00000100: 26c5 ad3e 9d59 8e3e c7ad 91bc 9077 813d
00000110: a6ec 4f3d 5ae8 93be 9f5b ff3d 907f 8abd
00000120: 5829 d7bd bc0a 913e f5e0 4d3e 8e25 2b3d
00000130: 398f 423e 9567 a73e a417 a2be e11b 55bd
00000140: 6ce1 973d 8dee 523e f7d6 8d3e 9cba 94be
00000150: f416 6d3e 2f67 3dbe 57bd bdbd 783f 3dbd
00000160: b664 ac3e 1034 513e 1ab9 7e3e 7dfb 733e
00000170: 5b28 a1be c7b6 aa3e a6bf 87be 94ad 85be
00000180: 194e 63be 63c5 ad3e 1a39 18be 36b1 dbbd
00000190: 565b 7c3e 6086 bebd 0cc3 4abe 1a77 79be
000001a0: c551 103e ed60 a3be 198c 4f3e 161e c73d
000001b0: 6689 b03e 9cf4 893d 76a7 9dbe 145a 693d
000001c0: c5c9 8f3e fdfc f9bd 9d69 7dbe 76d4 013e
000001d0: 86ce bf3d 9ebd 0b3e a01c 8dbe 8bca 903d
000001e0: 8782 84be 84b0 433d 8445 acbe b557 00be
000001f0: 4c7d d63b dadd 1f3e 952f 8e3e 2438 dd3b
0.3156735 -0.11400332 0.31674892 -0.011349994 0.13422914 -0.17315197 0.014580519 0.33792898
0.22552702 -0.0538991 0.3219401 0.046216972 -0.18203548 0.20422678 0.25201857 -0.17886539
-0.025369601 -0.03939662 -0.0052750735 0.034564372 -0.23093472 -0.12078613 -0.012369503 -0.27798465
0.35443118 0.02862942 0.27795783 -0.16006893 0.0072520482 0.25295937 0.31540287 -0.06913733
-0.038444452 -0.2161931 -0.23944847 0.15782724 -0.11143083 -0.12458793 -0.28308496 0.15850297
0.13776857 -0.12661766 0.11257706 -0.25207874 0.20922239 -0.0032451134 -0.23783371 0.22622785
-0.16252422 -0.20715205 -0.07655312 0.08674924 0.05957899 -0.17764458 0.04918597 -0.30888113
0.021848166 -0.04547493 -0.019318786 0.10025902 -0.039491717 0.32696387 0.12233785 0.002030802
0.33939475 0.27802745 -0.017783059 0.06321633 0.050762795 -0.28888208 0.12468647 -0.06762612
-0.105059326 0.28328502 0.20105346 0.04178386 0.18999948 0.32696214 -0.3165866 -0.05202854
0.07416043 0.20598812 0.27703068 -0.29048622 0.23153287 -0.18496393 -0.09264629 -0.046203107
0.33670586 0.20430017 0.24875298 0.23826404 -0.314761 0.33342573 -0.26513404 -0.26108992
-0.2219776 0.33939657 -0.14865533 -0.1072716 0.24644217 -0.09302974 -0.19800967 -0.2436184
0.14093693 -0.31909886 0.20268287 0.09722535 0.34479827 0.06736109 -0.30791825 0.05697067
0.28083625 -0.12206457 -0.2474732 0.12678704 0.09365563 0.13646552 -0.27560902 0.07069882
-0.25880834 0.04777576 -0.33646786 -0.12533458 0.0065456983 0.15611973 0.27770677 0.0067510772

layer2.weight f4 [96, 128]
00000000: 3f64 113e 3b94 1bbd 547c 45bd 743e a7bd
00000010: b5c2 233d e90c b7bd 5ad0 e63b f4b8 b2bd
00000020: 75f8 943d 086d b2bd b6af c33d cf2e f0bc
00000030: 0a11 90bd 1849 073d b701 2a3d 30df 17bd
00000040: 33d4 c63d 93ae 813d 114e 59bd e404 903d
00000050: 2695 aabc 9b2d 603d 1a41 5f3d 92ec 173e
00000060: 2e46 7abd a0f0 063e 52d7 cfbb 0e5a bd3b
00000070: 86a0 b83c 456d b53b c77f 6dbd 3ac6 fabc
00000080: 6eba 873d f170 49bd 2fa7 8b3d 1223 d1bc
00000090: 39e7 ca3d 6ef7 153d ae21 81bd fb8b 3d3d
000000a0: 7c6e b93c 0bbe 01bd 7852 6ebd d810 b63c
000000b0: c082 e3bd 5e56 e03c 7fb1 adbd f682 22bd
000000c0: 3df3 f53d f288 b9bc f730 343c 97c0 7cbd
000000d0: fddd 04bd cc23 24bc 2874 bebc c804 1abb
000000e0: be54 92bd 00c4 81bc e201 b53d dc4c 483d
000000f0: 51e0 d43c e711 2ebd b8b5 82bc 44c8 90bd
00000100: 036a 9e3d 58d6 f3ba e594 4b3b ecfd e33b
00000110: 60fe 7abd e2d4 0c3d 2b95 383d 64b5 80bc
00000120: 11d8 84bd c208 a4bd 74d1 d9bc bc77 503d
00000130: b1cf 943d 3c2c 90bd f396 8a3d dd5f c33d
00000140: 43b8 883d 5cb2 abbd 36c1 3fbd a070 b03c
00000150: ab28 88bd 3e1a 21bd 2c94 a9bd 0e6f e9bc
00000160: 78b6 adbc eda9 2bbd 91a1 81bd 157e 933d
00000170: eefc 19bd 9314 813d d41d 2bbc 29c3 92bd
00000180: 1509 a33d a288 43bd 0bc2 84bd 0bb4 d93d
00000190: 4c15 a1bd 6c53 e0bc 83d6 51bb 374c d5bd
000001a0: 0593 4abc b320 93bd ad89 8ebc 0a83 be3d
000001b0: 1edf 74bd 9ffd fd3c c548 ffbd f66f e83c
000001c0: ec1e 153d 69dd 6d3c a94b d5bc d7ea d43d
000001d0: fe23 31bd 4ef9 963d 5e49 e23c 758b 1d3d
000001e0: 17d5 7d3d 8e11 a83d 4c9c 653d 1dc2 babd
000001f0: 5063 6dbd 9bd2 dbbc 1d0f 823d e946 08bd
00000200: bfd1 b2bc ef1d 193d 5cef 38bd 3a3c 813d
00000210: 2b29 ea3c d7fa 8d3d 45c6 473d 354e 9cb9
00000220: 2409 d03b b7bb 0f3d a9be d53b 6160 46bc
00000230: f611 ae3d 41c6 af3d c77f a13d 13ab 3bbd
00000240: 03c4 a9bd 04dd 8b3d bd9d 18bb 408a 6d3d
00000250: 0d7b 81bc 2211 44bc dde6 893d afef aebd
00000260: ade6 573d 3aba f2bd 44b1 f7ba 892e f03c
00000270: 13a8 90bd 5d72 443d 8a10 96bd b265 97ba
00000280: 0830 0fbc fa75 2a3c f807 cc3c a05d 0cbd
00000290: 047d 3abd c62b d5bd eb3a 9abd 91c5 773c
000002a0: 4043 59bc c1c6 f33c 9e1f 403d 7136 903d
000002b0: 38ab 733d 3aaf 093d 7493 93bd 18f5 833c
000002c0: 937c a7bd 28ef 30bd edd9 00bd e6c5 653d
000002d0: 4d7d 59bd f84e 4e3c 43eb 85bb 5c91 a3bb
000002e0: 02b0 6b3d c2bc 2fbd 3642 703d fd35 8d3d
000002f0: 03a2 26be 6dec 94bd 52f7 58bd f10e 883b
00000300: e440 793d 5e2a 733d 7978 d6bb b466 bcbc
00000310: f4db 343d d048 a93c 328a 79bd 407c 88bc
00000320: e801 393c c888 68bd 7f80 18bd cc80 2d3c
00000330: bf34 cbbd 60a6 b83d e17b 5c3d 18c2 a2bd
00000340: 2dd5 96bd 8941 023d f3e3 ae3d 5c8e bebc
00000350: 47a5 9d3c 26c8 5b3d 3095 e7bc d395 f13c
00000360: c14d 83bd 73cd fb3c af18 4a3d 69ca 993d
00000370: 2af4 473d a7b5 e13a cec3 e83c 5c04 48bc
00000380: 3736 6dbd b3b2 d13b d1e8 8ebc 2687 1c3d
00000390: a2aa 693d 819e a63d 0035 bcbb 76ec 4fbc
000003a0: 0f21 97bd 8516 2ebd 6586 e33d 52c9 d3bd
000003b0: d561 ae3d 7eaf 63bd 37fa 0cbd 1e85 963d
000003c0: b9ce c7bb fd74 883c 9cdb ac3c c764 99bd
000003d0: d947 8abd f1fe 7a3d 352d f1bb 750a 9dbd
000003e0: 0a9e b53c f210 023c 5e25 a3bd 4cf5 debc
000003f0: 6dcc 9abd bcb3 6c3d 95fc 4ebd 155c ac3b
0.14198397 -0.03798316 -0.04821427 -0.08166209 0.03998061 -0.08938009 0.0070438804 -0.08726683
0.07273952 -0.08712202 0.095549986 -0.029319195 -0.070345 0.033028692 0.04150554 -0.037078083
0.097084425 0.063321255 -0.053052966 0.07032183 -0.020823073 0.054730993 0.054505445 0.14836338
-0.061102085 0.13177729 -0.006342807 0.0057785576 0.022537481 0.0055367076 -0.057983186 -0.0306121
0.066273555 -0.049179975 0.06818997 -0.025529418 0.099073835 0.03661292 -0.06305252 0.046276074
0.02263569 -0.03167538 -0.058184117 0.022224829 -0.11108923 0.027384933 -0.0848112 -0.039675675
0.12009285 -0.022648308 0.010998002 -0.061707105 -0.032438267 -0.0100183 -0.023248747 -0.0023501385
-0.071450695 -0.01584053 0.0883825 0.048901424 0.025985869 -0.04249754 -0.01595579 -0.07069448
0.07735064 -0.0018603308 0.003106409 0.00695776 -0.061277747 0.03438271 0.045064133 -0.015711494
-0.06486524 -0.08009483 -0.026589133 0.050895438 0.072661765 -0.07039687 0.067670725 0.09539769
0.0667577 -0.08383629 -0.04681512 0.021538079 -0.06648382 -0.039331667 -0.08280215 -0.028495338
-0.021205172 -0.0419101 -0.063296445 0.072017826 -0.03759473 0.06302752 -0.010444123 -0.0716613
0.07960717 -0.047737725 -0.06482323 0.106300436 -0.0786539 -0.027383529 -0.0032018728 -0.104149275
-0.012364154 -0.07183971 -0.017399633 0.093023375 -0.059783094 0.031004725 -0.124650516 0.0283737
0.036406443 0.01451812 -0.026037054 0.10396355 -0.043247215 0.0737177 0.027622875 0.038463075
0.061970796 0.08206473 0.05605726 -0.091190554 -0.05795604 -0.026833823 0.06350539 -0.03327075
-0.02182853 0.037382063 -0.045150146 0.063103154 0.028584084 0.069326095 0.04877307 -0.00029812907
0.006348746 0.03509113 0.0065229726 -0.012107939 0.084995195 0.08582736 0.078857 -0.045817446
-0.082893394 0.06829265 -0.0023287379 0.057993174 -0.015805745 -0.011966975 0.06733487 -0.0854181
0.052710224 -0.11851926 -0.0018897434 0.029319065 -0.070633076 0.047960628 -0.07327373 -0.0011550693
-0.008739479 0.010404104 0.024906144 -0.034268975 -0.04552938 -0.1040874 -0.07530769 0.015122787
-0.013260663 0.02975786 0.046905152 0.07041634 0.05948946 0.033614375 -0.07205859 0.01610808
-0.081780575 -0.043196827 -0.03145783 0.056096934 -0.05309801 0.01259207 -0.0040868833 -0.0049916934
0.0575409 -0.042904623 0.058656894 0.06895063 -0.1627274 -0.07271657 -0.052970238 0.004152172
0.0608529 0.059366576 -0.006545123 -0.022998191 0.044155076 0.020664603 -0.06092281 -0.01666081
0.011291958 -0.05677107 -0.03723192 0.01058979 -0.0992217 0.090161085 0.053829078 -0.07947177
-0.07364879 0.03180078 0.085395716 -0.023261242 0.01924385 0.053657673 -0.02826938 0.029490387
-0.06411315 0.030737614 0.049339946 0.0750931 0.048816837 0.0017220274 0.02841368 -0.012208071
-0.05791303 0.0063994764 -0.017445 0.038214825 0.057047494 0.08135701 -0.005743623 -0.012690654
-0.07379352 -0.042501945 0.11109618 -0.10341133 0.08514754 -0.055587284 -0.03441831 0.07349609
-0.0060976413 0.016657347 0.021100812 -0.07489925 -0.06751985 0.061278287 -0.0073601254 -0.0766801
0.022170085 0.00793861 -0.079661116 -0.027216576 -0.075585224 0.057788596 -0.05053385 0.0052600005

layer2.bias f4 [96]
00000000: d8ce 663d 1629 953d 931f 4e3d 7018 6f3d
00000010: 4517 73bb 6944 4cbd e8a2 52bd 9c9c eb3c
00000020: 5bc8 a0bd 309a 9e3d 55ab 273c 344c 9cbc
00000030: 077d 8c3d e4b1 88bd a682 9bbd 6cf8 7cbd
00000040: 1044 ab3d e7ec 91bd 1be1 0bbd 7a36 5f3d
00000050: d781 d039 b705 9d3b ac45 a53d 28fc d1bc
00000060: 5658 75bd b05c a5bc 0aa1 743d d25d 2e3d
00000070: 30a8 04bd 1fbe 973d 9c21 843c 2216 85bd
00000080: 50f4 a43d d12b 6a3d c828 803d 5cf3 123c
00000090: 773b b3bd 543a 1e3c e801 4abd 8cf5 ac3d
000000a0: 925a 2b3d 044a afbd 9334 7bbc a799 b03d
000000b0: 381a 153c 24b5 cb3b 88c8 93ba 949a 003c
000000c0: fcf3 a03d ab84 73bc d54d 4d3d 28a4 853c
000000d0: 0dee a6bd 5055 9cbd 5aa1 30bd 759a ca3b
000000e0: 428d 9c3d 5e60 a13d 046b 08bd 461a bd3d
000000f0: c6b3 f8bc 8348 de3d d0bc 8e3c 2a44 64bd
00000100: 8f9b 51bd c5b2 97bd e9ea fabc 5a97 8cbd
00000110: 2658 4a3d d2cd 753c d275 893c d126 283d
00000120: 0fc7 88bd 8c4d b5bc 5ad1 19bd 04c1 483b
00000130: b67c 74bd 1747 553d 5060 9bbd 9ba8 4abd
00000140: f284 dfbb 879a 9c3d 8476 193d ddff aebd
00000150: 93a9 b23d f214 f23c eede a13c 723f d0bc
00000160: 4578 89bd 5d69 6f3d 4ffd 663d 0cd5 823d
00000170: 0025 6c3d c782 8f3d cb9e 81bd 9f42 65bd
0.056349605 0.07283227 0.05032308 0.058372915 -0.0037092727 -0.04986993 -0.05142489 0.0287612
-0.07850715 0.07744253 0.01023372 -0.019079305 0.068597846 -0.06674555 -0.075932786 -0.06176035
0.08362591 -0.07125264 -0.034150224 0.054495312 0.0003976959 0.004791941 0.080699295 -0.025632933
-0.059898697 -0.020185798 0.05972389 0.042569943 -0.03238696 0.074093096 0.016129307 -0.06498362
0.080544114 0.057170693 0.062577784 0.008969154 -0.087515764 0.009657461 -0.049318224 0.08445272
0.04183442 -0.08559039 -0.015332359 0.08623057 0.009100489 0.006216662 -0.0011274973 0.007849354
0.07859036 -0.0148631735 0.050123055 0.016313627 -0.08150873 -0.076334596 -0.043122627 0.0061829635
0.0764413 0.07879709 -0.033305183 0.09233527 -0.03035916 0.10853674 0.017424017 -0.05572907
-0.051173743 -0.074071445 -0.030629592 -0.068648055 0.04940047 0.015002685 0.016779814 0.041052643
-0.066785924 -0.022131704 -0.03755317 0.0030632624 -0.059689246 0.05206975 -0.075867295 -0.0494772
-0.0068212682 0.07646661 0.03746654 -0.08544896 0.0872375 0.029551003 0.019759621 -0.025420878
-0.06712393 0.05845009 0.056393918 0.06388292 0.057652473 0.07007366 -0.063291155 -0.055971738

layer3.weight f4 [4, 96]
00000000: 2b1e 0d3d b636 3b3c 8ecf f4bd 1cd3 adbd
00000010: d26b 5a3d 80f6 8cbd 1f5d 8e3d 7960 92bd
00000020: dc65 113d 4c5c 75bd c408 8e3d 4255 87bd
00000030: 5a0b 4a3d 65dd 22bd 84ed 11bd 4f26 babd
00000040: 5882 323d 7998 c53d e165 c33c 8700 793d
00000050: b84a f33b fe8c 573d 7bcc 06bc 208f bbbd
00000060: beed bcbd 7cfb 003e 8460 803c f2c2 263d
00000070: 0743 28bb c788 9fbd c435 be3d 67fa ee3a
00000080: ab01 d03d 7418 dd3c 341a 5ebd 2446 993c
00000090: 9a92 543d 613c 403c a001 5c3d 6580 023c
000000a0: 7427 9e3c d88b 583d 3e90 863d 2d75 6d3d
000000b0: 48cd a4bc 4c39 68bd ce66 d5bd dfe6 bebd
000000c0: 0006 ba3b aca4 463d 9ff3 9e3d ee7d 133d
000000d0: 5c71 873c e744 a1bd 8c9e 8b3d 9c12 243d
000000e0: 90f2 323c ab4a 66bc 746f bdbc 6462 533c
000000f0: ab19 75bc 20b8 0b3e 562b cd3d 3e1c d8bd
00000100: 853e bf3d 1a49 b5bd 5492 94bc b46b a5bd
00000110: 5e2b b4bd 83da 243c 87fc 87bc 55c6 b5bd
00000120: 5c93 893d fa58 99bd 0260 abbd 4496 353d
00000130: 8c82 653d f8c6 753d 80a6 96bd 68f4 e33b
00000140: 95c2 063e 8d46 13bd b076 683c bc55 a039
00000150: 2e3b 3d3e 84f2 b93d 7e21 84bc d34b 62bd
00000160: 1289 ee3c b890 ad3d e99a a23d 66d4 dabd
00000170: ee67 b7bd 75c5 b13d 78a9 c43d 73b7 85bd
00000180: d810 a5bd 24d4 d43d 7077 563d ec2c bcbb
00000190: 6fd9 9dbd d67f a23d e20f f3bd 0a57 af3d
000001a0: 88c1 873d a4bd 9b3d d95f be3d 59ac 6abd
000001b0: 89ea 47bb d6fe c83d 2913 6cbd fd57 d13d
000001c0: 0e93 b33d ce81 c33c 1695 613d 82cd f1ba
000001d0: 7dc4 423d 8c76 ffbc 8b11 803d b46f da3c
000001e0: 4ec0 34bd c1f2 e4bd 5f28 adba f3c5 09bd
000001f0: baf3 d6bd 1c34 6dbd ab67 94bd 2c87 20be
00000200: 38c3 d53d 5b23 bd3d 8fb6 943d eabd 27bd
00000210: 9ef4 5ebc 5a7d 8c3d e4bb eebc 984c 923d
00000220: 5891 4abd 5792 a6bd 324b 403d 2085 2fbe
00000230: 15dc 433d 2ed7 96bd cdaa 19bc d4fb 84bd
00000240: 082c 81bb 67f6 7f3d e135 c63d ef78 bcbd
00000250: 7398 6dbd 9e28 ce3d 304a 8e3d b7f6 183e
00000260: 0567 1f3d eccf 9abd ccf1 b3bd 264e 9e3d
00000270: 97bd 1dbd 0909 5d3d 2388 1b3d ba23 3fbc
00000280: b57b 1a3d d82b 59b8 c078 c03d 7711 003e
00000290: 280d 01bd 8326 113c dc4b 68bd dcb2 68bc
000002a0: 3723 b3bd 1874 63bd d2dd 83bd 1ce4 5d3d
000002b0: e4db 883c 1366 b1bc 74b9 c03c 2964 013e
000002c0: 8482 563d 701c 623d 2b8f 6abd 18cc 313d
000002d0: 1215 ee3c 868c bc3d 69c7 eebd 2a9a 93bd
000002e0: d015 8bbd d99b 46bd d7a3 8c3d 4ac7 b23d
000002f0: 7aca a63d 2624 9c3d a405 1c3d 16d3 bcbd
00000300: 8e2d 00bc 83db 0bbd 2ac7 6dbd a3a5 903d
00000310: 9a5a 2d3d 8436 433c 97d3 b0bd 0496 e13c
00000320: e054 6e3d 7205 72bc 1813 08bd a424 c4ba
00000330: 981f 97bd d088 20bd a78e 3cbd 74a2 b83d
00000340: e80b 8abd faad ca3c baeb c83d 3535 b53d
00000350: a981 b43d f2ff eabc bc07 8fbc 70d8 aeba
00000360: 643c 86bb e0de de3c fc4d 213d 79e5 f23c
00000370: eb0c 5f3d 2c86 95bc 3019 923d 6a74 83bc
00000380: b75d e33d f4f5 45bc 5c0b b73d 74b9 28bd
00000390: 8085 0e3e 3b8d 4bbd 4889 5a3d cf39 17bb
000003a0: 14ae f93d 7fb8 b53d a0cc 9cbd a0ec 7cbd
000003b0: b030 f1bc 522a 1abc f303 afbd 3f0b c7bd
000003c0: ce08 98bc 33c7 89bd cd2b 25bd c88d 553d
000003d0: 34e8 fd3a 8413 3f3b cace 593d 1637 cc3d
000003e0: 6761 2cbd 7dbd 88bd 8b0e 99bd ae9a 353c
000003f0: d592 84bc a5a1 eb3d 81c4 db3a 8f94 fe3c
0.0344526 0.011426618 -0.119536504 -0.084875315 0.05332548 -0.06882954 0.06951355 -0.07147307
0.03549753 -0.059902474 0.06935266 -0.066080585 0.049327232 -0.03976192 -0.035626903 -0.09089338
0.043581337 0.096482225 0.02385229 0.06079152 0.0074246787 0.052624695 -0.008227463 -0.09158158
-0.09225033 0.12595934 0.015671022 0.040713258 -0.0025674717 -0.0778976 0.09287599 0.0018232585
0.10156568 0.0269892 -0.054224208 0.018710203 0.051897623 0.011733145 0.053712487 0.007965182
0.019305922 0.05286774 0.06570481 0.057973076 -0.020117417 -0.056695268 -0.10419999 -0.09321379
0.005676985 0.048496887 0.07761311 0.036008768 0.016533546 -0.0787447 0.0681735 0.04005681
0.010922089 -0.014055888 -0.023124434 0.012901876 -0.014959733 0.13644457 0.10018031 -0.10552262
0.093380965 -0.08851834 -0.018136181 -0.08077183 -0.08797334 0.010061863 -0.016599907 -0.088757195
0.0671756 -0.07487674 -0.083679214 0.044332758 0.056032702 0.060004205 -0.07355976 0.0069566257
0.13160165 -0.035955954 0.014188454 0.00030581455 0.18479607 0.09079459 -0.016129252 -0.055248093
0.029118095 0.084748685 0.07939703 -0.10685043 -0.0895537 0.0868024 0.09602636 -0.06529131
-0.08059853 0.10392025 0.05236 -0.00574266 -0.07707488 0.07934539 -0.11868264 0.08561523
0.0662871 0.076045305 0.09295625 -0.05729327 -0.0030504784 0.09814231 -0.05763546 0.102218606
0.08768283 0.023865607 0.05507382 -0.0018448087 0.047550667 -0.031184457 0.06253346 0.026664592
-0.04412871 -0.11179114 -0.0013210884 -0.033636045 -0.10495706 -0.057911023 -0.072463356 -0.15676564
0.10437626 0.09235259 0.07261383 -0.0409526 -0.013608126 0.068598464 -0.029142328 0.07143515
-0.049455017 -0.08133381 0.04694671 -0.17140627 0.04781731 -0.07365261 -0.009379101 -0.06493345
-0.0039420165 0.062490847 0.09678245 -0.09202754 -0.058006715 0.10066341 0.06947744 0.14937864
0.038916606 -0.07559189 -0.087863535 0.077297494 -0.038510885 0.053963695 0.037971627 -0.011666233
0.037715632 -5.1777664e-05 0.09398031 0.12506662 -0.031506687 0.00885928 -0.05671297 -0.0142028
-0.08746951 -0.055530638 -0.06438793 0.05417262 0.016706415 -0.021655118 0.023525931 0.12635864
0.052370563 0.0552029 -0.057265442 0.04340753 0.029062781 0.0920649 -0.11659128 -0.07207139
-0.0679127 -0.04848847 0.068671875 0.087294176 0.08144088 0.07624082 0.038091317 -0.09219949
-0.007823361 -0.03414489 -0.058051266 0.07062843 0.042322733 0.011914853 -0.086341076 0.027537353
0.05818641 -0.014771806 -0.033221334 -0.0014964533 -0.07379073 -0.039192975 -0.04603448 0.090153605
-0.06740552 0.024741162 0.09810586 0.08848039 0.08813793 -0.028686497 -0.017459743 -0.001333965
-0.0040965546 0.027205884 0.039381012 0.029650437 0.05445568 -0.018252455 0.071337104 -0.016046721
0.11101859 -0.012082566 0.089377135 -0.041192487 0.13918114 -0.049695235 0.053353578 -0.0023075228
0.12191406 0.088730805 -0.076562166 -0.0617491 -0.029442161 -0.009409504 -0.08545675 -0.09718942
-0.018558886 -0.06727447 -0.040324975 0.052137166 0.001937157 0.002915592 0.053175725 0.09971444
-0.042085078 -0.06676767 -0.07473477 0.011084242 -0.016183296 0.115054406 0.0016766937 0.031076698

layer3.bias f4 [4]
00000000: 48f7 76bc 23a4 98bd 8227 993d 24a9 d13d
-0.015073605 -0.074531816 0.07478239 0.10237339
