models/model_1/1900_target_net.pt (torch, 85400 bytes, 6 tensors)

layer1.weight f4 [128, 94]
0	0xba528ade	-0.0008031557
1	0x3d00f8a5	0.031487126
2	0xbc0d892f	-0.008638664
3	0x3bde12be	0.0067771366
4	0xbda09efe	-0.07842825
5	0xbb2f691b	-0.0026765529
6	0x3d050436	0.03247472
7	0xbc31ce45	-0.010852401
8	0x3c488c01	0.012240411
9	0x3ccbe9a2	0.024891678
10	0x3d1fb508	0.038991004
11	0xbd4e6db8	-0.050397605
12	0xbd3498fd	-0.044091213
13	0x3a96dfba	0.0011510768
14	0x3b95d3b7	0.0045723575
15	0xbc8a327c	-0.016869776
16	0xbbdcc519	-0.006737363
17	0xbdda68a5	-0.106644906
18	0x3c641871	0.013921843
19	0x3d337f05	0.043822307
20	0xbc921886	-0.01783396
21	0xbc509bf5	-0.012732496
22	0xbc6a1a90	-0.01428856
23	0xbc9ae3a4	-0.018907376
24	0x3cc8e85b	0.024524858
25	0x3d25453f	0.04034924
26	0xbbe9aced	-0.00713121
27	0x3d0627af	0.03275269
28	0xbd86913f	-0.06570672
29	0xbdac5b2e	-0.08415829
30	0x3cde10d0	0.027107626
31	0x3c88278b	0.016620418
32	0xbc1ef3a8	-0.009701647
33	0xbc1d7dce	-0.009612514
34	0xbaee4cf8	-0.0018180897
35	0xbd2cb9a5	-0.042169232
36	0x3c1585c2	0.009126129
37	0xbbf109c2	-0.0073558996
38	0xbd2d5373	-0.04231591
39	0xbd2d79e3	-0.04235257
40	0xbc277937	-0.010221771
41	0xbc598b81	-0.013277889
42	0x3c1b60ef	0.00948356
43	0xbd3445c0	-0.04401183
44	0x3ce72f33	0.028220749
45	0xbd697bd0	-0.057002842
46	0xbd506a61	-0.0508827
47	0x3cf0f7a2	0.029414956
48	0x3d00c37f	0.03143644
49	0x3d2f601f	0.042816278
50	0x3aa8600d	0.0012846008
51	0x3cb8de67	0.022566987
52	0xbb58389b	-0.0032992724
53	0xbce7f8c5	-0.028316865
54	0xbc51cb6c	-0.012804847
55	0x3cb816e6	0.022471856
56	0x3d498445	0.049198408
57	0x3db77b7d	0.089591004
58	0xbb7993ff	-0.0038082597
59	0xbd09357f	-0.033498283
60	0x3d862505	0.0655003
61	0x3b828002	0.003982545
62	0x3b8ae4f5	0.0042387196
63	0xbb10057f	-0.0021975932
64	0x3caa17a6	0.02076323
65	0x3cdca9a3	0.026936358
66	0xbd13dd15	-0.036099512
67	0xbbcbda73	-0.0062211095
68	0xb9211583	-0.0001536217
69	0xbcfff6ff	-0.031245707
70	0xbd488df8	-0.048963517
71	0xbd8cb342	-0.06870128
72	0xbd33bdff	-0.043882366
73	0xbb8e6d5e	-0.0043465337
74	0x3bdd8b36	0.00676098
75	0x3c664047	0.014053411
76	0xbc4b2858	-0.012399755
77	0x3c57b256	0.013165077
78	0x3cb09d1e	0.021559294
79	0x3c055333	0.008137512
80	0xbc2775d0	-0.01022096
81	0xbc61a323	-0.013771805
82	0x3c77510c	0.015095007
83	0xbc0ce819	-0.008600258
84	0x3ca8b48d	0.020593906
85	0x3c80b156	0.01570956
86	0xbadac727	-0.0016691432
87	0xbce98689	-0.028506534
88	0xbc71b05b	-0.014751519
89	0xba0c64fd	-0.00053556246
90	0xb964bed4	-0.00021814863
91	0xb91c0054	-0.00014877442
92	0x3a00e19a	0.000491643
93	0x39b478bc	0.0003442223
94	0x399aee85	0.0002955088
95	0xbc44eb77	-0.01201903
96	0x3c11e08a	0.008903632
97	0x3ca15e56	0.019698303
98	0xbd29b511	-0.041432444
99	0x3ad0da86	0.0015934266
100	0x3d04f1c5	0.032457132
101	0x3c8e2877	0.01735328
102	0xbc1cc46c	-0.009568315
103	0xbd41cc4e	-0.04731398
104	0x3d3a8fac	0.045547172
105	0xbb14d7bd	-0.0022711598
106	0x3c09cdc1	0.008410872
107	0x3d6cad79	0.057782624
108	0x3caf9f09	0.021438139
109	0x3d467bb4	0.048457816
110	0x3d312da6	0.043256424
111	0xbd3b106b	-0.045669954
112	0xbd1d648e	-0.038425975
113	0x3d08e501	0.03342152
114	0xbda02759	-0.07820005
115	0x3d16a234	0.036775783
116	0xbcce3955	-0.025173822
117	0x3c5b8148	0.013397522
118	0x3ceb90f3	0.02875564
119	0x3c76264a	0.015023777
120	0xb9ff4030	-0.00048685214
121	0xbc6bc1b9	-0.014389449
122	0xbc60bada	-0.013716424
123	0xbd83ba61	-0.06432033
124	0xbc959dcb	-0.018263718
125	0xbcb0561a	-0.021525431
126	0x3c2e763c	0.010648306
127	0x3cfcdda9	0.030867415
128	0x3d15681a	0.036476232
129	0xbc818a6b	-0.015813073
130	0xba9c03b0	-0.0011902954
131	0x3c21712e	0.009853644
132	0x3c3fb15a	0.011699999
133	0x3ca205f0	0.019778222
134	0x3ce929cc	0.028462313
135	0xbbd6cf7c	-0.006555496
136	0x3c10c434	0.008835841
137	0xbcc32c9e	-0.023824986
138	0xbd04cf2a	-0.03242413
139	0xba6df34c	-0.00090770866
140	0x39ffa0ee	0.00048757292
141	0x3bcfd4a7	0.006342489
142	0x3ad6d87f	0.0016391425
143	0xbcc6b541	-0.02425635
144	0x3c276a3b	0.010218198
145	0xbb8aae92	-0.004232236
146	0xbc84f21e	-0.016228732
147	0x3c83a274	0.016068675
148	0x3ba5d5b4	0.005060876
149	0x3b21fa62	0.002471589
150	0xbcf8a061	-0.030349912
151	0xbc8b1dc0	-0.01698196
152	0x3b0994af	0.0020993163
153	0xba87fa93	-0.001037436
154	0x3c77ae52	0.015117245
155	0xbc3f3fc4	-0.011672918
156	0x3a0e3017	0.0005424036
157	0x3a8b8999	0.0010645866
158	0xbbd7460b	-0.006569629
159	0xbc16e1b8	-0.009209089
160	0x3ce1d5a7	0.027567698
161	0x3bddb119	0.0067654965
162	0xbcc1cf0c	-0.023658298
163	0x3c8fc509	0.017550008
164	0x3c2dca8c	0.010607373
165	0x3c53964f	0.012914254
166	0x3b800d27	0.003907818
167	0xbc96e659	-0.018420385
168	0x3c8279b7	0.015927179
169	0x3b628a19	0.0034567176
170	0x3d0adddf	0.033903
171	0x3c270d6e	0.010196073
172	0xbd002ed2	-0.03129465
173	0xbbc6bde3	-0.0060651167
174	0xbcc0810d	-0.023499036
175	0xbce20f61	-0.027595224
176	0x3ca3dc72	0.020002577
177	0xbba5d6b1	-0.0050609936
178	0x3c981fe9	0.018569903
179	0xbcb22b52	-0.021749172
180	0xbbe58343	-0.007004173
181	0x3c380b9a	0.011233235
182	0x3b85f69d	0.0040882365
183	0x38fb67ef	0.00011987972
184	0xb9da2fa4	-0.00041615695
185	0xba00d659	-0.0004914753
186	0x37b46f6a	2.1509553e-05
187	0x39629bcc	0.00021611078
188	0xbc387837	-0.01125913
189	0x3c3d31cf	0.01154752
190	0x3c21dffe	0.009880064
191	0x3a020520	0.000495987
192	0x3aed4e8c	0.0018105074
193	0xbbea5ce3	-0.0071521862
194	0x3c3e7e38	0.011626773
195	0xbba70bd0	-0.0050978437
196	0x3c0495fe	0.008092402
197	0xbd0844c1	-0.033268694
198	0xbc792024	-0.015205417
199	0xbd2a6de1	-0.041608695
200	0x3b12b964	0.0022388333
201	0xbcc9bcf1	-0.024626227
202	0xbc41bab8	-0.011824302
203	0xbc57e8a2	-0.013178023
204	0xbca948cd	-0.020664597
205	0xbbb09e66	-0.0053899763
206	0x3cb30d97	0.021857066
207	0xbc16eb69	-0.0092114
208	0xbc648ad9	-0.0139491195
209	0x3c63aa82	0.013895633
210	0x3cb50d05	0.022100935
211	0xbc0e3e83	-0.008681896
212	0xbd07c890	-0.033150256
213	0xbc86f122	-0.016472403
214	0x3caef4ea	0.021357019
215	0x3b56737e	0.0032722647
216	0xbc5a6f49	-0.0133321965
217	0xbb6ae1a2	-0.0035840054
218	0x3cac4359	0.021028208
219	0x3ce785b0	0.02826199
220	0x3c95f350	0.018304497
221	0x3ce2c433	0.027681446
222	0x3bfac3f9	0.0076527563
223	0x3b6f95b6	0.003655774
224	0x3c467c7f	0.012114643
225	0xbd167e58	-0.036741585
226	0x3c666c96	0.014063975
227	0xbafc4b4d	-0.0019248516
228	0xbcae6305	-0.02128745
229	0x3b99e6a9	0.0046966863
230	0xbbc6db4b	-0.006068622
231	0xbc29c06f	-0.010360821
232	0xba938fef	-0.0011258106
233	0x3bbddabd	0.005793898
234	0xbc89a8bf	-0.016804097
235	0x3c306777	0.010766855
236	0xbce9841f	-0.028505383
237	0x3d01337c	0.03154324
238	0x3d3073fb	0.043079358
239	0xbc8e1805	-0.017345438
240	0x3c95822f	0.018250553
241	0x3c10b52a	0.008832255
242	0x3b4819b7	0.0030532905
243	0x3c347569	0.011014321
244	0xbcd2167c	-0.025645487
245	0x3d00d33b	0.031451445
246	0x3cc190e3	0.023628658
247	0x3c3f84ed	0.011689407
248	0xbc84db6e	-0.016217913
249	0x3c9f1a87	0.019421829
250	0xbc26f875	-0.010191073
251	0xb9fc5b6c	-0.000481333
252	0xbaae41e2	-0.0013294781
253	0x3c731e21	0.014838726
254	0x3ba2df54	0.0049704704
255	0x3a97fa24	0.0011594933

layer1.bias f4 [128]
0	0x3b0ce459	0.002149841
1	0x3bebe13a	0.00719848
2	0xbbb114ad	-0.005404076
3	0xbc336ef1	-0.010951743
4	0x3a8f10d8	0.0010915054
5	0x3ac3f3e6	0.0014950007
6	0xbb133f4a	-0.0022468143
7	0xbce30a08	-0.027714744
8	0xbc2566ea	-0.010095337
9	0x3ab9bebc	0.0014171223
10	0xbbbfcb7e	-0.0058531156
11	0xbbe670eb	-0.007032504
12	0xbbcc1677	-0.006228264
13	0x3ad6d965	0.0016391693
14	0xbb508931	-0.0031820054
15	0x37c3b8a9	2.33318e-05
16	0xbd0ac4ad	-0.03387897
17	0x3c300b56	0.01074489
18	0x3d3a0b79	0.045421097
19	0xbd5e48ec	-0.054268762
20	0x3c8e9222	0.017403666
21	0x3c8372ec	0.01604601
22	0x3c120ffa	0.008914942
23	0x3b07c72c	0.002071808
24	0xbc60df8c	-0.013725173
25	0xbb181765	-0.0023207304
26	0xbb97baac	-0.0046304073
27	0xbc4b0760	-0.012391895
28	0xbc4c178b	-0.012456785
29	0xbd86933a	-0.0657105
30	0xbc3938fc	-0.01130509
31	0xbc1730d5	-0.009227951
32	0x3c8fe06a	0.017563064
33	0xbbcfe52c	-0.006344458
34	0x3bbeb658	0.005820077
35	0x3babe432	0.005245709
36	0x3bdd7c48	0.0067592002
37	0xbd66cd79	-0.056348298
38	0xbc4859f7	-0.012228481
39	0xbcb99f48	-0.022658959
40	0x3be93ce4	0.0071178544
41	0xbc915091	-0.017738612
42	0xbd03327b	-0.032030564
43	0xbcdeb612	-0.027186427
44	0x3d16cee9	0.03681842
45	0x3c4e6afc	0.012598749
46	0x3bb7cc5c	0.0056090783
47	0x3c27a218	0.010231517
48	0xbbc6b024	-0.006063478
49	0x3c58c664	0.013230894
50	0xbbf27847	-0.007399592
51	0xbc953ece	-0.018218424
52	0xbbd02ea6	-0.006353217
53	0x3a4baafd	0.00077693147
54	0x3b8de822	0.004330651
55	0xbc9b5bb4	-0.018964626
56	0x3d0a57ac	0.033775017
57	0x3c5ae100	0.013359308
58	0x3c4ffecc	0.012695026
59	0xbce89003	-0.028388983
60	0xbb0139ab	-0.001971821
61	0x3bafafda	0.0053615393
62	0xbcf84c02	-0.03030968
63	0x3c52c766	0.012864923
64	0x3b627d1b	0.0034559432
65	0x3c92fe44	0.017943509
66	0x3e00f80c	0.12594622
67	0xbc6df1d7	-0.014522991
68	0xbd323ade	-0.04351317
69	0x3b5f7e12	0.0034102243
70	0xbc426b68	-0.011866428
71	0xbb035259	-0.0020038097
72	0x3c8b2024	0.0169831
73	0xbbc4a27d	-0.0060008154
74	0x3d0184ae	0.031620674
75	0x3b7e77b3	0.003882867
76	0x3c6d7194	0.014492411
77	0xbd337362	-0.04381121
78	0xbafce65d	-0.0019294728
79	0xbadda1f9	-0.0016909234
80	0xbcafb271	-0.021447392
81	0x3a2b56cf	0.0006536068
82	0x3b58df86	0.0033092215
83	0xbcbcfa38	-0.023068532
84	0xbc119d17	-0.008887551
85	0xbbb69ae9	-0.005572666
86	0x3be1199a	0.006869507
87	0xbc47f2cc	-0.012203883
88	0xbcd0d261	-0.025490941
89	0x3c31cd84	0.010852221
90	0xbba4cc7a	-0.0050292583
91	0xb88b9ebd	-6.657604e-05
92	0x3e5e8531	0.21730496
93	0x3ce8bc23	0.028410023
94	0xbcdfa5da	-0.027300764
95	0x3c78471d	0.0151536735
96	0xbcf142a2	-0.029450718
97	0x3bb27ff2	0.005447381
98	0xbcda0ce3	-0.026617473
99	0x3bc575a5	0.006025987
100	0x3b54f561	0.003249489
101	0xbcd6f3c6	-0.026239287
102	0xbc7a5a2c	-0.015280288
103	0x3b03760c	0.0020059375
104	0xbd0e696f	-0.034768518
105	0xbadbff72	-0.0016784503
106	0xbcf43e06	-0.029814731
107	0x3d8182a8	0.06323749
108	0xbbc23a25	-0.0059273415
109	0x3c063915	0.00819232
110	0xbc833999	-0.016018676
111	0xbc96078a	-0.018314142
112	0x3c20c18d	0.009811771
113	0xbbe3f27b	-0.006956396
114	0x3d36e9e1	0.044656638
115	0x3e2af151	0.16693617
116	0xb9ba6f0e	-0.00035559427
117	0xbc7ac83f	-0.015306531
118	0xbc3b1fcd	-0.011421156
119	0x3be76fa2	0.007062868
120	0x3c910758	0.017703697
121	0x3b8a01f9	0.004211661
122	0xbd02986f	-0.031883653
123	0xbc619650	-0.013768747
124	0xbb8390ae	-0.00401505
125	0xbaceada2	-0.0015768299
126	0xbaaed95c	-0.0013339925
127	0x3bf0e2cc	0.007351255

layer2.weight f4 [64, 128]
0	0x3d68657a	0.0567374
1	0x3cedf5f2	0.02904794
2	0x3cf32b8c	0.02968385
3	0x3daebc43	0.08532002
4	0xbd4a8ee7	-0.04945269
5	0xbd342309	-0.043978725
6	0x3db34c01	0.08754731
7	0xbce7c2bd	-0.0282911
8	0x3d2e8f45	0.0426171
9	0xbd15c2ec	-0.036562845
10	0xbd50928f	-0.05092102
11	0xbd405d0f	-0.046963748
12	0xbd665b83	-0.056239616
13	0xbd284c99	-0.041088674
14	0x3d1b5a69	0.03792802
15	0xbd30d6cd	-0.0431736
16	0x3ce46486	0.027879965
17	0x3cd68ee3	0.02619118
18	0xbd1653cd	-0.036701012
19	0x3cf2c6d4	0.029635824
20	0x3c89acf3	0.016806101
21	0xbd22fc7a	-0.03979156
22	0xbcc34188	-0.023834959
23	0x3cae939a	0.021310616
24	0x3d1c3090	0.03813225
25	0xbbdbd656	-0.0067089004
26	0x3d88c531	0.06678236
27	0xbdb9d542	-0.09073879
28	0x3d46ddcd	0.04855137
29	0x3cbf23d1	0.023332508
30	0xbda72b06	-0.08162503
31	0xbd473fc2	-0.04864479
32	0xbd0cef59	-0.034407947
33	0x3d95c492	0.073128834
34	0xbcaac119	-0.02084403
35	0xbd3dd97f	-0.04635
36	0x3d038912	0.032113142
37	0xbe0584ff	-0.13039015
38	0x3cf61870	0.03004095
39	0x3cbe33d4	0.023218073
40	0xbcec573d	-0.028850192
41	0x3d61de63	0.055143725
42	0xbdc43c0e	-0.09581767
43	0x3c984e84	0.018592127
44	0xbd417f3c	-0.04724048
45	0x3cf98fe5	0.030464122
46	0x3d493b59	0.049128864
47	0x3c9f5eae	0.019454326
48	0x3d65ef26	0.056136273
49	0x3d93a05c	0.072083205
50	0x3d1b024d	0.03784399
51	0x3cf45656	0.029826324
52	0xbd65d901	-0.056115154
53	0xbcf7eb27	-0.030263497
54	0x3cfc2d9b	0.030783465
55	0x3d59a07b	0.05313156
56	0xbb9f7034	-0.0048656706
57	0xbd7659bd	-0.060144175
58	0x3cea55b6	0.028605323
59	0xbd8eda8e	-0.0697528
60	0x3cf9fde4	0.030516572
61	0xbd75e861	-0.060036067
62	0x3dae9863	0.08525159
63	0xbd0f0317	-0.034915056
64	0x3d0953f6	0.033527337
65	0xbd0cd15f	-0.03437936
66	0xba38ea9a	-0.00070540013
67	0x3cdd2df2	0.026999447
68	0x3d7c8735	0.06165238
69	0x3d2d0ee7	0.04225054
70	0x3dc1e0ed	0.09466729
71	0x3d1a1478	0.037617177
72	0xbce76206	-0.028244983
73	0xbdd73887	-0.105088286
74	0x3d2d5202	0.042314537
75	0xbd67b8dd	-0.056572784
76	0xbd842f3f	-0.06454324
77	0x3cfcd35e	0.030862506
78	0xbd654512	-0.055974074
79	0x3d8ab18d	0.067721464
80	0x3cd8c45d	0.02646082
81	0xbd3ae495	-0.04562815
82	0xbcbe1f3d	-0.023208255
83	0x3dad0bbc	0.08449504
84	0x3d25fd88	0.04052499
85	0xbdaf1128	-0.08548194
86	0xbd63cef6	-0.055617295
87	0x3d2afd59	0.041745517
88	0x3d940d34	0.07229081
89	0xbd2e6414	-0.04257591
90	0xbcfeec67	-0.031118585
91	0x3d2aab69	0.041667376
92	0x3c418fcf	0.011814072
93	0xbd521d7f	-0.05129766
94	0x3d420754	0.04737027
95	0xbccbc7d5	-0.02487556
96	0xbd3a7039	-0.04551718
97	0x3c928f22	0.017890517
98	0xbd65aaae	-0.056070976
99	0xbd1813e3	-0.03712834
100	0xbdc15da1	-0.094416864
101	0xbd888112	-0.06665243
102	0xbbc236ec	-0.0059269574
103	0xbd04756a	-0.032338537
104	0x3d852249	0.0650068
105	0xbcec96f9	-0.028880583
106	0xbd7c0055	-0.061523754
107	0xbd2ec24a	-0.042665757
108	0x3cff2007	0.031143202
109	0xbc9e5642	-0.01932824
110	0xbd883bb0	-0.066520095
111	0xbd585ae5	-0.05282106
112	0xbd5da537	-0.05411264
113	0x3d081b8c	0.033229396
114	0x3d1d2d50	0.03837329
115	0xbcb0d29f	-0.021584807
116	0x3ccb3303	0.024804598
117	0x3d8c3e27	0.06847792
118	0x3d10ff2e	0.03539961
119	0xbd157721	-0.036490563
120	0xbd425a9e	-0.0474497
121	0x3bec5e3a	0.007213381
122	0xbc79ae38	-0.015239291
123	0xbd588c22	-0.052868016
124	0xbd5a2920	-0.053261876
125	0xbd1ffae2	-0.03905762
126	0xbd38a5bc	-0.04507993
127	0xbd10d189	-0.03535608
128	0xbdc52681	-0.09626485
129	0xbdc8eac8	-0.09810406
130	0xbd16623d	-0.03671478
131	0xbe411fcb	-0.18859784
132	0x3d70d20e	0.058794074
133	0x3d52b8a6	0.051445626
134	0xbe06f36e	-0.13178799
135	0x3d49a8a1	0.049233083
136	0xbdd9d2b3	-0.10635891
137	0x3d319dcf	0.04336339
138	0x3d538e8d	0.05164962
139	0x3d78e94f	0.060769375
140	0x3dbdc069	0.09265215
141	0x3d8e80a2	0.069581285
142	0xbdaec0a3	-0.08532836
143	0x3d636c03	0.05552293
144	0xbd737866	-0.059440993
145	0x3c62284d	0.013803554
146	0x3d10034c	0.035159394
147	0xbc152645	-0.009103362
148	0x3c839a24	0.01606471
149	0x3d52259c	0.0513054
150	0x3d24e01c	0.04025279
151	0xbd73e06d	-0.0595402
152	0xbdf89ed2	-0.121396676
153	0x3d2b07f3	0.041755628
154	0xbe235e37	-0.15953909
155	0x3dc8a11c	0.09796354
156	0xbd987145	-0.074434794
157	0xbc0138fd	-0.007887122
158	0x3dbf3cd9	0.09337778
159	0x3da6ea9d	0.08150218
160	0x3d49a257	0.049227085
161	0xbdd14cf3	-0.10219755
162	0x3d0ee66e	0.034887724
163	0x3d778ad9	0.06043515
164	0xbdac7215	-0.08420197
165	0x3e21ef9d	0.15814061
166	0xbd145513	-0.036213946
167	0xbc597f47	-0.013274974
168	0x3d096773	0.033545922
169	0xbd8fb311	-0.07016576
170	0x3e16e02e	0.14733955
171	0xbd9325e7	-0.07184964
172	0x3d426ff3	0.047470044
173	0xbd412746	-0.047156595
174	0xbdd52026	-0.104065225
175	0x3c357de8	0.011077382
176	0xbd996e1c	-0.07491705
177	0xbdf0b046	-0.117523715
178	0xbd4c7f90	-0.04992634
179	0xbd268b44	-0.040660158
180	0x3d9c23f8	0.07624048
181	0x3cdb102b	0.026741108
182	0xbdc5b672	-0.09653939
183	0xbdc7d99f	-0.09758305
184	0x3ba944b1	0.0051656594
185	0x3d53f1e4	0.051744357
186	0xbda82144	-0.0820947
187	0x3e19e235	0.15027697
188	0xbe091bb2	-0.13389471
189	0x3d7f0170	0.06225723
190	0xbe1c4d24	-0.15263802
191	0x3d268eef	0.040663656
192	0xbd395f2f	-0.04525679
193	0x3d27e9bc	0.04099439
194	0x3c0d0331	0.008606718
195	0xbcd5190d	-0.026012922
196	0xbded596b	-0.11589321
197	0xbd96fe33	-0.073727034
198	0xbddaec49	-0.10689599
199	0xbde7dd17	-0.113214664
200	0x3d10f4bf	0.035389658
201	0x3e05965c	0.13045639
202	0xbdd5b1c6	-0.10434298
203	0x3d77de5d	0.060514797
204	0x3dc04bc9	0.09389455
205	0xbdb8d295	-0.0902454
206	0x3dbe6608	0.09296805
207	0xbda9f5a1	-0.08298803
208	0xbd2f5495	-0.042805273
209	0x3d447598	0.04796371
210	0x3cfe98d2	0.03107873
211	0xbe2d1d41	-0.1690569
212	0xbd9b7630	-0.07590902
213	0x3da1a6f3	0.07893171
214	0x3da7d6d6	0.081952736
215	0xbdac1a95	-0.084035076
216	0xbde959ca	-0.11394079
217	0x3d272808	0.04080966
218	0x3d4e7abe	0.050410025
219	0xbd4c4763	-0.049872767
220	0xbb088b88	-0.002083512
221	0x3d85ebc0	0.06539106
222	0xbda1ba92	-0.078969136
223	0x3cefc706	0.029269706
224	0x3d8efca3	0.069817804
225	0xbdc16656	-0.09443347
226	0x3d851a4a	0.06499155
227	0x3d63ff27	0.055663254
228	0x3dfcd82d	0.1234592
229	0x3de2871c	0.11060926
230	0x3cd9a1b6	0.026566368
231	0x3d462d15	0.048382837
232	0xbddb3f41	-0.10705424
233	0x3d1ea87e	0.038734905
234	0x3dc12462	0.094307676
235	0x3d10769e	0.035269372
236	0xbd83a37a	-0.06427665
237	0x3cfe9cee	0.03108069
238	0x3d9fea7e	0.07808398
239	0x3d82d8a6	0.06388979
240	0x3dad3b8e	0.08458625
241	0xbd23097a	-0.03980396
242	0xbdefaf88	-0.11703402
243	0xbbce59a4	-0.006297307
244	0xbd7bcffa	-0.06147764
245	0xbda441b0	-0.080203414
246	0xbd406225	-0.046968598
247	0x3d787e94	0.06066759
248	0x3d8376db	0.06419154
249	0x3ba56906	0.00504792
250	0x3cd5b3d1	0.02608672
251	0x3d841f80	0.06451321
252	0x3d95e126	0.07318334
253	0x3d4a87af	0.049445804
254	0x3d3abc81	0.045589928
255	0x3cdde07c	0.027084582

layer2.bias f4 [64]
0	0xbd109784	-0.035300747
1	0x39b76a2d	0.00034983587
2	0x3b2ed805	0.002667905
3	0xbc98926c	-0.018624507
4	0xbd846c3d	-0.06465957
5	0x3d808740	0.06275797
6	0x3ce30275	0.027711133
7	0xbb8b4419	-0.004250061
8	0xbc9d486d	-0.019199574
9	0x3d431b4c	0.047633454
10	0xb84310cf	-4.6507277e-05
11	0x3a038a43	0.0005017856
12	0x3e26872a	0.16262498
13	0x3ba179a7	0.004927832
14	0xbd2e7a2f	-0.042596992
15	0xbc097da5	-0.008391772
16	0xb9f6e109	-0.0004708844
17	0xbd066be7	-0.032817747
18	0xbce3abb7	-0.027791841
19	0xbc97d969	-0.018536286
20	0xbb824430	-0.0039754137
21	0xba5086d5	-0.0007954662
22	0x3d358c63	0.044323336
23	0xbb80ebf1	-0.0039343764
24	0xbb858549	-0.0040747267
25	0xbca94920	-0.020664752
26	0x3dc13848	0.09434563
27	0xbaaa308d	-0.001298444
28	0x3e6c8548	0.23097718
29	0x3cae6697	0.021289153
30	0xbc2fc323	-0.010727677
31	0xbaa421f5	-0.0012522327
32	0x3b29e6ab	0.0025924842
33	0xbc19a3de	-0.009377448
34	0x3b6f7dd0	0.0036543496
35	0x3c5f82a4	0.013641987
36	0xbb48a71b	-0.003061718
37	0xbc93c1ce	-0.01803675
38	0xbda105eb	-0.07862457
39	0x3a7496b8	0.000933032
40	0xbc3fb82d	-0.011701626
41	0xbd977ff2	-0.073974505
42	0xbc95bfe4	-0.018279977
43	0x3d586d47	0.05283859
44	0x3dfe167d	0.12406633
45	0xbc9405dd	-0.018069202
46	0x3d27264b	0.040808003
47	0xbc230480	-0.009949803
48	0x3e1ea46e	0.15492412
49	0xbb3a0953	-0.0028386905
50	0xba07bab9	-0.0005177665
51	0xbac0c6dd	-0.0014707703
52	0xbc30d40f	-0.010792746
53	0x3d0c6166	0.034272574
54	0xbb36360c	-0.002780321
55	0x3d1f11f9	0.0388355
56	0xbc68fbce	-0.014220191
57	0x3d123540	0.035695314
58	0xbc1610e7	-0.009159303
59	0xbe2c2457	-0.16810738
60	0x3c60784c	0.013700556
61	0x3d389751	0.04506618
62	0xbd1c4bcb	-0.03815822
63	0xbcbdf45b	-0.023187807

layer3.weight f4 [4, 64]
0	0x3de47988	0.11155993
1	0xbe3611e8	-0.17780268
2	0xbf10c95b	-0.56557244
3	0x3d48ec1c	0.049053296
4	0x3e9ddd5d	0.3083295
5	0xbda584b3	-0.08081951
6	0xbd8c94c1	-0.0686431
7	0xbdd4005b	-0.1035163
8	0x3d7535a6	0.059865616
9	0xbdd146b6	-0.10218565
10	0xbd7d3e7d	-0.06182717
11	0xbea683ea	-0.32522517
12	0x3ea39303	0.319481
13	0xbf0e9b3a	-0.55705607
14	0x3e19a87e	0.15005681
15	0x3cb6aaf5	0.022298316
16	0xbf02a8d5	-0.5103887
17	0x3ded4975	0.115862764
18	0x3dc090ca	0.09402616
19	0x3d64673f	0.055762526
20	0xbe1226c5	-0.14272602
21	0xbe149a61	-0.14512016
22	0xbd8b518f	-0.068026654
23	0xbd8b62b8	-0.068059385
24	0xbdde31b2	-0.108493224
25	0x3d60879e	0.054816835
26	0xbe0ce7d7	-0.13760315
27	0xbe4ee8b1	-0.20205952
28	0xbea351a8	-0.31898236
29	0xbd9441b4	-0.072390944
30	0x3cc28afd	0.023747915
31	0xbee7d4a9	-0.45279434
32	0xbe550331	-0.20801999
33	0x3cb23656	0.021754425
34	0xbe1d2440	-0.1534586
35	0xbf91455c	-1.1349292
36	0xbd9202d8	-0.07129449
37	0x3d391ce0	0.045193553
38	0x3f0b7c59	0.54486614
39	0xbea507dc	-0.3223256
40	0x3cf9378e	0.030421998
41	0x3faadc08	1.3348398
42	0x3d7dbe78	0.061949223
43	0xbda3e5e2	-0.08002831
44	0xbe381ad5	-0.17978986
45	0x3d6bef54	0.057601288
46	0xbd8df098	-0.06930655
47	0x3cdac062	0.026703063
48	0xbec5a953	-0.38605747
49	0xbe017874	-0.12643605
50	0xbdd275b2	-0.10276355
51	0xbe09f58d	-0.13472576
52	0x3d072863	0.0329975
53	0xbd8277cb	-0.06370505
54	0xbdb0b9d2	-0.086291924
55	0xbdb8e9f8	-0.09029001
56	0x3d330ac8	0.043711454
57	0xbdb34f55	-0.08755366
58	0x3cbf87a7	0.023380114
59	0x3fa368bd	1.2766339
60	0xbf8beb00	-1.0931091
61	0xbd8e814f	-0.069582574
62	0x3e1ca5ee	0.15297672
63	0x3da4c3a9	0.08045132
64	0x3ddc94dc	0.1077058
65	0xbe2c1092	-0.16803196
66	0xbf015331	-0.50517565
67	0x3d2f5f03	0.04281522
68	0x3ea7b1d5	0.32752863
69	0xbd7884c1	-0.06067348
70	0xbd8f53cb	-0.06998404
71	0xbdcac24d	-0.09900341
72	0x3d1e863c	0.038702235
73	0xbdcdeff0	-0.1005553
74	0xbd5ebc3c	-0.054378733
75	0xbe5491d6	-0.20758757
76	0xbf4d0bee	-0.8009633
77	0xbee0687c	-0.43829715
78	0x3e02b0c2	0.1276274
79	0x3c875d6a	0.016524035
80	0xbef06835	-0.46954504
81	0x3d6a8a6e	0.057260923
82	0x3da60438	0.081062734
83	0x3d8a8ff8	0.06765741
84	0xbe0ee843	-0.13955788
85	0xbe145ae7	-0.14487801
86	0xbd9e1911	-0.07719625
87	0xbd80f1be	-0.06296109
88	0xbdd98110	-0.1062032
89	0x3d0b9084	0.034073368
90	0xbdd011fe	-0.10159682
91	0xbe4856a2	-0.19564298
92	0xbeed1b0f	-0.46309707
93	0xbd97a0e1	-0.07403732
94	0x3c7b5600	0.015340328
95	0xbecdbab7	-0.40181515
96	0xbe3430b4	-0.17596704
97	0x3c6bf69e	0.01440206
98	0xbe21ca6a	-0.15799871
99	0xbfa3dc76	-1.2801654
100	0xbd82b365	-0.06381873
101	0x3d21bc59	0.039486263
102	0x3f09066e	0.53525436
103	0xbe976059	-0.29565695
104	0x3c988781	0.0186193
105	0x3fb47a1c	1.4099765
106	0x3d8b9110	0.06814778
107	0xbd769ca1	-0.060207967
108	0xbe0531c2	-0.13007262
109	0x3cdb0fbb	0.0267409
110	0xbd868110	-0.065675855
111	0x3c7e5c38	0.015524916
112	0xbea516fa	-0.32244092
113	0xbdf4f02c	-0.11959872
114	0xbdcd25ff	-0.10017013
115	0xbe06aae5	-0.13151129
116	0x3c8ecf20	0.01743275
117	0xbd5d708f	-0.054062422
118	0xbd9e1de8	-0.07720548
119	0xbdb877c4	-0.090072185
120	0x3d52cd99	0.051465604
121	0xbdb6d4e7	-0.08927327
122	0x3c8efca1	0.017454447
123	0x3fa443ed	1.2833229
124	0xbf80435b	-1.0020555
125	0xbd9b87ba	-0.07594247
126	0x3e015298	0.12629163
127	0x3d1f43e6	0.038883112
128	0x3e068de4	0.13140064
129	0xbe269631	-0.16268231
130	0xbf17731a	-0.59160006
131	0x3d767493	0.060169768
132	0x3ec878cc	0.3915466
133	0xbdac27df	-0.08406042
134	0xbd9d0e37	-0.07668727
135	0xbdcc701a	-0.09982319
136	0x3d8d0fbd	0.068877675
137	0xbe00bcf3	-0.12572078
138	0xbd85c36e	-0.06531416
139	0xbea7d867	-0.3278229
140	0x3eaa88c2	0.33307463
141	0xbf065b34	-0.52482915
142	0x3e5074ab	0.20357005
143	0x3cbbf277	0.022942765
144	0xbee9ced0	-0.45665598
145	0x3e0331f0	0.12812018
146	0x3dfdb980	0.12388897
147	0x3d9d8cd0	0.076928735
148	0xbe1f4236	-0.15552601
149	0xbe0a9c23	-0.13536124
150	0xbdaed9f8	-0.08537668
151	0xbd88c1ed	-0.066776134
152	0xbdd87af0	-0.105703235
153	0x3d783dd0	0.060605824
154	0xbe22c70b	-0.15896241
155	0xbe3ce08e	-0.18445036
156	0xbe9c49fb	-0.30525193
157	0xbd956135	-0.072939314
158	0x3cdb327b	0.02675747
159	0xbed59644	-0.41716206
160	0xbe5892e4	-0.21149784
161	0x3cc25bfc	0.023725502
162	0xbe308bb9	-0.172408
163	0xbfaa55c8	-1.3307428
164	0xbd884545	-0.06653837
165	0x3d4465a8	0.04794851
166	0x3f1ddf05	0.61668426
167	0xbe9e1cf2	-0.3088146
168	0x3d046ce8	0.032330424
169	0x3fa77c77	1.3084859
170	0x3dae9c0d	0.08525858
171	0xbdb34ba8	-0.08754665
172	0xbe4ea74b	-0.20181005
173	0x3d5fdba4	0.054652825
174	0xbda014ac	-0.07816443
175	0x3d04caed	0.032420088
176	0xbeaaf1a3	-0.3338748
177	0xbdf3a649	-0.11896951
178	0xbdc68de6	-0.09695034
179	0xbe08768b	-0.1332647
180	0x3d002f7f	0.031295296
181	0xbd962518	-0.07331294
182	0xbdac5ae5	-0.08415774
183	0xbdd41052	-0.10354675
184	0x3d826530	0.06366956
185	0xbdd3a9a9	-0.103350945
186	0x3cdb4451	0.026765974
187	0x3f99f575	1.2028033
188	0xbf785c2d	-0.9701565
189	0xbda8a8ea	-0.08235343
190	0x3e2d1e3a	0.16906062
191	0x3dad05a9	0.08448345
192	0x3dd8bccc	0.10582885
193	0xbe3cba74	-0.18430501
194	0xbf0e4f5a	-0.5558983
195	0x3d2c97c7	0.042136934
196	0x3e8ebea0	0.2787981
197	0xbd9d4a05	-0.07680134
198	0xbd7d3d94	-0.061826304
199	0xbdbe00c2	-0.09277488
200	0x3d60b9ef	0.05486482
201	0xbda3704a	-0.07980402
202	0xbd68dd0d	-0.056851435
203	0xbea154c7	-0.31509992
204	0x3e9ffd67	0.31248018
205	0xbefe55d6	-0.49674863
206	0x3dce4080	0.10070896
207	0x3cd71f81	0.02626014
208	0xbf018c12	-0.50604355
209	0x3dc0200c	0.093811125
210	0x3d98ca02	0.07460405
211	0x3d2450a4	0.040115967
212	0xbe0de6e4	-0.13857609
213	0xbe1d7f43	-0.15380578
214	0xbd761337	-0.06007692
215	0xbd79ae8f	-0.060957488
216	0xbdb9c9fc	-0.090717286
217	0x3d5db1a5	0.054124493
218	0xbe0040c4	-0.12524706
219	0xbe5861be	-0.21131036
220	0xbea625dc	-0.3245076
221	0xbd897ed8	-0.06713647
222	0x3cba4ecf	0.022742657
223	0xbee17907	-0.4403765
224	0xbe55fcc8	-0.2089721
225	0x3cbd1fce	0.023086455
226	0xbe21113b	-0.15729229
227	0xbf94f574	-1.1637406
228	0xbd95b086	-0.0730906
229	0x3d4c5895	0.049889166
230	0x3efe85de	0.49711508
231	0xbea1b1dd	-0.3158101
232	0x3d0f3b71	0.034968797
233	0x3fade3ea	1.3585179
234	0x3d3a14ad	0.045429874
235	0xbd9c004f	-0.07617246
236	0xbe3a6782	-0.18203548
237	0x3d569a53	0.05239327
238	0xbd6c0bb1	-0.057628337
239	0x3ca7f077	0.020500405
240	0xbed2430b	-0.41066775
241	0xbe007a14	-0.12546569
242	0xbde06018	-0.109558284
243	0xbe1110dd	-0.14166589
244	0x3d1878c4	0.037224546
245	0xbd6aa2eb	-0.057284277
246	0xbda9d4a9	-0.08292515
247	0xbda5a130	-0.08087385
248	0x3d20b26d	0.03923266
249	0xbda45fec	-0.08026108
250	0x3cbf74a5	0.02337105
251	0x3fa72f17	1.3061246
252	0xbf84d4ab	-1.0377401
253	0xbd85e472	-0.06537713
254	0x3e0eccbd	0.13945289
255	0x3d8ab653	0.06773057

layer3.bias f4 [4]
0	0xbdb124b0	-0.08649576
1	0xbda41bbc	-0.080131024
2	0xbdbf07b3	-0.093276404
3	0xbdb5a7ba	-0.08869882
