models/model_1/1900_policy_net.pt (torch, 85400 bytes, 6 tensors)

layer1.weight f4 [128, 94]
00000000: e014 5bba aee0 fd3c 5c15 0ebc 2ff9 e93b
00000010: 26a5 a0bd 927d 25bb c22a 063d 0a99 34bc
00000020: 116c 493c fef0 cb3c d610 203d 47ae 4ebd
00000030: 5b04 34bd 0093 be3a 8b3f 923b 7902 8cbc
00000040: 257f ddbb c1bf d9bd 5e1e 623c 0d21 333d
00000050: 3057 92bc 9e72 4fbc 35d1 64bc 594e 97bc
00000060: acd6 ca3c 35dc 253d b66c dbbb e171 063d
00000070: 4d66 86bd 3f20 acbd fc14 df3c 3c2a 883c
00000080: bc7c 1bbc 821c 1cbc e40f f8ba be3e 2cbd
00000090: 554a 153c de81 f1bb abe7 2dbd ab05 2cbd
000000a0: 2448 29bc f21a 57bc 5aba 1e3c 2a62 33bd
000000b0: 112a e83c 8d2d 69bd 4985 51bd aa41 f23c
000000c0: d97c 003d 32c4 2f3d 38bd c03a 47ce b93c
000000d0: 610c 55bb 3d33 e6bc 0e2f 4fbc d176 ba3c
000000e0: c8b6 493d 78fc b73d 6c8b 77bb 6f07 08bd
000000f0: 827d 863d c1a0 823b edbb 8c3b 9eb9 07bb
00000100: be07 ae3c 2140 dc3c 44c4 15bd f460 ddbb
00000110: 0a35 13b9 1d4f ffbc 3bd1 4abd 4866 8cbd
00000120: aa11 33bd ad54 8ebb 34bd e83b 47c2 603c
00000130: b9f2 4cbc ed0d 563c e94d ae3c 5c90 0c3c
00000140: 76fc 25bc 4459 65bc b4f4 763c 20e7 09bc
00000150: 8f02 a83c 17d1 7e3c af91 ccba a531 eabc
00000160: 3d3f 73bc 8e59 0cba c4ab 64b9 a0f3 1bb9
00000170: 26d6 003a 7a69 b439 fd5e b139 c450 45bc
00000180: dc04 143c c3fa a03c 44e5 29bd d00d e03a
00000190: ad60 043d 972f 8d3c 711f 1dbc 68c4 40bd
000001a0: e7cb 3a3d cd14 18bb e5f6 093c 129f 6c3d
000001b0: cc69 af3c 54d0 463d 2576 313d fad1 3abd
000001c0: 42c3 1cbd 5e79 093d 520c a0bd b9bc 163d
000001d0: fa02 cdbc 44d1 5c3c 3c67 eb3c e716 773c
000001e0: f68d 20ba a728 6dbc eb52 60bc 1dad 83bd
000001f0: c52a 98bc 82ce aebc 4d93 2e3c 2dac fc3c
00000200: 9497 143d f06e 83bc 2f87 99ba 6769 1f3c
00000210: 4961 3f3c 08fb a13c 5b18 ea3c 68ca d8bb
00000220: 954e 133c 0b88 c4bc f22d 04bd 6a57 5dba
00000230: 457e 173a 31bc cc3b 768f ef3a ea5e c6bc
00000240: a0d3 243c 31d7 8dbb e15e 85bc c85d 833c
00000250: ef7f a43b aa6f 1c3b 28e9 f7bc d1b8 89bc
00000260: a135 073b c3ae 86ba 0fff 773c 547b 3dbc
00000270: 3ae0 193a 9ddf 863a c131 d7bb d667 15bc
00000280: c9e4 e13c 8f35 d73b 62ae c1bc bf34 8f3c
00000290: 68f2 2a3c 6e36 543c e1ad 813b d24e 96bc
000002a0: a4f1 833c 5a70 673b 8a73 0b3d 5792 293c
000002b0: ec23 00bd ee92 c5bb 8664 c0bc 5bca e0bc
000002c0: 8cb6 a33c b36d 9fbb 9bd9 983c 2ae5 b0bc
000002d0: de72 e5bb 2c44 363c 047a 8b3b 5052 fb38
000002e0: cf1d dab9 e5ca 00ba 2960 b437 bc88 6239
000002f0: 2665 39bc 2a3d 3c3c ad0a 213c 3e1c 103a
00000300: b8ef e43a b4e4 e8bb a737 3f3c 1aad a2bb
00000310: a3e5 033c 7675 08bd ebaa 78bc 6815 2bbd
00000320: 8ca9 0f3b 8021 cabc 254c 42bc 095d 58bc
00000330: 953c a9bc e1da afbb aa93 b23c 285e 14bc
00000340: 47bb 64bc fcc8 633c 799a b43c 686b 0ebc
00000350: c9f2 07bd acc8 86bc 6416 af3c cfac 5e3b
00000360: 37bc 5abc 77d7 6bbb 8800 ac3c 7d23 e83c
00000370: 29aa 953c a995 e13c 6299 fd3b d013 7a3b
00000380: 8013 453c ce92 16bd c4c9 653c d987 03bb
00000390: 123d afbc cb02 993b 5616 c4bb 6b97 29bc
000003a0: 83e4 a0ba 7685 be3b 548f 89bc 7b92 303c
000003b0: ab35 eabc 3acc 003d 7880 303d 3ebe 8cbc
000003c0: 3351 963c df7e 103c 5660 493b e10d 343c
000003d0: 098a d2bc 36e3 003d 63f4 bf3c b42b 423c
000003e0: 9e20 85bc 14bf 9e3c a755 27bc 2698 01ba
000003f0: 4ab0 b1ba 3a99 723c 2b64 a63b 9f72 8e3a
-0.00083572976 0.030990925 -0.008672085 0.0071403007 -0.078439996 -0.0025251848 0.03275562 -0.0110228155
0.012293831 0.024895187 0.039078556 -0.050459173 -0.043949466 0.0014539659 0.0044631413 -0.017091023
-0.0067595416 -0.10632277 0.013801185 0.04373269 -0.01786384 -0.012661604 -0.0139658945 -0.018469976
0.024760567 0.04049321 -0.006696309 0.032823447 -0.06562481 -0.08404588 0.027231686 0.016621701
-0.009490188 -0.009528281 -0.0018925634 -0.042052023 0.00911196 -0.0073702177 -0.042457264 -0.041997593
-0.010332141 -0.013128983 0.009687984 -0.04379479 0.028340371 -0.056928206 -0.0511525 0.029572327
0.031369064 0.042911716 0.0014704829 0.022681369 -0.00325086 -0.028100604 -0.012645496 0.022761734
0.04924658 0.089837015 -0.003777231 -0.033210214 0.065669075 0.0039864485 0.0042948634 -0.0020710002
0.021243926 0.026886048 -0.036564127 -0.0067559425 -0.00014038771 -0.031165654 -0.049515944 -0.06855446
-0.043718018 -0.0043435902 0.007102633 0.013718194 -0.0125090415 0.013064844 0.021277385 0.00857934
-0.010130992 -0.013998333 0.01507299 -0.008416921 0.020509033 0.015552781 -0.0015607382 -0.028588125
-0.01484662 -0.0005353921 -0.00021807762 -0.0001487271 0.0004914723 0.00034410862 0.00033830843 -0.012043182
0.009034362 0.019650823 -0.04147841 0.001709396 0.03231876 0.017234607 -0.009590016 -0.047062308
0.045604613 -0.0023205758 0.008420681 0.05776889 0.021412753 0.04853852 0.043325562 -0.045610406
-0.03827215 0.03356301 -0.0781485 0.036801074 -0.025025833 0.013477627 0.02873575 0.015081144
-0.00061246695 -0.014475024 -0.013691644 -0.06429503 -0.018575082 -0.021338705 0.010655236 0.030843819
0.03627737 -0.01604411 -0.0011713261 0.00972972 0.011680909 0.019773021 0.028576067 -0.0066159256
0.008990903 -0.023990652 -0.03227038 -0.00084435067 0.00057790085 0.00624802 0.0018277008 -0.02421518
0.010060221 -0.0043286313 -0.016280593 0.01603593 0.0050201337 0.0023870268 -0.030262545 -0.01681176
0.002063133 -0.0010275472 0.015136494 -0.011565048 0.0005869899 0.0010290031 -0.0065672104 -0.009118995
0.027574914 0.006567664 -0.023642723 0.017481206 0.010433771 0.01295243 0.0039574956 -0.018348131
0.016106434 0.003531477 0.034045734 0.010349832 -0.031284258 -0.0060294783 -0.023485433 -0.02744024
0.019984506 -0.004865372 0.01865845 -0.021593649 -0.0070022186 0.011124652 0.0042564888 0.000119839446
-0.0004160241 -0.0004913046 2.150245e-05 0.00021603977 -0.01131562 0.011489192 0.009829205 0.00054973725
0.0017466461 -0.0071073417 0.011670983 -0.004964483 0.008050355 -0.033315144 -0.015177469 -0.04176846
0.0021921126 -0.024674177 -0.011858975 -0.013205775 -0.02065877 -0.0053666686 0.021798927 -0.009055652
-0.013960666 0.013902899 0.022046315 -0.0086926 -0.033190522 -0.01645311 0.021372981 0.0033977514
-0.013350538 -0.0035986581 0.020996347 0.028337235 0.018269615 0.027537184 0.007739232 0.0038158782
0.012028575 -0.036761098 0.014025155 -0.0020069985 -0.021391425 0.0046695224 -0.005984108 -0.010351042
-0.0012275133 0.0058142496 -0.016791977 0.010777111 -0.028590044 0.031444766 0.043091267 -0.017180558
0.018349266 0.008819311 0.0030727587 0.010989637 -0.025700586 0.031466685 0.023431962 0.01185124
-0.016250905 0.019378223 -0.010213292 -0.00049436314 -0.0013556567 0.01480704 0.005077859 0.00108679

layer1.bias f4 [128]
00000000: 6cb4 133b 4bae ed3b f27c b1bb 91ef 32bc
00000010: f3c1 a03a f45e ca3a 776e 11bb 8be8 e3bc
00000020: 397c 23bc e062 a43a 27cf bdbb 5cd6 e6bb
00000030: 1971 ccbb d47d d83a 434b 4fbb 3f97 6738
00000040: e949 0abd 5914 2d3c 1c1f 3a3d f4e1 5ebd
00000050: df44 8c3c 1d93 823c cf08 123c 05df 003b
00000060: 21cb 62bc 0b0f 1fbb 432d 94bb 4a97 4cbc
00000070: 6c1c 4dbc a9d1 87bd 3691 3abc daab 19bc
00000080: 4374 8f3c 03f1 d2bb 1b71 be3b 5a54 aa3b
00000090: 68d9 e23b 5f94 66bd 7f30 48bc e7de b8bc
000000a0: ebb4 e83b 4067 90bc 9e64 03bd 30ab dfbc
000000b0: 488f 163d 3471 4e3c dd13 b73b 5e57 233c
000000c0: b374 c5bb 2fa9 563c 36c6 f4bb e33d 95bc
000000d0: 9cb6 cfbb 9438 483a 6a0e 8b3b 990c 9bbc
000000e0: 2847 0a3d ef61 5c3c 2c47 503c e428 e8bc
000000f0: c489 00bb d8c9 b03b b3fd f6bc a38b 503c
00000100: 06e4 6a3b f5e3 913c 82b4 003e cca9 6ebc
00000110: b8a7 32bd 6d97 6d3b 1703 41bc dce4 e3ba
00000120: 84fe 8a3c be77 c4bb 1cc7 013d 1f96 793b
00000130: 3525 6a3c acc2 33bd 0d2e 03bb 696c e0ba
00000140: 06e2 afbc e4cc 413a 2261 523b 3a5a bcbc
00000150: 1fb8 13bc cded b8bb cec0 e23b 7dd7 49bc
00000160: 62d0 cfbc 6ece 303c 4a02 a9bb 888d 2cb8
00000170: 576c 5e3e 3699 e73c 5f49 dfbc b782 743c
00000180: daee f0bc 0210 b13b b1e5 dabc 8745 c53b
00000190: c5b9 4d3b 7c23 d8bc 7efa 7fbc d719 e33a
000001a0: cb1c 0fbd 40a6 daba f862 f4bc 66de 803d
000001b0: ffd2 c3bb 529a 063c 6f42 84bc cf2a 98bc
000001c0: 10d6 1d3c 35d5 e5bb bdfc 373d dd9e 2a3e
000001d0: 74d2 a2b9 35bc 7dbc 7f87 3abc 40c5 e83b
000001e0: 6d76 913c bbf0 883b 7797 02bd b665 63bc
000001f0: 47b6 88bb 8de0 d1ba 8226 a1ba 397b f03b
0.002253796 0.0072534434 -0.005416506 -0.010921375 0.0012264833 0.0015439675 -0.0022191086 -0.027820846
-0.009978347 0.0012541674 -0.0057925167 -0.0070445966 -0.006239068 0.0016516992 -0.0031630553 5.521555e-05
-0.033761892 0.010563933 0.045439824 -0.054414704 0.017122684 0.01593929 0.008913233 0.001966418
-0.013842375 -0.002427044 -0.004521997 -0.012487242 -0.012518983 -0.066317864 -0.01138716 -0.0093793515
0.017511493 -0.0064374222 0.005811823 0.005198044 0.0069228895 -0.05629384 -0.012218594 -0.022567226
0.007101645 -0.017627358 -0.032078378 -0.027303308 0.036757737 0.012600232 0.0055870847 0.00996956
-0.0060258745 0.01310186 -0.0074699176 -0.018217986 -0.0063389074 0.00076378253 0.0042436616 -0.018926905
0.033759266 0.013451084 0.012712281 -0.02833981 -0.0019613365 0.0053951554 -0.03015027 0.0127286045
0.003584148 0.017808894 0.12568858 -0.01456685 -0.04361698 0.0036253587 -0.011780522 -0.0017386931
0.016967066 -0.0059957197 0.031684026 0.0038083864 0.014291097 -0.043886825 -0.0020016462 -0.0017122152
-0.021470081 0.0007392897 0.0032101353 -0.022992242 -0.009016066 -0.0056435824 0.0069199568 -0.012319443
-0.02536792 0.010791404 -0.0051577436 -4.1139807e-05 0.21721016 0.028271299 -0.027256666 0.014923743
-0.029410768 0.0054035196 -0.026720854 0.006020251 0.0031391245 -0.026384108 -0.015623687 0.0017326426
-0.03493957 -0.0016681626 -0.029832348 0.06292419 -0.0059760804 0.008215504 -0.01614496 -0.0185751
0.009633556 -0.0070139416 0.044918764 0.16662164 -0.00031055848 -0.015486767 -0.011384844 0.007103592
0.017756665 0.004179088 -0.03188273 -0.01387923 -0.00417212 -0.0016012356 -0.0012294801 0.007338908

layer2.weight f4 [64, 128]
00000000: 5e49 683d bc7f ed3c 492f f33c fdb8 ae3d
00000010: eabc 4abd c33c 34bd 702d b33d b2d0 e7bc
00000020: 918a 2e3d 2ec1 15bd db5f 50bd 7e3a 40bd
00000030: 5c43 66bd e555 28bd 1971 1b3d 6ecb 30bd
00000040: b581 e43c 2241 d63c f44e 16bd e4af f23c
00000050: b582 893c b0ce 22bd 0049 c3bc 6889 ae3c
00000060: db09 1c3d 800a dcbb da08 893d f6da b9bd
00000070: 4bcd 463d 1e38 bf3c 0e25 a7bd 725a 47bd
00000080: f9db 0cbd b2d2 953d 9dd9 aabc a9c2 3dbd
00000090: ab62 033d ef96 05be 2731 f63c a144 be3c
000000a0: f13b ecbc f3c1 613d 273b c4bd a53c 983c
000000b0: 6090 41bd b67b f93c 5036 493d 993c 9f3c
000000c0: 38f8 653d 2da2 933d b8f5 1a3d ff4a f43c
000000d0: 12b9 65bd 94e3 f7bc f42d fc3c 30e4 593d
000000e0: 0c42 a0bb 985a 76bd 94bf ea3c 06d3 8ebd
000000f0: 1991 f93c 3201 76bd e620 af3d d616 0fbd
00000100: 8d61 093d 2adc 0cbd 230b 3dba 2443 dd3c
00000110: 0034 7c3d 6211 2d3d b9c4 c13d 5c72 1a3d
00000120: 4d53 e7bc b555 d7bd ab4e 2d3d e1cd 67bd
00000130: e110 84bd 24f0 fc3c e114 65bd 9faf 8a3d
00000140: c393 d83c 15d7 3abd a8d4 bdbc 8e37 ad3d
00000150: 1908 263d 6618 afbd 68ef 63bd c413 2b3d
00000160: da10 943d 8460 2ebd d4e3 febc 0ab4 2a3d
00000170: 7a2a 423c 69f8 51bd 8006 423d f5d9 cbbc
00000180: cb5f 3abd 6e07 933c 75a0 65bd e71c 18bd
00000190: f02d c1bd d069 88bd 71e3 c1bb f063 04bd
000001a0: 2717 853d 35b0 ecbc 06ea 7bbd f0b2 2ebd
000001b0: 5f2d ff3c ac6f 9ebc ae28 88bd 603c 58bd
000001c0: 6a66 5dbd 1706 083d b8ff 1c3d 5c5f b0bc
000001d0: 3561 cb3c c71c 8c3d 25fe 103d bf78 15bd
000001e0: 4678 42bd 3418 ec3b f5c3 79bc fc82 58bd
000001f0: 230d 5abd 29df 1fbd c698 38bd bdc4 10bd
00000200: 9311 c5bd 4ad5 c8bd 0764 16bd c62b 41be
00000210: 8be0 703d 52d5 523d 06de 06be 769f 493d
00000220: 08c0 d9bd 3890 313d 826b 533d 7dcf 783d
00000230: eeaa bd3d 687a 8e3d b1c6 aebd 2c6b 633d
00000240: 1a7c 73bd f578 623c 36ed 0f3d eef3 14bc
00000250: 3dba 833c f601 523d 02d8 243d 50d1 73bd
00000260: b884 f8bd 8d00 2b3d 1277 23be 26a0 c83d
00000270: 0162 98bd e25b 01bc 6631 bf3d 4ceb a63d
00000280: e595 493d c843 d1bd e5dc 0e3d 227f 773d
00000290: b260 acbd 9bf1 213e 2854 14bd 0e90 59bc
000002a0: ca5d 093d 04a1 8fbd 88d8 163e 4125 93bd
000002b0: d389 423d 361e 41bd 961c d5bd fee6 353c
000002c0: 776a 99bd 10ae f0bd 6362 4cbd 9284 26bd
000002d0: 4a12 9c3d a701 db3c e9b6 c5bd 80d1 c7bd
000002e0: 514f a93b 5802 543d 9e2b a8bd 4fd8 193e
000002f0: 5618 09be 3af9 7e3d 3495 1cbe 2ead 263d
00000300: 1260 39bd 0dee 273d 5efd 0c3c 7431 d5bc
00000310: 0f3b edbd aef8 96bd ebd4 dabd 6400 e8bd
00000320: e4f8 103d 269f 053e 2eaf d5bd 6ccd 773d
00000330: a126 c03d c6dc b8bd 6a4b be3d 52e6 a9bd
00000340: 4523 2fbd b279 443d 745b fe3c 221d 2dbe
00000350: 4f6b 9bbd 089c a13d 45d8 a73d 1421 acbd
00000360: b263 e9bd b61d 273d 956d 4e3d cb4d 4cbd
00000370: e678 08bb 8ad6 853d cab2 a1bd 18a9 ef3c
00000380: 8def 8e3d d679 c1bd d40c 853d 22f5 633d
00000390: cea9 fc3d 1770 e23d e297 d93c f425 463d
000003a0: c62d dbbd e8a9 1e3d ba20 c13d 0f62 103d
000003b0: efa0 83bd 619c fe3c dfd2 9f3d fac9 823d
000003c0: b927 ad3d cff5 22bd df93 efbd 12b6 cebb
000003d0: ced1 7bbd 1025 a4bd 7362 40bd d076 783d
000003e0: 5079 833d 8290 a53b e7b3 d53c 2820 843d
000003f0: 11d5 953d 2d74 4a3d 3fa5 3a3d a3cb dd3c
0.056710593 0.028991573 0.029685633 0.085313775 -0.04949657 -0.04400326 0.08748901 -0.028297756
0.042612616 -0.036561184 -0.050872665 -0.046930782 -0.056216583 -0.04109754 0.037949655 -0.043162756
0.02789388 0.026154105 -0.03669639 0.029624887 0.016785959 -0.039747894 -0.02383852 0.021305755
0.038095336 -0.006715119 0.066911414 -0.090749666 0.048535626 0.023342188 -0.081613645 -0.04867024
-0.03438947 0.073155776 -0.02085572 -0.04632822 0.03207652 -0.13045858 0.030052735 0.023226084
-0.028837176 0.055116605 -0.09581595 0.018583605 -0.047256827 0.030454498 0.049124062 0.019438075
0.056144923 0.07208667 0.037831992 0.029820917 -0.0560847 -0.030259885 0.03078363 0.053196132
-0.004890686 -0.06014499 0.028655805 -0.06973843 0.030464696 -0.060059734 0.08551197 -0.034933887
0.033540297 -0.034389652 -0.00072114373 0.027009554 0.06157303 0.042252906 0.0946135 0.037706718
-0.028237963 -0.10514394 0.04231135 -0.056592826 -0.06448532 0.030876227 -0.055928115 0.06771778
0.026437646 -0.045615274 -0.023172691 0.08457862 0.040535066 -0.085495755 -0.055648237 0.041766897
0.07229777 -0.042572513 -0.031114496 0.041675605 0.0118509475 -0.051262293 0.04736948 -0.024884203
-0.04550151 0.017947879 -0.056061227 -0.03713694 -0.0943259 -0.06660807 -0.0059170057 -0.03232187
0.064985566 -0.028892616 -0.06150248 -0.042651117 0.031149564 -0.019340359 -0.06648384 -0.052791953
-0.054052748 0.033208933 0.03832981 -0.021529846 0.024826625 0.06841426 0.03539862 -0.036492106
-0.047477983 0.0072050337 -0.015244474 -0.05285929 -0.053235184 -0.03903118 -0.04506757 -0.035343874
-0.09622493 -0.09806307 -0.036716487 -0.18864354 0.05880789 0.05147297 -0.13170633 0.04922434
-0.1063233 0.04335043 0.0516162 0.06074475 0.09261118 0.06956941 -0.08533991 0.05552213
-0.059444524 0.013822784 0.03513833 -0.0090913605 0.016080016 0.0512714 0.040245064 -0.059525788
-0.12134689 0.041748572 -0.1596339 0.09796171 -0.07440568 -0.007895442 0.09335594 0.08150348
0.049215216 -0.10218006 0.03487863 0.060423978 -0.08416881 0.15814821 -0.03621307 -0.013278974
0.03353671 -0.07013133 0.14731038 -0.0718484 0.04749472 -0.047147952 -0.10405843 0.011102436
-0.0749101 -0.1175195 -0.049898516 -0.040653773 0.07620676 0.026734186 -0.09654028 -0.09756756
0.005166926 0.051760048 -0.08211444 0.15023921 -0.1338819 0.0622494 -0.15291291 0.0406925
-0.045257635 0.040998507 0.008605329 -0.026024558 -0.1158353 -0.07371651 -0.10685142 -0.113281995
0.03539361 0.13048992 -0.104338035 0.06049864 0.09382368 -0.09026484 0.09291728 -0.08295883
-0.042758245 0.04796762 0.031049468 -0.16905645 -0.07588827 0.07891089 0.08195547 -0.08404747
-0.113959685 0.04079982 0.050397474 -0.049878877 -0.0020824014 0.06535061 -0.078954294 0.029255435
0.069792844 -0.094470665 0.064965874 0.0556537 0.12337075 0.11056536 0.026561681 0.04837604
-0.1070209 0.038736254 0.0943007 0.035249766 -0.0642718 0.031080427 0.07803892 0.0638618
0.08454842 -0.039785203 -0.11698126 -0.0063083256 -0.061479382 -0.080148816 -0.04696889 0.060660183
0.06419623 0.005052627 0.02608676 0.06451446 0.0731603 0.0494272 0.045567747 0.02707464

layer2.bias f4 [64]
00000000: 577b 10bd 8515 af39 6c09 2b3b 827e 98bc
00000010: 5167 84bd 1a62 803d 2cce e23c 43fc 8bbb
00000020: 7e39 9dbc 05f9 423d e64b 60b8 4ff3 8e39
00000030: 6fcc 263e 278a a03b 7f88 2ebd ac52 09bc
00000040: 78b6 fbb9 9d49 06bd 4772 e3bc cfc3 97bc
00000050: 70af 82bb 2111 50ba 366f 353d c235 81bb
00000060: d192 85bb 6132 a9bc b505 c13d ffc3 acba
00000070: ab40 6c3e 652e ae3c 5a92 2fbc 037b a4ba
00000080: 7ae6 263b 1d6c 19bc 53d4 713b 6c54 5c3c
00000090: 5a62 4abb c1b7 93bc 21ce a0bd 0529 753a
000000a0: 5b97 3fbc 5e20 97bd 1aa3 95bc 9a2a 583d
000000b0: 02bc fd3d a1fc 93bc 4208 273d e2db 22bc
000000c0: 055b 1e3e a549 3cbb 584c 0bba 7235 c2ba
000000d0: 0492 30bc 693f 0c3d 6e3f 36bb a6ee 1e3d
000000e0: e6ed 68bc 0313 123d 16e1 15bc 4731 2cbe
000000f0: 8170 5f3c 7e76 383d ac22 1cbd d0cf bdbc
-0.035273876 0.00033394634 0.0026098145 -0.018615011 -0.064650185 0.062687114 0.027686201 -0.0042720153
-0.019192453 0.047600765 -5.3476448e-05 0.0002726563 0.16288923 0.0048992815 -0.04261064 -0.008381527
-0.000480104 -0.032785047 -0.027764453 -0.018525986 -0.003988199 -0.0007937123 0.044295512 -0.003943176
-0.00407634 -0.020653905 0.09424917 -0.001318097 0.23071544 0.021262357 -0.010716045 -0.0012548867
0.0025466965 -0.009364155 0.0036900237 0.013447862 -0.0030881376 -0.018031957 -0.07851816 0.00093521207
-0.011693801 -0.073792204 -0.01826625 0.052775003 0.12389375 -0.018064799 0.04077936 -0.009940119
0.15464409 -0.002873042 -0.00053138053 -0.0014816953 -0.010777 0.03424016 -0.0027808803 0.03880181
-0.014216876 0.035662662 -0.009147903 -0.16815673 0.013637663 0.045034878 -0.038119003 -0.023170382

layer3.weight f4 [4, 64]
00000000: 6379 e43d 8b08 36be a2c2 10bf 2bea 483d
00000010: 14e0 9d3e f45d a5bd 7d7c 8cbd a1f3 d3bd
00000020: 682f 753d f81d d1bd 2330 7dbd 5f7c a6be
00000030: 4c97 a33e 4395 0ebf 0ba5 193e d0a4 b63c
00000040: 40a4 02bf 0746 ed3d 318d c03d 2264 643d
00000050: db1f 12be 6e93 14be 8637 8bbd 0f5c 8bbd
00000060: 9a26 debd 9d81 603d c0c8 0cbe 87db 4ebe
00000070: 9433 a3be 9329 94bd ea82 c23c 38cc e7be
00000080: 05fa 54be b62e b23c f91c 1dbe 2740 91bf
00000090: effa 91bd 291a 393d 947b 0b3f fd00 a5be
000000a0: d12e f93c f8d9 aa3f 00ba 7d3d 5dc2 a3bd
000000b0: 7eec 37be 4fe9 6b3d b0d6 8dbd bfb4 da3c
000000c0: 2a89 c5be ed71 01be ed69 d2bd e0ee 09be
000000d0: 5822 073d 8d60 82bd ddb0 b0bd bdc7 b8bd
000000e0: 7407 333d 332e b3bd 0180 bf3c 1967 a33f
000000f0: 91e5 8bbf 5d67 8ebd 44a5 1c3e 65bf a43d
00000100: 588f dc3d a005 2cbe 304c 01bf da58 2f3d
00000110: 02b2 a73e e45b 78bd 2241 8fbd 59b4 cabd
00000120: a480 1e3d 2bd4 cdbd 60ae 5ebd 4888 54be
00000130: 9aff 4cbf f55c e0be 8aad 023e d156 873c
00000140: 005c f0be 0f85 6a3d 8700 a63d b68b 8a3d
00000150: 69e0 0ebe e551 14be a104 9ebd c0e8 80bd
00000160: 3874 d9bd 828c 0b3d d3f1 cfbd e848 48be
00000170: b7f6 ecbe 918e 97bd bc4a 7b3c 49af cdbe
00000180: 9426 34be 81eb 6b3c 08c1 21be d1d5 a3bf
00000190: 8eaa 82bd 48b6 213d a506 093f 9b58 97be
000001a0: b880 983c 6e78 b43f 558c 8b3d 6e77 76bd
000001b0: 031a 05be c607 db3c 7b6f 86bd 3552 7e3c
000001c0: e5fe a4be abe1 f4bd 2b17 cdbd 92a2 06be
000001d0: aec9 8e3c 3054 5dbd 4f14 9ebd c15f b8bd
000001e0: 66c6 523d b8bd b6bd 4ff6 8e3c f046 a43f
000001f0: e93c 80bf aa73 9bbd 1050 013e ef3f 1f3d
00000200: 828a 063e 339f 26be 3a79 17bf c368 763d
00000210: 9a74 c83e 6171 acbd cb37 9dbd a279 ccbd
00000220: b007 8d3d 68e0 00be 3bc2 85bd 21e1 a7be
00000230: 06b1 aa3e 785e 06bf b06f 503e 70e5 bb3c
00000240: 8bda e9be 7629 033e 3cad fd3d c686 9d3d
00000250: 1445 1fbe b79e 0abe 6305 afbd 26c2 88bd
00000260: 3a7e d8bd 892f 783d a001 23be 49ef 3cbe
00000270: 117c 9cbe cd8b 95bd e622 db3c 2d9d d5be
00000280: 4696 58be 3a4e c23c e68c 30be 3f65 aabf
00000290: 6b45 88bd 3b5c 443d 7de0 1d3f 0124 9ebe
000002a0: d562 043d 3b7b a73f b192 ae3d 628e b3bd
000002b0: 630a 4fbe becb 5f3d fb3d a0bd 51c1 043d
000002c0: 6b23 abbe f9ab f3bd 3c93 c6bd cc78 08be
000002d0: a125 003d 9349 96bd 9e5c acbd 124f d4bd
000002e0: 4d5e 823d ede3 d3bd 7934 db3c 68f3 993f
000002f0: 7e6c 78bf 61d6 a8bd 4e18 2d3e 8bfa ac3d
00000300: b2ac d83d 44b5 3cbe d44f 0ebf dd89 2c3d
00000310: 1cb6 8e3e 8940 9dbd a630 7dbd e4fb bdbd
00000320: 88a8 603d 4a65 a3bd 75d6 68bd 2d55 a1be
00000330: 811f a03e 4951 febe b231 ce3d 890f d73c
00000340: fc8a 01bf c910 c03d 15bc 983d 4543 243d
00000350: 51e5 0dbe bf7b 1dbe 0aff 75bd 93a5 79bd
00000360: 58c5 b9bd 6da0 5d3d 7037 00be 105f 58be
00000370: f71d a6be 8379 89bd 9f40 ba3c 3175 e1be
00000380: ccf7 55be bf10 bd3c 460d 21be fbf7 94bf
00000390: 05ab 95bd 1f49 4c3d 397d fe3e 3cb0 a1be
000003a0: d92e 0f3d ede4 ad3f 8a05 3a3d c6f8 9bbd
000003b0: 5b5f 3abe 9389 563d 99f8 6bbd 7ee1 a73c
000003c0: d43d d2be d575 00be bd58 e0bd 380c 11be
000003d0: 686c 183d 4795 6abd a4cf a9bd 6a97 a5bd
000003e0: c3a4 203d d057 a4bd b064 bf3c de28 a73f
000003f0: fbd4 84bf b6d9 85bd cbc2 0e3e f6aa 8a3d
0.11155965 -0.17776696 -0.56546986 0.049051445 0.3083502 -0.08074561 -0.06859682 -0.10349203
0.059859663 -0.10210794 -0.061813485 -0.32516763 0.31951368 -0.55696505 0.15004365 0.022295386
-0.51031876 0.11585622 0.0940193 0.055759557 -0.14269964 -0.14509365 -0.067977 -0.06804668
-0.108472064 0.05481111 -0.13748455 -0.2020093 -0.31875288 -0.07234492 0.023744065 -0.45272994
-0.207985 0.02175079 -0.15343083 -1.1347703 -0.0712794 0.045190964 0.5448544 -0.32227316
0.030417832 1.3347769 0.06194496 -0.07996056 -0.17961308 0.057595547 -0.06925714 0.026697515
-0.3858121 -0.12641115 -0.1027411 -0.1347003 0.032991737 -0.06366072 -0.08627484 -0.09022472
0.04370828 -0.08749046 0.023376467 1.2765838 -1.0929433 -0.06953309 0.15297419 0.08044318
0.10769528 -0.16799021 -0.5050688 0.042809345 0.32752997 -0.06063451 -0.06994845 -0.0989768
0.0386969 -0.100502335 -0.054365516 -0.20755112 -0.8007752 -0.4382092 0.12761512 0.01652089
-0.4694519 0.0572558 0.08105569 0.06764929 -0.13952793 -0.14484365 -0.07715727 -0.062943935
-0.1061787 0.034069546 -0.10153546 -0.19559062 -0.46281978 -0.07400239 0.015337642 -0.40172794
-0.17592841 0.01439941 -0.15796292 -1.2799627 -0.06380187 0.039480478 0.53525764 -0.29559788
0.018616065 1.4099252 0.068138756 -0.06017249 -0.12998204 0.026737105 -0.06564232 0.015522529
-0.3222572 -0.11957105 -0.100141846 -0.13147953 0.017430153 -0.054035366 -0.07718717 -0.090026386
0.05145874 -0.08922905 0.017451433 1.2834148 -1.0018588 -0.075904205 0.12628198 0.03887933
0.13138774 -0.16271667 -0.5916935 0.060158502 0.3915146 -0.08420063 -0.07676657 -0.09984137
0.06886232 -0.12585604 -0.06531187 -0.32788947 0.33338183 -0.524879 0.20355105 0.022936553
-0.45674548 0.12808785 0.123865575 0.076917216 -0.15553695 -0.13537107 -0.08545949 -0.06677656
-0.10570951 0.060592208 -0.15918589 -0.18450655 -0.30563405 -0.073020555 0.02675004 -0.41721478
-0.21151075 0.023718942 -0.17241248 -1.3312148 -0.066538654 0.04793952 0.61670667 -0.30886844
0.032320816 1.3084482 0.08524073 -0.08767392 -0.20218806 0.054637663 -0.07824322 0.032410923
-0.3342546 -0.118980356 -0.096960515 -0.1332733 0.031285886 -0.07338252 -0.08416103 -0.10366644
0.06365643 -0.10346208 0.02675842 1.2027407 -0.97040546 -0.082440145 0.16903803 0.08446225
0.10579814 -0.18428522 -0.5559056 0.042123664 0.27873313 -0.07678325 -0.061813973 -0.0927656
0.054848224 -0.07978304 -0.056845147 -0.31510296 0.31274036 -0.4967139 0.100680724 0.026252525
-0.506027 0.093782015 0.07457749 0.040103216 -0.13857009 -0.15379237 -0.060057677 -0.06094892
-0.090708435 0.054108072 -0.12521148 -0.21130013 -0.32444736 -0.0671263 0.022735892 -0.44034722
-0.20895308 0.023079274 -0.1572772 -1.1638178 -0.0730801 0.04987442 0.49704912 -0.3157977
0.034956787 1.3585488 0.04541544 -0.07615809 -0.18200438 0.052377295 -0.057610128 0.020493265
-0.41062796 -0.1254495 -0.109544255 -0.14164817 0.03721276 -0.05727127 -0.082915574 -0.080855206
0.03921963 -0.080245614 0.023363441 1.3059347 -1.0377496 -0.06535666 0.13941495 0.067708895

layer3.bias f4 [4]
00000000: a7cb b0bd f020 a4bd fa78 bfbd 68aa b4bd
-0.086325936 -0.08014095 -0.09349246 -0.08821565
