models/model_2/nets/0_policy_net.pt (torch, 46970 bytes, 6 tensors)

layer1.weight f4 [128, 19]
0.2011288 0.19700141 0.0011955947 -0.20245501 -0.06852354 -0.18084009 -0.05532843 0.15931414
0.09309636 0.12668316 0.18104418 -0.21998559 -0.11719464 0.22407459 0.07002117 0.08127861
-0.13634653 0.16380586 0.16122372 -0.029983863 -0.0028271526 -0.18832807 -0.202163 0.1519788
-0.092375994 -0.004790053 -0.049571455 0.069142714 0.15139328 -0.22229107 -0.19263428 -0.19405545
0.11386238 -0.19648334 -0.19948554 0.062280104 0.19798262 0.11953403 0.09053151 0.05355127
-0.121634796 -0.21736227 0.0030851513 -0.06409481 -0.2085514 0.002801776 -0.12798607 -0.20845555
-0.17562653 -0.11470757 0.19818325 -0.18687466 -0.18965596 0.09443845 0.042474434 0.05501081
0.19116329 -0.08742179 -0.06826764 0.062756345 0.1331683 -0.009495258 0.14236315 0.0534942
-0.14257842 0.16781385 0.09392981 0.019723997 0.12831093 -0.010137558 0.11610873 -0.16159616
-0.18695359 0.120780125 -0.1941909 0.14458837 -0.17094874 0.1885782 -0.0067673028 0.21961324
0.20598306 0.059416577 -0.05319877 0.22371195 0.16803052 -0.021698013 -0.21256071 -0.15692228
-0.17895669 -0.07894851 -0.049083993 0.078826174 -0.022039294 -0.06425978 -0.09048134 -0.02234815
-0.1837398 0.15533324 0.15335684 -0.16639513 0.15246595 -0.043112293 -0.17685251 -0.1282166
-0.11665374 -0.17711371 -0.17422424 -0.16114268 0.06857 -0.12035825 0.1335661 -0.04731649
0.040801957 -0.0024823397 -0.18551211 0.07447402 0.19978942 -0.018174157 -0.10441406 -0.11933471
-0.1312496 -0.16808194 -0.21582477 0.12944488 0.17661531 0.020972446 0.09744789 -0.1095687
-0.04664199 -0.032564193 0.1045139 -0.18623975 0.034815088 -0.14568998 0.02861397 -0.12659083
-0.12984501 -0.09989497 0.227706 0.043080106 0.09727739 0.19903667 0.20234688 -0.042131215
-0.13854325 -0.12960021 -0.14751932 -0.19795096 -0.06815095 0.18188442 0.18580477 -0.13922817
0.13767631 0.09579773 0.040399954 -0.13156468 -0.19433446 -0.09754719 -0.22870645 -0.106026255
0.19997309 -0.22676998 -0.044564307 -0.11662302 -0.084146455 0.14085855 0.18105663 0.22358893
0.12581547 0.07623632 0.21245964 0.10166921 -0.19776148 0.023577586 -0.10889976 0.021459475
0.07746135 -0.09993239 -0.14140218 -0.1722042 -0.22804289 0.0805168 0.045017913 0.03408216
0.049944475 -0.036710232 -0.04834813 0.16279499 0.22098528 0.21461232 -0.103463426 -0.026281983
-0.020794809 -0.023695603 0.09863208 -0.12908663 0.0065303594 -0.13967726 -0.22533451 0.1980565
-0.060147822 -0.121792406 0.03161551 0.06091459 0.09232573 0.07096349 0.00044503808 -0.21990646
-0.10734147 -0.10537475 -0.19636607 -0.22348064 0.049660012 0.17488198 0.0469348 0.099361256
-0.08300705 0.09131111 -0.14056583 0.22535653 0.017066881 -0.003957495 -0.0746883 -0.15189628
-0.13063776 -0.20552641 0.21817176 0.09275235 -0.10155046 -0.053619117 0.039964482 -0.07015847
0.06825198 0.2032391 -0.08261226 -0.05725397 -0.086739525 0.05005826 -0.10207035 0.18002303
-0.15078834 0.21397157 0.046455935 0.012156099 -0.13540687 0.14668258 -0.016924828 0.12568004
0.12675391 -0.06048213 -0.10178034 -0.11053418 0.18544175 -0.07824454 0.11336176 0.11163072
00000000: b5f4 4d3e bdba 493e 80b5 9c3a 5e50 4fbe
00000010: 1256 8cbd 252e 39be 10a0 62bd 3f23 233e
00000020: 4ea9 be3d 3bb9 013e a563 393e e743 61be
00000030: be03 f0bd cf73 653e 4267 8f3d 6675 a63d
00000040: 6d9e 0bbe b9bc 273e d517 253e b8a0 f5bc
00000050: c047 39bb 13d9 40be d103 4fbe 55a0 1b3e
00000060: a02f bdbd e0f5 9cbb 700b 4bbd b29a 8d3d
00000070: d706 1b3e 45a0 63be ec41 45be 79b6 46be
00000080: ae30 e93d ee32 49be f045 4cbe 6c19 7f3d
00000090: f5bb 4a3e 42ce f43d 9668 b93d 9458 5b3d
000000a0: aa1b f9bd 3794 5ebe 4030 4a3b 2444 83bd
000000b0: 808e 55be 009e 373b c80e 03be 5f75 55be
000000c0: 71d7 33be cdeb eabd 8df0 4a3e 125c 3fbe
000000d0: 2c35 42be f268 c13d acf9 2d3d 0453 613d
000000e0: 4fc0 433e 320a b3bd e8cf 8bbd 6686 803d
000000f0: 455d 083e 0092 1bbc a5c7 113e bc1c 5b3d
00000100: 1400 12be 65d7 2b3e 465e c03d 3894 a13c
00000110: f163 033e 0018 26bc 6aca ed3d 7779 25be
00000120: c370 3fbe 925b f73d fbd9 46be f90e 143e
00000130: 300d 2fbe a51a 413e 40c0 ddbb 4be2 603e
00000140: 39ed 523e cc5e 733d f4e6 59bd bf14 653e
00000150: 3110 2c3e 08c0 b1bc 84a9 59be 3cb0 20be
00000160: 6c40 37be c2af a1bd 4c0c 49bd 9e6f a13d
00000170: c08b b4bc a29a 83bd 484e b9bd 7813 b7bc
00000180: 4926 3cbe ad0f 1f3e 9309 1d3e 7c63 2abe
00000190: 0920 1c3e 8496 30bd d318 35be 364b 03be
000001a0: 28e8 eebd 4c5d 35be d767 32be 9602 25be
000001b0: 6e6e 8c3d 637e f6bd 8dc5 083e f0ce 41bd
000001c0: f41f 273d c0ae 22bb e3f6 3dbe d685 983d
000001d0: 9995 4c3e f8e1 94bc 0ad7 d5bd c265 f4bd
000001e0: 4c66 06be ac1d 2cbe 2b01 5dbe 338d 043e
000001f0: a5da 343e 68ce ab3c c292 c73d 8e65 e0bd
00000200: ac0b 3fbd 0862 05bd 620b d63d a2b5 3ebe
00000210: 449a 0e3d c12f 15be d867 ea3c 07a1 01be
00000220: 17f6 04be bc95 ccbd c32b 693e c474 303d
00000230: 5e39 c73d 45d0 4b3e 0534 4f3e c891 2cbd
00000240: 48de 0dbe ebb5 04be 4e0f 17be a8b3 4abe
00000250: ba92 8bbd e93f 3a3e 9b43 3e3e d491 0ebe
00000260: 05fb 0c3e 9a31 c43d 6c7a 253d e4b8 06be
00000270: 9dff 46be d2c6 c7bd 0632 6abe 4b24 d9bd
00000280: bfc5 4c3e 6436 68be 1089 36bd 0dd8 eebd
00000290: fa54 acbd 393d 103e e966 393e 7ff4 643e
000002a0: c5d5 003e ca21 9c3d 058f 593e f237 d03d
000002b0: fc81 4abe c825 c13c d606 dfbd c8cb af3c
000002c0: 0ea4 9e3d 5aa9 ccbd bccb 10be 4c56 30be
000002d0: 1384 69be fee5 a43d b464 383d bc99 0b3d
000002e0: 9492 4c3d 785d 16bd b008 46bd bbb3 263e
000002f0: f749 623e 55c3 5b3e a2e4 d3bd 504d d7bc
00000300: e059 aabc 481d c2bc 9eff c93d 492f 04be
00000310: a0fc d53b 8e07 0fbe 17be 66be 53cf 4a3e
00000320: 905d 76bd 4c6e f9bd 447f 013d 9481 793d
00000330: 4615 bd3d 4e55 913d 0054 e939 292f 61be
00000340: d8d5 dbbd b8ce d7bd 3014 49be 1cd8 64be
00000350: 4c68 4b3d 4314 333e b43e 403d ea7d cb3d
00000360: 9aff a9bd 5201 bb3d 7df0 0fbe ddc3 663e
00000370: d8cf 8b3c e0ad 81bb 2ef6 98bd b38a 1bbe
00000380: e8c5 05be 8475 52be 6b68 5f3e f2f4 bd3d
00000390: b0f9 cfbd b89f 5bbd ccb1 233d 3eaf 8fbd
000003a0: b2c7 8b3d e91d 503e 9e30 a9bd 2483 6abd
000003b0: 7ea4 b1bd e409 4d3d 420a d1bd f557 383e
000003c0: 4268 1abe 5d1b 5b3e 9448 3e3d 602a 473c
000003d0: 19a8 0abe f533 163e f0a5 8abc 45b2 003e
000003e0: c7cb 013e 1cbc 77bd 3672 d0bd bf5f e2bd
000003f0: 71e4 3d3e ac3e a0bd 362a e83d a69e e43d

layer1.bias f4 [128]
0.09047459 -0.02206944 -0.12621778 -0.18567891 0.15154369 0.023971781 0.19901131 -0.119175784
-0.05494328 -0.036973655 0.038090095 -0.032746032 0.087428525 0.015712604 -0.049583897 0.21742167
-0.1251874 0.1821708 0.094600335 0.036501005 0.04310091 0.06285991 0.13857158 0.066625014
-0.08516176 -0.076444596 0.2078243 -0.12692282 -0.10115346 -0.21446754 0.09666358 -0.050511748
0.14699252 0.00825955 -0.00038839877 -0.15228015 0.158769 0.06927295 0.06850241 -0.1897607
0.10505845 -0.13771904 0.16357808 -0.13894196 -0.20567206 0.112051204 0.21012287 -0.059529647
-0.120795585 0.18148671 0.0031396896 0.076713964 0.10847013 -0.13891718 0.027169213 0.039688066
-0.05295725 0.028098688 0.0077762753 -0.16373447 -0.21527673 -0.0424539 0.19889815 -0.10884331
0.19273429 0.019743308 -0.12639546 -0.16297688 0.09712498 -0.14055112 -0.116741195 -0.20618424
-0.104034215 -0.18005712 0.07789345 -0.16939613 0.18117546 -0.119280994 -0.037872836 0.07500397
-0.045368 0.12441258 0.015519559 0.01807183 -0.12922587 0.06295733 0.07929267 -0.0147302
-0.21522613 0.102854446 0.17932893 0.055909142 0.1920519 -0.0143117905 -0.16377258 0.1591136
0.027791426 0.10947876 -0.1930418 0.19096176 -0.0125967115 0.2257676 -0.16290364 0.0588194
-0.22342262 0.07851727 0.0121378 -0.035103753 -0.19856754 0.08215 -0.016274422 -0.16921881
-0.15378526 -0.18608041 -0.011810914 -0.01568441 0.22761957 -0.11911084 -0.019362569 -0.021266341
-0.07808304 0.16895945 0.17338051 -0.06517218 0.19777478 -0.13957164 -0.20041685 -0.059017926
00000000: be4a b93d f8ca b4bc 3c3f 01be 9d22 3ebe
00000010: 452e 1b3e 7860 c43c 9fc9 4b3e 6f12 f4bd
00000020: 340c 61bd b071 17bd 5c04 1c3d b420 06bd
00000030: ba0d b33d b8b7 803c 7c18 4bbd c9a3 5e3e
00000040: 2031 00be fb8a 3a3e d2bd c13d 1482 153d
00000050: 948a 303d b2bc 803d b5e5 0d3e b272 883d
00000060: 4a69 aebd fc8e 9cbd e5cf 543e 0ef8 01be
00000070: 8c29 cfbd 619d 5bbe 8ef7 c53d 68e5 4ebd
00000080: 3585 163e 1053 073c 00a2 cbb9 54ef 1bbe
00000090: 5794 223e fade 8d3d fe4a 8c3d a150 42be
000000a0: e228 d73d 3806 0dbe 0381 273e cd46 0ebe
000000b0: b29b 52be 1a7b e53d 732a 573e 5cd5 73bd
000000c0: ad63 f7bd a7d7 393e 40c3 4d3b 361c 9d3d
000000d0: 9625 de3d 4e40 0ebe f891 de3c f48f 223d
000000e0: b4e9 58bd 382f e63c 20d0 fe3b 02aa 27be
000000f0: 8171 5cbe 24e4 2dbd f5ab 4b3e 3ee9 debd
00000100: 235c 453e b8bc a13c d06d 01be 69e3 26be
00000110: 76e9 c63d a2ec 0fbe 0216 efbd f621 53be
00000120: e40f d5bd e560 38be 9a86 9f3d 2e76 2dbe
00000130: 0f86 393e 9849 f4bd 8c20 1bbd ae9b 993d
00000140: ccd3 39bd 06cc fe3d c045 7e3c 600b 943c
00000150: c953 04be c6ef 803d 3264 a23d f056 71bc
00000160: 3d64 5cbe 5aa5 d23d 01a2 373e fc00 653d
00000170: 41a9 443e 007c 6abc 00b4 27be adee 223e
00000180: d8aa e33c 6636 e03d c0ac 45be 7b8b 433e
00000190: 7062 4ebc 9f2f 673e 36d0 26be 9cec 703d
000001a0: e6c8 64be aacd a03d a0dd 463c f4c8 0fbd
000001b0: 4a55 4bbe 423e a83d f051 85bc b247 2dbe
000001c0: e279 1dbe dd8b 3ebe 9082 41bc 987c 80bc
000001d0: 1b15 693e 62f0 f3bd 409e 9ebc c036 aebc
000001e0: 00ea 9fbd b503 2d3e a98a 313e fe78 85bd
000001f0: 7985 4a3e deeb 0ebe 133a 4dbe c8bc 71bd

layer2.weight f4 [64, 128]
-0.081266254 0.060652025 0.06850184 0.06662894 -0.039783042 0.01865071 0.018427499 -0.014563836
-0.044539724 -0.014111809 -0.0026760101 -0.042548213 -0.06542787 0.017948836 -0.03107623 0.045163028
-0.060825184 -0.05008884 -0.043460827 -0.008971505 0.017260611 -0.053087093 -0.06198024 -0.06464103
-0.018725157 -0.07910677 0.08094331 -0.06278452 -0.055864163 -0.08641151 -0.012647629 0.08793094
0.025942288 0.025570072 0.01350753 0.026345007 -0.0015124679 -0.05676839 0.046944387 -0.07931848
-0.049703483 -0.022805125 0.0064128935 0.0205044 -0.030746568 0.039495118 0.06929258 0.019322805
-0.0803265 -0.0043746233 0.036970012 -0.05897134 -0.0058942884 0.061118998 0.016710274 0.0607628
-0.06889311 0.065853916 0.070663325 -0.077991195 0.0052334666 -0.04760318 0.035283938 -0.08018932
0.07898421 0.00030128658 0.088362105 0.0012295321 -0.053048395 -0.034095295 0.034647077 0.03409899
-0.02017162 0.061070345 0.06985649 0.05141311 -0.08296308 0.024967127 0.030703917 -0.06720258
-0.03231912 0.013614967 -0.068183266 -0.07469332 0.0052069053 0.022949852 -0.07373292 -0.07754198
-0.037044488 0.0365514 -0.085791096 -0.031569064 0.063157625 0.06973729 -0.063621975 0.058952563
0.048629127 0.031184524 0.040353633 -0.056828387 -0.073572785 -0.07087265 0.043458007 -0.01984334
-0.019244544 0.07191221 0.083819054 0.002420254 0.027004614 0.08149501 -0.035053775 0.051272593
0.072402276 0.03745074 0.029067397 -0.0880905 -0.014228083 -0.014718831 -0.049340367 -0.03523727
-0.01513356 -0.03198692 -0.052018736 0.05937933 0.05907706 -0.019130506 -0.0572176 0.071443
0.06694668 -0.050904468 -0.051674027 -0.061254144 0.022150181 0.005017653 -0.04674212 0.04813119
0.02063334 -0.08464369 -0.012368523 0.021878615 -0.043715302 -0.05608401 0.059109546 0.008878939
-0.07268648 0.029582031 0.07635907 -0.07094833 -0.07745205 -0.017857775 -0.033636473 0.019456483
0.086900584 0.029833592 -0.03498102 0.036966182 0.02823405 0.077481516 0.0070772916 -0.06194494
-0.0021153912 -0.07367019 -0.0062387884 -0.015433356 -0.015287854 -0.05788187 -0.06324107 0.062164433
0.048354544 0.06419576 0.07261629 0.07465375 0.069574155 0.0033934116 0.021500811 0.05089935
-0.028692015 -0.011386253 -0.018523827 0.06222991 -0.06301199 -0.081487745 0.08123175 0.048848994
-0.043518916 -0.0144428685 -0.06777339 -0.0035514608 0.08145679 0.0530682 0.02764453 0.06479313
0.06008748 -0.07930743 0.018173985 -0.032687295 0.056374364 0.041538723 -0.074631274 -0.07554428
0.01831942 -0.04068059 0.0547475 0.0609354 -0.047929227 0.078737386 -0.00539618 0.006181933
0.014624082 0.06277325 0.018174343 0.029203743 -0.05530053 -0.06745798 -0.08669952 -0.020877756
0.00016444921 -0.023757368 -0.041412048 -0.006133832 -0.045547973 0.022951752 -0.047692634 0.07412789
0.06539614 -0.04276801 0.0438314 0.0039084107 0.043154888 -0.0700804 -0.022992931 -0.028392099
-0.037852757 -0.018828928 0.031180374 0.005537361 -0.049918685 -0.05949329 0.011581406 0.06777305
-0.005348496 0.08029655 -0.01715517 -0.016278185 0.054112546 -0.05520408 0.0029967874 -0.03750804
0.04542903 0.07249772 -0.04422906 -0.04858656 0.054035254 -0.081261754 -0.055008695 0.08342957
00000000: ec6e a6bd 426e 783d b14a 8c3d c174 883d
00000010: 8bf3 22bd 60c9 983c 44f5 963c 289d 6ebc
00000020: 496f 36bd 3835 67bc 0060 2fbb 0947 2ebd
00000030: 0cff 85bd 7009 933c 9493 febc defc 383d
00000040: d423 79bd f529 4dbd fb03 32bd 38fd 12bc
00000050: 2066 8d3c da71 59bd fede 7dbd 8462 84bd
00000060: 8065 99bc bb02 a2bd 9bc5 a53d 2c95 80bd
00000070: d2d1 64bd 85f8 b0bd 0038 4fbc 2315 b43d
00000080: ec84 d43c 5478 d13c b04e 5d3c 7cd1 d73c
00000090: 003e c6ba f985 68bd c248 403d ba71 a2bd
000000a0: e195 4bbd d0d1 babc 4023 d23b d8f8 a73c
000000b0: 3ae0 fbbc a2c5 213d 45e9 8d3d dc4a 9e3c
000000c0: 3882 a4bd 0059 8fbb de6d 173d ef8b 71bd
000000d0: e024 c1bb ea57 7a3d fce3 883c 6ae2 783d
000000e0: d517 8dbd 6bde 863d efb7 903d d9b9 9fbd
000000f0: 807d ab3b 8dfb 42bd e485 103d 4c3a a4bd
00000100: 79c2 a13d 00f6 9d39 31f7 b43d 4028 a13a
00000110: 4649 59bd 82a7 0bbd 18ea 0d3d 62ab 0b3d
00000120: f43e a5bc e624 7a3d eb10 8f3d 8e96 523d
00000130: 8ce8 a9bd dc87 cc3c c886 fb3c 82a1 89bd
00000140: 0e61 04bd 5011 5f3c aba3 8bbd d0f8 98bd
00000150: b09e aa3b 5401 bc3c 4901 97bd 54ce 9ebd
00000160: f6bb 17bd ecb6 153d 3eb3 afbd 904e 01bd
00000170: c958 813d 6dd2 8e3d 3d4c 82bd 3e78 713d
00000180: 562f 473d b076 ff3c da49 253d e2c4 68bd
00000190: 54ad 96bd ae25 91bd 0601 323d 808e a2bc
000001a0: bca6 9dbc b546 933d 53a9 ab3d 209d 1e3b
000001b0: c838 dd3c dbe6 a63d 8c94 0fbd 3603 523d
000001c0: a547 943d f265 193d c01e ee3c cb68 b4bd
000001d0: e81c 69bc 4027 71bc 2019 4abd f554 10bd
000001e0: c0f2 77bc b704 03bd 9911 55bd be37 733d
000001f0: cafa 713d 94b7 9cbc 015d 6abd b550 923d
00000200: 571b 893d 3481 50bd 25a8 53bd a0e5 7abd
00000210: 4c74 b53c 206b a43b aa74 3fbd 3625 453d
00000220: 4007 a93c ac59 adbd 58a5 4abc c83a b33c
00000230: d10e 33bd 59b8 65bd da1c 723d f878 113c
00000240: a6dc 94bd 0456 f23c 2562 9c3d 5c4d 91bd
00000250: 2e9f 9ebd 784a 92bc 66c6 09bd 3463 9f3c
00000260: eff8 b13d 9465 f43c 4248 0fbd da69 173d
00000270: 184b e73c a1ae 9e3d a0e8 e73b fab9 7dbd
00000280: 60a2 0abb 66e0 96bd c06e ccbb 30dc 7cbc
00000290: e879 7abc 8a15 6dbd 8984 81bd 22a0 7e3d
000002a0: 6a0f 463d 1179 833d d9b7 943d 11e4 983d
000002b0: e57c 8e3d 0064 5e3b 7822 b03c d67b 503d
000002c0: 840b ebbc 688d 3abc 48bf 97bc cae4 7e3d
000002d0: 6e0c 81bd 0ce3 a6bd d55c a63d e215 483d
000002e0: e440 32bd c8a1 6cbc c6cc 8abd a0bf 68bb
000002f0: d1d2 a63d 0a5e 593d c876 e23c 43b2 843d
00000300: 4a1e 763d ef6b a2bd 9ce1 943c 1de3 05bd
00000310: cee8 663d 8224 2a3d 48d8 98bd f6b6 9abd
00000320: 9c12 963c b1a0 26bd ea3e 603d 6697 793d
00000330: 7051 44bd 1141 a13d 70d2 b0bb d091 ca3b
00000340: d899 6f3c 438f 803d 5ce2 943c b03c ef3c
00000350: cf82 62bd 6927 8abd 858f b1bd d407 abbc
00000360: 0070 2c39 d09e c2bc ae9f 29bd 50fe c8bb
00000370: 8390 3abd 5005 bc3c 5a59 43bd 5dd0 973d
00000380: 69ee 853d 822d 2fbd 8e88 333d 2012 803b
00000390: 2ec3 303d 5086 8fbd ac5b bcbc 8c96 e8bc
000003a0: 7e0b 1bbd 203f 9abc fc6d ff3c c072 b53b
000003b0: 8977 4cbd 3caf 73bd f0bf 3d3c 99cc 8a3d
000003c0: 7042 afbb 8572 a43d 0089 8cbc d459 85bc
000003d0: 1ea5 5d3d ac1d 62bd c065 443b 08a2 19bd
000003e0: ca13 3a3d af79 943d 8829 35bd b302 47bd
000003f0: 1254 5d3d 906c a6bd cc50 61bd 1fdd aa3d

layer2.bias f4 [64]
0.07322303 -0.07240583 0.013806909 -0.009846188 -0.0016956702 0.041538768 -0.015232883 0.07116977
0.029591344 0.0006124377 0.027789779 0.01819849 -0.069528624 0.001451619 -0.07446416 -0.04425223
0.054341875 -0.033693023 0.020682804 0.009694733 0.018076323 0.051881157 0.014596097 -0.014038727
-0.035620376 -0.03276556 -0.033498 0.055302642 0.0091125 -0.015112087 0.01510153 -0.033241745
-0.07887557 -0.010163195 -0.02659522 0.01751846 0.025444165 -0.04776772 0.073377185 0.07553256
0.059741013 -0.061865084 -0.079952225 0.0037466884 0.043565802 -0.04478012 -0.07594552 0.004005939
-0.041022297 0.039058544 -0.08312 -0.052360684 0.05108563 0.03415843 -0.067845196 -0.01066599
0.02679541 0.031556726 -0.009066448 -0.04420711 0.071899705 -0.0024724305 0.017167032 0.08215941
00000000: f5f5 953d 8249 94bd 6036 623c e851 21bc
00000010: 4041 deba 8e24 2a3d 5893 79bc 75c1 913d
00000020: 8c69 f23c 008c 203a 64a7 e33c 0015 953c
00000030: 0665 8ebd 4044 be3a aa80 98bd d441 35bd
00000040: 9695 5e3d b201 0abd fc6e a93c a8d6 1e3c
00000050: cc14 943c 5681 543d 7824 6f3c b002 66bc
00000060: ace6 11bd 2e35 06bd 3335 09bd 0685 623d
00000070: 984c 153c b098 77bc 686c 773c 7f28 08bd
00000080: 8489 a1bd 8883 26bc 38de d9bc e082 8f3c
00000090: 4870 d03c 16a8 43bd c746 963d d1b0 9a3d
000000a0: feb2 743d 3e66 7dbd febd a3bd 008b 753b
000000b0: 0e72 323d 5c6b 37bd 5389 9bbd 4044 833b
000000c0: ff06 28bd dafb 1f3d d23a aabd 2878 56bd
000000d0: 2a3f 513d b6e9 0b3d 6cf2 8abd 68c0 2ebc
000000e0: 0c82 db3c a041 013d 708b 14bc 8412 35bd
000000f0: 2740 933d 8008 22bb e0a1 8c3c 3143 a83d

layer3.weight f4 [4, 64]
0.056494072 -0.052158922 -0.121960774 -0.08314973 0.09533717 0.06094478 -0.05228561 0.078620404
0.07108781 0.08579005 -0.032833204 -0.03839299 0.021392375 0.11147168 -0.04280418 -0.08605297
-0.0709015 0.11241923 -0.010038152 0.07831356 -0.03372778 0.015967682 0.094943896 -0.043401822
-0.00894177 -0.008614853 -0.04995349 0.07842305 0.07895675 0.06169443 -0.008420169 -0.04355304
-0.04889597 0.1067957 -0.025578499 -0.026348248 -0.071146935 -0.11567144 0.11088042 -0.10077135
-0.019687459 0.108049065 -0.009284392 -0.009269297 0.08961882 -0.06371939 0.04073122 0.06319295
-0.05775492 0.04737906 -0.10036403 -0.06581831 0.09736815 -0.06657034 -0.018344477 0.016210198
-0.08065064 0.06239593 0.04491666 -0.07219873 -0.023633763 0.08718355 0.10518214 0.092953816
0.106303945 0.03267224 0.034238026 -0.008121297 -0.1176216 0.10780391 -0.010642141 -0.05131799
0.0226793 -0.029904723 -0.110945836 -0.10301109 0.12194818 0.008939609 0.08348663 0.09558217
-0.026138097 -0.018649861 0.11594212 -0.11538176 -0.06562495 -0.06967062 0.047501773 -0.10511866
0.05385582 0.0078002214 0.023685172 0.027713954 0.071104825 -0.073786244 0.038202286 0.071425736
0.021116808 0.011668086 0.0031787902 -0.11845781 -0.0056314617 -0.12122394 -0.046249777 0.10041569
-0.050220817 0.00480476 0.009628937 0.05291021 -0.033278048 -0.0141239315 0.01056993 -0.0033501089
0.104530886 -0.032720834 -0.077821165 0.019563004 0.057525665 -0.097498626 0.0045339316 0.083498985
0.061714903 -0.060735926 -0.06265761 0.011058807 -0.108785704 0.06728156 -0.09331046 0.012994364
0.074669674 0.027833894 -0.058438167 -0.024206996 -0.07073124 0.07396726 0.0074900985 0.054786652
-0.107894 -0.09344602 -0.033620536 -0.113891795 -0.06319234 -0.11749029 0.020080373 -0.11797398
-0.11928928 0.09078683 0.02308689 -0.1032885 -0.11212751 0.113027185 0.06899409 -0.018910214
-0.09742707 -0.08016956 0.021749273 -0.012374029 -0.045343846 0.0012688041 0.115784645 -0.01806429
0.07470025 0.10890362 -0.06736322 -0.07853158 -0.06239073 -0.005683765 0.093652144 0.11750345
-0.02376704 0.1175164 0.043445185 0.06432937 -0.07883079 -0.04218608 -0.10424371 -0.010753989
-0.09022604 0.08419567 0.08782947 -0.06960189 0.011735216 0.06343506 -0.03793417 0.015812382
-0.06074086 -0.013249174 -0.031343043 -0.042410195 -0.018446669 0.035091832 -0.110024616 -0.121856764
-0.0891753 -0.0070914924 -0.12052347 0.08900255 -0.0913457 -0.11351088 -0.11333716 -0.08576575
0.09716575 -0.10171361 -0.080754295 0.01826626 0.06644471 0.10914749 0.12335044 -0.09434155
-0.012828425 -0.021642342 -0.010156721 -0.06376609 0.014823899 -0.06401192 0.0945556 -0.06854679
0.035313964 0.057645395 -0.1059545 0.060986042 -0.03441176 0.041448355 -0.07012038 -0.046504572
0.11920971 0.0819363 0.092303455 -0.07328062 0.06897025 0.055536464 -0.12125856 -0.11543916
-0.048868015 -0.0779707 0.085988134 0.079393566 -0.050768778 -0.037771612 -0.022988528 0.045669436
-0.10222611 0.07409762 0.02180624 -0.117129266 0.1000295 0.113735706 -0.11115429 -0.10402617
0.08386254 0.08765608 0.114288256 0.11993402 0.10265897 0.105192855 0.092060104 0.037685603
00000000: 5466 673d 98a4 55bd 92c6 f9bd 684a aabd
00000010: 2240 c33d 3ca1 793d 7029 56bd bc03 a13d
00000020: 7c96 913d b2b2 af3d 1c7c 06bd f841 1dbd
00000030: 103f af3c 444b e43d 7053 2fbd 8a3c b0bd
00000040: ce34 91bd 0e3c e63d 1077 24bc dc62 a03d
00000050: 2426 0abd a8ce 823c f271 c23d 1cc6 31bd
00000060: 8080 12bc 5025 0dbc 089c 4cbd 449c a03d
00000070: 14b4 a13d 4cb3 7c3d c0f4 09bc ac64 32bd
00000080: 2447 48bd b4b7 da3d 008a d1bc 48d8 d7bc
00000090: 7cb5 91bd 26e5 ecbd 4615 e33d 3661 cebd
000000a0: 9847 a1bc d448 dd3d 901d 18bc 40de 17bc
000000b0: 128a b73d 507f 82bd c8d5 263d 4e6b 813d
000000c0: 6c90 6cbd 8c10 423d a88b cdbd c0cb 86bd
000000d0: f468 c73d 0856 88bd 2847 96bc 40cb 843c
000000e0: 2a2c a5bd e092 7f3d 88fa 373d eedc 93bd
000000f0: 989b c1bc 4a8d b23d bc69 d73d 925e be3d
00000100: e2b5 d93d 54d3 053d 2c3d 0c3d 300f 05bc
00000110: 98e3 f0bd 4cc8 dc3d 605c 2ebc d032 52bd
00000120: f0c9 b93c c0fa f4bc 9237 e3bd 7af7 d2bd
00000130: f8bf f93d 7077 123c 0afb aa3d 96c0 c33d
00000140: 901f d6bc 98c7 98bc 1073 ed3d 464d ecbd
00000150: 6066 86bd 78af 8ebd 3891 423d 7448 d7bd
00000160: ec97 5c3d 0099 ff3b 6807 c23c 6008 e33c
00000170: 689f 913d 3e1d 97bd 007a 1c3d a847 923d
00000180: 28fd ac3c 802b 3f3c 4053 503b 029a f2bd
00000190: 2088 b8bb 4244 f8bd 6870 3dbd bea6 cd3d
000001a0: 58b4 4dbd 4071 9d3b b0c2 1d3c 60b8 583d
000001b0: 904e 08bd 1068 67bc 802d 2d3c 808d 5bbb
000001c0: 4a14 d63d 4806 06bd b460 9fbd 9842 a03c
000001d0: 08a0 6b3d 5cad c7bd 6091 943b 8401 ab3d
000001e0: c4c8 7c3d 3cc6 78bd a252 80bd 0030 353c
000001f0: 0acb debd eaca 893d 8e19 bfbd 50e6 543c
00000200: 6aec 983d e803 e43c dc5c 6fbd c04d c6bc
00000210: 8adb 90bd 267c 973d 806f f53b f867 603d
00000220: 88f7 dcbd a060 bfbd b0b5 09bd 1a40 e9bd
00000230: fc6a 81bd c09e f0bd 987f a43c 589c f1bd
00000240: f04d f4bd 72ee b93d b820 bd3c ec88 d3bd
00000250: 1ca3 e5bd cc7a e73d c64c 8d3d 98e9 9abc
00000260: d887 c7bd f02f a4bd 882b b23c 70bc 4abc
00000270: 78ba 39bd 004e a63a 8020 ed3d 90fb 93bc
00000280: 72fc 983d dc08 df3d baf5 89bd 2ad5 a0bd
00000290: 6c8d 7fbd e03e babb b2cc bf3d a6a5 f03d
000002a0: 18b3 c2bc 70ac f03d 94f3 313d 1ebf 833d
000002b0: 0a72 a1bd 50cb 2cbd ba7d d5bd 8031 30bc
000002c0: 6ec8 b8bd c86e ac3d f0df b33d 708b 8ebd
000002d0: 1045 403c 3eea 813d dc60 1bbd f888 813c
000002e0: 68cb 78bd 1013 59bc 9061 00bd 50b6 2dbd
000002f0: 781d 97bc 74bc 0f3d 9654 e1bd 0a90 f9bd
00000300: 8aa1 b6bd c05f e8bb 02d5 f6bd f846 b63d
00000310: 7413 bbbd 6478 e8bd 501d e8bd f4a5 afbd
00000320: d6fe c63d 3a4f d0bd 8262 a5bd 20a3 953c
00000330: 2a14 883d b888 df3d 289f fc3d 2436 c1bd
00000340: 502e 52bc 484b b1bc 6068 26bc cc97 82bd
00000350: f0df 723c ae18 83bd 5ea6 c13d 4262 8cbd
00000360: 60a5 103d 941d 6c3d acfe d8bd 80cc 793d
00000370: 58f3 0cbd c0c5 293d 469b 8fbd 947b 3ebd
00000380: 3824 f43d 38ce a73d 9809 bd3d 2614 96bd
00000390: 4640 8d3d 347a 633d 6856 f8bd 5e6b ecbd
000003a0: d429 48bd 1aaf 9fbd 8c1a b03d 1899 a23d
000003b0: ecf2 4fbd 68b6 1abd 7052 bcbc e00f 3b3d
000003c0: ec5b d1bd 7ec0 973d 00a3 b23c 78e1 efbd
000003d0: 44dc cc3d 44ee e83d dca4 e3bd ac0b d5bd
000003e0: 20c0 ab3d 0885 b33d f60f ea3d f89f f53d
000003f0: de3e d23d 5a6f d73d 028a bc3d 385c 1a3d

layer3.bias f4 [4]
0.00062838197 0.06358242 0.077873245 0.08432114
00000000: 00ba 243a 8037 823d 027c 9f3d 90b0 ac3d
