models/model_2/nets/1000_target_net.pt (torch, 47000 bytes, 6 tensors)

layer1.weight f4 [128, 19]
0	0x3cc6adc0	0.024252772
1	0x3e4df017	0.20111118
2	0xbdc13b3a	-0.09435125
3	0x3bca649c	0.0061765444
4	0xbcc53ce6	-0.02407689
5	0xbeb34def	-0.35020396
6	0xbcbf1948	-0.023327485
7	0xbd4c8a97	-0.049936857
8	0x3d02b56b	0.031911295
9	0x3ba2084b	0.0049448363
10	0xbc1e94fe	-0.009679077
11	0xb9fa6d88	-0.00047765323
12	0xbce79385	-0.028268585
13	0x3dbcca1f	0.09218239
14	0x3c293e75	0.010329832
15	0x3cce502a	0.02518471
16	0x3be4bbe9	0.0069804084
17	0xbcfc5959	-0.030804323
18	0x3d9da903	0.07698252
19	0xbd5234d5	-0.051319916
20	0xbcee6618	-0.029101416
21	0x3d14ea28	0.03635612
22	0x3cba660b	0.022753736
23	0x3e6a389c	0.22873157
24	0xbf19c696	-0.60068643
25	0x3cf653a0	0.030069172
26	0xbd646966	-0.05576458
27	0x3dea332c	0.114355415
28	0x3d15d692	0.036581583
29	0x3b800370	0.00390666
30	0x3cb40b8a	0.021978159
31	0xbd1e3f5a	-0.038634636
32	0xbcd42402	-0.025896076
33	0xbd5bf2c8	-0.05369833
34	0xbe104d47	-0.14091979
35	0x3dcccef3	0.1000041
36	0xbd810eef	-0.063016765
37	0xbd93111f	-0.07181
38	0x3d1ce529	0.03830448
39	0x3dc07027	0.09396391
40	0xbdba39ff	-0.09093093
41	0xbd9d48a1	-0.076798685
42	0xbda6bacd	-0.08141098
43	0x3db93fef	0.090453975
44	0xbe23bd76	-0.15990242
45	0xbd6f3fc8	-0.058410436
46	0xbcfedc18	-0.031110808
47	0x3d279313	0.040911745
48	0xbcdab566	-0.026697826
49	0xbd6af188	-0.05735925
50	0x3c9a370b	0.018825075
51	0xbd8ea404	-0.06964877
52	0xbc78369e	-0.0151497405
53	0x3d55d8b4	0.052208617
54	0xbd14a362	-0.036288626
55	0x3d0d885b	0.034553867
56	0x3d908e03	0.070583366
57	0xbd210c5a	-0.03931842
58	0xbd938780	-0.07203579
59	0x3e863e1c	0.2621926
60	0x3c230de5	0.009952043
61	0x3d9d6dc9	0.076869555
62	0x3ed05c58	0.40695453
63	0x3c902a14	0.01759819
64	0x3c9846c6	0.018588435
65	0xbdaa4d3e	-0.08315514
66	0x3aa507db	0.0012590842
67	0xb94318db	-0.00018605909
68	0x3c7a4f90	0.015277758
69	0x3a87a346	0.0010348342
70	0xbb9d2e0b	-0.0047967485
71	0xbd658c40	-0.056041956
72	0xbe12b8fe	-0.14328381
73	0xbd01b28d	-0.03166442
74	0xbdb6cdaa	-0.08925946
75	0xbd8a0beb	-0.067405544
76	0xbda39de6	-0.07989101
77	0xbb7e0287	-0.003875883
78	0xbdbb5034	-0.09146157
79	0x3d9ca8ae	0.076493606
80	0x3e449017	0.19195591
81	0xbc8b3e96	-0.016997617
82	0x3bfa11ba	0.0076315077
83	0x3d0b28b5	0.033974368
84	0x3d13f10b	0.03611855
85	0xbbc46b4b	-0.0059942356
86	0xbd0e7a11	-0.03478438
87	0xbce2498d	-0.027622962
88	0xbdb66c76	-0.08907406
89	0x3d868394	0.06568065
90	0x3d19b49b	0.037525754
91	0xbad8981c	-0.0016524824
92	0x3d39786b	0.045280855
93	0xbcfd6dc0	-0.030936122
94	0xbccfa992	-0.025349412
95	0xbc9823d8	-0.01857178
96	0xbdbeb892	-0.09312548
97	0x3deb2e03	0.114833854
98	0x3dc8b5bd	0.09800289
99	0xbd84dfe7	-0.064880185
100	0xbdffc5a0	-0.12488866
101	0xbd475888	-0.048668414
102	0xbdd20ffd	-0.10256956
103	0xbd8b1a71	-0.06792153
104	0xba9cb80e	-0.0011956708
105	0x3cbaf150	0.022820145
106	0xbc9ff097	-0.019523902
107	0xbc12bd6b	-0.008956294
108	0xbd30ff58	-0.043212265
109	0x3c57c9c5	0.013170664
110	0x3dab2762	0.08357121
111	0xbcb3a590	-0.021929532
112	0x3d47bead	0.048765827
113	0x3d6e71d2	0.058214016
114	0xbd86d883	-0.06584265
115	0x3e5165db	0.20449011
116	0x3cd4fb50	0.025998741
117	0x3be3da2c	0.0069534983
118	0xbd9cb65c	-0.0765197
119	0xbd592c8d	-0.053021003
120	0xbc957cc8	-0.018247977
121	0xbe1ada27	-0.15122281
122	0xbd20ddf2	-0.039274164
123	0x3d207de6	0.039182566
124	0x3c2bc224	0.010483298
125	0x3c8da87c	0.017292254
126	0xbc34f649	-0.011045047
127	0xbd0e3f18	-0.03472814
128	0xbc11f7b5	-0.008909156
129	0xbc7066d7	-0.014672956
130	0x3c832f6e	0.016013827
131	0xbccd6ae2	-0.02507538
132	0xbb9d8066	-0.004806566
133	0xbd7ad3ff	-0.06123733
134	0xbd0086a4	-0.031378403
135	0x3d010790	0.031501353
136	0x3ad9f569	0.0016628924
137	0xbd8c319a	-0.06845398
138	0x3ec454c9	0.38345936
139	0xbcc8d5d8	-0.024516031
140	0x3e19dc58	0.1502546
141	0xbdc2a12f	-0.095033996
142	0xbc88bbc4	-0.016691096
143	0x3b556dec	0.003256674
144	0xbb9fae76	-0.0048730923
145	0x3c767f5f	0.015045016
146	0xbcd6b54d	-0.026209498
147	0xbc80213b	-0.015640846
148	0xbcb9c6e6	-0.02267785
149	0xbc0eb317	-0.0087096905
150	0x3c88aa40	0.016682744
151	0xbcaef8fe	-0.021358963
152	0x3dd7ee36	0.10543482
153	0x3d85040c	0.064949125
154	0xbd8087f8	-0.06275934
155	0x3c09bb5c	0.008406486
156	0xbe426555	-0.18983968
157	0xbde91cab	-0.11382421
158	0xbd8713bc	-0.06595561
159	0xbd1d0407	-0.03833392
160	0x3cf6cbad	0.030126417
161	0x3c0f1cef	0.008734926
162	0xbcf3799d	-0.029721076
163	0xbe10de14	-0.14147216
164	0x3d3e8a7f	0.0465188
165	0x3e19b677	0.15011011
166	0x3c0a05fc	0.008424278
167	0x3c468afc	0.012118097
168	0xbda8245a	-0.082100585
169	0x3d0cf440	0.034412622
170	0x3d252098	0.040314287
171	0x3d57eef3	0.052718114
172	0x3d53a37e	0.05166959
173	0x3da73ecb	0.08166274
174	0x3c625a86	0.013815528
175	0xbe84c6ea	-0.2593301
176	0x3d1bcfed	0.03804009
177	0xbd86ce26	-0.065822884
178	0xbd80de57	-0.06292408
179	0xbd19be58	-0.03753504
180	0xbd45c075	-0.048279244
181	0x3d5609ea	0.05225555
182	0xbbbead2a	-0.0058189826
183	0xbcc24fde	-0.023719724
184	0xbc2e4ae7	-0.010637975
185	0x3b86a959	0.0041095433
186	0x3beb953a	0.00718942
187	0x3de77ea0	0.11303449
188	0x3e0c59dc	0.13706154
189	0x3daca677	0.08430188
190	0xbd2469c5	-0.040139932
191	0x3d2cf4a7	0.042225506
192	0x3c6108dc	0.013735022
193	0xbb84545b	-0.0040383763
194	0x3e120a4e	0.14261743
195	0xbec67151	-0.3875833
196	0x3cf5d620	0.03000933
197	0xbe3ec5f3	-0.18630199
198	0x3cd264c0	0.025682807
199	0xbc07f1cf	-0.008297398
200	0xbc0f2b53	-0.008738357
201	0x3c2976bc	0.01034325
202	0xbbe805a6	-0.0070807515
203	0x3c9395fb	0.018015852
204	0x3c4d0280	0.012512803
205	0x3d5cb664	0.05388488
206	0x3bab5652	0.005228796
207	0xbc2bab90	-0.010477915
208	0xbd083d9e	-0.033261888
209	0xbc251658	-0.010076128
210	0xbe7b74dc	-0.24556297
211	0xbec8f5ba	-0.39249974
212	0xb8927884	-6.98427e-05
213	0x39b72b7b	0.00034936875
214	0x3edc1150	0.42981958
215	0x3b3109ad	0.0027013824
216	0x3d80483d	0.06263778
217	0x3cfb2275	0.030656079
218	0xbc35185c	-0.011053171
219	0x3ceb2d27	0.028708054
220	0x39eb185f	0.0004484085
221	0xbc7c353d	-0.015393552
222	0xbb960416	-0.004578124
223	0xba0029d4	-0.00048890454
224	0x3d2d6be5	0.042339224
225	0xbd8c640f	-0.06855022
226	0x3d7002bb	0.058596354
227	0x3e5a0465	0.21290739
228	0x3ca47499	0.02007513
229	0xbe3b34e1	-0.1828189
230	0x3d2365ab	0.03989188
231	0xbb89f72e	-0.0042103743
232	0x3e2cede0	0.16887617
233	0x3e0fb437	0.1403359
234	0xbd9ead9b	-0.07747956
235	0x3ced86db	0.028994968
236	0x3caf5e22	0.02140719
237	0x3ba33799	0.004980993
238	0xbb501dd6	-0.0031756065
239	0x3ce33b17	0.027738137
240	0xbbee63ea	-0.0072750943
241	0xbdbdcbea	-0.09267409
242	0x3c9fbf73	0.01950047
243	0xbd59127c	-0.052996144
244	0xbcf50920	-0.029911578
245	0xbd412879	-0.04715774
246	0xbce09db5	-0.02741895
247	0x3de01e36	0.10943262
248	0x3cb9f073	0.022697663
249	0xbc429ea3	-0.011878642
250	0xbb8d719a	-0.004316521
251	0xbeb7d661	-0.35905746
252	0x3d67e5e5	0.05661573
253	0xbd1779bc	-0.03698133
254	0x3d04c0d2	0.03241045
255	0x3d81a311	0.063299306

layer1.bias f4 [128]
0	0x3cf959e8	0.030438378
1	0x3d9b9a17	0.0759775
2	0x3c6dfda3	0.014525804
3	0xbe0fcdcd	-0.1404335
4	0x3d2c1c2b	0.04201905
5	0x3dfd9bd1	0.12383235
6	0x3d155316	0.03645619
7	0xbe1b6b88	-0.15177739
8	0x3b6a09f9	0.003571151
9	0xbc0ead68	-0.008708335
10	0x3e175774	0.14779454
11	0x3c1419b4	0.009039331
12	0x3d53ff28	0.051757008
13	0x3d60dc57	0.054897632
14	0xbd91c170	-0.071169734
15	0x3da550d3	0.080720566
16	0xbd65eff3	-0.056137037
17	0x3d728664	0.059210196
18	0x3c47fc7a	0.012206191
19	0x3d5722e9	0.052523527
20	0xbd612c46	-0.054973863
21	0xbb83370d	-0.0040043653
22	0x3c771ff4	0.015083302
23	0xbd2b12bd	-0.041765917
24	0xbc89d050	-0.016822964
25	0x3d753094	0.05986078
26	0x3e1eb949	0.15500368
27	0xbbaa048c	-0.0051885303
28	0x3d2f5b2b	0.042811554
29	0x3c2c3aa5	0.010512029
30	0x3c53f342	0.012936415
31	0xbd5d519f	-0.054032918
32	0xbd7b3036	-0.061325274
33	0x3ace95de	0.0015761217
34	0x3d1466f5	0.036231
35	0xbd295926	-0.041344784
36	0x3d857d2f	0.065180175
37	0x3d2054cf	0.03914338
38	0xb8eae69f	-0.00011200946
39	0x3d1e2209	0.038606677
40	0xbc88476c	-0.01663562
41	0xbce0163c	-0.027354352
42	0x3e13815b	0.14404814
43	0x3d551aa2	0.052027352
44	0xbd81f72d	-0.06345973
45	0x3c5b16f9	0.013372176
46	0x3d459394	0.048236445
47	0xbe4f9327	-0.20270978
48	0xbe432426	-0.19056758
49	0x3d86390b	0.06553849
50	0x3ccf7698	0.025325105
51	0x3e07bc4e	0.13255426
52	0x3df1f84f	0.11814939
53	0x3d6a5a1b	0.057214838
54	0x3db92abc	0.09041354
55	0xbd057d5a	-0.032590248
56	0x3d1a9363	0.037738215
57	0x3d014feb	0.031570356
58	0x3d89f4ee	0.0673617
59	0xbd3216d1	-0.04347879
60	0x3d7c6651	0.061621014
61	0xbc860e17	-0.01636414
62	0x3d9035cb	0.0704151
63	0xbc847360	-0.016168296
64	0x3ce9d700	0.028544903
65	0x3c543a7f	0.0129534
66	0xbdf49030	-0.11941564
67	0xbe391a62	-0.1807647
68	0x3d8e3cc9	0.069451876
69	0xbd62f8ec	-0.05541317
70	0xbbe74e48	-0.0070588924
71	0xbe368299	-0.17823257
72	0xbdf88fba	-0.12136789
73	0x3a92d757	0.0011203092
74	0x3dee3b23	0.11632373
75	0x3cb8d6d2	0.022563372
76	0x3e4998e9	0.19687237
77	0x3de1331e	0.10996078
78	0x3dde64e8	0.1085909
79	0x3da36c1f	0.07979607
80	0x3ced6173	0.028977131
81	0x3da2b14b	0.07943972
82	0x3bc2ff49	0.0059508425
83	0x3d8a55dc	0.067546576
84	0xbd8f6fa8	-0.070037186
85	0x3d597ffa	0.053100564
86	0xbd784715	-0.060614664
87	0xbd1bfb7d	-0.038081635
88	0xbd19f9b1	-0.03759164
89	0x3d81c028	0.06335479
90	0xbd751df6	-0.059843026
91	0x3deadc06	0.114677474
92	0x3e3f006b	0.18652503
93	0xbce9c559	-0.028536486
94	0xbd9ecf90	-0.07754433
95	0x3d0fe718	0.035132498
96	0x3cf2dfd2	0.029647741
97	0x3dc6328c	0.0967761
98	0x3ca677b7	0.020320756
99	0x3e1c5007	0.15264903
100	0xbd5d237a	-0.05398891
101	0x3e037e23	0.12841086
102	0xbc187c5c	-0.009306993
103	0x3d23781f	0.03990948
104	0xbd4d9673	-0.050192308
105	0xbcdf8ac0	-0.02728784
106	0xbd1d35d9	-0.03838143
107	0x3d24814d	0.040162373
108	0xbdb2614f	-0.087099664
109	0xbd7014f4	-0.058613732
110	0x3c6c9642	0.014440121
111	0x3cd2d642	0.025736932
112	0xbced14bf	-0.028940557
113	0xbd11b11d	-0.0355693
114	0xbd5ce294	-0.05392702
115	0x3d5ce6da	0.053931095
116	0x3daa7fd8	0.083251655
117	0x3db4d961	0.08830524
118	0xbe43b0f0	-0.19110465
119	0xbd5d7bd6	-0.054073177
120	0xbbcce0d7	-0.006252389
121	0xbcb04f74	-0.021522261
122	0x3d6d2bfc	0.057903275
123	0x3d457842	0.04821039
124	0x3e387068	0.1801163
125	0xbdba4b41	-0.09096385
126	0xbdd50e17	-0.10403078
127	0x3ccbcbb2	0.024877403

layer2.weight f4 [64, 128]
0	0x3d289d58	0.04116568
1	0x39298692	0.00016167227
2	0xbe484918	-0.19559133
3	0xbe655a44	-0.22397715
4	0x3c336c6d	0.010951144
5	0x3d08d895	0.033409674
6	0xbd70e1ac	-0.058808967
7	0xbd6bc5b8	-0.057561606
8	0xbe54365a	-0.20723858
9	0x3db524e1	0.08844925
10	0xbf03f91e	-0.51552
11	0xbe02fcaf	-0.12791704
12	0x3c8ab21e	0.016930636
13	0x3ca75832	0.020427797
14	0x3cdc8d18	0.026922747
15	0x3c9b040b	0.018922826
16	0xbd25496f	-0.040353235
17	0x3b42bd71	0.0029714967
18	0x3d9e3ff6	0.07727043
19	0x3c90dff4	0.017684914
20	0xbceeb3a1	-0.029138388
21	0xbd93af04	-0.07211116
22	0x3c3a05ad	0.011353892
23	0xbe861d9d	-0.26194468
24	0xbb2bbab5	-0.0026203815
25	0xbdb74d50	-0.08950293
26	0xbb870e5d	-0.0041215853
27	0xbc7262a5	-0.0147940265
28	0xbd795f8c	-0.060882136
29	0x3dfa6c9f	0.12227749
30	0xbc3e889f	-0.011629253
31	0xbd030a66	-0.03199234
32	0xbd6873e8	-0.05675116
33	0xbdd71cb7	-0.10503524
34	0xbc5d30f8	-0.013500445
35	0x3c043aa0	0.008070618
36	0xbd25f335	-0.040515143
37	0xbe160258	-0.14649332
38	0xb9002531	-0.00012220886
39	0xbe595a75	-0.21225913
40	0xbcb579c5	-0.02215279
41	0xbe007d44	-0.12547785
42	0xbe0fcffc	-0.14044183
43	0x3da29c3d	0.07939956
44	0xbdc9c51f	-0.09852051
45	0x3c99e60c	0.018786453
46	0x3d940a70	0.07228553
47	0xbeb8729d	-0.36024943
48	0xbf2059ea	-0.626372
49	0x3dc72dd5	0.09725539
50	0xbca358e1	-0.019939842
51	0x3d502764	0.050818816
52	0x3d9c8d1a	0.076441005
53	0xbd32ec8b	-0.043682616
54	0x3da55637	0.08073085
55	0xbb421a83	-0.0029617853
56	0xbe274280	-0.16333961
57	0x3e133958	0.14377344
58	0x3d346331	0.04403991
59	0xbd995d0c	-0.074884504
60	0x3e28568b	0.16439264
61	0xbd3c1901	-0.045922283
62	0x3d82b026	0.06381254
63	0xbc84634e	-0.016160633
64	0xbc5a8556	-0.013337454
65	0x3db91545	0.0903726
66	0xbe15b951	-0.14621474
67	0xbe07a3fe	-0.13246152
68	0xbe67153d	-0.22566696
69	0x3da8b448	0.08237511
70	0x3cd2f4e6	0.025751542
71	0xbe007685	-0.12545212
72	0xbe79b323	-0.24384741
73	0x3d080ced	0.033215452
74	0x3dbf0f64	0.093291074
75	0x3d87132a	0.06595452
76	0xba134ba5	-0.0005618877
77	0xbf86a066	-1.05177
78	0xbec43e23	-0.38328657
79	0x3df613bc	0.12015483
80	0x3e4271cc	0.18988723
81	0x3da1fb2d	0.07909236
82	0xbe4bbaf4	-0.19895536
83	0x3db125ab	0.08649763
84	0x3d922072	0.07135095
85	0xbe64a19c	-0.22327274
86	0xbd7b7cb2	-0.061398216
87	0x3ce8bc3f	0.028410075
88	0xbbd3a4a0	-0.006458834
89	0x3df4a3b3	0.11945286
90	0x3cc646de	0.024203714
91	0x3d309868	0.043114096
92	0x3d977034	0.07394448
93	0x3d81688f	0.06318771
94	0xbe175479	-0.14778318
95	0x3ddddfa8	0.10833675
96	0x3c2d1e22	0.010566266
97	0x3d697fef	0.057006773
98	0xbd2e1e7d	-0.042509545
99	0x3d91fc6c	0.07128224
100	0x3d8c1838	0.06840557
101	0x3e2b3b24	0.16721779
102	0xbce5dc2f	-0.028059093
103	0x3ca48692	0.0200837
104	0xbe531726	-0.20614299
105	0xbd8be31d	-0.06830428
106	0xbcb21caf	-0.021742193
107	0xbe46354c	-0.19356269
108	0xbe922459	-0.28543356
109	0xbdd94cb8	-0.10610336
110	0x3d0c6e75	0.034285028
111	0x3c1fe54c	0.0097592585
112	0xbd9ee8e7	-0.07759266
113	0xbd461c62	-0.04836691
114	0x3d3ca4f9	0.046055768
115	0x3b8c2ab7	0.004277553
116	0xbe5b3c60	-0.2140975
117	0xbf6d59b6	-0.92715013
118	0xbe0686e1	-0.1313739
119	0xbe9100ab	-0.28320822
120	0x3d242dcf	0.04008275
121	0xbe95b406	-0.2923891
122	0x3d5af68f	0.053457793
123	0xbcf3922e	-0.02973279
124	0x3dfaf6ef	0.1225413
125	0xbbd1379c	-0.006384803
126	0xbe26e3be	-0.16297814
127	0x3d8da726	0.06916647
128	0x3cd61e20	0.026137412
129	0xbeb15c51	-0.34640744
130	0xbe814e87	-0.25255224
131	0xbdfdb29d	-0.123875834
132	0x3d9296a5	0.071576394
133	0xbd220dac	-0.03956382
134	0xbdeb70c0	-0.11496115
135	0x3e8cb343	0.27480516
136	0xbdf19165	-0.1179531
137	0xbd34eea6	-0.044172905
138	0xbf000467	-0.5000672
139	0x3b85bad3	0.004081109
140	0xbe39fb88	-0.18162358
141	0xbc3cc306	-0.011521107
142	0x3d66e4e7	0.056370642
143	0xbe652fe3	-0.22381549
144	0xbe43e938	-0.19131935
145	0x3d3117d9	0.043235634
146	0x3d05c4f0	0.032658517
147	0x3bfae3a0	0.0076565295
148	0x3daaf1b3	0.08346882
149	0xbed66fab	-0.4188207
150	0x3c207bca	0.009795139
151	0xbb650938	-0.0034948122
152	0x3c836d09	0.016043203
153	0x3cf9e693	0.030505454
154	0xbd1d9b7d	-0.038478363
155	0xbe531f1b	-0.20617335
156	0xbd81d509	-0.06339461
157	0x3c2191ea	0.009861449
158	0x3d5329bd	0.051553477
159	0xbe05c984	-0.13065153
160	0xbba12897	-0.0049181688
161	0xbe12f3a2	-0.14350751
162	0x3e01496e	0.12625667
163	0x3d9204d5	0.07129828
164	0x3ce87fae	0.028381195
165	0x3d03f5e0	0.032216907
166	0xbd9cfa91	-0.07664979
167	0xbe1720af	-0.14758562
168	0xbd56ed0d	-0.052472163
169	0xbd368c81	-0.04456759
170	0xbeb250a3	-0.34827146
171	0x3e76b60a	0.2409288
172	0x3d00ec43	0.031475317
173	0x3d7a6933	0.061135482
174	0x3d963575	0.07334415
175	0xbd42561e	-0.04744541
176	0xbe9969ac	-0.29963434
177	0x3d6a2f68	0.057174116
178	0xbaecfb9e	-0.0018080359
179	0xbdc94f72	-0.09829606
180	0x3dbef0bf	0.093232624
181	0xbd330e81	-0.043715004
182	0x3d30c605	0.043157596
183	0xbe93d656	-0.28874463
184	0xbee4d298	-0.4469192
185	0x3e29c8bb	0.16580479
186	0xbd87277a	-0.065993264
187	0xbe0690d6	-0.13141188
188	0x3ccece1b	0.025244763
189	0xbdd880f7	-0.10571473
190	0x3dadc938	0.08485645
191	0x3d54c4f2	0.051945634
192	0x3d4b5a70	0.049646795
193	0xbdb19cbe	-0.08672474
194	0x3d25fa0f	0.040521678
195	0x3ca34416	0.019929927
196	0x3d365f36	0.044524394
197	0xbe475c1e	-0.19468734
198	0x3bc7f0a3	0.006101684
199	0xbc4229d0	-0.011850789
200	0x3daaa9d0	0.083331704
201	0xbda13fdf	-0.078735106
202	0xbc9a81dd	-0.018860752
203	0xbe87e35b	-0.26540646
204	0x3ea2283d	0.31671324
205	0xbf0a4d12	-0.5402385
206	0xbdb991c5	-0.090610065
207	0x3d023c8f	0.031796034
208	0x3ddee21e	0.10882972
209	0xbd3c03a6	-0.045901917
210	0xbf14af80	-0.5808029
211	0x3c40f527	0.011777199
212	0x3d4a50d4	0.04939349
213	0x3d829e2c	0.06377825
214	0xbd81a39a	-0.06330033
215	0xbd5a2b97	-0.053264227
216	0x37f0b91a	2.8696424e-05
217	0x3d2a4bc6	0.04157617
218	0xbb43ef91	-0.0029897431
219	0x3da6c112	0.08142294
220	0xbddf7c1c	-0.10912344
221	0x3e3be58c	0.18349284
222	0xbe270967	-0.1631218
223	0x3dc41271	0.0957383
224	0x3d0f6f20	0.035018086
225	0xbe0419ef	-0.12900518
226	0xbc6847b3	-0.014177251
227	0xbd76e1d6	-0.060273968
228	0x3dcf9671	0.10136116
229	0x3eb538d9	0.35394934
230	0x3cf5424a	0.029938836
231	0x3d1d7385	0.038440246
232	0xbf1c96a4	-0.6116736
233	0xbc6af72e	-0.014341159
234	0x3d3c5623	0.045980584
235	0xbf29facf	-0.6639833
236	0xbe8b9009	-0.27258328
237	0x3cb2eeca	0.02184238
238	0x3c4d9622	0.0125480015
239	0x3e50f642	0.2040644
240	0xbd9bf745	-0.07615522
241	0x3d9c3885	0.07627968
242	0xbd7b5ebb	-0.06136964
243	0xbda9fbcb	-0.08299979
244	0x3dcffa6e	0.101551875
245	0xbe4394a5	-0.19099672
246	0x3e053c88	0.13011372
247	0xbe6331f7	-0.22187029
248	0xbb1ebfa0	-0.0024223104
249	0xbec14351	-0.3774667
250	0x3ce41e87	0.027846588
251	0x3c085802	0.008321764
252	0xbb4a843d	-0.0030901574
253	0xbcdb25ee	-0.026751485
254	0x3e5f6bf6	0.21818528
255	0x3d94f35c	0.072729796

layer2.bias f4 [64]
0	0x3e1a4da4	0.1506868
1	0x3da72e09	0.081630774
2	0xbc9f85d5	-0.019472996
3	0xbe2fea3a	-0.17179194
4	0xbd3bb096	-0.045822702
5	0x3d83a07f	0.064270966
6	0xbd5430b9	-0.051804278
7	0xbd7df101	-0.061997417
8	0x3d67f3f9	0.056629155
9	0x3c711394	0.01471414
10	0xbd02c799	-0.031928632
11	0xbbecdbe1	-0.00722836
12	0x3d65ad0a	0.056073226
13	0x3de6cb61	0.1126926
14	0x3d9d162e	0.07670246
15	0x3da9323c	0.082615346
16	0xbe2e0924	-0.16995674
17	0x3dd8eb63	0.105917715
18	0x3e3af1a2	0.18256238
19	0xbccfb325	-0.025353977
20	0xbc465434	-0.0121050365
21	0xbcbe7a96	-0.023251813
22	0x3e242896	0.16031107
23	0xbd19167b	-0.037374955
24	0x3d6120fe	0.054963104
25	0xbd00303f	-0.03129601
26	0xbc7c4d64	-0.015399311
27	0x3dc8c49d	0.09803126
28	0x3cd70908	0.026249424
29	0xbd57f89b	-0.052727323
30	0x3e378e24	0.17925316
31	0x3c0f57f2	0.008748995
32	0x3c3247f6	0.010881415
33	0x3d73eb26	0.059550427
34	0x3d9c60e3	0.07635667
35	0xbd9e93c9	-0.077430315
36	0x3e335582	0.17513087
37	0xbe1a8f92	-0.1509383
38	0x3c25c89c	0.01011863
39	0x3e13a1a0	0.14417124
40	0xbc1d28a0	-0.009592205
41	0x3d12d960	0.035851836
42	0x3e33ca21	0.17557575
43	0xbdd1a040	-0.102356434
44	0xbcddff54	-0.027099289
45	0xbca8f06b	-0.020622453
46	0xbdbce747	-0.092238
47	0x3e45f885	0.19333084
48	0x3c4d019e	0.012512593
49	0xbd6d0044	-0.05786158
50	0xbd87ae73	-0.066250704
51	0x3dd6b092	0.10482897
52	0x3ded8fc3	0.11599686
53	0x3dcc6571	0.09980286
54	0xbc56584c	-0.013082575
55	0x3dd20143	0.10254147
56	0x3dbc1a2a	0.09184678
57	0x3e08fbac	0.13377255
58	0x3de296d5	0.11063925
59	0x3dac3dcf	0.084102266
60	0xbc31f172	-0.010860788
61	0xbd7a34bd	-0.06108545
62	0xbcb00ad9	-0.021489548
63	0x3e38c016	0.18042025

layer3.weight f4 [4, 64]
0	0x3f0ac956	0.54213464
1	0x3f2dad2b	0.6784236
2	0x3e2cd48e	0.16877958
3	0x3f22cde2	0.635954
4	0xbeb8342f	-0.35977313
5	0x3df04759	0.117323585
6	0xbedc1d8e	-0.42991298
7	0xbeae1f7c	-0.34008396
8	0x3eb82640	0.35966682
9	0xbeb01ee6	-0.34398574
10	0xbe72c331	-0.23707272
11	0xbe1b239a	-0.151503
12	0x3d5f7568	0.054555327
13	0x3e257f39	0.16161813
14	0x3ea7c10d	0.32764474
15	0x3ecc7d86	0.39939517
16	0xbf17dca2	-0.59321034
17	0x3f0ec1de	0.5576457
18	0x3d80965d	0.062786795
19	0xbe636d3d	-0.2220964
20	0xbda86088	-0.08221537
21	0xbe671f27	-0.22570477
22	0x3e369e8a	0.17833915
23	0xbe1aefc4	-0.15130526
24	0x3ea2e57f	0.31815717
25	0xbd7da5a5	-0.06192555
26	0x3d474ced	0.048657347
27	0x3e90ab09	0.2825549
28	0x3ea2a26f	0.31764552
29	0x3e4e8996	0.20169672
30	0x3dbf9045	0.09353689
31	0x3c386e20	0.011256725
32	0x3ef516ce	0.4786896
33	0x3d41f523	0.04735292
34	0x3b2712b9	0.0025493337
35	0xbe755814	-0.2395938
36	0x3e81bbb5	0.25338522
37	0xbef75d14	-0.483132
38	0x3ee627e6	0.44952315
39	0x3cc39cec	0.023878537
40	0xbe8b7725	-0.27239338
41	0x3e16489b	0.14676134
42	0x3dc3f360	0.095679045
43	0x3ea9d2c7	0.33168623
44	0xbe9caa03	-0.3059846
45	0xbf0295f6	-0.5101007
46	0xbe92776c	-0.28606737
47	0x3db18d6c	0.08669552
48	0x3e80eeeb	0.2518228
49	0xbdb13228	-0.08652145
50	0xbe2ee252	-0.17078522
51	0x3f3c76ae	0.7361859
52	0x3f152878	0.58264875
53	0x3ecc63f2	0.39920002
54	0xbb519ab4	-0.003198308
55	0x3e41ee6a	0.18938604
56	0x3f195b51	0.5990496
57	0x3e2a4358	0.16627252
58	0x3eb6885a	0.35650903
59	0x3e939a98	0.28828883
60	0xbe0c1378	-0.13679302
61	0x3e3df575	0.18550666
62	0xbe4e32c5	-0.20136555
63	0x3ddd0dc5	0.10793642
64	0x3f038e75	0.5138925
65	0x3f2d30ba	0.67652476
66	0x3f365491	0.7122279
67	0x3f0ecadc	0.5577829
68	0xbf5de76a	-0.86681235
69	0x3e430e21	0.19048359
70	0x3e772224	0.24134117
71	0xbe864fca	-0.2623275
72	0x3ec82593	0.39091167
73	0xbebcefae	-0.3690161
74	0xbe4f164c	-0.2022335
75	0xbe440bbd	-0.19145103
76	0x3e37f110	0.17963052
77	0x3e16fd05	0.14744957
78	0x3e980af2	0.2969585
79	0x3ee42e41	0.4456654
80	0xbf0d953b	-0.5530583
81	0x3f12da2c	0.57364154
82	0x3deedea7	0.11663561
83	0xbf051b02	-0.51994336
84	0xbef35662	-0.47526842
85	0xbfdb3a18	-1.7127104
86	0x3e02c48b	0.12770288
87	0xbe71621e	-0.23572585
88	0x3eb66b9e	0.3562898
89	0xbe638b75	-0.22221167
90	0x3eef410a	0.46729308
91	0x3e7ff85b	0.24997084
92	0x3ea9d69b	0.33171543
93	0xbec1328e	-0.37733883
94	0x3dcfaa7d	0.1013994
95	0x3e753180	0.23944664
96	0x3ede6e84	0.43443692
97	0x3e38ea61	0.18058158
98	0x3e0710f5	0.13190062
99	0xbe912fe5	-0.28356853
100	0x3e5ebc22	0.21751454
101	0xbef0155e	-0.46891302
102	0xbec82f56	-0.39098614
103	0x3de2fe12	0.11083616
104	0xbeac631d	-0.33669367
105	0x3ef34628	0.47514462
106	0x3dafaa29	0.08577377
107	0x3edb19f3	0.42793235
108	0xbebd246f	-0.3694186
109	0xbf192d53	-0.59834784
110	0xbe930ad1	-0.2871919
111	0x3dbed741	0.093184
112	0x3ec5b44e	0.38614124
113	0xc01b9db8	-2.4315014
114	0xbe8fae85	-0.28062835
115	0x3f377c7f	0.7167434
116	0x3f4d0637	0.8008761
117	0x3eb6ba51	0.35689023
118	0x3a4f35ce	0.0007904441
119	0x3e432d33	0.19060211
120	0x3f141719	0.57847744
121	0x3e00de54	0.12584811
122	0x3e9bd9f3	0.3043972
123	0x3e9846cd	0.29741517
124	0xbea53938	-0.32270217
125	0x3e92d753	0.28679904
126	0xbec45f3a	-0.38353902
127	0x3dd433f9	0.103614755
128	0x3f140fe4	0.5783675
129	0x3f509056	0.8147024
130	0x3d6ff3e2	0.058582194
131	0x3f022e70	0.5085211
132	0xbeb71c2d	-0.35763684
133	0x3e0d90a9	0.13824715
134	0xbeed1f41	-0.46312907
135	0xbe960302	-0.2929917
136	0x3eba1579	0.36344507
137	0xbe7a0c1b	-0.2441868
138	0xbe909422	-0.28238016
139	0xbe131722	-0.14364293
140	0x3b7dedc6	0.003874646
141	0x3e677db3	0.22606544
142	0x3ea0be95	0.31395403
143	0x3e7978c8	0.2436248
144	0xbf1cf958	-0.6131797
145	0x3f150eae	0.58225524
146	0x3d8932ff	0.0669918
147	0xbe546629	-0.20742096
148	0xbd4bf4f0	-0.049794137
149	0xbe312623	-0.17299704
150	0x3e3e0480	0.18556404
151	0xbe1f5f67	-0.15563737
152	0x3e8767b4	0.26446307
153	0xbd753f8c	-0.059875056
154	0xbcec94ca	-0.028879542
155	0x3e9a2f00	0.30113983
156	0x3ea4217e	0.32056803
157	0x3e73d028	0.23809874
158	0x3e199533	0.14998321
159	0x3dca876b	0.0988911
160	0x3ee91101	0.45520785
161	0x3d06dedf	0.03292739
162	0x3b333d9b	0.0027349952
163	0xbe6c03be	-0.23048303
164	0x3e5dcf5e	0.21661136
165	0xbf035270	-0.51297665
166	0x3eb4bcd5	0.35300317
167	0x3d79dbb3	0.061000537
168	0xbe4593ce	-0.19294664
169	0x3e94b269	0.29042366
170	0x3e17c7d8	0.14822328
171	0x3f04a1bf	0.51809305
172	0xbe9c8c4c	-0.30575788
173	0xbef42b6f	-0.47689387
174	0xbe918f6f	-0.28429744
175	0x3dad1ac5	0.084523715
176	0x3e470687	0.19436084
177	0xbc969e4a	-0.018386025
178	0xbe2562f5	-0.1615103
179	0x3f36750c	0.7127235
180	0x3f1356af	0.57554144
181	0x3ed63604	0.41838086
182	0xbbd7d6d6	-0.0065868897
183	0x3e387b0f	0.18015693
184	0x3f1c0202	0.60940564
185	0x3d6b75c4	0.057485357
186	0x3e6cb3bf	0.23115443
187	0x3ea6d080	0.32580948
188	0xbe24bd58	-0.16087854
189	0x3e59bad1	0.21262671
190	0xbe2259d2	-0.15854576
191	0xbc92a821	-0.017902436
192	0x3f041649	0.51596504
193	0x3f041dae	0.5160779
194	0x3e3dc52f	0.18532251
195	0x3f3d6c47	0.73993343
196	0xbe8531c1	-0.26014522
197	0x3d92c0d6	0.07165687
198	0xbed2e63e	-0.41191286
199	0xbecb6430	-0.39724874
200	0x3eb31db2	0.34983593
201	0xbedd6105	-0.43238083
202	0xbe3f3774	-0.18673497
203	0xbe0804e3	-0.13283114
204	0x3d899a24	0.06718853
205	0x3dcf1b80	0.10112667
206	0x3ea9f6ee	0.33196205
207	0x3f04a707	0.51817364
208	0xbf1576e9	-0.5838457
209	0x3f07449d	0.5283907
210	0x3d83af6c	0.064299434
211	0xbe39ba8c	-0.18137568
212	0xbda01c4d	-0.07817898
213	0xbe046128	-0.12927687
214	0x3e3053b4	0.1721943
215	0xbde75a8f	-0.112965696
216	0x3ebd1cad	0.3693594
217	0xbda2e3f0	-0.07953632
218	0x3d266239	0.040621016
219	0x3e8f5e9e	0.28001875
220	0x3ea98597	0.33109733
221	0x3e715023	0.23565726
222	0x3b4c94d4	0.0031216638
223	0xbdfa2aef	-0.1221522
224	0x3ef7e88a	0.484196
225	0x3c2de3ed	0.010613424
226	0xbc075ba4	-0.008261595
227	0xbe82445d	-0.25442782
228	0x3e99a844	0.3001119
229	0xbee72691	-0.4514661
230	0x3f08f868	0.5350404
231	0xbc03be25	-0.008040939
232	0xbea1e796	-0.31622
233	0xbdb22431	-0.08698309
234	0x3ddcde78	0.1078462
235	0x3e4080d1	0.1879914
236	0xbe9e25a2	-0.30888087
237	0xbf082fb2	-0.5319778
238	0xbe90111c	-0.28138053
239	0x3d9e2f9c	0.077239245
240	0x3e8c1290	0.27357912
241	0x3cb34cbb	0.021887174
242	0xbe35abd5	-0.1774133
243	0x3f3fd9ab	0.7494151
244	0x3f06123c	0.52371573
245	0x3ec85645	0.39128318
246	0xbc9ee12b	-0.019394478
247	0x3e3ccb6f	0.18436979
248	0x3f12b51c	0.573076
249	0x3e8dcbe2	0.27694613
250	0x3ee63e5e	0.44969457
251	0x3e84041d	0.25784388
252	0xbdd54b9d	-0.10414813
253	0x3e1bd62f	0.15218423
254	0xbe6c84ae	-0.23097488
255	0x3e3dd848	0.18539536

layer3.bias f4 [4]
0	0x3e4924f4	0.19643003
1	0x3e30c840	0.1726389
2	0x3e4b3201	0.19843294
3	0x3e4eea68	0.20206606
