models/model_2/nets/1000_policy_net.pt (torch, 47000 bytes, 6 tensors)

layer1.weight f4 [128, 19]
00000000: 65b0 c73c cfc4 4d3e 4886 c1bd fb19 b03b
00000010: b10b c6bc 8b6f b3be 0439 bcbc ef5b 4bbd
00000020: d50f 033d 2f4c 893b ff71 26bc b890 cbb9
00000030: 5b44 ebbc 5204 bd3d c385 1c3c e0e0 c93c
00000040: 5bd4 ce3b c516 00bd 5e59 9c3d 0c75 54bd
00000050: 0ec4 f3bc 9aba 193d c50b b33c f4d3 693e
00000060: d5d5 19bf 6e19 ee3c defc 63bd b52a e93d
00000070: ae57 153d 7748 6a3b c442 ab3c 2116 22bd
00000080: ad53 d9bc b025 58bd 9496 0fbe c0ee ce3d
00000090: 5724 80bd 4ba5 91bd efac 1e3d 302e c13d
000000a0: 4cc3 b9bd 3915 9cbd 28e3 a5bd 3f10 ba3d
000000b0: bd81 23be 2852 6dbd 3250 fbbc 0400 2b3d
000000c0: 17a8 d9bc e998 68bd d4a8 9e3c b08a 8dbd
000000d0: a47c 76bc c210 563d 48dd 14bd f175 0d3d
000000e0: 03ac 903d 6c10 22bd 7b3d 93bd 0548 863e
000000f0: 7c8a 153c e870 9c3d 1f69 d03e ac90 903c
00000100: fc0b 983c 2156 aabd 3f6e ac3a 9a33 f6b8
00000110: e882 7a3c 183a 9d3a c49f 9abb 12e6 62bd
00000120: defd 11be a22a ffbc 1cbf b5bd 298c 88bd
00000130: d470 a3bd e3d5 5dbb c346 bdbd 3701 9e3d
00000140: e2d2 443e 1d46 88bc 0fcf fd3b 5810 0d3d
00000150: 8984 153d 6b94 b5bb 9102 0fbd c537 e7bc
00000160: 2c52 b6bd d1bc 853d d1e9 1a3d 0a66 94ba
00000170: c813 3a3d 6552 f6bc 4771 ccbc d908 98bc
00000180: 1196 bebd b3c7 ea3d a2f9 c83d dfc2 84bd
00000190: 081b 00be c24b 47bd 5903 d2bd fc15 8bbd
000001a0: a4d6 aeba 4cc4 b93c 6126 a2bc fdaf 19bc
000001b0: f729 31bd 5375 563c 3d6c aa3d a1f8 b1bc
000001c0: 7d23 453d d6ad 6d3d 3c28 87bd 7c66 513e
000001d0: 4b2f d23c 1423 0b3c 2c22 9dbd c824 58bd
000001e0: 8dbf 95bc e813 1bbe 3829 21bd ce72 203d
000001f0: 81e7 283c 72ae 8c3c a92b 2fbc 911a 0fbd
00000200: 1415 15bc 4e55 72bc d9f2 803c d498 cebc
00000210: fe75 a0bb d546 79bd a56e f9bc 32ae fe3c
00000220: 082a 0a3b 27f9 8cbd f4a7 c43e ae55 cfbc
00000230: 0ea9 193e fd4c c2bd 3a5b 88bc 24f0 4d3b
00000240: cf45 94bb d611 7e3c c87f d8bc 263e 7bbc
00000250: 7675 b8bc 58b1 0bbc 5b71 893c 56e4 acbc
00000260: 3723 d73d 5f24 843d 26da 80bd 1b9b 093c
00000270: 20f4 42be cbb0 e9bd b26c 87bd e8a9 1dbd
00000280: 9939 f43c ba7a 173c aa36 f4bc 1c9e 10be
00000290: 7c57 3e3d 88f6 193e c91a 063c a999 423c
000002a0: b8c7 a8bd d90b 0c3d cd7a 243d 442a 583d
000002b0: e0e7 533d 675f a73d 27b7 5f3c 8e89 84be
000002c0: 9fbe 1c3d 7565 87bd c488 81bd 6bc4 19bd
000002d0: 726e 44bd 247f 573d 8795 b3bb 44c9 c2bc
000002e0: 973c 2cbc 96c7 853b 74dd e63b 7344 e73d
000002f0: f40d 0c3e 7472 ac3d f794 23bd f954 2f3d
00000300: 2d2c 553c d9d5 7abb f848 123e c659 c6be
00000310: b09a fb3c 4342 3ebe 13f2 d43c 32e8 13bc
00000320: 4df8 09bc 7005 2a3c 4a72 efbb 7ed7 923c
00000330: f8ce 453c 2078 5a3d e6d4 9a3b b6ec 33bc
00000340: 068a 0abd 3575 24bc 4207 7bbe 34d0 c8be
00000350: b6e4 b5b7 670f d339 944e dc3e 751e ed3a
00000360: 8612 813d 11e7 fc3c aa96 1bbc 5bd7 eb3c
00000370: de8a 90b7 e4aa 7ebc 20b5 94bb 244b 86ba
00000380: 2fe7 2a3d 8c75 8dbd 3b92 6c3d d984 593e
00000390: a0ae ac3c aaf8 39be afb1 223d f534 79bb
000003a0: c578 2d3e 91f8 103e 1cb7 9ebd 1e5a f03c
000003b0: f2cf b43c 942c cf3b 332f 21bb 238e e53c
000003c0: 87e1 e3bb c2e6 bcbd 4f3a 9c3c 85cb 5abd
000003d0: d209 f8bc 5272 42bd 5d1a e4bc 0e70 e03d
000003e0: cfc8 ba3c d3c1 44bc d1f5 96bb acc7 b7be
000003f0: 3528 683d 526d 17bd 85bb 043d f0db 813d
0.024376104 0.20094608 -0.0944944 0.005374191 -0.024175497 -0.35046038 -0.022976406 -0.04964822
0.03199752 0.00418999 -0.010159015 -0.00038827 -0.028719118 0.0922934 0.009553376 0.024643362
0.006311936 -0.031271715 0.07634233 -0.051869437 -0.029756572 0.037531473 0.021856198 0.2283476
-0.60091907 0.02906486 -0.055661075 0.11385099 0.03646057 0.0035748759 0.02090586 -0.039571885
-0.026529158 -0.052770317 -0.14022285 0.10104132 -0.06256931 -0.07111605 0.03873914 0.09432638
-0.09070453 -0.076212354 -0.08099967 0.0908513 -0.1596746 -0.05793968 -0.030677889 0.04174806
-0.02656941 -0.05678645 0.019367613 -0.06911218 -0.015044365 0.052262075 -0.036343843 0.034536306
0.07064059 -0.039566442 -0.07189461 0.26226822 0.0091272555 0.07638723 0.407052 0.01764711
0.018560402 -0.08317209 0.0013155414 -0.000117398056 0.01529 0.0011995463 -0.0047187526 -0.055395193
-0.14256999 -0.031148259 -0.08874342 -0.066673584 -0.07980505 -0.003384941 -0.09242012 0.077150755
0.1922107 -0.016634995 0.0077456306 0.034439415 0.03650335 -0.0055413744 -0.034914557 -0.028224835
-0.08902392 0.065301545 0.03782064 -0.0011321914 0.04542902 -0.030068586 -0.024956359 -0.018558906
-0.09305967 0.11463871 0.09813239 -0.06482481 -0.12510312 -0.048656233 -0.10254545 -0.067913026
-0.0013339114 0.02267661 -0.019793691 -0.009380338 -0.04325291 0.013089496 0.08321426 -0.021725
0.048129547 0.05802711 -0.06599471 0.20449251 0.025657317 0.00849225 -0.076725334 -0.052769452
-0.018279815 -0.15144312 -0.03934595 0.039171986 0.010309101 0.017173026 -0.010691562 -0.034937445
-0.009099264 -0.014790846 0.015740799 -0.025219359 -0.0048968783 -0.060858566 -0.030448267 0.031088922
0.0021082181 -0.068834595 0.38409388 -0.02530941 0.15005895 -0.094873406 -0.016645063 0.0031423653
-0.0045249234 0.015507182 -0.026428118 -0.015334642 -0.022516947 -0.008526169 0.016777685 -0.021104973
0.105047636 0.0645225 -0.062916085 0.008398796 -0.19038439 -0.11410674 -0.06612529 -0.038492113
0.029812621 0.009245569 -0.029811222 -0.14122814 0.04647015 0.1503545 0.008185097 0.011877456
-0.08241218 0.034190986 0.040156174 0.052774683 0.051734805 0.081724934 0.013654507 -0.25886196
0.038267728 -0.06611148 -0.06324914 -0.037540834 -0.04795689 0.052611485 -0.0054804715 -0.023777612
-0.010512493 0.0040826304 0.0070454422 0.112923525 0.13677198 0.08420268 -0.039936986 0.042805646
0.013011021 -0.0038274436 0.14285648 -0.38740367 0.03071341 -0.18579964 0.025994336 -0.009027528
-0.008421016 0.010377273 -0.0073073255 0.01792502 0.012073271 0.053337216 0.0047250865 -0.010981729
-0.033823036 -0.01003771 -0.24514487 -0.39221346 -2.1683383e-05 0.00040256532 0.430287 0.0018090742
0.06302361 0.0308719 -0.00949637 0.028789213 -1.7230803e-05 -0.015543673 -0.0045381933 -0.0010245782
0.04172438 -0.06907186 0.057756644 0.21242084 0.021079361 -0.18161264 0.039720234 -0.003802595
0.16940601 0.1415732 -0.07749769 0.029339846 0.022071812 0.006322453 -0.0024594783 0.028021878
-0.006954375 -0.09223701 0.019070772 -0.053416748 -0.03027812 -0.047472306 -0.027844602 0.10958873
0.022800831 -0.012009102 -0.0046069403 -0.35894525 0.05667897 -0.03696949 0.032405395 0.06340778

layer1.bias f4 [128]
00000000: 69f4 f93c aa92 9a3d a7f2 743c dece 0fbe
00000010: 1abd 2d3d 96b1 fd3d f04b 153d b73e 1bbe
00000020: 3432 533b 5c16 0ebc 8798 173e 9db5 173c
00000030: 19b4 563d 1232 613d 91c4 93bd ad96 a63d
00000040: 2d88 64bd 85a9 733d 052d 4f3c 7151 563d
00000050: 54f3 62bd 9531 90bb fc07 7a3c 8fec 2abd
00000060: 48c9 89bc 5f86 763d 601d 1f3e b14f afbb
00000070: 8c1e 333d d568 243c 7a6c 453c 617d 5cbd
00000080: 8431 7cbd 8b66 593a b25c 153d b0d9 26bd
00000090: 90a1 853d 37de 203d c0ea 7635 7519 1e3d
000000a0: ac68 8bbc ae21 e1bc 715a 133e 7796 543d
000000b0: 85b5 81bd 28d9 5e3c 7eac 453d 542f 4fbe
000000c0: af0a 43be 9432 883d 36cd ce3c fae3 073e
000000d0: 1db5 f13d 1202 6c3d 5333 b93d 02c0 06bd
000000e0: 72db 193d 2955 013d 31ec 893d 5462 32bd
000000f0: 1def 7c3d c132 8bbc ee3a 913d b9b0 85bc
00000100: 1260 ed3c a002 623c f643 f4bd 74e9 38be
00000110: da8a 8e3d 042f 62bd 76e2 f1bb 5185 36be
00000120: 2be9 f9bd ee56 883a b420 ed3d e047 b93c
00000130: 08f3 493e a617 e13d b28f de3d 310e a53d
00000140: 99d4 ef3c 2fa1 a03d 8c01 b73b fd23 8a3d
00000150: e5e5 8ebd 1f26 5b3d 9570 78bd 5f02 1dbd
00000160: e1f1 19bd e4a5 823d 3aa3 75bd f3bb eb3d
00000170: 64f1 3e3e db4d ebbc 11e2 9ebd 1e9a 0f3d
00000180: 07da f33c 3361 c63d 0682 ac3c a75b 1c3e
00000190: d38c 5cbd a0fd 033e fecb 18bc 4637 243d
000001a0: c7a3 4ebd e63a e2bc 8d75 1dbd 22e4 213d
000001b0: 7cf2 afbd 16d9 70bd 92b5 743c b775 d33c
000001c0: ed9b eebc eb7f 0ebd ba4b 5ebd c8b8 5b3d
000001d0: dc04 aa3d 7da4 b43d 3c0d 43be f5a3 5fbd
000001e0: b797 cdbb ca52 b6bc bfd8 6b3d b442 453d
000001f0: f98b 383e 7d62 b9bd a60f d6bd 4610 ca3c
0.030512052 0.07547505 0.014950431 -0.14043757 0.04241667 0.123873875 0.036449373 -0.15160643
0.0032225968 -0.008672323 0.14804278 0.009259609 0.05241785 0.05497939 -0.072152264 0.08134208
-0.05579393 0.05948784 0.012645011 0.052323762 -0.055407837 -0.004400442 0.015260693 -0.041729506
-0.016819611 0.06018674 0.1553855 -0.005350076 0.043730304 0.0100347595 0.012049789 -0.05383051
-0.06157066 0.0008293173 0.036465354 -0.040734947 0.06524956 0.03927442 9.198375e-07 0.038598496
-0.017017685 -0.02748188 0.1438997 0.051901307 -0.0633345 0.013601579 0.048260204 -0.20232898
-0.19047044 0.06650272 0.025244337 0.1327056 0.11802123 0.057619162 0.090429924 -0.032897957
0.037562795 0.031575356 0.06734503 -0.043550804 0.061751474 -0.016991975 0.07091318 -0.01631962
0.028976474 0.013794571 -0.11927025 -0.18057805 0.069600776 -0.05522062 -0.0073817326 -0.17824294
-0.122026764 0.0010401884 0.11578503 0.02261728 0.19721615 0.10990839 0.108672515 0.080593474
0.02927618 0.07843243 0.005584901 0.067451455 -0.06977443 0.053503152 -0.06065424 -0.03833234
-0.03758419 0.063792974 -0.059970118 0.11510458 0.1864677 -0.028723648 -0.077579625 0.035059087
0.02976705 0.09686508 0.021058094 0.15269338 -0.053845238 0.12889719 -0.009325979 0.040091775
-0.05044916 -0.027615976 -0.038442183 0.039524205 -0.08591172 -0.05880078 0.014935868 0.025812967
-0.029127086 -0.03478996 -0.054271437 0.053643018 0.08301708 0.08820436 -0.19048017 -0.05459972
-0.0062741893 -0.022256274 0.057579752 0.048159316 0.18022145 -0.09051988 -0.104522035 0.024665963

layer2.weight f4 [64, 128]
00000000: 0bb6 273d 23a7 7a37 ea49 48be a4be 64be
00000010: d0a4 373c 397b 053d 7f6b 72bd a132 6cbd
00000020: de10 54be e134 b53d e318 04bf a0bd 02be
00000030: 089c 8d3c 70a5 a43c 08bb dc3c c5da 9a3c
00000040: f320 27bd 1ead 233b 9835 9e3d 18d2 8d3c
00000050: 436d eebc 2846 94bd 9e7d 363c f30a 86be
00000060: 1db2 2bbb 9dd9 b7bd cc8a 80bb 3b7a 6bbc
00000070: f179 7cbd dabc fa3d 508b 3cbc a133 03bd
00000080: b8d2 68bd ba48 d6bd dacd 59bc 44c0 033c
00000090: 3303 26bd ae15 16be c352 bcb9 2a85 59be
000000a0: 2487 b4bc 35eb ffbd 673b 10be f5df a13d
000000b0: f266 cabd 5276 9a3c 50a3 943d 9473 b8be
000000c0: a65e 20bf 0438 c93d 3be1 a4bc 20fe 4f3d
000000d0: de5b 9d3d b3d4 32bd c876 a53d 202c 42bb
000000e0: b9d4 27be 2f20 133e 66af 333d 4dd5 99bd
000000f0: f150 283e 05aa 3dbd ffbb 823d e672 87bc
00000100: d6ca 60bc 90a7 ba3d 99e3 15be 5f88 07be
00000110: 4ea1 67be 1766 a83d cb75 cd3c 518e 00be
00000120: 29f3 79be ae45 073d cbec be3d a4b6 863d
00000130: 8949 10ba e393 86bf 1a3b c4be 3448 f63d
00000140: d716 423e c15f a23d d8ef 4bbe 5ee9 b03d
00000150: 087a 923d 9843 64be 08cc 7bbd 8a9c e93c
00000160: b099 d3bb da8f f43d a6b1 c63c ef6e 303d
00000170: aa1e 983d 52f5 803d 434f 17be 6e53 de3d
00000180: 724d 2c3c 23b3 683d 4b1d 2ebd 8cdb 923d
00000190: 54ce 8c3d 4a70 2b3e 120d e4bc afaa a43c
000001a0: dc78 52be 4ef5 8bbd c5b5 b2bc bf80 46be
000001b0: 6818 92be dad4 dabd 14bf 093d d8f2 193c
000001c0: 829a 9dbd cb5d 47bd fa1c 3e3d 909c 833b
000001d0: 02c8 5bbe 8668 6dbf 915f 06be 09e2 90be
000001e0: 19ab 243d 7792 95be d8bc 5a3d ba63 f2bc
000001f0: 8835 fc3d a795 e7bb 5b77 26be 1fd8 8d3d
00000200: 70d0 d63c 2247 b1be 2d9b 80be fe1d fcbd
00000210: e025 943d 41e3 22bd bda2 ecbd 0e1a 8d3e
00000220: 5ecb f0bd c4ec 32bd 9131 00bf 6928 8b3b
00000230: b1da 39be f722 3dbc eea5 663d be65 65be
00000240: d3f3 43be 00a1 303d 5cee 063d 9b42 fe3b
00000250: 5521 ab3d 7d2f d6be 9b68 1f3c fc62 43bb
00000260: 0166 833c e173 fb3c ddc7 1abd 9c07 52be
00000270: 448f 81bd d11e 223c ef6d 523d ad17 06be
00000280: 402f 9fbb 0c58 12be 8df8 003e acef 923d
00000290: 8616 e63c 800a 043d 7079 9dbd 018f 17be
000002a0: c9bb 56bd 6410 36bd 4768 b2be eb96 763e
000002b0: 7df1 013d 3935 7f3d 44f2 963d c7a6 41bd
000002c0: 6d6a 99be 9912 6d3d c79f faba ea67 c9bd
000002d0: e31b bf3d 045f 32bd 40f4 323d 7dea 93be
000002e0: 7bf8 e4be 4d9a 293e a216 87bd 41e3 05be
000002f0: bf3d d23c b1ad d8bd 6026 ae3d 057e 543d
00000300: 4266 4c3d db3b afbd fd68 273d 7eed a93c
00000310: b78b 333d 4a60 47be 28cc a83b 4911 3dbc
00000320: 92d8 aa3d 99ba a0bd c08f 9abc 12cd 87be
00000330: 2c24 a23e 6411 0abf 4e5a babd 9b4e 043d
00000340: e3ce de3d c8ba 37bd 1508 15bf e697 413c
00000350: f869 4d3d 1117 833d 11ba 81bd 1034 58bd
00000360: 95ac f037 fcaa 2b3d 1d72 42bb 458f a63d
00000370: 7dd8 ddbd 91d5 3b3e b15e 27be a661 c53d
00000380: 924e 143d 7801 04be 606d 67bc 7d4b 75bd
00000390: 1eb2 cf3d 6d36 b53e 1021 f53c d27a 1d3d
000003a0: 267a 1cbf ee71 69bc e0a4 3d3d 7427 2abf
000003b0: 6c77 8bbe 2e24 b53c fa8e 493c cdc1 503e
000003c0: ba45 9bbd 2e66 9d3d fbc1 79bd 1bfc a9bd
000003d0: cf8c cf3d 5dde 43be 076c 053e b186 62be
000003e0: eb9a 17bb 4a20 c1be 9d5e e13c 20de 0b3c
000003f0: be29 0fbb b3f1 dabc d287 5f3e e05a 953d
0.040945094 1.4940076e-05 -0.19559446 -0.22338349 0.011208728 0.032588217 -0.059184548 -0.05766547
-0.2070956 0.088479765 -0.51600474 -0.12767649 0.017286316 0.020098418 0.026944652 0.018903146
-0.040802907 0.0024975012 0.07725066 0.017312095 -0.029104834 -0.07239944 0.011138348 -0.2618023
-0.0026198693 -0.08977053 -0.003922796 -0.014372404 -0.06163973 0.12243052 -0.011507824 -0.03203166
-0.056841582 -0.1046309 -0.013293708 0.008041445 -0.040530395 -0.14656708 -0.00035919817 -0.21242204
-0.022037096 -0.12496034 -0.1408516 0.079040445 -0.098829165 0.018855248 0.07257712 -0.3602568
-0.6264442 0.09825137 -0.02012693 0.05077946 0.07683538 -0.043659877 0.08079296 -0.0029628351
-0.16389741 0.14367746 0.043868445 -0.07511387 0.16437127 -0.04630472 0.06383514 -0.01653428
-0.013720235 0.09113991 -0.14637603 -0.13235615 -0.22620127 0.08222597 0.025080582 -0.1255429
-0.24409164 0.033025436 0.093225084 0.06577805 -0.00055041217 -1.0513881 -0.3832634 0.120254904
0.18954025 0.0792842 -0.19915712 0.08638261 0.07152182 -0.2229141 -0.061473876 0.028517026
-0.00645753 0.119415 0.024254631 0.043074545 0.07427724 0.06296791 -0.1477633 0.10855757
0.010516511 0.056811463 -0.042508405 0.071707815 0.068752915 0.16742054 -0.027838264 0.02010092
-0.20553917 -0.068338975 -0.02181519 -0.1938505 -0.28534245 -0.106851295 0.033629492 0.009396277
-0.07695486 -0.048673432 0.046414353 0.0040164664 -0.21463016 -0.92737615 -0.13122393 -0.2829745
0.040202234 -0.29213306 0.05340275 -0.029588569 0.12314898 -0.0070674005 -0.16256468 0.069259875
0.026222438 -0.34624583 -0.2511839 -0.12310408 0.072337866 -0.039767507 -0.11554477 0.2755894
-0.11757539 -0.04368283 -0.5007563 0.0042467606 -0.1814983 -0.011543981 0.056310587 -0.22402093
-0.1913598 0.04312229 0.03294216 0.007759405 0.08355967 -0.41833106 0.00972953 -0.0029813638
0.01603985 0.030694904 -0.03778826 -0.20510715 -0.06326154 0.0098950425 0.051374372 -0.13094969
-0.0048579276 -0.142914 0.12594815 0.0717462 0.028086912 0.032236576 -0.07689178 -0.14800645
-0.05242518 -0.044449225 -0.34845182 0.24081008 0.03172444 0.062306616 0.07370427 -0.047278192
-0.2996401 0.057879064 -0.0019121104 -0.09834273 0.09331491 -0.043547645 0.043689966 -0.28889838
-0.44720826 0.16562767 -0.06596114 -0.13074972 0.025664208 -0.10580004 0.08503413 0.051877994
0.04990221 -0.085563384 0.04087161 0.020743128 0.043834414 -0.19470325 0.0051512904 -0.011539766
0.08342089 -0.07848091 -0.018867373 -0.26523644 0.31668222 -0.53932786 -0.090992555 0.032301527
0.10879304 -0.044855863 -0.5821546 0.011816001 0.050149888 0.06400884 -0.063343175 -0.052784026
2.8690594e-05 0.04191111 -0.0029670068 0.08132795 -0.108323075 0.18343188 -0.16344716 0.096377656
0.036207743 -0.12891185 -0.014125198 -0.059886444 0.10141395 0.35393086 0.029922992 0.03844721
-0.61123884 -0.014248354 0.046299815 -0.6646645 -0.2723955 0.022111978 0.012302155 0.20386429
-0.07581659 0.07685505 -0.06097601 -0.083000384 0.10134279 -0.19127794 0.1302949 -0.22121693
-0.002313311 -0.37719947 0.027510935 0.008536845 -0.0021844949 -0.02672658 0.21829155 0.07292724

layer2.bias f4 [64]
00000000: 4355 1a3e 78c6 a73d 6a75 a1bc 4d76 2fbe
00000010: c8f0 3abd 09e1 833d 2f38 53bd 3731 7ebd
00000020: f404 683d 7615 753c e9ac 03bd 495b f5bb
00000030: 20f5 663d c6c3 e63d 165d 9d3d d1a4 a93d
00000040: 483f 2ebe 6d90 d93d 9008 3b3e bc98 c7bc
00000050: e0c4 4ebc b93d c0bc 5a39 243e 5111 19bd
00000060: fad7 603d 51bc fabc 06c1 77bc 90c3 c93d
00000070: 6d32 d73c 88dd 59bd e0ca 373e 9ad2 0f3c
00000080: 193c 333c 3f2f 743d 8867 9c3d 6edc 9fbd
00000090: cb86 333e c3cb 1abe f97c 193c 60af 133e
000000a0: ec10 1fbc a24c 163d b50c 343e 9995 d1bd
000000b0: 4b73 dabc 608e a8bc 5733 bdbd 6622 463e
000000c0: 0333 4f3c 9e38 6dbd 7da1 87bd 1cc9 d63d
000000d0: 7cf2 ed3d 8e5f cc3d 5c4d 56bc 68fc d13d
000000e0: d4ee bb3d 7f12 093e 83b1 e23d 01c2 ac3d
000000f0: 6f98 33bc d76f 7abd 69b1 afbc b5c8 383e
0.15071587 0.08192152 -0.019709308 -0.17134972 -0.045639783 0.064394064 -0.051567253 -0.062058654
0.05664535 0.01495873 -0.03214732 -0.0074876887 0.056386113 0.112678096 0.0768377 0.08283389
-0.17016327 0.1062325 0.18264985 -0.024364822 -0.012620181 -0.023466932 0.16037503 -0.03737003
0.05489347 -0.030607374 -0.015121704 0.09851754 0.026269162 -0.053189784 0.17948484 0.008778239
0.010939621 0.05961537 0.076369345 -0.078057155 0.17531888 -0.15116791 0.009368175 0.14422369
-0.009708624 0.036694176 0.17582972 -0.102336116 -0.026666304 -0.020575702 -0.09238308 0.1934906
0.0126464395 -0.057915322 -0.06622598 0.10487577 0.11618516 0.09979163 -0.013079967 0.10253221
0.09176412 0.13385962 0.11069014 0.08435441 -0.010961636 -0.061141815 -0.0214469 0.18045314

layer3.weight f4 [4, 64]
00000000: bdd1 0a3f a77c 2d3f 52dd 2d3e d4f3 223f
00000010: 3742 b8be 39b6 ef3d 3d96 dcbe d441 aebe
00000020: 0481 b83e 011a b0be 69dc 72be 13a5 1bbe
00000030: 8c99 5f3d ab27 253e 8b0e a83e 85f9 cc3e
00000040: 2ca5 17bf 8fac 0e3f 96e9 803d 41d8 63be
00000050: fb37 a7bd c5e1 66be 4bb1 363e a420 1abe
00000060: 28c0 a23e 9725 7dbd 1de3 463d 1d99 903e
00000070: f566 a23e 9189 4e3e 660a c03d 87e0 343c
00000080: 04c3 f43e fb6c 3f3d 1f7c 243b 15a7 74be
00000090: c99b 813e 8226 f7be 3759 e63e 08ce c43c
000000a0: 774b 8bbe be14 163e 347f c43d 2cea a93e
000000b0: 12b5 9cbe f2c0 02bf fdec 92be a1e2 b13d
000000c0: 1dd0 803e 9dae b2bd 4468 2ebe 928b 3c3f
000000d0: 8c11 153f c0f7 cc3e c48f 51bb 9619 423e
000000e0: 1d38 193f cd92 293e 3988 b63e d023 933e
000000f0: 4827 0cbe a48f 3e3e 8d11 4fbe 644d dd3d
00000100: 0c8f 033f 0d5e 2d3f 1422 363f 71f2 0e3f
00000110: 3cd6 5dbf e105 433e 4eb2 773e bc46 86be
00000120: 41f3 c73e 5d16 bdbe 83d6 4ebe 4dce 43be
00000130: 70f1 373e d0ab 163e d713 983e b362 e43e
00000140: 309e 0dbf eed2 123f 91df ee3d a5f9 04bf
00000150: e967 f3be ab40 dbbf 4f37 033e e4a9 71be
00000160: 0a5d b63e e8d1 63be d188 ef3e 7cb1 7f3e
00000170: 63c0 a93e eb4f c1be 4cc1 cf3d a57d 753e
00000180: 302f de3e 2a18 393e 4fb6 063e 8a0e 91be
00000190: 97b5 5e3e 2319 f0be fe0f c8be 92fc e23d
000001a0: d9ab acbe 137d f33e 86d2 af3d 065e db3e
000001b0: 3424 bdbe 5a57 19bf 0b01 93be d9e1 be3d
000001c0: 2aaa c53e f6a7 1bc0 5ef8 8fbe 267f 373f
000001d0: e71b 4d3f 94b0 b63e de2a 4f3a e807 433e
000001e0: d036 143f 4606 013e 09fa 9b3e 9d5b 983e
000001f0: d487 a5be 17e0 923e 996e c4be 2755 d43d
00000200: fb22 143f aa75 503f ba0a 703d 0812 023f
00000210: 0128 b7be 498f 0d3e f867 edbe 4615 96be
00000220: e170 ba3e 2fc9 79be 9f74 90be 0fc4 13be
00000230: 34c0 843b 64d8 673e 6109 a13e c6e0 793e
00000240: 9ac6 1cbf 731f 153f 55bb 893d 8ce7 54be
00000250: aba1 4bbd e3e9 31be 5bb2 3d3e f1eb 1ebe
00000260: 2e02 873e d7c1 74bd 737e eebc 2f81 9a3e
00000270: c567 a43e a0b3 733e 6be0 193e 4c92 c93d
00000280: 1350 e93e b6f4 063d 8b06 6c3b 30c1 6cbe
00000290: b8eb 5d3e fea6 03bf 3cbc b43e b3cc 7a3d
000002a0: 0735 45be 7e5e 943e 5df5 173e e379 043f
000002b0: 9d6f 9cbe 12cd f4be 8440 91be 68bc ad3d
000002c0: 1863 473e 2c87 97bc 59f1 24be 846a 363f
000002d0: 2862 133f a6a5 d63e e7cb d7bb 5368 383e
000002e0: 86f6 1b3f be3a 6b3d f3f7 6c3e 4bde a63e
000002f0: 8ed0 23be 005c 5a3e 4713 23be eeb7 91bc
00000300: 005b 043f b02e 043f 5290 3d3e 2990 3d3f
00000310: d23f 85be c94d 923d 4ecc d2be 8262 cbbe
00000320: 2c00 b33e a396 dcbe ee32 3fbe 8405 08be
00000330: 8182 893d 72b9 cf3d e4b5 a93e db0f 053f
00000340: 0c6f 15bf 9a50 073f 5f93 833d 48cd 39be
00000350: ead9 9ebd 864f 04be 2ece 2f3e 8119 e8bd
00000360: 065f bd3e 236e a2bd f493 253d 438a 8f3e
00000370: 188e a93e f041 713e ad59 433b ceab fabd
00000380: 1cec f73e 673a 2f3c 31c9 07bc 9e6d 82be
00000390: cd97 993e 3b2c e7be 4a20 093f 6098 03bc
000003a0: 29da a1be 9d54 b2bd 4f5a dc3d 8539 413e
000003b0: f64f 9ebe 6268 08bf f303 90be 01ec 9d3d
000003c0: 0439 8c3e c286 b33c 3f08 35be 5773 3f3f
000003d0: da08 063f 88d2 c73e 95d8 9ebc c695 3c3e
000003e0: 35c4 123f fdeb 8d3e fa29 e63e 12c2 833e
000003f0: 1633 d5bd 1682 1b3e eb52 6cbe 6ca4 3d3e
0.54226285 0.6776833 0.16978958 0.636533 -0.35988018 0.11704678 -0.43083373 -0.34034598
0.3603593 -0.3439484 -0.23716892 -0.1519969 0.054589793 0.16128413 0.32823595 0.40034118
-0.5923641 0.55732054 0.06294553 -0.22250463 -0.08164974 -0.22547062 0.1784107 -0.15051514
0.3178723 -0.061803427 0.048556436 0.28241816 0.31719175 0.20169665 0.09376983 0.01103986
0.47805035 0.04673479 0.0025098396 -0.23891862 0.25314167 -0.48271567 0.4498994 0.024024025
-0.27206013 0.1465635 0.095945746 0.3318647 -0.30606896 -0.5107566 -0.28696433 0.08685804
0.25158778 -0.08724711 -0.17031962 0.7365047 0.582299 0.40032768 -0.003197656 0.18955073
0.5985125 0.16559906 0.35650805 0.2873826 -0.1368686 0.18609482 -0.20221539 0.10805777
0.5139015 0.67721635 0.7114575 0.55838686 -0.8665502 0.19045211 0.24189112 -0.2622584
0.39052776 -0.36931124 -0.20199017 -0.19121666 0.17963195 0.14713979 0.29702637 0.44606552
-0.553195 0.57353103 0.11663736 -0.5194343 -0.47540215 -1.712911 0.12814067 -0.23599964
0.35617858 -0.22248042 0.4678407 0.24970049 0.33154592 -0.37756285 0.1014429 0.23973711
0.43395376 0.18075624 0.13155483 -0.28331405 0.21748959 -0.46894178 -0.390747 0.1108333
-0.3372486 0.47556362 0.08585076 0.42845172 -0.36941683 -0.5989891 -0.28711733 0.09320421
0.38606387 -2.4321265 -0.28119177 0.7167839 0.801207 0.35681593 0.0007902811 0.19045985
0.5789614 0.1260005 0.304642 0.29757395 -0.3233019 0.28686592 -0.3836563 0.10367804
0.57865876 0.8142954 0.05860398 0.50808764 -0.35772708 0.1382419 -0.46368384 -0.29313105
0.36414245 -0.24393152 -0.28213975 -0.14430259 0.0040512327 0.2264114 0.31452468 0.2440215
-0.6124054 0.5825111 0.06725184 -0.20791453 -0.049714725 -0.17374377 0.18525068 -0.15519692
0.2636885 -0.059755173 -0.02911303 0.30176684 0.3211042 0.2379899 0.15027015 0.09842357
0.45568904 0.03294822 0.0036014642 -0.2312057 0.21671951 -0.51426685 0.3529986 0.061230373
-0.1925851 0.28978342 0.14839692 0.51748484 -0.30553904 -0.47812706 -0.28369534 0.08483201
0.19471395 -0.018497072 -0.16107692 0.7125628 0.5757165 0.41923255 -0.0065855864 0.18008547
0.6092304 0.057429068 0.2314146 0.3259147 -0.15997526 0.21324158 -0.15925322 -0.0177879
0.51701355 0.5163374 0.18512085 0.74048096 -0.26025254 0.071437426 -0.41171497 -0.39723593
0.3496107 -0.43083677 -0.18671772 -0.13283354 0.06714345 0.10142793 0.33146584 0.5197732
-0.5837257 0.52857363 0.06424593 -0.18144715 -0.077564076 -0.12920961 0.17168495 -0.113329895
0.3698656 -0.07931163 0.040424302 0.28035173 0.3311622 0.2356031 0.002980809 -0.122398004
0.48422325 0.010695077 -0.008287714 -0.25474256 0.29998627 -0.45150933 0.53564894 -0.0080319345
-0.31611755 -0.08707545 0.107594125 0.18869598 -0.3092038 -0.53284276 -0.28128013 0.0771103
0.2738725 0.021914843 -0.17678927 0.7478537 0.52357256 0.3902781 -0.019390384 0.18416509
0.5733064 0.27719107 0.449539 0.25734 -0.104101345 0.15186343 -0.23078506 0.18519753

layer3.bias f4 [4]
00000000: 02a8 493e ddba 303e dabe 4b3e e0ec 4e3e
0.19692996 0.17258783 0.19897023 0.20207548
