models/model_2/nets/100_target_net.pt (torch, 46990 bytes, 6 tensors)

layer1.weight f4 [128, 19]
0	0x3de6f2fb	0.112768136
1	0x3e614094	0.21997291
2	0xbd798916	-0.06092175
3	0xbe8c9987	-0.27460882
4	0xbcbb3980	-0.022854567
5	0xbea0bfc4	-0.31396306
6	0xbdb6095d	-0.08888505
7	0x3e00f2d7	0.12592636
8	0x3d553f87	0.052062538
9	0x3db08fe8	0.08621198
10	0x3dc9b422	0.09848811
11	0xbe58b9ac	-0.21164578
12	0xbe0609d0	-0.1308968
13	0x3e54d164	0.20783001
14	0xbc9b03b9	-0.018922674
15	0xbd4a6e5a	-0.049421646
16	0xbe7addd2	-0.2449868
17	0xbd17d19e	-0.03706514
18	0x3d9020e5	0.07037524
19	0xbdf93a6d	-0.12169347
20	0x3d0d201b	0.034454446
21	0xbe2966d7	-0.16543137
22	0xbd5ebad3	-0.05437739
23	0x3e857ba0	0.2607088
24	0xbeb7a18c	-0.35865438
25	0x3d1c8f82	0.038222797
26	0xbd64e39c	-0.055881128
27	0x3da39bad	0.07988677
28	0x3dcc45bf	0.099742405
29	0xbde1684c	-0.11006221
30	0xbde1cf35	-0.1102585
31	0xbde78e6a	-0.1130646
32	0x3e115ca2	0.14195493
33	0xbe14cc6e	-0.14531109
34	0xbe5844e3	-0.21120028
35	0x3e2b0bae	0.16703674
36	0x3e062c87	0.13102923
37	0x3d9ee761	0.07758976
38	0x3e0c769b	0.1371712
39	0x3e01b8f4	0.1266821
40	0xbcad2828	-0.021137312
41	0xbe798477	-0.24366938
42	0xbd6f060b	-0.058355372
43	0xbb4f40f1	-0.0031624401
44	0xbe4a0054	-0.19726688
45	0xbd7442c6	-0.059633993
46	0xbe00c30f	-0.12574409
47	0xbe0e0b50	-0.13871503
48	0xbe72b80d	-0.23703022
49	0xbdbb1b81	-0.09136105
50	0x3e301768	0.17196429
51	0xbdce48c9	-0.100724764
52	0xbe48460c	-0.19557971
53	0x3af72461	0.0018855446
54	0x3cf61893	0.030041015
55	0xbd9539a6	-0.07286386
56	0x3dfc6ac4	0.123250514
57	0xbdf70a36	-0.120624945
58	0xbd889a56	-0.06670062
59	0x3da5bea5	0.08093003
60	0x3e0949bf	0.13407038
61	0x3d508a88	0.050913364
62	0x3e23d2f3	0.1599844
63	0x3daa2d8e	0.0830947
64	0xbde20b1b	-0.110372745
65	0x3e239419	0.15974464
66	0x3d5b0bf9	0.053478215
67	0xbcd87ebc	-0.02642762
68	0x3dda5969	0.10661585
69	0x3c9ab949	0.018887179
70	0x3e57ded5	0.21081097
71	0xbe347c81	-0.1762562
72	0xbe3e0ec7	-0.18560325
73	0x3da6e8fd	0.08149908
74	0xbe202ef8	-0.15642917
75	0x3d976c9f	0.07393765
76	0xbe2b7ac7	-0.16746055
77	0x3df82bf1	0.12117756
78	0x3c37a3cf	0.011208489
79	0x3e5181bc	0.20459646
80	0x3e259584	0.16170317
81	0x3d51c718	0.05121526
82	0xbd1091cd	-0.035295296
83	0x3e5a2a4e	0.213052
84	0x3e0dab95	0.13834985
85	0xbc51dd7e	-0.0128091555
86	0xbdb6d675	-0.08927623
87	0xbe577c21	-0.21043445
88	0xbe2b006e	-0.16699383
89	0xbe161c86	-0.14659318
90	0xbdaa57b1	-0.08317507
91	0x3cb91091	0.022590907
92	0x3cd7fd33	0.026365852
93	0xbd9953f2	-0.074867144
94	0xbe19de25	-0.15026148
95	0x3ace0ba8	0.0015720027
96	0xbe0785aa	-0.13234583
97	0x3e2b689c	0.16739124
98	0x3e24a27d	0.1607761
99	0xbe39f4c6	-0.1815978
100	0x3dbe201d	0.09283469
101	0xbd9c2ec6	-0.07626109
102	0xbe472671	-0.19448258
103	0xbe1afa79	-0.1513461
104	0xbdd16894	-0.10225025
105	0xbe1ed553	-0.15511064
106	0xbe1c4d79	-0.15263928
107	0xbe108561	-0.1411338
108	0x3d75e09a	0.06002865
109	0xbdd80c08	-0.1054917
110	0x3def5f0a	0.11688049
111	0xbd29d8e6	-0.041466616
112	0x3d127187	0.0357528
113	0xbb0e7870	-0.0021739267
114	0xbdf0d46e	-0.11759268
115	0x3de64adc	0.11244747
116	0x3e0ea26f	0.13929151
117	0xbbee356f	-0.0072695534
118	0xbcf60868	-0.030033305
119	0xbe1fbd5b	-0.15599577
120	0xbdd7a368	-0.10529214
121	0xbe19af3c	-0.15008253
122	0xbe09c953	-0.13455705
123	0x3d823c3f	0.06359147
124	0x3df0a04d	0.11749325
125	0x3ce9534c	0.028482102
126	0x3e00a604	0.1256333
127	0xbe20e980	-0.15714073
128	0xbd576294	-0.052584246
129	0xbbc47a70	-0.005996041
130	0x3e00a9fc	0.12564844
131	0xbe1e30c3	-0.15448289
132	0x3ac7ad93	0.0015234224
133	0xbe12ee28	-0.14348662
134	0x3d659125	0.056046624
135	0xbb9ea5a8	-0.004841525
136	0xbe39c0f9	-0.1814002
137	0xbdfc9327	-0.123327546
138	0x3ea93245	0.33046165
139	0x3d07d649	0.033163343
140	0x3db218b5	0.08696119
141	0x3e45b3df	0.19306897
142	0x3e019df5	0.12657912
143	0x3d26811e	0.04065048
144	0xbe0a6987	-0.13516818
145	0xbe1bd6b4	-0.15218621
146	0xbd677061	-0.056503657
147	0xbe38069e	-0.17971274
148	0xbd4c8579	-0.049931977
149	0x3dce1ecd	0.100644685
150	0x3e2c6572	0.16835573
151	0xbe026d29	-0.12736954
152	0x3e4b243b	0.1983804
153	0x3da42e4f	0.08016645
154	0xbb60f7e1	-0.0034327435
155	0xbd5c8f1c	-0.053847417
156	0xbe622a44	-0.22086436
157	0xbe3dc584	-0.18532377
158	0xbe994902	-0.29938513
159	0xbc48e483	-0.012261513
160	0x3e067341	0.13129903
161	0xbe163dce	-0.14672014
162	0xbd98205a	-0.074280456
163	0xbe001a91	-0.12510134
164	0xbda38243	-0.0798383
165	0x3d835a09	0.06413657
166	0x3e164a68	0.14676821
167	0x3e2a78f2	0.166477
168	0x3d8be82f	0.06831395
169	0x3d10a4e4	0.035313502
170	0x3e227c9f	0.15867852
171	0x3de2b315	0.110693134
172	0xbdf1fa26	-0.1181529
173	0x3d47bdfe	0.048765175
174	0xbda43e18	-0.08019656
175	0xbdb770ac	-0.08957037
176	0x3d8296c7	0.06376415
177	0xbda80e4b	-0.08205851
178	0xbe254850	-0.16140866
179	0xbe3e1820	-0.1856389
180	0xbdedbf7d	-0.11608789
181	0x3e2a3760	0.16622686
182	0x3d316d85	0.043317337
183	0x3d89f134	0.06735459
184	0xbc9d4c1b	-0.019201329
185	0xbc1703ca	-0.009217212
186	0xb9802fbb	-0.00024449624
187	0x3e1f9f56	0.15588126
188	0x3e659b1b	0.2242245
189	0x3e5c5566	0.21516952
190	0xbe0574cd	-0.13032837
191	0x3c0cd27b	0.008595104
192	0x3d1c157b	0.038106423
193	0xbde8f4da	-0.11374827
194	0x3db0e27c	0.086369485
195	0xbe4d9bab	-0.20078914
196	0xbc3fde0f	-0.011710658
197	0xbe2fb6fd	-0.17159648
198	0xbe48c831	-0.19607617
199	0x3e0385c2	0.12843993
200	0xbda72002	-0.08160402
201	0xbdd6a7f2	-0.10481252
202	0x3d655916	0.055993162
203	0xbae2101a	-0.001724723
204	0x3da5d957	0.08098095
205	0x3d7e8b6b	0.062144678
206	0x39cc85b2	0.00039009523
207	0xbe456060	-0.19275045
208	0xbdc0bda2	-0.094111696
209	0xbd1b8b2a	-0.037974514
210	0xbe45793f	-0.19284533
211	0xbe542693	-0.2071784
212	0x3d9874ab	0.07444128
213	0x3e657f53	0.22411852
214	0x3e4f32eb	0.20234267
215	0x3dbee604	0.09321216
216	0xbd61b669	-0.0551056
217	0x3da7b374	0.08188525
218	0xbe09de55	-0.13463719
219	0x3e2f10f4	0.17096311
220	0xbd35e0b0	-0.04440373
221	0xbc269bb5	-0.010168959
222	0xbdd9c54e	-0.10633336
223	0xbd8c7f83	-0.068602584
224	0xbde7227a	-0.11285873
225	0xbde54dc8	-0.11196476
226	0x3e581f72	0.21105745
227	0x3de5d89d	0.11222956
228	0xbcfab4f9	-0.030603873
229	0xbd6c1f05	-0.05764677
230	0xbd9a218b	-0.07525929
231	0x3d0e73c1	0.03477836
232	0x3e159c20	0.14610338
233	0x3e66464a	0.2248775
234	0xbe22f776	-0.15914711
235	0xbc598239	-0.013275676
236	0xbce3a121	-0.027786793
237	0xbd0efe31	-0.034910385
238	0xbd644394	-0.05572851
239	0x3e1664d5	0.14686902
240	0xbe401215	-0.18756898
241	0x3dfab1f6	0.122409746
242	0x3cfef422	0.031122271
243	0xbd873b67	-0.06603127
244	0xbd3ce718	-0.046118826
245	0x3d52f717	0.051505174
246	0xbd56dfeb	-0.05245964
247	0x3dbef25f	0.09323572
248	0x3e051a84	0.12998396
249	0xbd99e355	-0.07514063
250	0xbdaecd35	-0.08535234
251	0xbe3b63dd	-0.18299814
252	0x3e226641	0.1585932
253	0xbdb6ade9	-0.089198895
254	0x3da2f6dc	0.07957241
255	0x3dab2ee1	0.08358551

layer1.bias f4 [128]
0	0x3d47ac78	0.048748463
1	0x3c789f2c	0.015174668
2	0xbd1df4e5	-0.038563628
3	0xbe16ca3d	-0.14725585
4	0x3dfa9680	0.12235737
5	0x3d3c7199	0.046006773
6	0x3e6d8465	0.23195036
7	0xbdafec47	-0.08589988
8	0xbcc125c5	-0.02357758
9	0xbd0c94dc	-0.03432165
10	0x3dd4e1aa	0.103946045
11	0xbcdb50c4	-0.02677191
12	0x3e0a4fe7	0.13507043
13	0xbc0183f5	-0.007904996
14	0xbd7b6360	-0.06137407
15	0x3e3adc49	0.18248095
16	0xbd955f86	-0.0729361
17	0x3e085dfc	0.13317102
18	0x3db75903	0.089525245
19	0x3dfc3cc8	0.123162806
20	0x3ce13c54	0.027494587
21	0x3daaf9c6	0.08348422
22	0x3e01e859	0.1268629
23	0xbc84e67a	-0.016223181
24	0xbda1ae04	-0.07894519
25	0xbd1a2bb4	-0.037639335
26	0x3e3f38ae	0.18673965
27	0xbd84de00	-0.06487656
28	0xbdc608d8	-0.096696556
29	0xbe51a361	-0.2047248
30	0x3dc2c4d1	0.09510196
31	0xbd2809f1	-0.041025106
32	0x3dcf7b21	0.10130907
33	0x3c1c0309	0.009522208
34	0xbbd8c34d	-0.0066150785
35	0xbe135458	-0.14387643
36	0x3e102605	0.14077003
37	0x3cc1deea	0.023665864
38	0x3d4d2ff5	0.050094564
39	0xbdd6e231	-0.10492361
40	0x3dc5239a	0.09625931
41	0xbdf3adbb	-0.11898371
42	0x3de60f32	0.11233367
43	0xbdeb6144	-0.11493161
44	0xbe2f0af0	-0.17094016
45	0x3dd2e813	0.10298171
46	0x3e53407d	0.20630069
47	0xbd5dd616	-0.054159246
48	0xbdd8db56	-0.1058871
49	0x3e4bec16	0.19914278
50	0x3c8edbb3	0.017438745
51	0x3d2fd864	0.042930976
52	0x3dfdc285	0.12390617
53	0xbdef59d2	-0.11687054
54	0xbc32576c	-0.010885101
55	0x3d47fa87	0.048822906
56	0x3c67ca4e	0.014147354
57	0xbc30cdea	-0.010791281
58	0x3c1b8a81	0.009493471
59	0xbde6b4e2	-0.112649694
60	0xbe1705b1	-0.14748265
61	0xbcd866f3	-0.026416278
62	0x3e15753e	0.14595506
63	0xbd5a8f13	-0.053359102
64	0x3e2bfc21	0.16795398
65	0x3bf89d94	0.007587144
66	0xbddc7d17	-0.107660465
67	0xbe23eb0f	-0.16007636
68	0x3db5e4f6	0.088815615
69	0xbdfc30b3	-0.12313976
70	0xbd4cdc05	-0.050014514
71	0xbe26cf07	-0.16289912
72	0xbdcea87a	-0.10090728
73	0xbdf057b3	-0.11735477
74	0x3e0f751c	0.14009517
75	0xbe182ebf	-0.14861582
76	0x3e5aacc4	0.21354967
77	0xbdf3e274	-0.11908427
78	0x3c52c493	0.01286425
79	0x3d43c6c5	0.047796983
80	0xbd905df7	-0.07049172
81	0x3e2070fe	0.15668103
82	0x3d5eabff	0.054363247
83	0x3b1268dd	0.0022340335
84	0xbde2c27f	-0.110722534
85	0x3dafebb9	0.085898824
86	0x3db56d7a	0.088587716
87	0x3bbaf775	0.0057057687
88	0xbe41390b	-0.18869416
89	0x3dc48063	0.095948
90	0x3e2411dc	0.16022438
91	0x3d71d9d9	0.059045646
92	0x3e299ff0	0.16564918
93	0xbb10bbb7	-0.0022084543
94	0xbe030511	-0.12794901
95	0x3e2a60d7	0.16638504
96	0x3d2a1eaf	0.04153317
97	0x3de4c9a7	0.11171275
98	0xbe42daaa	-0.19028726
99	0x3e32399e	0.17404792
100	0xbd0e149b	-0.03468762
101	0x3e2f9fa6	0.17150745
102	0xbdf004c8	-0.11719662
103	0x3da6608a	0.08123882
104	0xbe4c2fda	-0.19940129
105	0x3d8f8162	0.070071
106	0xba45f1dc	-0.00075509935
107	0xbd73dc93	-0.059536528
108	0xbe2b6643	-0.16738228
109	0x3d8142e5	0.06311587
110	0xbbb8a53a	-0.005634931
111	0xbe159b2c	-0.14609975
112	0xbe0177d9	-0.12643375
113	0xbe0c594e	-0.13705942
114	0xbbb44f9f	-0.0055026556
115	0x3cb99401	0.022653582
116	0x3e5a5652	0.21321991
117	0xbceef28e	-0.029168393
118	0xbc5756e0	-0.013143271
119	0x3d1005d2	0.0351618
120	0xbd87fcb9	-0.0664
121	0x3e3179a4	0.17331558
122	0x3deea601	0.116527565
123	0xbd999a29	-0.07500107
124	0x3e563996	0.20920405
125	0xbe20ebda	-0.1571497
126	0xbe2c3e3e	-0.16820619
127	0xbd11b6e9	-0.035574827

layer2.weight f4 [64, 128]
0	0xbd22bbdd	-0.03972994
1	0x3e1ed892	0.15512303
2	0x3d5fd211	0.054643694
3	0xbda9fb73	-0.08299913
4	0xbcd1a4ee	-0.02559134
5	0x3d329337	0.043597426
6	0x3ddc60f0	0.10760677
7	0x3d2cf26c	0.04222338
8	0x3d6e6b60	0.05820787
9	0x3e25cc1d	0.16191144
10	0x3c9ad07b	0.01889824
11	0xbf10b0a1	-0.56519514
12	0x3dd7b239	0.1053204
13	0x3d378b15	0.044810373
14	0xbe0c3e75	-0.136957
15	0x3d65ab4f	0.056071576
16	0x3dea5c92	0.11443438
17	0xbd48076a	-0.048835196
18	0xbd3bc38d	-0.04584079
19	0x3c3b2714	0.011422891
20	0xbe404610	-0.18776727
21	0xbdf2539f	-0.11832356
22	0xbc0c0eb8	-0.008548431
23	0xbd51ab18	-0.05118856
24	0xbc84f78b	-0.016231319
25	0xbdd5de41	-0.10442782
26	0x3de56a74	0.11201945
27	0xbe73d82e	-0.23812935
28	0x3a6249a9	0.0008632192
29	0xbd02a1ca	-0.031892575
30	0x3d354700	0.044257164
31	0x3d46f3a9	0.048572216
32	0xbda76bf0	-0.08174884
33	0xbdfc1e1a	-0.12310429
34	0x3d8d28fb	0.06892582
35	0x3a4d8da4	0.00078412355
36	0xbc3ba91c	-0.011453893
37	0xbe98ca59	-0.2984188
38	0x3da407ba	0.08009286
39	0xbdcafc83	-0.09911444
40	0xbce76ce4	-0.028250165
41	0xbca3d579	-0.019999253
42	0xbce98673	-0.028506493
43	0xbe17dfed	-0.14831515
44	0xbedc2f0f	-0.43004653
45	0x3da5fa17	0.081043415
46	0x3d39f6d2	0.0454014
47	0xbce6cc8f	-0.028173713
48	0xbe8766ce	-0.2644562
49	0x3b2d0124	0.0026398385
50	0xbde56a7b	-0.1120195
51	0xbd28c901	-0.041207317
52	0x3abfe4db	0.0014640348
53	0x3def3322	0.11679675
54	0x3cc8fcf3	0.024534678
55	0x3e23a573	0.15981083
56	0xbed3e76a	-0.41387492
57	0x3ddd35dd	0.10801289
58	0x3de2e06c	0.11077961
59	0xbe7afe60	-0.24511099
60	0x3d89ed81	0.067347534
61	0x3d338b91	0.043834273
62	0x3d86549c	0.06559107
63	0xbdf92488	-0.12165171
64	0x3cbbee0f	0.022940664
65	0x398a982e	0.00026434794
66	0xbdd8611e	-0.10565399
67	0xbd29fd4a	-0.04150132
68	0xbe4423a8	-0.19154227
69	0xbdaae7ab	-0.083449684
70	0x3de6e93c	0.11274955
71	0xbcec3f77	-0.028838856
72	0xbdb14b8e	-0.08656989
73	0x3df61a36	0.12016718
74	0x3e7d3a40	0.24729252
75	0x3d388d7f	0.045056816
76	0xbeb90825	-0.36139026
77	0x3d0628ca	0.032753743
78	0xbe51a93d	-0.20474716
79	0xbd413058	-0.047165245
80	0x3d89e889	0.06733806
81	0xbdf4def9	-0.11956591
82	0xbea2c0fe	-0.31787866
83	0xbd091ef3	-0.03347678
84	0x3bbfed15	0.00585712
85	0xbcd3cd57	-0.02585475
86	0xbde37601	-0.11106492
87	0xbd653b0d	-0.05596452
88	0xbd04fd8b	-0.03246836
89	0x3d9bda9b	0.07610055
90	0xbd9a9646	-0.07548194
91	0x3c83b3be	0.016076919
92	0x3dbc6d83	0.09200575
93	0x3e07495b	0.13211577
94	0xbb2c93b6	-0.002633316
95	0x3de5dd56	0.11223857
96	0x3e011613	0.12606077
97	0x3d9cf5a3	0.07664039
98	0xbd405abf	-0.046961542
99	0xbce9e147	-0.028549803
100	0xbe266cee	-0.16252491
101	0xbdb88151	-0.0900904
102	0x3c8759d4	0.016522326
103	0x3cab3f92	0.020904336
104	0xbe8eb2e6	-0.27870864
105	0x3d89b700	0.067243576
106	0x3d818389	0.063239165
107	0xbe30074c	-0.17190284
108	0xbe4f7d45	-0.2026263
109	0xbe1301c8	-0.14356148
110	0xbd6576d6	-0.056021534
111	0x3e061216	0.13092837
112	0x3da3f9f8	0.08006662
113	0x3d1b4bed	0.037914205
114	0x3d83c6fb	0.06434437
115	0xbd9dd0fa	-0.07705875
116	0xbe10c519	-0.14137687
117	0x3caaf117	0.020866914
118	0xbd49e58a	-0.04929117
119	0xbe5cbffd	-0.21557613
120	0x3d18b7a6	0.037284516
121	0xbe4e37f7	-0.20138536
122	0xbc9089d5	-0.017643848
123	0x3cc2772c	0.023738466
124	0x3ce4ed23	0.027945107
125	0xbd80a34d	-0.06281147
126	0xbe3a87ba	-0.18215838
127	0x3e0d335f	0.13789128
128	0x3db5139c	0.08841631
129	0x3dd2747b	0.10276123
130	0xbd397802	-0.045280464
131	0xbeac24e6	-0.336219
132	0x3cd9a0e1	0.02656597
133	0x3b8ffbae	0.004394016
134	0xbd8eb7ef	-0.06968676
135	0x3d1e7635	0.03868695
136	0x3d192f7b	0.037398797
137	0xbd9ec5c5	-0.07752565
138	0xbc31b3ce	-0.010846091
139	0xbe591ba2	-0.21201947
140	0xbe5e8ffd	-0.21734615
141	0xbd8b778e	-0.068099126
142	0xbd59d644	-0.053182855
143	0x3d4078f5	0.046990354
144	0xbe9585d3	-0.29203662
145	0x3d60bf77	0.054870095
146	0x3da20f91	0.07913125
147	0xbdc7efe8	-0.09762555
148	0xbe02f868	-0.12790072
149	0xbd79338c	-0.060840175
150	0xbd9ca67b	-0.07648941
151	0x3c2ef096	0.010677477
152	0x3d9bf10d	0.07614336
153	0x3d38de5a	0.045133926
154	0xbd4021e8	-0.046907336
155	0xbf033dfd	-0.5126646
156	0x3ccaabc8	0.024740115
157	0x3d8b3285	0.06796745
158	0xbcf00ea7	-0.029303862
159	0xbc9b03af	-0.018922655
160	0xbd9db901	-0.07701302
161	0xbeb47fa5	-0.35253635
162	0x3da1fb54	0.07909265
163	0xbc732666	-0.014840698
164	0x3cdbf9be	0.026852485
165	0xbddb052c	-0.10694346
166	0xbe19d9b7	-0.15024458
167	0x3d5f2a9d	0.054484
168	0x3c962c46	0.018331658
169	0x3d662ade	0.056193225
170	0x3c89c347	0.016816748
171	0x3c11cd98	0.008899115
172	0xbe0e51fb	-0.1389846
173	0xbbc113c0	-0.005892247
174	0x3d0ad586	0.033895038
175	0x3d95dcf0	0.07317531
176	0xbdaf0eaf	-0.085477225
177	0x3a2f14e8	0.00066788355
178	0xbdbef131	-0.09323347
179	0x3d9f55ce	0.07780038
180	0xbde5dfdf	-0.11224341
181	0xbd3a9a1a	-0.04555712
182	0x3de24905	0.110490836
183	0xbe0d928b	-0.13825433
184	0xbd1c2d03	-0.038128864
185	0x3d509456	0.050922714
186	0xbcaf3e08	-0.021391883
187	0xbece65be	-0.40311998
188	0x3e198c19	0.1499485
189	0xbcac93dc	-0.021066599
190	0x3dd142e3	0.10217836
191	0x3ca4b632	0.020106409
192	0x3df1250f	0.117746465
193	0xbd8e41c5	-0.06946138
194	0x3c274ce6	0.010211205
195	0xbd96b9b3	-0.07359638
196	0xbb96929c	-0.004595114
197	0x3d8a127b	0.06741806
198	0xbe352914	-0.17691451
199	0xbe155c78	-0.14586055
200	0xbdadded6	-0.08489768
201	0x3a71694f	0.00092091126
202	0x3d3ac30f	0.04559618
203	0x3d5ab97d	0.05339955
204	0xbdceb554	-0.10093179
205	0x3d8d4d3e	0.068994984
206	0xbd6ec469	-0.05829278
207	0x3ce497a3	0.027904337
208	0x3d8ec20f	0.069706075
209	0xbebaaf19	-0.36461714
210	0xbd99e168	-0.07513696
211	0x3d840275	0.06445781
212	0xbd3836f2	-0.044974275
213	0xbd651302	-0.05592633
214	0xbe4fe155	-0.20300801
215	0x3d8dcd40	0.06923914
216	0x391745ef	0.00014426534
217	0x3c006e9b	0.00783887
218	0xbba8e09e	-0.0051537296
219	0x3da42ac2	0.08015968
220	0xbd61d586	-0.055135272
221	0xbd2614a6	-0.040547036
222	0xbe663326	-0.22480449
223	0x3d819fb4	0.06329289
224	0x3d85d5db	0.0653493
225	0x3d216e92	0.03941209
226	0x3cf5f082	0.03002191
227	0x3c078cf0	0.008273348
228	0xbce45a75	-0.027875165
229	0xbd7915e1	-0.06081188
230	0x3dde436a	0.10852702
231	0xbd814416	-0.063118145
232	0xbea46b61	-0.32113174
233	0x3cd1b9e6	0.025601339
234	0x3c086f86	0.0083273705
235	0x3d388133	0.04504509
236	0xbe2bab9a	-0.1676468
237	0xbe9f269d	-0.31084147
238	0x3ccfa382	0.025346521
239	0x3e3bacea	0.1832768
240	0xbdd6522d	-0.104648925
241	0xbcff5475	-0.031168202
242	0x3d2e52ea	0.04255954
243	0xbc694c26	-0.014239347
244	0xbd8e66f6	-0.06953232
245	0xbd462f16	-0.04838475
246	0x3bc93f3b	0.006141571
247	0xbed3949f	-0.41324326
248	0x3d447d92	0.047971316
249	0xbe3098d7	-0.17245804
250	0xbcb85834	-0.022502996
251	0x3d0fbfe2	0.035095103
252	0xbdd0f006	-0.10202031
253	0xbe1e9358	-0.15485895
254	0xbe791c75	-0.24327262
255	0x3e018808	0.12649548

layer2.bias f4 [64]
0	0x3dbdb8e6	0.09263782
1	0xbd6f7a38	-0.058466166
2	0x3c01dcd3	0.007926184
3	0xbc58a55e	-0.01322302
4	0x3cdbfb68	0.026853278
5	0x3d19f519	0.03758726
6	0xbcca61e5	-0.024704883
7	0x3d0c4d34	0.034253314
8	0x3c6e4044	0.014541689
9	0xbc45c3d9	-0.0120706195
10	0x3cd6c228	0.026215628
11	0x3c7c5b5c	0.015402641
12	0xbd424cb5	-0.047436435
13	0x3c9117b1	0.017711492
14	0xbd97c098	-0.07409781
15	0xbd0d4b81	-0.034495834
16	0x3ce4aa96	0.027913373
17	0xbcf19112	-0.02948812
18	0x3d2680ac	0.040650055
19	0x3c7f82de	0.015595166
20	0x3c12e809	0.008966454
21	0x3ccd747f	0.025079964
22	0x3d1459d5	0.036218483
23	0xbaf7e890	-0.0018913914
24	0xbd0d7933	-0.034539413
25	0xbc627360	-0.013821453
26	0xbccd16a4	-0.02503521
27	0x3d89ee3f	0.06734895
28	0xbbc4e792	-0.0060090506
29	0xbcad1a4c	-0.021130703
30	0x3cda2ea1	0.026633563
31	0xbd0d0e4a	-0.034437455
32	0xbd972232	-0.07379569
33	0x3c02fcff	0.007994889
34	0xbc47c86e	-0.012193782
35	0x3cd1d875	0.02561591
36	0x3cea97e6	0.028636884
37	0xbd721761	-0.059104327
38	0x3d070e8e	0.032972865
39	0x3d923470	0.07138908
40	0x3d435e12	0.047697134
41	0xbd285ad5	-0.04110225
42	0xbd55e130	-0.05221671
43	0x3c066b9e	0.008204369
44	0x3d48414e	0.048890404
45	0xbd3689a1	-0.044564847
46	0xbd89bd53	-0.06725564
47	0x3d027a82	0.031855114
48	0xbd648f12	-0.055800505
49	0x3bfcc02b	0.007713338
50	0xbd9c80ac	-0.0764173
51	0xbd527a0e	-0.05138593
52	0x3d207cde	0.039181583
53	0x3d164671	0.036688272
54	0xbd733d03	-0.059384357
55	0x3bdeeb3a	0.0068029435
56	0x3c72f59a	0.014829064
57	0x3d237ae4	0.03991212
58	0xbca3e651	-0.020007284
59	0xbceaf0a6	-0.028679203
60	0x3d83f15f	0.06442522
61	0x3bb73831	0.0055914153
62	0x3c9689df	0.018376289
63	0x3dd1bf58	0.10241574

layer3.weight f4 [4, 64]
0	0x3e702c1c	0.23454326
1	0x3e20c7eb	0.15701263
2	0xbddae31c	-0.10687849
3	0xbd940d9a	-0.07229157
4	0xbe5b8abb	-0.2143964
5	0x3db37609	0.08762748
6	0xbdfb796a	-0.12279017
7	0xbe019ca7	-0.12657414
8	0x3e52008a	0.20508018
9	0xbe0835ae	-0.13301727
10	0xbdf2b6b1	-0.11851252
11	0xbe0a54be	-0.13508889
12	0x3d5e613d	0.054291952
13	0x3e1aadd1	0.15105368
14	0x3e3d9463	0.18513636
15	0x3d9ca2d4	0.076482445
16	0xbdbebd70	-0.09313476
17	0x3dc9c0e2	0.098512426
18	0x3d7015b7	0.05861446
19	0xbcc2f575	-0.023798684
20	0xbe1230e6	-0.14276466
21	0xbe1b233f	-0.15150164
22	0x3de34d4b	0.11098727
23	0xbdbf2e7f	-0.0933504
24	0x3e099ebc	0.13439459
25	0xbcc73e9c	-0.024321847
26	0x3c85af57	0.01631896
27	0x3da18d9b	0.07888337
28	0x3d8dab58	0.06917447
29	0x3d2437da	0.040092327
30	0x3cb37442	0.021906022
31	0x3d83269e	0.0640385
32	0xbd3a3d8b	-0.04546885
33	0x3de771b1	0.11300982
34	0x3cfbde0d	0.03074553
35	0xbe37ba5a	-0.17942181
36	0x3d85befe	0.065305695
37	0xbdcfb69d	-0.101422526
38	0x3d72d6d7	0.05928692
39	0xbd2ee4fb	-0.04269884
40	0xbd2915ac	-0.041280434
41	0x3d1c4cc7	0.038159158
42	0x3d5b3d9f	0.053525563
43	0x3e084517	0.13307606
44	0xbda91277	-0.08255475
45	0xbe16b271	-0.14716507
46	0xbe21e7b8	-0.1581105
47	0x3d8c32cc	0.06845626
48	0xbd08cd77	-0.03339907
49	0x3d95c4ef	0.07312953
50	0xbd47efb8	-0.048812598
51	0x3d72cb3d	0.059275854
52	0x3dddb03a	0.10824628
53	0x3e0c1e71	0.13683487
54	0xbc83ae05	-0.01607419
55	0x3da62fca	0.08114584
56	0xbd971363	-0.073767446
57	0x3d071bf7	0.032985654
58	0x3c94f7c3	0.018184548
59	0x3e0f4489	0.13990988
60	0xbd2b9dc3	-0.0418985
61	0x3e26191e	0.16220519
62	0xbd3de0f5	-0.046357114
63	0x3db81043	0.08987477
64	0x3ea36c51	0.31918576
65	0x3e1d5ccb	0.15367429
66	0x3cf58903	0.029972559
67	0xbbb77ab3	-0.0055993437
68	0xbea3dd04	-0.3200456
69	0x3e3662a1	0.17811061
70	0x3cc0a63e	0.02351677
71	0xbe5a7bf2	-0.21336344
72	0x3e54f9ad	0.20798369
73	0xbe19a069	-0.15002598
74	0xbe27a4fd	-0.16371532
75	0xbe4687a8	-0.19387686
76	0x3e03a961	0.12857582
77	0x3e141381	0.14460565
78	0x3e4030bb	0.18768589
79	0x3e8a3c26	0.26999015
80	0xbdf3f4c0	-0.11911917
81	0xbc85ee6a	-0.016349036
82	0x3e066f67	0.13128434
83	0xbe115a03	-0.14194493
84	0xbe75f3e0	-0.24018812
85	0xbe74beb7	-0.23900877
86	0x3daaf9c1	0.08348418
87	0xbe0d1288	-0.137766
88	0x3e46d977	0.19418894
89	0xbd49d8a7	-0.04927888
90	0x3d4e5bca	0.050380506
91	0x3d4522ea	0.048129
92	0x3d742722	0.059607632
93	0xbd5ee312	-0.05441577
94	0x3d62a85e	0.05533635
95	0x3e2c9ffc	0.16857904
96	0x3c6078c8	0.0137006715
97	0x3d3695b8	0.044576377
98	0x3dfac99f	0.122454874
99	0xbe80bb68	-0.2514298
100	0x3bcede3f	0.006313115
101	0xbdff85da	-0.12476702
102	0xbddc531f	-0.107580416
103	0x3dd6b0e3	0.10482957
104	0xbdc87223	-0.09787395
105	0xba1a4341	-0.00058846554
106	0x3d16dcc4	0.036831632
107	0x3e599a6e	0.21250317
108	0xbe1e9a90	-0.15488648
109	0xbe67b8a0	-0.22629023
110	0xbe40ec4e	-0.18840143
111	0x3c8e2cbc	0.017355315
112	0x3de0dd51	0.10979713
113	0xbe2459e2	-0.16049913
114	0xbe1c9ef6	-0.15295014
115	0x3e2340c9	0.15942682
116	0x3e094857	0.13406502
117	0xbb8ae8c8	-0.0042391755
118	0x3b822404	0.0039715786
119	0x3e2e932b	0.17048328
120	0x3d47a635	0.04874249
121	0xbd8b23d2	-0.067939416
122	0xbd4e1f12	-0.0503226
123	0x3dcf7d48	0.101313174
124	0xbe368c4b	-0.17826955
125	0x3e4c775c	0.19967407
126	0xbdee255c	-0.116282195
127	0x3cb30beb	0.021856269
128	0x3e6b79fc	0.22995752
129	0x3e5c3291	0.21503665
130	0xbd4c42da	-0.049868442
131	0xbca91300	-0.020638943
132	0xbe5fda72	-0.21860674
133	0x3dbe1c45	0.09282736
134	0xbe00daf6	-0.12583527
135	0xbdd6504c	-0.10464534
136	0x3e543cf5	0.20726378
137	0xbdf87c91	-0.12133134
138	0xbdb9b171	-0.090670474
139	0xbe106da5	-0.14104326
140	0xbc724c90	-0.014788762
141	0x3e20bc53	0.1569684
142	0x3e44ac0d	0.19206257
143	0x3d380d4c	0.044934556
144	0xbde01ad5	-0.10942618
145	0x3da3050d	0.07959948
146	0x3d308360	0.04309404
147	0xbd99f3d5	-0.075172104
148	0xbe091c6c	-0.13389748
149	0xbe0d899e	-0.13822028
150	0x3db4ccd2	0.08828129
151	0xbdcb45a9	-0.09925396
152	0x3df9b6ab	0.12193044
153	0xbd8c30e4	-0.06845263
154	0x3d32811c	0.04358016
155	0x3d39e061	0.04538
156	0xbd064952	-0.032784767
157	0x3c028fef	0.007968887
158	0x3df1b424	0.11801937
159	0x3d80e951	0.062945016
160	0x3d823d27	0.0635932
161	0x3ded34b9	0.11582322
162	0x3cf8205b	0.030288866
163	0xbe3b6c36	-0.18302998
164	0x3d3fb104	0.046799675
165	0xbdfd50b4	-0.123689085
166	0x3d884f08	0.06655699
167	0x3dcac1f0	0.09900272
168	0xbcb619dc	-0.022229128
169	0x3dd08723	0.10182025
170	0x3d498bc9	0.049205575
171	0x3e18fb1c	0.1493954
172	0xbdc1df92	-0.09466471
173	0xbe002e52	-0.1251767
174	0xbe34682d	-0.17617865
175	0x3c15ebaf	0.00915043
176	0xbd726d69	-0.059186373
177	0x3da3832c	0.079840034
178	0xba9247c0	-0.0011160299
179	0x3d043e6a	0.032286085
180	0x3dd51748	0.10404831
181	0x3df7da39	0.121021695
182	0xbd084527	-0.033269074
183	0x3da6edf2	0.08150853
184	0xbd4dee36	-0.050276004
185	0x3be2bb92	0.006919333
186	0x399c7103	0.0002983884
187	0x3e0c5ae8	0.13706553
188	0xbd3a5c93	-0.045498442
189	0x3e22a203	0.15882115
190	0xbd9efc4f	-0.07762968
191	0xbd676ad4	-0.056498364
192	0x3e6a1b6e	0.22862026
193	0x3e19ef3a	0.15032664
194	0xbdd857d2	-0.105636254
195	0x3d9a7c33	0.0754322
196	0xbe55e8d9	-0.20889606
197	0x3d9c1262	0.07620694
198	0xbdf1c68e	-0.118054494
199	0xbe085b45	-0.13316067
200	0x3e5262a2	0.20545438
201	0xbe12a9ca	-0.14322582
202	0xbe10ea99	-0.14151992
203	0xbe0940bb	-0.13403599
204	0x3db6159a	0.08890839
205	0x3e1f0fb1	0.1553333
206	0x3e44776c	0.19186181
207	0x3e016cf6	0.12639222
208	0xbd987320	-0.07443833
209	0xbc9b605c	-0.018966846
210	0x3d0e1885	0.034691352
211	0xbd6fc07d	-0.05853318
212	0xbdf244ea	-0.118295506
213	0xbe29f864	-0.1659866
214	0x3de1dea6	0.11028795
215	0xbddb20f2	-0.10699643
216	0x3e07a5b7	0.13246809
217	0xbc1e93c6	-0.009678787
218	0xbc75c045	-0.014999454
219	0x3dace22f	0.084415786
220	0xbcf6cce3	-0.030126994
221	0x3d0d8ddd	0.03455912
222	0xbc868577	-0.016421063
223	0x3d651e6b	0.055937212
224	0x3ddb68c4	0.10713342
225	0x3dc637c3	0.096786045
226	0x3d92f2f7	0.07175248
227	0xbe274d4f	-0.16338085
228	0x3dacc9fa	0.084369615
229	0xbde08816	-0.10963456
230	0x3d80d29e	0.06290172
231	0xbd86cd74	-0.06582156
232	0xbd409e92	-0.047026224
233	0xbd053b33	-0.03252716
234	0x3dc7f4f4	0.09763518
235	0x3e24d1e7	0.16095696
236	0xbda7f196	-0.08200376
237	0xbe1a19c1	-0.15048887
238	0xbe21ca45	-0.15799816
239	0x3d7fb4a7	0.062428143
240	0xbc1d7abf	-0.0096117845
241	0x3d9fa08b	0.07794293
242	0xbd0702ac	-0.032961532
243	0x3ddbfe84	0.107419044
244	0x3decaeac	0.115567535
245	0x3e13e8bf	0.14444254
246	0xbdc7821d	-0.09741614
247	0x3dbc279e	0.09187244
248	0x3d8ecd6d	0.069727756
249	0x3caec985	0.021336326
250	0x3d39491c	0.04523574
251	0x3e18c630	0.14919353
252	0xbc998305	-0.018739233
253	0x3e289dcb	0.16466443
254	0xbc8a26d2	-0.016864214
255	0x3d724991	0.05915219

layer3.bias f4 [4]
0	0x3d69e21f	0.05710041
1	0x3d98cbe9	0.07460768
2	0x3d98e7bb	0.07466074
3	0x3da009eb	0.07814392
