models/model_2/nets/100_policy_net.pt (torch, 46990 bytes, 6 tensors)

layer1.weight f4 [128, 19]
0	0x3de69dad	0.11260543
1	0x3e60b790	0.21945024
2	0xbd790dbf	-0.060804125
3	0xbe8cfac2	-0.27535063
4	0xbcbc19d3	-0.022961533
5	0xbea11a17	-0.31465217
6	0xbdb73970	-0.08946502
7	0x3e0044a5	0.12526186
8	0x3d52dafd	0.051478375
9	0x3db13ac5	0.086537875
10	0x3dc90da4	0.09817055
11	0xbe58d6ef	-0.2117574
12	0xbe062313	-0.13099317
13	0x3e54dede	0.20788142
14	0xbc9a2c92	-0.01882008
15	0xbd49bf22	-0.049254544
16	0xbe7ad186	-0.2449399
17	0xbd16e1eb	-0.036836546
18	0x3d906654	0.070507675
19	0xbdf843c3	-0.121222995
20	0x3d0c6d14	0.034283713
21	0xbe2942f8	-0.16529453
22	0xbd5f9f83	-0.05459548
23	0x3e8561da	0.26051217
24	0xbeb85d53	-0.360087
25	0x3d1bd5a9	0.03804556
26	0xbd66dec0	-0.056364775
27	0x3da2f528	0.07956916
28	0x3dcc4617	0.09974306
29	0xbde18a09	-0.11012656
30	0xbde245a6	-0.11048441
31	0xbde7cb5a	-0.11318083
32	0x3e111a97	0.141703
33	0xbe14eb1e	-0.14542815
34	0xbe587792	-0.21139362
35	0x3e2b1a06	0.16709146
36	0x3e05fb0a	0.13084045
37	0x3d9e59a9	0.07731945
38	0x3e0c10e1	0.13678314
39	0x3e014eac	0.12627667
40	0xbca812db	-0.020516803
41	0xbe799af5	-0.24375518
42	0xbd6f7f3d	-0.058470953
43	0xbb6266eb	-0.0034546207
44	0xbe4aae54	-0.19793063
45	0xbd755ab9	-0.059900973
46	0xbe014067	-0.12622224
47	0xbe0e2cfc	-0.13884348
48	0xbe73635b	-0.2376837
49	0xbdbbfca0	-0.09179044
50	0x3e2fbdcf	0.1716225
51	0xbdcf0831	-0.10108984
52	0xbe47b37f	-0.19502066
53	0x3b1231aa	0.0022307434
54	0x3cfb9e07	0.030715002
55	0xbd945bcf	-0.072440736
56	0x3dfd43dc	0.12366459
57	0xbdf74ee8	-0.12075597
58	0xbd88fe25	-0.06689099
59	0x3da606d4	0.08106771
60	0x3e084416	0.13307223
61	0x3d4f73eb	0.050647657
62	0x3e235641	0.15950872
63	0x3da90a52	0.082539216
64	0xbde3db47	-0.11125808
65	0x3e22f902	0.15915301
66	0x3d592485	0.053013343
67	0xbcd8a53c	-0.026445977
68	0x3ddab5b7	0.106791906
69	0x3c9b3e8b	0.018950721
70	0x3e57d7ac	0.21078366
71	0xbe340c7b	-0.17582886
72	0xbe3d9d3f	-0.18517016
73	0x3da77406	0.081764266
74	0xbe2005cf	-0.15627216
75	0x3d985ad2	0.074391976
76	0xbe2b86d0	-0.16750646
77	0x3df87a5e	0.12132715
78	0x3c3557ea	0.011068324
79	0x3e5188d3	0.2046235
80	0x3e258dc8	0.16167367
81	0x3d52a8f0	0.051430643
82	0xbd0fba27	-0.035089638
83	0x3e5a62e8	0.21326792
84	0x3e0dd6ca	0.13851467
85	0xbc4d943b	-0.012547548
86	0xbdb60241	-0.08887149
87	0xbe572b75	-0.21012671
88	0xbe2ab82f	-0.16671823
89	0xbe161618	-0.14656866
90	0xbdaae460	-0.0834434
91	0x3cb68043	0.022277957
92	0x3cd6ffe4	0.026245065
93	0xbd99de46	-0.075130984
94	0xbe1a1e0b	-0.15050523
95	0x3ac234ed	0.0014816799
96	0xbe0766e8	-0.1322285
97	0x3e2b5de1	0.1673503
98	0x3e2489f8	0.16068256
99	0xbe39ebaf	-0.18156312
100	0x3dbe12ef	0.09280955
101	0xbd9c291b	-0.07625028
102	0xbe471ddc	-0.19444984
103	0xbe1af3f8	-0.15132129
104	0xbdd15da5	-0.102229394
105	0xbe1eccbd	-0.15507789
106	0xbe1c45a6	-0.15260944
107	0xbe107d90	-0.14110398
108	0x3d75d415	0.06001671
109	0xbdd80118	-0.105470836
110	0x3def5285	0.11685661
111	0xbd29d04e	-0.04145842
112	0x3d1269b6	0.035745345
113	0xbb0e7168	-0.0021735076
114	0xbdf0e4f2	-0.11762418
115	0x3de604e6	0.11231403
116	0x3e0ec870	0.13943648
117	0xbbf2f452	-0.007414379
118	0xbcf6e166	-0.030136775
119	0xbe1f985e	-0.15585467
120	0xbdd7b9f8	-0.105335176
121	0xbe19d4aa	-0.15022531
122	0xbe09ec35	-0.13469012
123	0x3d81928a	0.06326778
124	0x3df0131d	0.117223956
125	0x3ce7e6b7	0.028308256
126	0x3e007491	0.12544467
127	0xbe210e6c	-0.15728158
128	0xbd57c244	-0.0526755
129	0xbbc6c839	-0.006066349
130	0x3e007f03	0.12548451
131	0xbe1e31f7	-0.15448748
132	0x3abb5085	0.0014290964
133	0xbe1391d7	-0.14411102
134	0x3d6272b7	0.05528518
135	0xbba9744d	-0.005171335
136	0xbe394976	-0.1809443
137	0xbdfd77fb	-0.123764
138	0x3ea91fba	0.33032018
139	0x3d077455	0.033069927
140	0x3db1f8f3	0.086900614
141	0x3e4587eb	0.1929013
142	0x3e016410	0.12635827
143	0x3d25a3ba	0.040439345
144	0xbe0ac862	-0.13553002
145	0xbe1c0de5	-0.15239675
146	0xbd6b0185	-0.057374496
147	0xbe37d537	-0.17952429
148	0xbd4c1da8	-0.04983297
149	0x3dce5d68	0.100764096
150	0x3e2c6d3e	0.16838548
151	0xbe024a81	-0.12723733
152	0x3e4b3fe0	0.19848585
153	0x3da47669	0.080303974
154	0xbb73830c	-0.0037156967
155	0xbd5ba18f	-0.05362087
156	0xbe61fd72	-0.22069338
157	0xbe3daca2	-0.18522885
158	0xbe993762	-0.29925066
159	0xbc4dbbe2	-0.012557002
160	0x3e0683c9	0.1313621
161	0xbe16404b	-0.14672963
162	0xbd9897af	-0.07450806
163	0xbe005971	-0.12534119
164	0xbda3b758	-0.079939544
165	0x3d82d6c4	0.063886195
166	0x3e161aee	0.1465871
167	0x3e2a5b89	0.1663648
168	0x3d8b776d	0.06809888
169	0x3d10862a	0.0352842
170	0x3e225904	0.1585427
171	0x3de29a27	0.110645585
172	0xbdf215d4	-0.1182057
173	0x3d47259f	0.048619863
174	0xbda436e9	-0.08018286
175	0xbdb76f02	-0.0895672
176	0x3d82b1a5	0.06381539
177	0xbda8090a	-0.08204849
178	0xbe254429	-0.16139282
179	0xbe3e0877	-0.18557917
180	0xbded25c8	-0.11579472
181	0x3e2a3729	0.16622604
182	0x3d31525e	0.043291442
183	0x3d89cba0	0.067282915
184	0xbc9e0a59	-0.019292044
185	0xbc17beb1	-0.009261773
186	0xb99c16e6	-0.000297717
187	0x3e1f8cf5	0.15581115
188	0x3e657201	0.2240677
189	0x3e5c4895	0.21512063
190	0xbe05a934	-0.13052827
191	0x3c055656	0.00813826
192	0x3d1b4708	0.037909538
193	0xbde8e921	-0.11372591
194	0x3db04fa2	0.08608939
195	0xbe4d9738	-0.20077217
196	0xbc4416ae	-0.011968298
197	0xbe2ff4f0	-0.1718328
198	0xbe48f457	-0.19624458
199	0x3e03a658	0.12856424
200	0xbda638de	-0.08116315
201	0xbdd670a7	-0.104707055
202	0x3d6689d6	0.056283794
203	0xba9d3a2a	-0.0011995484
204	0x3da5d0bf	0.08096456
205	0x3d7e7e25	0.06213202
206	0x39cc7ac2	0.00039001374
207	0xbe455638	-0.19271171
208	0xbdc0b37a	-0.094092324
209	0xbd1cebfb	-0.038310986
210	0xbe45e280	-0.19324684
211	0xbe539162	-0.20660928
212	0x3d97579c	0.07389757
213	0x3e64befa	0.22338477
214	0x3e4ecfe1	0.20196487
215	0x3dbd5dfe	0.09246443
216	0xbd65247b	-0.055942994
217	0x3da66682	0.081250206
218	0xbe0a2ea1	-0.1349435
219	0x3e2f0223	0.17090659
220	0xbd35c503	-0.04437734
221	0xbc2772c1	-0.010220231
222	0xbdda75bd	-0.10666988
223	0xbd8c9cb5	-0.06865827
224	0xbde73976	-0.11290257
225	0xbde56399	-0.11200637
226	0x3e580710	0.21096444
227	0x3de5aed0	0.112149835
228	0xbcf99392	-0.030465875
229	0xbd6d76e1	-0.0579747
230	0xbd9a21f9	-0.07526011
231	0x3d0ee025	0.03488173
232	0x3e15767f	0.14595984
233	0x3e666672	0.22500017
234	0xbe22beba	-0.15893069
235	0xbc5402f3	-0.012940156
236	0xbce33d75	-0.027739266
237	0xbd0fbf3b	-0.03509448
238	0xbd629d8d	-0.055326033
239	0x3e164be9	0.14677395
240	0xbe4021e4	-0.18762928
241	0x3dfa6ad5	0.12227408
242	0x3cff847d	0.031191105
243	0xbd86f6ed	-0.06590066
244	0xbd3caebc	-0.046065077
245	0x3d5388a9	0.051644
246	0xbd566384	-0.052341
247	0x3dbf1486	0.093300864
248	0x3e052808	0.13003552
249	0xbd997eaa	-0.074948624
250	0xbdaecd00	-0.085351944
251	0xbe3b0135	-0.18262179
252	0x3e228e3d	0.15874572
253	0xbdb68785	-0.08912567
254	0x3da2f551	0.07956947
255	0x3dab2a9f	0.08357739

layer1.bias f4 [128]
0	0x3d455f66	0.048186682
1	0x3c73974b	0.014867614
2	0xbd1f65c9	-0.03891543
3	0xbe1756b7	-0.14779173
4	0x3dfade28	0.12249404
5	0x3d3c2773	0.04593606
6	0x3e6d4725	0.2317167
7	0xbdb02678	-0.08601087
8	0xbcbf51e2	-0.023354474
9	0xbd0cba3c	-0.034357294
10	0x3dd413df	0.103553526
11	0xbce056dc	-0.027385168
12	0x3e0a3e24	0.13500267
13	0xbc013374	-0.007885803
14	0xbd7b297f	-0.06131887
15	0x3e3b18dd	0.18271203
16	0xbd946f6e	-0.07247816
17	0x3e0892ff	0.13337325
18	0x3db7c8e2	0.08973862
19	0x3dfc6b3c	0.12325141
20	0x3ce346b0	0.027743667
21	0x3daaae55	0.083340324
22	0x3e01d5a0	0.12679148
23	0xbc87ce81	-0.01657796
24	0xbda1a56c	-0.0789288
25	0xbd1abd23	-0.03777803
26	0x3e3f60cc	0.18689269
27	0xbd854085	-0.06506447
28	0xbdc62521	-0.096750505
29	0xbe519851	-0.2046826
30	0x3dc281ba	0.094974
31	0xbd2846ea	-0.041083254
32	0x3dcf5038	0.101227224
33	0x3c0c72c9	0.008572289
34	0xbbe477f6	-0.0069723083
35	0xbe137996	-0.1440185
36	0x3e10aaa1	0.1412759
37	0x3cc0471e	0.023471411
38	0x3d4c6ddb	0.049909454
39	0xbdd76c3a	-0.105186895
40	0x3dc4e454	0.09613863
41	0xbdf3a137	-0.11895984
42	0x3de6c4b1	0.11267985
43	0xbdea95bb	-0.1145434
44	0xbe3009ac	-0.1719119
45	0x3dd2c546	0.10291533
46	0x3e52fc97	0.20604168
47	0xbd5f7234	-0.054552272
48	0xbdda9296	-0.1067249
49	0x3e4bc97a	0.19901076
50	0x3c8ce83f	0.017200587
51	0x3d310a5d	0.043222774
52	0x3dfd5bab	0.12371
53	0xbdedc5d4	-0.11609998
54	0xbc34fc57	-0.011046491
55	0x3d46f1d5	0.048570473
56	0x3c653f33	0.013992119
57	0xbc2c7f82	-0.010528447
58	0x3c1a2719	0.009408736
59	0xbde741f4	-0.112918764
60	0xbe16434d	-0.1467411
61	0xbcd58bbe	-0.02606761
62	0x3e15bc43	0.14622597
63	0xbd5a496d	-0.05329268
64	0x3e2c1c15	0.16807587
65	0x3bf8577d	0.007578789
66	0xbddbc92d	-0.107317306
67	0xbe23de3b	-0.16002743
68	0x3db5585c	0.08854744
69	0xbdfca4fe	-0.12336157
70	0xbd4d6eeb	-0.050154608
71	0xbe270d15	-0.16313584
72	0xbdcea9b9	-0.10090966
73	0xbdf0016d	-0.11719022
74	0x3e0f6b83	0.14005856
75	0xbe1826ee	-0.148586
76	0x3e5a6f77	0.21331583
77	0xbdf42b4d	-0.119223215
78	0x3c576d81	0.013148666
79	0x3d42e706	0.047583602
80	0xbd8f9988	-0.07011706
81	0x3e2088a9	0.15677132
82	0x3d60721a	0.054796316
83	0x3b20b718	0.0024523195
84	0xbde28ccb	-0.110620104
85	0x3dafce8e	0.08584319
86	0x3db433f3	0.08798971
87	0x3bb68461	0.00556998
88	0xbe412ee3	-0.18865542
89	0x3dc368ff	0.09541511
90	0x3e244935	0.16043551
91	0x3d7438b3	0.059624385
92	0x3e29b42f	0.16572641
93	0xbb036f05	-0.0020055186
94	0xbe030004	-0.12792975
95	0x3e2acaf5	0.16678984
96	0x3d293b33	0.041316222
97	0x3de3ddbc	0.11126277
98	0xbe42a0e0	-0.19006681
99	0x3e32dd24	0.17467171
100	0xbd0c7afb	-0.03429697
101	0x3e2f96e6	0.17147407
102	0xbdef7858	-0.116928756
103	0x3da6308f	0.081147306
104	0xbe4c64d9	-0.19960345
105	0x3d8f437d	0.06995294
106	0xba184fe2	-0.00058102433
107	0xbd73af50	-0.059493363
108	0xbe2baf68	-0.16766131
109	0x3d811951	0.06303657
110	0xbbc0385b	-0.005866093
111	0xbe15be9b	-0.14623491
112	0xbe01cd1d	-0.12675901
113	0xbe0c54d5	-0.13704236
114	0xbbbe0490	-0.0057988837
115	0x3cb88597	0.022524638
116	0x3e5a36f8	0.21310031
117	0xbcf1d4cc	-0.029520415
118	0xbc50c3db	-0.012742008
119	0x3d0fa793	0.03507192
120	0xbd86c7fe	-0.06581114
121	0x3e31acee	0.17351124
122	0x3deeb914	0.116563946
123	0xbd9a9022	-0.075470224
124	0x3e5564fc	0.20839304
125	0xbe21056f	-0.15724729
126	0xbe2c8357	-0.16846977
127	0xbd0fff7a	-0.03515575

layer2.weight f4 [64, 128]
0	0xbd231325	-0.03981318
1	0x3e1f4ca7	0.15556584
2	0x3d5e4efd	0.054274548
3	0xbda9e828	-0.082962334
4	0xbccb7822	-0.024837557
5	0x3d3289d7	0.043588486
6	0x3ddb5e09	0.10711295
7	0x3d2e9ac0	0.04262805
8	0x3d6dd918	0.058068365
9	0x3e25925c	0.16169113
10	0x3c9e75db	0.019343307
11	0xbf108424	-0.5645163
12	0x3dd721b7	0.105044775
13	0x3d381dae	0.04495018
14	0xbe0bf710	-0.13668466
15	0x3d6864d2	0.056736775
16	0x3dea1c96	0.114312336
17	0xbd486c38	-0.04893133
18	0xbd392ece	-0.045210652
19	0x3c32ff5d	0.010925141
20	0xbe408967	-0.18802415
21	0xbdf15f40	-0.117857456
22	0xbc05e920	-0.008173257
23	0xbd525b3b	-0.051356535
24	0xbc84f083	-0.016227966
25	0xbdd5d624	-0.10441235
26	0x3de497b5	0.11161748
27	0xbe73a013	-0.23791532
28	0x3a19b227	0.00058630336
29	0xbd029ac2	-0.03188587
30	0x3d3495d5	0.044088203
31	0x3d4693e4	0.048480883
32	0xbda676e8	-0.08128148
33	0xbdfba4bb	-0.12287279
34	0x3d8c996c	0.068652004
35	0x3aacbae9	0.0013178262
36	0xbc33dbbb	-0.010977681
37	0xbe989f12	-0.2980886
38	0x3da30a87	0.07960992
39	0xbdcaf25b	-0.09909507
40	0xbce64099	-0.028106974
41	0xbca3cce1	-0.019995155
42	0xbce9eb49	-0.028554576
43	0xbe17d63e	-0.1482782
44	0xbedc4c79	-0.43027094
45	0x3da67738	0.08128208
46	0x3d3c202d	0.045929123
47	0xbce3e885	-0.027820835
48	0xbe8787d5	-0.2647082
49	0x3b1cb96b	0.0023914229
50	0xbde55563	-0.11197927
51	0xbd26b1e5	-0.040696997
52	0x3a9b3012	0.0011839888
53	0x3defb790	0.11704934
54	0x3cccb016	0.024986308
55	0x3e22ce70	0.15899062
56	0xbed3ab39	-0.4134157
57	0x3ddec4ca	0.10877378
58	0x3de466b0	0.111523986
59	0xbe7a3532	-0.24434355
60	0x3d8bb3ae	0.068213806
61	0x3d31beba	0.04339478
62	0x3d869235	0.065708555
63	0xbdf84df8	-0.12124246
64	0x3cbd5258	0.023110554
65	0x398a9126	0.00026429555
66	0xbdd856a9	-0.10563404
67	0xbd29d69d	-0.041464437
68	0xbe442b5b	-0.19157164
69	0xbdaa4ee7	-0.08315831
70	0x3de70ec3	0.112821124
71	0xbce7bfab	-0.028289637
72	0xbdafe87a	-0.08589263
73	0x3df740cc	0.12072906
74	0x3e7d0594	0.24709159
75	0x3d38841d	0.045047868
76	0xbeb9143e	-0.36148256
77	0x3d0621c2	0.032747038
78	0xbe516c49	-0.20451464
79	0xbd3effb0	-0.04663056
80	0x3d8ae9e1	0.0678289
81	0xbdf4c57c	-0.1195173
82	0xbea2e0f1	-0.31812242
83	0xbd067fb5	-0.032836635
84	0x3bdc342d	0.006720087
85	0xbcd4e114	-0.025986232
86	0xbde3678c	-0.111037344
87	0xbd65f86f	-0.056145128
88	0xbd04f683	-0.032461654
89	0x3d9dc16d	0.07702909
90	0xbd992616	-0.074779674
91	0x3c865f74	0.016402937
92	0x3dbcf9a8	0.09227306
93	0x3e07487c	0.13211244
94	0xbb3670ff	-0.0027838347
95	0x3de77cd9	0.1130311
96	0x3e015ed7	0.12633835
97	0x3d9e1ab2	0.077199355
98	0xbd409e0d	-0.04702573
99	0xbce91702	-0.028453354
100	0xbe26e229	-0.16297211
101	0xbdb83809	-0.08995063
102	0x3c8d34e0	0.017237127
103	0x3ca8ce03	0.020606047
104	0xbe8ee209	-0.27906826
105	0x3d89bab9	0.06725068
106	0x3d820b5a	0.063498214
107	0xbe2ffc55	-0.17186101
108	0xbe4f8bad	-0.20268126
109	0xbe136f6a	-0.1439797
110	0xbd63cd36	-0.055615626
111	0x3e065466	0.13118133
112	0x3da375ee	0.07981478
113	0x3d1a818c	0.0377212
114	0x3d841bd9	0.06450624
115	0xbd9cce6a	-0.07656558
116	0xbe10ef77	-0.14153849
117	0x3caabf90	0.020843297
118	0xbd48164e	-0.048849396
119	0xbe5bf448	-0.21479905
120	0x3d180f00	0.03712368
121	0xbe4e459c	-0.20143741
122	0xbc8b1b14	-0.016980685
123	0x3cc9e5fb	0.024645796
124	0x3ce2d197	0.02768783
125	0xbd80992e	-0.06279217
126	0xbe3ae124	-0.18249947
127	0x3e0ddd84	0.13854033
128	0x3db55a31	0.08855093
129	0x3dd3950a	0.10331161
130	0xbd396ea0	-0.045271516
131	0xbeac278e	-0.33623928
132	0x3cdc7dce	0.026915457
133	0x3b8ff3de	0.004393085
134	0xbd8eb0e7	-0.06967335
135	0x3d203ac1	0.039118532
136	0x3d1c2437	0.038120475
137	0xbd9ebd2f	-0.07750928
138	0xbc31aa6c	-0.010843854
139	0xbe58607b	-0.21130554
140	0xbe5da62c	-0.21645421
141	0xbd8a9f1b	-0.06768628
142	0xbd56ecdd	-0.052471984
143	0x3d40db81	0.047084335
144	0xbe95b500	-0.29239655
145	0x3d61d112	0.055131026
146	0x3da321e5	0.07965449
147	0xbdc7e5c0	-0.09760618
148	0xbe02f046	-0.1278697
149	0xbd781d80	-0.06057501
150	0xbd9c2ab3	-0.07625332
151	0x3c2fe59c	0.0107358955
152	0x3d9be93a	0.07612844
153	0x3d39575a	0.04524932
154	0xbd3fa3c5	-0.046787042
155	0xbf034c62	-0.51288426
156	0x3ccaa1a1	0.024735274
157	0x3d8b2b7d	0.06795404
158	0xbcef3873	-0.029201722
159	0xbc96f92b	-0.01842936
160	0xbd9c58e6	-0.076341435
161	0xbeb49e0b	-0.35276827
162	0x3da2a668	0.07941896
163	0xbc6d9276	-0.014500251
164	0x3cde9b9f	0.027173815
165	0xbddb79c3	-0.107165836
166	0xbe19aea1	-0.15008022
167	0x3d5f1ee4	0.05447282
168	0x3c971083	0.01844049
169	0x3d661f23	0.056182038
170	0x3c8d74fb	0.017267695
171	0x3c14a97c	0.009073611
172	0xbe0d502f	-0.13800119
173	0xbbbf45b8	-0.0058371685
174	0x3d0c5450	0.034260094
175	0x3d97c2bf	0.07410192
176	0xbdad1e19	-0.08453006
177	0x3a7d56ee	0.00096641376
178	0xbdbdf649	-0.09275491
179	0x3d9fc681	0.078015335
180	0xbde53b1f	-0.11192917
181	0xbd3c621d	-0.045992006
182	0x3de2ed80	0.11080456
183	0xbe0db767	-0.13839494
184	0xbd1c2531	-0.038121406
185	0x3d513e19	0.05108461
186	0xbcac41d3	-0.021027481
187	0xbece791c	-0.40326774
188	0x3e19b5aa	0.15010706
189	0xbca8ffa2	-0.020629708
190	0x3dd2161f	0.102581255
191	0x3ca7d7d9	0.020488666
192	0x3df079ca	0.117419794
193	0xbd8e3abd	-0.06944797
194	0x3c335154	0.010944683
195	0xbd965eb1	-0.0734228
196	0xbb9beaaf	-0.004758201
197	0x3d8998b3	0.06718578
198	0xbe3578b8	-0.17721832
199	0xbe152b64	-0.14567333
200	0xbdada521	-0.084787615
201	0x3a1e5d2a	0.0006041104
202	0x3d3ab9ae	0.045587234
203	0x3d5aadc6	0.05338838
204	0xbdcce8b6	-0.100053236
205	0x3d8d4636	0.06898157
206	0xbd6ecc41	-0.05830026
207	0x3ce60292	0.028077397
208	0x3d8f485a	0.06996222
209	0xbebaeec8	-0.365103
210	0xbd97cd9e	-0.07412265
211	0x3d846379	0.064642854
212	0xbd3657dc	-0.044517383
213	0xbd648ddb	-0.055799346
214	0xbe4fdc59	-0.202989
215	0x3d8dc202	0.0692177
216	0x39173e1e	0.00014423623
217	0x3c029cce	0.007971955
218	0xbb99a33a	-0.0046886476
219	0x3da4e9ba	0.08052392
220	0xbd61faea	-0.05517093
221	0xbd25fa16	-0.040521704
222	0xbe682bdd	-0.22672983
223	0x3d818ead	0.06326041
224	0x3d85648a	0.06513317
225	0x3d21f978	0.039544553
226	0x3cf5f5d9	0.030024456
227	0x3c0aa802	0.008462908
228	0xbce576b0	-0.028010696
229	0xbd77f53a	-0.0605366
230	0x3ddf1e7d	0.10894487
231	0xbd80fcb6	-0.06298201
232	0xbea4b0e1	-0.32166198
233	0x3cd56a32	0.026051614
234	0x3c0c7e40	0.008575022
235	0x3d3af93d	0.04564785
236	0xbe2ab54f	-0.16670726
237	0xbe9f495f	-0.31110665
238	0x3ccfa563	0.025347417
239	0x3e3c59fc	0.18393701
240	0xbdd6b1c5	-0.104831256
241	0xbcfe2afe	-0.03102636
242	0x3d2fe36f	0.042941507
243	0xbc694068	-0.014236547
244	0xbd8e5098	-0.06948966
245	0xbd4624ee	-0.048375063
246	0x3bd55ed4	0.0065115485
247	0xbed3abb5	-0.4134194
248	0x3d44e327	0.04806819
249	0xbe3061d9	-0.17224826
250	0xbcb578a2	-0.022152249
251	0x3d1170b9	0.03550789
252	0xbdd10a7b	-0.10207077
253	0xbe1eb6d9	-0.15499438
254	0xbe78e3ad	-0.24305601
255	0x3e018641	0.1264887

layer2.bias f4 [64]
0	0x3dbea1c3	0.09308197
1	0xbd6d8de1	-0.057996634
2	0x3c01d5cb	0.007924507
3	0xbc589a6f	-0.013220414
4	0x3cdb033f	0.026734946
5	0x3d1ad331	0.037799064
6	0xbcc4455f	-0.02395886
7	0x3d0aceb7	0.033888545
8	0x3c6ab61a	0.014325643
9	0xbc415a5b	-0.011801328
10	0x3cd5d901	0.026104452
11	0x3c770b41	0.015078367
12	0xbd4125cd	-0.04715519
13	0x3c90cb04	0.01767493
14	0xbd97a283	-0.074040435
15	0xbd080b04	-0.03321363
16	0x3ce3bade	0.027799066
17	0xbcf1848d	-0.02948215
18	0x3d26feb8	0.040770262
19	0x3c7bda7a	0.015371913
20	0x3c093061	0.008373351
21	0x3ccb086f	0.024784295
22	0x3d147b2a	0.03625027
23	0xbaea6a48	-0.0017884457
24	0xbd0ec4ef	-0.03485578
25	0xbc658bfc	-0.014010426
26	0xbccd1271	-0.025033208
27	0x3d89e9a3	0.06734016
28	0xbbc4dd6a	-0.00600784
29	0xbcac4bb3	-0.02103219
30	0x3cd9d427	0.02659042
31	0xbd0b47d4	-0.034004048
32	0xbd971a67	-0.07378083
33	0x3c00a44a	0.00785167
34	0xbc4b9d34	-0.012427617
35	0x3ccf0eb1	0.02527556
36	0x3ce9e76b	0.028552731
37	0xbd73c3ff	-0.05951309
38	0x3cff39ae	0.031155434
39	0x3d9265b2	0.07148303
40	0x3d4343a8	0.047671944
41	0xbd285362	-0.041095145
42	0xbd55feb5	-0.05224486
43	0x3c092c05	0.0083723115
44	0x3d484ed1	0.04890329
45	0xbd343c18	-0.044002622
46	0xbd89cdcd	-0.067287065
47	0x3d0246d6	0.031805836
48	0xbd64130f	-0.05568224
49	0x3bc42ff7	0.005987163
50	0xbd9ba592	-0.075999394
51	0xbd51dbf2	-0.051235147
52	0x3d20c190	0.039247096
53	0x3d164870	0.036690176
54	0xbd733083	-0.059372436
55	0x3bda3c75	0.006660039
56	0x3c72e914	0.014826078
57	0x3d22d45f	0.039753314
58	0xbca5ebe3	-0.020254081
59	0xbce84bfa	-0.028356541
60	0x3d84c8ee	0.06483637
61	0x3bafaf5b	0.00536148
62	0x3c9379dd	0.018002445
63	0x3dd1e7af	0.10249268

layer3.weight f4 [4, 64]
0	0x3e6f8f9f	0.23394631
1	0x3e2101ec	0.1572339
2	0xbddad764	-0.10685614
3	0xbd9405cd	-0.07227669
4	0xbe5b39df	-0.21408795
5	0x3db344cc	0.08753356
6	0xbdfc9955	-0.12333933
7	0xbe019668	-0.12655032
8	0x3e51e56c	0.20497674
9	0xbe079114	-0.13238937
10	0xbdf2cdde	-0.11855672
11	0xbe0ac5de	-0.13552043
12	0x3d5dffa2	0.05419887
13	0x3e1ac335	0.15113528
14	0x3e3ed320	0.18635225
15	0x3d9c64f8	0.07636446
16	0xbdbe9e82	-0.09307577
17	0x3dc9b6ba	0.098493055
18	0x3d6ffe0b	0.058591884
19	0xbcc36332	-0.023851011
20	0xbe12ee69	-0.14348759
21	0xbe1b3a7f	-0.15159033
22	0x3de225f0	0.11042392
23	0xbdbc8602	-0.092052475
24	0x3e0a4370	0.13502288
25	0xbcc952d3	-0.024575626
26	0x3c83e6b8	0.016101226
27	0x3da0f696	0.078595325
28	0x3d8da450	0.06916106
29	0x3d24b7bb	0.04021428
30	0x3cb16ef5	0.021659354
31	0x3d8307ad	0.063979484
32	0xbd3a342b	-0.045459908
33	0x3de6f241	0.11276675
34	0x3cfde309	0.030992048
35	0xbe383202	-0.17987826
36	0x3d8591be	0.06521939
37	0xbdd0b79c	-0.10191271
38	0x3d73fb63	0.059565913
39	0xbd2f1a8f	-0.042749938
40	0xbd298709	-0.041388545
41	0x3d1c61a5	0.03817906
42	0x3d5a32c0	0.053271055
43	0x3e085a50	0.13315701
44	0xbda992dc	-0.08279964
45	0xbe15ff7d	-0.14648242
46	0xbe224691	-0.15847231
47	0x3d8c24f2	0.06842984
48	0xbd0bcffb	-0.034133893
49	0x3d952ef5	0.07284347
50	0xbd47a439	-0.0487406
51	0x3d72be0e	0.05926328
52	0x3ddc38a8	0.10752994
53	0x3e0c1deb	0.13683288
54	0xbc83a6fd	-0.016070837
55	0x3da68683	0.08131125
56	0xbd970b8d	-0.0737525
57	0x3d06f314	0.03294666
58	0x3c954860	0.018222988
59	0x3e0f52f5	0.1399649
60	0xbd2b0dad	-0.04176109
61	0x3e25c5bf	0.16188715
62	0xbd3e0d66	-0.046399496
63	0x3db79410	0.089637876
64	0x3ea389bd	0.31941023
65	0x3e1d5a59	0.15366496
66	0x3cf57c83	0.029966598
67	0xbbb77152	-0.0055982256
68	0xbea33234	-0.3187424
69	0x3e36e500	0.17860794
70	0x3cc2b173	0.023766255
71	0xbe5990eb	-0.21246688
72	0x3e54c2d2	0.20777443
73	0xbe19a3d8	-0.15003908
74	0xbe273448	-0.16328537
75	0xbe45c092	-0.19311741
76	0x3e03e207	0.12879191
77	0x3e141893	0.144625
78	0x3e3f7800	0.1869812
79	0x3e8a6aa1	0.27034476
80	0xbdf3f403	-0.11911776
81	0xbc85e762	-0.016345683
82	0x3e068d7b	0.13139908
83	0xbe11365b	-0.14180891
84	0xbe754de0	-0.23955488
85	0xbe748744	-0.23879725
86	0x3dabc233	0.0838665
87	0xbe0d9064	-0.13824612
88	0x3e46c5f5	0.19411452
89	0xbd485c43	-0.048916113
90	0x3d4fa153	0.05069096
91	0x3d458561	0.048222903
92	0x3d741a9c	0.05959569
93	0xbd5f886c	-0.05457346
94	0x3d63b7b6	0.055595122
95	0x3e2c9180	0.16852379
96	0x3c606d0c	0.013697874
97	0x3d38199c	0.044946298
98	0x3dfa24ac	0.12214026
99	0xbe80943c	-0.25113094
100	0x3bc971c4	0.006147595
101	0xbdfedc9b	-0.12444421
102	0xbddb9f69	-0.107237644
103	0x3dd7124f	0.10501539
104	0xbdc864f5	-0.09784881
105	0xba5eab49	-0.00084941514
106	0x3d185c2e	0.037197284
107	0x3e599cc1	0.21251203
108	0xbe1e6e5a	-0.15471783
109	0xbe682a6b	-0.22672431
110	0xbe406e01	-0.18791963
111	0x3c8f2e16	0.01747803
112	0x3de07ef8	0.10961717
113	0xbe23cc5e	-0.15995929
114	0xbe1cac8c	-0.15300196
115	0x3e232c56	0.15934882
116	0x3e099373	0.13435154
117	0xbb8d9c8d	-0.004321641
118	0x3b821cfc	0.0039707404
119	0x3e2e8e91	0.17046572
120	0x3d479c0d	0.048732806
121	0xbd8af501	-0.06785012
122	0xbd4e3574	-0.050343946
123	0x3dd0f2ea	0.10202582
124	0xbe36dd58	-0.17857873
125	0x3e4c7ee2	0.19970277
126	0xbdee1f4e	-0.11627065
127	0x3cb5bb3f	0.022184012
128	0x3e6bc871	0.23025681
129	0x3e5c66bb	0.21523564
130	0xbd4c37ea	-0.04985801
131	0xbca90a68	-0.020634845
132	0xbe5ffe75	-0.21874411
133	0x3dbdab55	0.092611946
134	0xbe018aa5	-0.12650545
135	0xbdd73bbc	-0.1050944
136	0x3e54fda1	0.20799877
137	0xbdf79c0b	-0.1209031
138	0xbdb9ff2f	-0.090818755
139	0xbe1119eb	-0.14170043
140	0xbc758ff6	-0.014987936
141	0x3e208d94	0.15679008
142	0x3e45620c	0.19275683
143	0x3d3802f5	0.044924695
144	0xbde00fee	-0.10940538
145	0x3da2fc75	0.079583086
146	0x3d2fddc7	0.042936113
147	0xbd9a639f	-0.075385325
148	0xbe095a4a	-0.13413349
149	0xbe0de8ea	-0.13858381
150	0x3db45cdb	0.08806773
151	0xbdca51ca	-0.09878881
152	0x3dfa8dba	0.122340634
153	0xbd8cf0a6	-0.068818375
154	0x3d31236c	0.04324667
155	0x3d399ef3	0.0453176
156	0xbd06424a	-0.032778062
157	0x3c02d9d3	0.007986504
158	0x3df138a0	0.117783785
159	0x3d8185cc	0.06324348
160	0x3d82361f	0.06357979
161	0x3dec5af9	0.11540789
162	0x3cf8e730	0.030383676
163	0xbe3ae9cb	-0.18253247
164	0x3d3f39bf	0.04668593
165	0xbdfd8609	-0.12379081
166	0x3d887acf	0.06664049
167	0x3dca451c	0.09876463
168	0xbcb6f14d	-0.022331858
169	0x3dd08a88	0.10182673
170	0x3d48e903	0.049050342
171	0x3e18d91a	0.14926568
172	0xbdc29789	-0.09501559
173	0xbdffbf40	-0.1248765
174	0xbe3478d9	-0.17624225
175	0x3c13654d	0.00899632
176	0xbd739286	-0.059465908
177	0x3da2ec22	0.07955195
178	0xba93af1d	-0.0011267398
179	0x3d03b178	0.03215167
180	0x3dd52cf8	0.10408968
181	0x3df76b61	0.12081028
182	0xbd083e1f	-0.03326237
183	0x3da6c1af	0.08142411
184	0xbd4de347	-0.050265577
185	0x3bdef800	0.0068044662
186	0x3935afc7	0.00017326987
187	0x3e0c3c1d	0.13694806
188	0xbd3b84da	-0.045780994
189	0x3e22ae01	0.1588669
190	0xbd9ef905	-0.077623405
191	0xbd683cc8	-0.05669859
192	0x3e69b64d	0.22823448
193	0x3e1a3af0	0.15061545
194	0xbdd84ce3	-0.1056154
195	0x3d9a745f	0.07541727
196	0xbe559b16	-0.20859942
197	0x3d9b9d71	0.07598389
198	0xbdf2dc1c	-0.11858389
199	0xbe0a24b2	-0.1349056
200	0x3e525fb8	0.20544326
201	0xbe12a4c6	-0.14320669
202	0xbe10f733	-0.14156799
203	0xbe09ad3d	-0.13444991
204	0x3db5a76a	0.08869822
205	0x3e1eec91	0.1551993
206	0x3e44fe2c	0.19237584
207	0x3e015108	0.12628567
208	0xbd986f17	-0.07443064
209	0xbc9b5884	-0.018963106
210	0x3d0d81db	0.034547668
211	0xbd6fd6f7	-0.058554616
212	0xbdf340f9	-0.11877627
213	0xbe2a2367	-0.16615067
214	0x3de15c03	0.11003878
215	0xbdda9314	-0.10672584
216	0x3e0774b7	0.13228117
217	0xbc231109	-0.009952792
218	0xbc77c3af	-0.015122338
219	0x3dacea5f	0.0844314
220	0xbcf6c05f	-0.030121027
221	0x3d0dc7d2	0.03461439
222	0xbc86e93b	-0.016468635
223	0x3d6591f9	0.056047413
224	0x3ddb5d12	0.10711111
225	0x3dc5ec2d	0.096641876
226	0x3d931f21	0.07183672
227	0xbe27726c	-0.16352242
228	0x3dac2d68	0.08407098
229	0xbde02506	-0.10944562
230	0x3d812474	0.06305781
231	0xbd86f972	-0.06590547
232	0xbd407e8d	-0.04699569
233	0xbd04a453	-0.032383274
234	0x3dc78c38	0.097435415
235	0x3e24c910	0.16092324
236	0xbda7f52e	-0.08201061
237	0xbe19abe6	-0.1500698
238	0xbe21a913	-0.15787153
239	0x3d7f3a31	0.062311355
240	0xbc1838a9	-0.009290853
241	0x3d9f3b2c	0.07774958
242	0xbd08c74d	-0.033393193
243	0x3ddc6295	0.107609905
244	0x3debde99	0.115170665
245	0x3e13e127	0.14441358
246	0xbdc777f5	-0.09739677
247	0x3dbc2e17	0.091884784
248	0x3d8ec665	0.069714345
249	0x3cae1992	0.021252427
250	0x3d388266	0.045046233
251	0x3e181e67	0.14855348
252	0xbc98df51	-0.018661173
253	0x3e281f62	0.16418222
254	0xbc8d968f	-0.017283706
255	0x3d71fd55	0.059079487

layer3.bias f4 [4]
0	0x3d697589	0.056996856
1	0x3d993a9a	0.074818805
2	0x3d9835e3	0.07432153
3	0x3d9fd293	0.07803836
