models/model_2/nets/200_policy_net.pt (torch, 46990 bytes, 6 tensors)

layer1.weight f4 [128, 19]
00000000: 6d32 c23d f537 6a3e dce8 a2bd bd5d 61be
00000010: c6f5 613c c09a bcbe 757e a3bd f025 a73d
00000020: 1fb9 173d 58b6 893d 0c27 b23d 6d12 36be
00000030: 9335 14be 0848 3c3e 6ad9 9bbc 62fd 1fbd
00000040: 7335 5cbe 57eb dcbc 172f 823d 139c ecbd
00000050: bf9f ad3d 4a71 25be 36c9 b7bc c491 6e3e
00000060: 6395 ffbe a3cc 163d da59 58bd af59 4d3d
00000070: 4372 483d d8b9 bebd 5508 a5bd 3a12 a5bd
00000080: 530a c73d ed75 fcbd 4cc6 26be 96d0 df3d
00000090: cf49 c63d bf98 cb3d b30e e03d 2751 d03d
000000a0: 395c b43c 42cc 55be 69b1 4ebd b457 843d
000000b0: 9f69 5dbe d5ca 43bd 5575 f6bd 00b8 04be
000000c0: e5a1 68be 450d d9bd 78bc 063e d55f a2bd
000000d0: 1809 3cbe d619 1dbc a71f 0fbc 61d2 79bd
000000e0: c49e c83d a6ca f5bd 7bbc 42bd 728a b33d
000000f0: 36e6 0d3e 00c8 893d 820c 3a3e 9bf5 403d
00000100: 4f7f bfbd a644 003e bcf1 303d c191 0ebd
00000110: ea38 ae3d 6113 a7bb f942 323e c4b6 26be
00000120: b3f1 30be 1fc5 5f3d 5b2c 19be 02cd 383d
00000130: 39dd 09be c133 ec3d fce2 7dbc 4225 143e
00000140: 56f1 2a3e 4387 7d3b 2548 15bd 08ec 413e
00000150: e2f6 f03d 4971 293c abb8 e9bd 53d7 22be
00000160: 5056 ddbd f3aa 2ebe 47b4 cabd b756 eabb
00000170: f55e 323c f46d c5bd 2680 19be 97b0 d139
00000180: c907 e3bd 49b0 0a3e d8fe 103e 76ab 1ebe
00000190: dc53 9a3d 4011 8abd 07d4 2cbe 05e2 06be
000001a0: 68e5 b1bd 4016 07be 28de 04be 455c f5bd
000001b0: d4eb 503d 1496 b7bd a93b cb3d bd36 10bd
000001c0: b56f f83c 98f9 f1ba 0c86 c4bd bf26 d33d
000001d0: 83a4 f53d 48dc 463a c730 c53b 69d7 0ebe
000001e0: 985c b8bd 3306 18be bba6 e0bd 9c38 093d
000001f0: 8e87 963d 2701 af3c 4fc9 d23d 92d1 11be
00000200: fa9f 32bd 621e 50bb 043d dc3d 3275 0dbe
00000210: 2bcf f1b9 dc9b 03be 4ad1 2bbc 39bd 423d
00000220: 8e2b 02be ddd7 acbd b5bc d03e 0e3d f43c
00000230: 5039 7b3d c2d3 343e f69f ae3d 829d 633d
00000240: dddc c2bd 7f20 18be 8c34 35bd 1872 28be
00000250: aa76 02bd 77dc 143d 346f 083e ac14 edbd
00000260: 7eaa 3b3e 7617 333d 8083 fcbc 32b0 30bd
00000270: 5bad 2cbe e142 77be f901 80be e572 263c
00000280: 03b9 e43d f739 18be 4731 4ebd 9b5c 04be
00000290: 8bd4 9ebd 3c16 1f3d 68e4 f73d 63e3 163e
000002a0: e800 603d ba6b 1b3d d63b 063e 8598 b93d
000002b0: fc50 d4bd 9f31 f83c 7b79 3ebd 9fad 7fbd
000002c0: 77a3 3c3d c3fd acbd fcfc e0bd 9613 24be
000002d0: ec02 cabd a4b6 403e ea78 e23c 5fbe 913d
000002e0: 1f0b 1abd e361 a7bb b7a9 81bb 120f 0a3e
000002f0: 891e 483e 17b3 463e 8af5 f5bd ce41 16bc
00000300: 0697 1c3d 15ff c5bd b45f 803d 8e35 2fbe
00000310: 1d00 67bc 23da 19be e258 32be 5345 cd3d
00000320: b531 11bd 864b 03be 9897 583d b3ef 8dbd
00000330: b6d3 8c3d 4831 583d 38b5 ad39 00b1 27be
00000340: d4c4 a3bd 4cc8 2cbd e655 48be 703e eebd
00000350: 5100 2d3d bd8b 393e 33e5 833e 2c0e 883d
00000360: a67b d1bc d725 963d ff3c aebd 50f5 023e
00000370: aa97 e8bb 1db1 27bc 9846 79bc 2423 c2bd
00000380: ae97 0bbe 4a1b d9bd 5963 123e 7003 4e3d
00000390: 083b 03bd c131 83bd b5bc a8bd dc87 ba3c
000003a0: b1df 2d3e 55f7 913e 725e 3bbe 17ca 463c
000003b0: 4142 19bd 7935 053d cb39 c33c 1757 f53d
000003c0: b149 babd 0454 843d 4892 b93b f07f b9bd
000003d0: 4afb 3dbd f7eb 423b eb5a 8cbd 467e 9f3d
000003e0: d396 ca3d 498e b5bd 0cb6 95bd 54e9 69be
000003f0: cedf 2c3e fbab 9ebd 4cc7 aa3d e4ca 883d
0.09482274 0.22872908 -0.07954571 -0.22008415 0.013791507 -0.36836815 -0.07983104 0.08161533
0.03704178 0.067242324 0.08698854 -0.17780466 -0.14473562 0.18386853 -0.01902457 -0.039060004
-0.21504764 -0.026967688 0.06356638 -0.11553206 0.08477735 -0.16156498 -0.022434812 0.23297793
-0.4991866 0.03681625 -0.052820064 0.050134357 0.048937093 -0.09312791 -0.0805823 -0.08060117
0.09718766 -0.1232718 -0.16286582 0.109284565 0.096820466 0.099412434 0.10940304 0.101717286
0.022016631 -0.208787 -0.05046216 0.064620405 -0.21622322 -0.047800858 -0.12034098 -0.12960815
-0.22718008 -0.10598234 0.13157833 -0.07928435 -0.18362844 -0.009588679 -0.008735574 -0.06099165
0.09795907 -0.12001543 -0.04754303 0.08766641 0.1385735 0.067276 0.18168834 0.047109228
-0.09350454 0.12526187 0.043199286 -0.03480697 0.08506949 -0.0050987457 0.1740836 -0.16280657
-0.17279701 0.05463135 -0.14958327 0.045117386 -0.13463296 0.11533309 -0.015496012 0.14467338
0.16693625 0.0038685359 -0.036445756 0.18937695 0.11765839 0.010341951 -0.11412176 -0.15902452
-0.108074784 -0.170574 -0.098976664 -0.0071514505 0.010886897 -0.096401125 -0.14990291 0.00039995156
-0.11085469 0.1354381 0.14159715 -0.15495095 0.07535526 -0.067415714 -0.16877757 -0.13172157
-0.08686334 -0.13192081 -0.12975371 -0.1198049 0.051006153 -0.08964172 0.09923489 -0.035208452
0.030326704 -0.0018461226 -0.0959588 0.103101246 0.11994269 0.0007585925 0.0060177776 -0.1394936
-0.09002036 -0.14846115 -0.10969301 0.033501253 0.07350074 0.021362854 0.10292303 -0.14240101
-0.043609597 -0.003175639 0.10753825 -0.13814238 -0.00046121454 -0.12852424 -0.01048691 0.047543738
-0.12711927 -0.0843961 0.40768972 0.02981427 0.061333954 0.17658904 0.08526604 0.055570133
-0.095147826 -0.14856146 -0.044239566 -0.16449773 -0.031851448 0.036343064 0.1332367 -0.115762085
0.18326756 0.043723546 -0.030824423 -0.043136783 -0.16863005 -0.24146606 -0.25001505 0.010159229
0.11168101 -0.14865862 -0.050339963 -0.12925951 -0.07755383 0.038839564 0.12104112 0.14735179
0.054688364 0.037944533 0.13108763 0.09062294 -0.10367009 0.030297099 -0.04650257 -0.062421437
0.04605433 -0.08446839 -0.10985753 -0.16023096 -0.098638386 0.18819672 0.027645547 0.071163885
-0.037608262 -0.0051081046 -0.003956999 0.13482311 0.19542898 0.19404255 -0.120097235 -0.0091709625
0.038229965 -0.09667794 0.06268254 -0.17110273 -0.014099148 -0.15024619 -0.17416719 0.10022988
-0.035447795 -0.12821779 0.052878946 -0.069304846 0.06876318 0.052781373 0.0003313215 -0.16376114
-0.07996526 -0.042183205 -0.19564018 -0.11633003 0.04223663 0.18119712 0.25760803 0.06643328
-0.025571655 0.07331436 -0.08507728 0.12788892 -0.007098158 -0.010235098 -0.015214585 -0.09479359
-0.1363208 -0.10600908 0.1429571 0.050296247 -0.03203872 -0.06405974 -0.08239118 0.02276986
0.16979863 0.28509012 -0.18297747 0.012133143 -0.0374167 0.0325217 0.023831269 0.11979502
-0.09096087 0.06461337 0.00566319 -0.09057605 -0.046382226 0.0029742697 -0.06853279 0.077877566
0.09892049 -0.08865029 -0.07310113 -0.22842914 0.1688225 -0.077476464 0.08338794 0.06679323

layer1.bias f4 [128]
00000000: 49f8 113d a646 e7ba a7f0 0ebd cf9c 0bbe
00000010: 1dde d43d d0b9 293d d16c 513e affd 77bd
00000020: bd12 9fbc cbac 13bd 0120 c93d bf19 9cbc
00000030: e48b d73d 5a8d 25bc 350a 87bd c109 243e
00000040: 2096 82bd ca84 e13d d898 693d ef48 d83d
00000050: 5ab2 bb3b 517f a43d 6e85 d03d 08dc a6bb
00000060: a3d5 87bd 07cf b7bc fdce 283e 9164 77bd
00000070: 5f4c b5bd ee07 2fbe 742e 9b3d 544c 48bd
00000080: 1685 a63d 7869 233b 1f91 3abc 1cd5 14be
00000090: f630 fb3d 990d d43c 6907 313d a144 aabd
000000a0: c6c5 893d 60d1 cfbd 932b c43d 61bc bcbd
000000b0: 7c42 17be f81c ae3d bd77 383e 1c37 8abd
000000c0: c8a5 e2bd 9a61 2b3e b4d0 023c 9760 033d
000000d0: a9bd e13d ed78 c3bd 5c8e 93bc 574a e83c
000000e0: aeaa f13c c382 70bc 2944 863b c47d cbbd
000000f0: e9c0 c9bd 9132 e7bc 626b e43d 3c5a 43bd
00000100: 7149 0e3e 6884 3dbb 104d d9bd 34ba 19be
00000110: fc7f 963d f5c2 ecbd d33c 1abd 2120 0ebe
00000120: 6b42 afbd 0fb4 d9bd 1515 fd3d e928 01be
00000130: 5526 3f3e d0d4 dbbd 742a 5b3c e33b 123d
00000140: c57a 44bd b417 103e 142e 313d 7b25 5d3b
00000150: 8bed cebd d1c4 963d 6f06 ab3d eb26 433c
00000160: 412d 24be e9bd aa3d cb6f 0a3e eaa4 7a3d
00000170: 62e0 103e cee6 3dbc aaae d4bd 0737 133e
00000180: cd9c 3b3d 8755 b63d dfb7 1abe ce19 0a3e
00000190: 1df9 06bd 91d4 193e 132c c6bd 8eb8 963d
000001a0: 081e 3bbe 2918 553d b75f 48bb 1ed2 7f38
000001b0: 2fce 2bbe 8436 3c3d 284d 283c 7d70 04be
000001c0: f4b9 bdbd 12e7 ecbd 9b7a 1cbc 821f 3a3c
000001d0: 053b 393e ce28 b4bc 5860 8bbc de93 1e3d
000001e0: f22e 5cbd be67 1d3e 86cf d53d 59a2 a5bd
000001f0: 76be 2f3e 6a9d 0abe 466b 14be aa4e 05bd
0.035637174 -0.0017644956 -0.034897473 -0.13634036 0.10393927 0.04143697 0.20451666 -0.060544666
-0.019418115 -0.03605346 0.098205574 -0.019055245 0.10524729 -0.010104502 -0.06593744 0.16019346
-0.0637629 0.11011656 0.05703053 0.10560786 0.0057280483 0.08032096 0.101817 -0.0050921477
-0.06632545 -0.022437586 0.1648521 -0.060398642 -0.08852457 -0.17092869 0.075772196 -0.048900917
0.08130853 0.002493469 -0.011387139 -0.1453442 0.12265198 0.02588539 0.043219958 -0.08313871
0.067271754 -0.10147357 0.095786236 -0.09215618 -0.14771456 0.08501619 0.18014427 -0.067487925
-0.110667765 0.16736451 0.007984329 0.032074537 0.11022503 -0.09544549 -0.018012218 0.02835576
0.029500332 -0.0146796135 0.004097481 -0.09936097 -0.09851248 -0.028222354 0.11153294 -0.047693476
0.13895203 -0.0028918032 -0.10610402 -0.15012437 0.0734863 -0.115606226 -0.037655663 -0.13879444
-0.0855759 -0.106300466 0.12357537 -0.12613262 0.18666966 -0.1073395 0.013376821 0.035701644
-0.047968645 0.14071542 0.043256834 0.0033744264 -0.101039015 0.073617585 0.083508365 0.011911134
-0.16032888 0.08337004 0.13519208 0.06119243 0.14148095 -0.011590673 -0.10384877 0.1437646
0.045803834 0.08903032 -0.15109204 0.13486406 -0.032952417 0.15022494 -0.09676375 0.0735942
-0.18273175 0.052024994 -0.0030574629 6.0992425e-05 -0.16777872 0.045950428 0.010272302 -0.12933536
-0.09263983 -0.11567511 -0.009550716 0.011360051 0.1808892 -0.021992113 -0.017013714 0.038715236
-0.053755708 0.15371606 0.104399726 -0.08087606 0.17162499 -0.13536611 -0.14494047 -0.032545723

layer2.weight f4 [64, 128]
00000000: 6efb c5bc 4248 333e 935d 6bbc de26 95bd
00000010: 74c2 92bc 3bbd 173d 400b bd3d eb25 b43c
00000020: 504a 103d 9048 d73d 8911 ac3d d0ce f6be
00000030: 688c 3d3e 8713 023d 9ce1 0ebe 8816 8b3d
00000040: 2397 103e 19a3 2ebd 3388 15bd 1802 293d
00000050: c4cb 48be e3d3 86bd b2b4 653a 2858 c1bd
00000060: b02d 37bc a135 b4bd 4492 9c3d fc5d 61be
00000070: d9a5 083c 56fd debc 8738 963b f526 1d3d
00000080: d642 81bd d059 bbbd 132b c03c 1a24 a6ba
00000090: f4af fe3c c5c1 bcbe e4fb a83d 4893 aebd
000000a0: 6759 3abd a32d 8bbc 5dee 56bd f8b2 f6bd
000000b0: 2bc4 b8be c642 5a3d 82f8 0c3d 86d4 d1bc
000000c0: d416 b7be 7d62 02bc 2f6e 8dbd b572 20bd
000000d0: 8460 913c 37d4 c03d c302 d8ba 85b1 203e
000000e0: c444 e6be 10a4 123e 4761 f43d 2cb1 30be
000000f0: ca9e 7d3d b235 9b3c 9691 a63d 7650 95bd
00000100: 182e 41bd 9515 6b39 718a 2dbe 4f4b aabc
00000110: 82af 32be aa7b 65bc 1de1 783d 4490 f9bc
00000120: 2810 f3bc a71b bb3d 505b 813e 76b8 1c3d
00000130: 4232 c6be 2051 e23c 764a 72be 7b47 2abd
00000140: 04a2 a63d da12 02be e3ff a5be 0af3 893b
00000150: 101b 843c a54e bebc d7ba e2bd 9a8f 18bd
00000160: c1a3 e1bc a0a3 a03d 70cc 12bd 3cd0 9e3d
00000170: 33db 8e3d ff15 af3d 98f3 85bd f351 b03d
00000180: cce3 943d 0209 883d 531c b9bd e11a ebbc
00000190: 7826 06be 1dce 87bd 948f 55bb b798 083c
000001a0: b090 0bbf 5700 b63d ac75 373d ad82 2abe
000001b0: b365 84be c930 a8bd e119 bfbc 7071 ef3d
000001c0: 1c7d 673c be32 46bc ff25 933d 5d05 743b
000001d0: 195d 00be d75c f43c bebd 3bbd 4b83 30be
000001e0: 9aae 7f3b d3f4 68be 68dd d63c 946e 9a3c
000001f0: 5866 853c af23 a0bd ba07 16be e95e 103e
00000200: 1ca8 973d 6c06 2b3e 2cd3 cebc c561 a8be
00000210: c4da 643c f57f 743b 5153 6bbd 63bd 5d39
00000220: 7c86 c0bd 702b 90bd 0d03 17bc 33fb 2ebe
00000230: b53a 89be 14d0 0abd 7a08 56bd cdd3 953c
00000240: 047e b0be 60ff 5d3d c8b5 823d 4238 a3bd
00000250: 50eb febd 74cb e1bd 4965 95bd 0b02 01bd
00000260: fa8a 843d e401 403d b851 c3bd ca86 edbe
00000270: 9350 933c f727 6c3d 4193 0abd 095c 35bc
00000280: 7cb6 d9bc 9d8b 8abe b4d2 4b3c 141e 87bc
00000290: 1bb0 523d 2bdc 86bd f62d 2bbe 0383 3d3d
000002a0: cdd1 b7bb 4a94 433d 02a6 ca3d de0c dc3c
000002b0: daca edbd 4c5c 84bc f71d 873c 86f7 b83d
000002c0: 63aa a2bd 338e 393d edfd 28bd 6204 9f3d
000002d0: 5620 59bd 2aa4 06be 7425 bd3d 54d5 12be
000002e0: 5fb5 453d 1666 903d 0d70 d73b ebcc b3be
000002f0: 4d3f 093e fbe1 67bd d77b 123e 0fa7 18bb
00000300: 99e2 1c3c 6898 71bd 4eda f83c 551b 8cbd
00000310: 3962 8ebd b02b b83d 3c69 e8bd 68ce bbbd
00000320: d728 46bd d3f8 ef3c 229b 1e3d 2ddc 393d
00000330: 6af7 07be b1e5 6f3d 8223 733c d2d6 973c
00000340: ee70 d13d 8544 01bf 3612 31bd a73f 343d
00000350: 5960 2bbd c934 83bd efb9 4abe bda3 4e3e
00000360: 6157 0039 8419 ac3b 9681 adbb b33f 6f3d
00000370: e033 58bd 6f48 6bbd 8da8 ccbe cdcc 0a3d
00000380: 96f9 543b 6226 b6bc 9ba4 343d 2f60 a23c
00000390: e292 96bb c333 91bd 8485 1b3e 8382 9abd
000003a0: a671 47bf f69a 653d 5c1f 51bc 568b 20be
000003b0: e175 19be d592 a5be 1372 393d 47b6 8e3e
000003c0: 9b43 4ebe 4dd4 8bbd 67f1 933d b94a 46bc
000003d0: 7afb e2bd ba8b 06bb 4ea1 893c b2aa cbbe
000003e0: f572 733d e0cd 32be b5a1 08bd 0143 a83d
000003f0: 0bd1 30be 2678 f3bd 23d7 9bbe e4bb 953d
-0.024167743 0.17508033 -0.014365572 -0.07282804 -0.017914988 0.0370457 0.092306614 0.021990737
0.03522712 0.10511887 0.08401782 -0.4820466 0.18510592 0.031756904 -0.1395325 0.06791407
0.14120154 -0.04263601 -0.036506843 0.041261762 -0.1960898 -0.06583383 0.00087625824 -0.094406426
-0.011180326 -0.087992914 0.076450855 -0.22008508 0.008340322 -0.02722041 0.0045843753 0.03836723
-0.06311576 -0.0914799 0.02345804 -0.0012675554 0.03108976 -0.36866584 0.08251169 -0.085241854
-0.045495417 -0.016989535 -0.052473415 -0.12045854 -0.36087164 0.053286336 0.034416683 -0.025614034
-0.35759604 -0.007958052 -0.069057815 -0.039171893 0.017746218 0.09415477 -0.0016480315 0.15692718
-0.4497434 0.14320397 0.11932617 -0.17255086 0.06191901 0.018946502 0.08133237 -0.07290737
-0.0471631 0.00022419386 -0.16947342 -0.020787863 -0.17449763 -0.014006535 0.06076156 -0.030464299
-0.02967079 0.09136134 0.25264978 0.038261853 -0.3871022 0.027626574 -0.23661217 -0.041572075
0.08136371 -0.12702504 -0.3242179 0.0042098807 0.016126186 -0.02323086 -0.11070793 -0.037246324
-0.027543904 0.07843709 -0.035839498 0.07754561 0.06975403 0.08549117 -0.065406024 0.086093806
0.07270011 0.06642343 -0.090386055 -0.02869934 -0.13100612 -0.0663111 -0.00325868 0.008337191
-0.5451765 0.088867836 0.044789955 -0.16651411 -0.2585884 -0.0821243 -0.02332777 0.11691558
0.0141289495 -0.012097059 0.071849816 0.0037234642 -0.12535514 0.029829426 -0.04583525 -0.17237584
0.0039013983 -0.22749643 0.026228622 0.018851556 0.016284153 -0.07819306 -0.14651385 0.14098705
0.07405111 0.16701669 -0.025247179 -0.32887092 0.013968173 0.0037307714 -0.057452504 0.00021146754
-0.09400651 -0.07039535 -0.009217036 -0.17088012 -0.26802602 -0.033889845 -0.052254178 0.018289471
-0.34471142 0.054198623 0.06382328 -0.07969715 -0.12447226 -0.11025134 -0.07294709 -0.03149609
0.0647182 0.046876803 -0.09537071 -0.46391898 0.017982757 0.0576553 -0.03383184 -0.011069306
-0.026576273 -0.2705964 0.012440372 -0.016493835 0.05143748 -0.065849625 -0.16716751 0.04626752
-0.005609727 0.04774884 0.09894945 0.026861604 -0.116109565 -0.016157292 0.01649378 0.09031586
-0.07942655 0.045301627 -0.041257787 0.07764508 -0.053009354 -0.13148561 0.09235659 -0.1433919
0.048268672 0.07050721 0.006574637 -0.35117278 0.13403054 -0.056611996 0.14305054 -0.0023292934
0.0095755095 -0.058983237 0.030377533 -0.06841151 -0.06952328 0.08992708 -0.11348197 -0.09170228
-0.04837879 0.029293453 0.038722165 0.04537599 -0.13277975 0.05856866 0.014840009 0.018535051
0.10226618 -0.5049518 -0.043230258 0.044006016 -0.04183993 -0.06406552 -0.1979749 0.20179649
0.00012239582 0.005252065 -0.005294989 0.058410358 -0.052783847 -0.057442125 -0.39972344 0.03388672
0.0032497398 -0.0222351 0.044102293 0.019821255 -0.0045951465 -0.07089951 0.15187651 -0.075444244
-0.7790779 0.056055985 -0.012763824 -0.15678152 -0.14986373 -0.32338586 0.045274805 0.27873442
-0.20142977 -0.068276025 0.07223778 -0.012102776 -0.110831216 -0.002053006 0.016800549 -0.39778668
0.059435803 -0.17461348 -0.03335734 0.08215905 -0.17267244 -0.11888151 -0.30437574 0.07311228

layer2.bias f4 [64]
00000000: 5c45 c53d 16df 52bd c2a4 833b b434 3bbc
00000010: 8e13 4e3c f9f7 0c3d 75aa 03bd 464b 003d
00000020: 9cfe 613c bb11 15bc d934 bd3c ba2d 5d3c
00000030: 86c4 20bd 429e 993c 6077 51bd 598f b4bc
00000040: bb80 843c b028 d6bc 59cb 4a3d 4eef 943b
00000050: cc31 0e3c 93d8 b33c 3545 3e3d 6d22 05bc
00000060: 0024 adbc 7bf6 a0bc 7bb7 7bbc e55e 6b3d
00000070: baee f53b e13c 36bc 32a0 133d 2bd1 a3bc
00000080: 347f 84bd de3f 453c 46ee b2bb 8c81 4a3c
00000090: 774e 483d 0b80 52bd ebc0 853b c055 833d
000000a0: 0ac9 273d 5a76 febc 0f2d 0bbd 3653 153b
000000b0: 59de 243d ccb7 4ebd bef1 85bd 50be 303d
000000c0: 5077 38bd e941 bbbb 18d5 6cbd d48a cabc
000000d0: 115c 0a3d 6351 173d b49c 4ebd b11b df3b
000000e0: 23b9 203c 4817 253d 5b0c 90bc 059f 13bc
000000f0: e40d 693d 230b 303c e11f 453c b600 cb3d
0.0963237 -0.051482283 0.0040174434 -0.01142614 0.012577904 0.034416173 -0.032144982 0.031321786
0.013793614 -0.009098466 0.023096489 0.013499672 -0.03924992 0.018752221 -0.051139235 -0.02204101
0.016174665 -0.026142448 0.049510334 0.004545129 0.008678865 0.021953857 0.04645272 -0.0081258835
-0.02113533 -0.019648781 -0.015363569 0.057463545 0.007505265 -0.011122913 0.036041446 -0.0199972
-0.064695746 0.012039153 -0.0054605333 0.012359988 0.048902955 -0.051391643 0.0040818355 0.0641284
0.04096321 -0.031062294 -0.033978518 0.0022785193 0.04025111 -0.05046825 -0.06540249 0.043150246
-0.04503566 -0.005714644 -0.05782041 -0.024724402 0.033779208 0.03694285 -0.050442412 0.006808721
0.009809765 0.040305406 -0.017584017 -0.009010081 0.056898013 0.010744843 0.012031526 0.09912245

layer3.weight f4 [4, 64]
00000000: f827 8d3e 6e18 343e 71d2 98bd b72b 7bbd
00000010: 272f 68be 765d dc3d ea2e efbd dac6 21be
00000020: a423 603e 5e99 ecbd 04ef e1bd 45df 1dbe
00000030: 800d 5c3d e7c5 0f3e e520 5d3e 082f f63d
00000040: b1c2 06be 1e65 ab3d 95bf 5e3d 074a 5bbd
00000050: c6ab 2dbe 5bd6 3cbe c884 c83d f3e9 dabd
00000060: dd86 1c3e 06e5 11bd 5b20 763c 01e5 873d
00000070: bde9 32bc 5484 1e3d 5a33 e73c b98b b83d
00000080: 74b3 febc 304d ae3d ec9d 203d dfc0 38be
00000090: 4b5f 933d 79c1 46be 2caf 2a3e 40d0 dcbc
000000a0: 34a0 6dbd 2196 243d 12c1 373d 2066 4b3e
000000b0: b857 b5bd 8865 80be 90e3 08be 1f60 6e3d
000000c0: a758 103e fd29 48bd 1cdc d4bd 6a04 303e
000000d0: f519 ed3d 4610 033e 8d74 5fbc c016 b33d
000000e0: 95ef 75bd a4f8 023d 3c3a 9a3c a36e 2f3e
000000f0: 144f 4cbd 0bd9 243e e62b 91bd 3094 943d
00000100: 5427 a83e a7b4 403e 8009 043e 77d3 9bbb
00000110: d5bd abbe 5efb 323e 080b 513d 544a 58be
00000120: 8951 783e 989e 06be 3a93 1fbe 471b 6bbe
00000130: 626b ed3d 3cb4 033e aec5 7a3e c265 9a3e
00000140: b735 28be 3635 63bc 508c e83d 3526 07be
00000150: 9fdd a0be b0de 85be d2c3 c83d 569a 0dbe
00000160: 4fd5 4e3e 2e4d 98bd c77b 563d 7e69 7a3d
00000170: cd0e 0d3e 2dc0 4cbd e351 4a3d 4cc9 223e
00000180: fa84 323c 55db 863d 78ab e33d 2bbd 75be
00000190: 5d68 4b3d 3011 e1bd e102 0dbe 3c63 b53d
000001a0: 9501 d0bd dc93 b3bb 87be 073d a9f2 753e
000001b0: 0445 20be 8dcd a1be e283 4abe 110d b63c
000001c0: 7c5e 373e 26da 71be 72a3 3fbe 5d78 753e
000001d0: 1c0d 2d3e e1ec d13c e0e3 5c3b 9e3e 1c3e
000001e0: 7ccf 263d ccfa 1fbd d1ae e2bc ce5f 173e
000001f0: 1f75 18be 3f87 6d3e c4fa e5bd fee4 e33c
00000200: 51ac 8e3e 9da5 483e f402 dfbd b2de 83bc
00000210: 0343 70be e6f7 df3d d90c 11be 1b58 16be
00000220: 7085 563e 3e3d cfbd f41e b4bd 9b1c 19be
00000230: fb60 fc3b 206b 153e e06c 5e3e e1b1 d73d
00000240: 61b8 0bbe 1c83 8a3d c0c1 2b3d 2bee a4bd
00000250: 55d3 1cbe 1280 2bbe a364 a63d 60ae e0bd
00000260: 94fe 1b3e f1d7 47bd a509 aa3c c93e 443d
00000270: f209 0cbc 7105 ed3c 9f4f d63d 6308 ba3d
00000280: efea 3d3d 8dbc bd3d 5e55 0e3d 0f2f 34be
00000290: a3c6 9e3d 97d0 2abe f22c f43d 3b8f a53d
000002a0: 76b3 f8bc 6fc1 cf3d fd71 213d 0e72 323e
000002b0: 3f7b a3bd a495 5abe 893c 1fbe 6cb5 543c
000002c0: b5a4 e93d fde6 ddbc 75c6 85bd 07fb 143e
000002d0: 807c ef3d 8bd1 143e 1b1b e7bc 3af7 973d
000002e0: e5b0 2dbd 9f09 083c 3577 843b 24bc 233e
000002f0: 8b92 54bd 0403 213e 8551 7cbd b719 2dbd
00000300: b3ab 853e e8b6 1f3e fa9b a4bd 683b 833d
00000310: f4f5 54be 86f7 c83d 2197 d8bd 6c4a 26be
00000320: c3d2 643e 9310 00be 9b5c f9bd 7170 1abe
00000330: c18b 933d 79b2 0d3e 409b 593e 1447 153e
00000340: 4ece f2bd 9cc9 80bc bc33 383d 8cc9 a2bd
00000350: 547d 17be 211f 42be d23d c43d c24f ddbd
00000360: 1e24 0b3e e5d6 afbc 0609 d5bb 39b6 8a3d
00000370: d739 bbbc 2fb8 203d 05e7 0bbc 7d97 a83d
00000380: af6c c13d 5d52 9a3d c3f6 7b3d 362c 2dbe
00000390: 766c a23d 4419 38be da32 373e 24bd 61bd
000003a0: 123e 91bd 87a1 47bc 6468 a33d ea8d 583e
000003b0: 25c8 adbd 845d 84be f43a 00be fc01 7c3d
000003c0: 9dd3 163e 5b95 04bd 08bf d0bd 09cc 2a3e
000003d0: f858 df3d cb8d 093e c77e a9bd 08ca ba3d
000003e0: dc7e 823d 2ae0 bb3c eff2 393d 65c8 333e
000003f0: 6b81 3dbd 0877 193e bbf4 7fbd e5c1 5b3d
0.27569556 0.17587444 -0.074620135 -0.061320987 -0.22674237 0.10760014 -0.1167887 -0.15798512
0.21888596 -0.1155269 -0.11031917 -0.15417202 0.053723812 0.14040338 0.2159458 0.12020689
-0.13160206 0.08368896 0.054381926 -0.053537395 -0.16960058 -0.18441145 0.09790951 -0.106891535
0.15285821 -0.035618804 0.015022363 0.06635476 -0.010919985 0.038700417 0.028222729 0.09011025
-0.03109143 0.08510816 0.039213106 -0.18042324 0.0719591 -0.19409741 0.16668385 -0.02695477
-0.05801411 0.040182237 0.04486186 0.19863176 -0.08854622 -0.25077462 -0.13368058 0.058197137
0.14096318 -0.04886817 -0.10393545 0.17189184 0.115772165 0.12799177 -0.013638628 0.087445736
-0.060042936 0.031975403 0.018826596 0.17132048 -0.049880102 0.1609842 -0.07088451 0.07254827
0.32842505 0.18818913 0.12894249 -0.004755433 -0.33543268 0.17478701 0.05103591 -0.21122104
0.24249853 -0.13146436 -0.15583506 -0.22959624 0.11592747 0.12861723 0.24489471 0.3015576
-0.1642674 -0.013867667 0.113548875 -0.13198169 -0.31419083 -0.2614646 0.09802975 -0.13828406
0.20198558 -0.07436596 0.052364137 0.06113576 0.13775177 -0.04998796 0.0493945 0.15897101
0.010895962 0.06584803 0.111166894 -0.23997943 0.049660075 -0.109896064 -0.1377063 0.08856818
-0.10156552 -0.0054802727 0.033140685 0.24018349 -0.15651327 -0.31602135 -0.19776872 0.022223027
0.17907137 -0.23618373 -0.18714693 0.23971696 0.16899532 0.025625648 0.003370516 0.15258262
0.040725216 -0.039057538 -0.02767125 0.1478264 -0.14888428 0.23196124 -0.1122947 0.027819153
0.27865842 0.19594426 -0.10889235 -0.0160974 -0.23463063 0.10935955 -0.14165057 -0.14682047
0.2094934 -0.10119103 -0.08794966 -0.14952318 0.0077019907 0.14591646 0.2172122 0.105319746
-0.13644554 0.067632884 0.04193282 -0.080532394 -0.15314992 -0.16748074 0.08124664 -0.109707594
0.15233833 -0.048789922 0.020756552 0.04791144 -0.008547293 0.028933259 0.10464405 0.09083631
0.04636663 0.09264479 0.03474938 -0.17596076 0.07752731 -0.16681133 0.11922635 0.0808396
-0.030359011 0.101443164 0.03941535 0.17426321 -0.07982492 -0.21346146 -0.15550436 0.0129827075
0.114083685 -0.027087683 -0.06531993 0.14548884 0.11693668 0.1453306 -0.028211167 0.074202016
-0.042405028 0.008303075 0.004042531 0.15989739 -0.051897567 0.15723807 -0.06160118 -0.04226085
0.2610756 0.15597117 -0.08037563 0.06407815 -0.20796949 0.09812836 -0.105757006 -0.16239327
0.22346024 -0.12506323 -0.12175866 -0.15081955 0.0720439 0.13837613 0.2125063 0.14577895
-0.11855756 -0.015721135 0.044971213 -0.07948598 -0.14793903 -0.18957187 0.09582104 -0.10806228
0.13587996 -0.021464774 -0.00650132 0.067730375 -0.022854729 0.03923815 -0.008538966 0.08232019
0.09444558 0.07535241 0.061514627 -0.16911396 0.079308435 -0.17978388 0.17890492 -0.05511202
-0.07091917 -0.012184507 0.07978895 0.21147886 -0.0848544 -0.25852597 -0.12522489 0.06152533
0.14729162 -0.032369 -0.10192686 0.16679396 0.10905641 0.13432996 -0.08276134 0.09120566
0.06371853 0.022934038 0.045397695 0.17556913 -0.046266 0.14986813 -0.062489253 0.05365171

layer3.bias f4 [4]
00000000: 6571 9a3d 1f89 9a3d 40bf aa3d 9d6e bb3d
0.075411595 0.07545685 0.08337259 0.09151957
