models/model_2/nets/300_target_net.pt (torch, 46990 bytes, 6 tensors)

layer1.weight f4 [128, 19]
0	0x3dc5812d	0.09643779
1	0x3e5b7314	0.21430618
2	0xbe053602	-0.13008884
3	0xbe464001	-0.19360353
4	0x3cfb9596	0.030710977
5	0xbecf566d	-0.40495625
6	0xbd88d792	-0.06681742
7	0x3d58a9ec	0.052896425
8	0x3d5b4cad	0.05353992
9	0x3caba2f8	0.020951733
10	0x3d166f6b	0.03672735
11	0xbdaff8c6	-0.08592372
12	0xbe072da7	-0.13201009
13	0x3e0e0b94	0.13871604
14	0xbc9875c6	-0.018610846
15	0xbcdff31d	-0.027337605
16	0xbe356fbb	-0.17718403
17	0xbae1dcef	-0.0017231981
18	0x3d627ec8	0.05529669
19	0xbdf3293e	-0.11873101
20	0x3de694dc	0.112588614
21	0xbdd22c24	-0.102623254
22	0x3c92b5d4	0.017908968
23	0x3e5a4b3d	0.21317764
24	0xbf011031	-0.5041533
25	0x3d25cffa	0.040481545
26	0xbd72af7f	-0.059249397
27	0x3cefc5fe	0.029269215
28	0x3cc1cc01	0.023656847
29	0xbdb915af	-0.09037339
30	0xbd3c1239	-0.045915816
31	0xbd546c39	-0.05186102
32	0x3dd3a942	0.10335018
33	0xbdcebfa9	-0.1009515
34	0xbe0c3b8c	-0.1369459
35	0x3d76ae78	0.06022498
36	0x3d5a6e72	0.053327985
37	0x3ded07dd	0.115737654
38	0x3db7d77f	0.089766495
39	0x3dc78901	0.09742928
40	0x3db27bc2	0.08715011
41	0xbe4e9f74	-0.20178014
42	0xbd18ed2b	-0.037335556
43	0x3d99b125	0.07504491
44	0xbe43501f	-0.19073533
45	0xbd943065	-0.07235793
46	0xbdcee72a	-0.10102685
47	0xbdd0346b	-0.10166248
48	0xbe586fd7	-0.21136414
49	0xbda66d84	-0.08126357
50	0x3dead89e	0.11467098
51	0xbd946020	-0.07244897
52	0xbe2e657e	-0.17030904
53	0xbcb198cf	-0.02167931
54	0xbcf43beb	-0.029813727
55	0xbd847c29	-0.06468994
56	0x3d94aec8	0.072598994
57	0xbde47ea5	-0.11156968
58	0xbd408aa9	-0.047007237
59	0x3ddce0f5	0.10785095
60	0x3e17b09c	0.14813465
61	0x3d96a164	0.073550016
62	0x3e56ec6e	0.20988628
63	0x3d294749	0.04132775
64	0xbd7f93ac	-0.06239669
65	0x3da27f78	0.07934469
66	0x3ba086b0	0.0048988685
67	0xbc2f930a	-0.010716209
68	0x3d83ea33	0.06441154
69	0x3c360aeb	0.0111110015
70	0x3e121554	0.14265949
71	0xbe0a78ec	-0.1352269
72	0xbe1c59ac	-0.15268582
73	0x3d45c297	0.04828128
74	0xbe0d55c5	-0.1380225
75	0x3d101416	0.035175405
76	0xbdf89d37	-0.12139361
77	0x3dc22ba9	0.09480984
78	0xbd6a0977	-0.057137933
79	0x3dee46c4	0.11634591
80	0x3e36307e	0.17791936
81	0x3b0c99e7	0.0021454038
82	0xbd13d607	-0.036092784
83	0x3e1b90ba	0.15191928
84	0x3dc285d8	0.09498185
85	0x3c83a092	0.016067777
86	0xbd98d55d	-0.07462571
87	0xbe3958c8	-0.18100274
88	0xbdb0b7e8	-0.08628827
89	0xbe4bf0ff	-0.19916151
90	0xbd9302af	-0.07178246
91	0x3b98bbd5	0.004661063
92	0x3c0fa20c	0.008766662
93	0xbd9da51b	-0.07697507
94	0xbdde8338	-0.10864872
95	0xbbd63b26	-0.0065378128
96	0xbda664d3	-0.081246994
97	0x3dec85c9	0.11548955
98	0x3dfece06	0.124416396
99	0xbe075b2a	-0.1321837
100	0x3d7d2e99	0.061812017
101	0xbd708cf2	-0.058728166
102	0xbe15570d	-0.14583988
103	0xbde88540	-0.113535404
104	0xbd973842	-0.07383777
105	0xbde53408	-0.11191565
106	0xbde18137	-0.11010974
107	0xbdd088a0	-0.10182309
108	0x3d3188af	0.043343242
109	0xbd9bf621	-0.07615305
110	0x3dacb2a4	0.084325105
111	0xbcf4f163	-0.029900258
112	0x3cd339a2	0.025784317
113	0xbacd9248	-0.0015683854
114	0xbda5dda0	-0.08098912
115	0x3dbbd2d5	0.091710724
116	0x3db466ef	0.088086955
117	0x3cfe9215	0.031075517
118	0x3cc96d6a	0.024588306
119	0xbdfd0c42	-0.123558536
120	0xbdbf855e	-0.0935161
121	0xbe06ddf0	-0.131706
122	0xbdca3b68	-0.09874612
123	0x3bcfb3e3	0.006338583
124	0x3d914d6b	0.070948444
125	0x3ca35a1e	0.019940432
126	0x3db8a3ad	0.09015594
127	0xbe035bb9	-0.12827958
128	0xbd18b341	-0.037280325
129	0x3b4f6df7	0.0031651238
130	0x3d9c622a	0.07635911
131	0xbdd7dc8f	-0.10540115
132	0x3a109578	0.00055154366
133	0xbdb8e853	-0.09028687
134	0xbd3aafcc	-0.04557781
135	0x3d7a19fd	0.06105994
136	0xbdc303fa	-0.09522243
137	0xbd8f2384	-0.06989196
138	0x3ef3fd79	0.47654322
139	0x3b529aec	0.0032135798
140	0x3d1ac4ca	0.03778533
141	0x3e102f84	0.14080626
142	0x3d70c3de	0.058780544
143	0x3d1ad6e4	0.037802592
144	0xbd561016	-0.052261434
145	0xbdcccab9	-0.09999604
146	0xbdc6c32d	-0.097051956
147	0xbe1f063c	-0.15529722
148	0xbd1deb12	-0.03855426
149	0x3c13d2bf	0.009022414
150	0x3dadf173	0.084933184
151	0xbe068cb5	-0.13139613
152	0x3e337030	0.17523265
153	0x3d44607a	0.04794357
154	0xbd6df214	-0.05809219
155	0xbcc59267	-0.024117662
156	0xbe1a2ea0	-0.15056849
157	0xbe8b24be	-0.2717647
158	0xbe6983bd	-0.2280416
159	0xbbe0add7	-0.006856661
160	0x3df4ff7a	0.11962791
161	0xbd935406	-0.071937606
162	0xbcb8cee0	-0.022559583
163	0xbe375b5f	-0.17905949
164	0x3b83a5d1	0.0040175696
165	0x3e03895a	0.12845364
166	0x3db75f7a	0.089537576
167	0x3de48115	0.11157433
168	0x3d0f637f	0.035006996
169	0x3d107287	0.03526547
170	0x3d6cec24	0.05784239
171	0x3d96334b	0.07334002
172	0xbd9359da	-0.07194872
173	0x3d3348af	0.04377049
174	0xbcb0adab	-0.021567186
175	0xbdac04b8	-0.083993375
176	0x3d1561ec	0.03647034
177	0xbd877f90	-0.066161275
178	0xbdca16ed	-0.09867654
179	0xbe19d993	-0.15024404
180	0xbd904c7d	-0.07045839
181	0x3e0c7719	0.13717307
182	0x3ca7c613	0.020480191
183	0x3d62f75f	0.055411693
184	0xbcd4de43	-0.025984889
185	0x3bc81d81	0.0061070328
186	0xbb69b0bb	-0.0035658318
187	0x3e0b8a69	0.13627018
188	0x3e3325b9	0.17494859
189	0x3e2eed9a	0.17082825
190	0xbdc90bac	-0.09816679
191	0x3a71c03c	0.00092220656
192	0x3ce2ea5e	0.027699646
193	0xbd8c574f	-0.0685259
194	0x3d59de5e	0.05319058
195	0xbe0d58ed	-0.13803454
196	0xbc89f32e	-0.01683959
197	0xbe020465	-0.12696989
198	0xbe1116e2	-0.14168885
199	0x3d89a9ad	0.06721816
200	0xbd122881	-0.03568316
201	0xbdc03877	-0.0938577
202	0x3d936198	0.07196349
203	0xbde3e8a5	-0.11128358
204	0x3d981283	0.07425406
205	0x3d79acc8	0.060955793
206	0x3c6abdf7	0.014327518
207	0xbdfa426b	-0.122196995
208	0xbd554719	-0.052069757
209	0xbce3ca2b	-0.027806362
210	0xbe55fab8	-0.20896423
211	0xbe4a7544	-0.19771296
212	0x3c07ab1d	0.008280543
213	0x3deba32f	0.11505734
214	0x3eaf224a	0.34205848
215	0x3d46e99c	0.04856263
216	0x3c187aab	0.00930659
217	0x3d5db571	0.054128114
218	0xbda20bb3	-0.07912388
219	0x3dce4669	0.100720234
220	0x3ce05d9f	0.027388392
221	0xbd0d404e	-0.034485154
222	0xbbc4f10a	-0.0060101794
223	0xbdbd5a59	-0.09245748
224	0xbe0c0e5f	-0.13677357
225	0xbdbd79e5	-0.09251765
226	0x3def4a29	0.11684067
227	0x3c98a8ea	0.018635232
228	0xbce03068	-0.027366832
229	0xbd8db128	-0.069185555
230	0x3bf60c19	0.0075087664
231	0x3d33aaad	0.04386394
232	0x3e127c8d	0.14305325
233	0x3e981eea	0.29711086
234	0xbe249235	-0.16071399
235	0x3cefcfa8	0.029273823
236	0xbd3f6f6e	-0.046737127
237	0x3ccd0d13	0.025030648
238	0x3d0ebfb8	0.034850806
239	0x3de5b07a	0.11215301
240	0xbdaa245a	-0.08307715
241	0xbc4a6dac	-0.012355249
242	0x3be59696	0.0070064766
243	0xbda40d83	-0.0801039
244	0xbd89b0a6	-0.06723146
245	0x3d097c0d	0.03356557
246	0xbde724af	-0.11286294
247	0x3d8e65d5	0.06953017
248	0x3d964b28	0.07338554
249	0xbdd07c3f	-0.10179948
250	0xbd0346fc	-0.032050118
251	0xbe9a8052	-0.30176026
252	0x3e080d5b	0.13286345
253	0xbd835a30	-0.06413686
254	0x3dbb925b	0.091587745
255	0x3d70e2b2	0.058809943

layer1.bias f4 [128]
0	0x3d3e1bbf	0.04641318
1	0xbc629dbd	-0.013831553
2	0xbcb4003a	-0.021972764
3	0xbe125080	-0.14288521
4	0x3db06bc6	0.08614306
5	0x3d282ffb	0.041061383
6	0x3e2ec2bf	0.17066477
7	0xbd7836a0	-0.06059897
8	0x3b952916	0.004552017
9	0xbd389256	-0.04506143
10	0x3e25f6ef	0.16207479
11	0xbcc6f33c	-0.024285905
12	0x3dabe81e	0.08393882
13	0xbbbd8ece	-0.005784846
14	0xbd954e16	-0.07290284
15	0x3e14ff19	0.14550437
16	0xbd59243b	-0.053013068
17	0x3dce4911	0.1007253
18	0x3d2985e7	0.041387465
19	0x3db80675	0.089856066
20	0x3bce521b	0.006296409
21	0x3d82aac2	0.06380226
22	0x3da641ea	0.08118041
23	0xbbf80de1	-0.007570014
24	0xbd71c6a3	-0.059027325
25	0xbcc0934e	-0.02350774
26	0x3e1b15f2	0.1514509
27	0xbd1ed5f6	-0.038778268
28	0xbd999035	-0.074982084
29	0xbddb144b	-0.1069723
30	0x3d912c96	0.07088582
31	0xbd36d0ef	-0.04463285
32	0x3d478198	0.048707575
33	0xbc00078b	-0.007814298
34	0xbbce9724	-0.0063046385
35	0xbe05ed0b	-0.13078706
36	0x3dbcaeb3	0.09213009
37	0x3d32b1a0	0.043626428
38	0x3d0eb9b3	0.034845065
39	0xbd6f7da0	-0.058469415
40	0x3d4bb667	0.0497345
41	0xbdb09693	-0.0862247
42	0x3dc31305	0.09525112
43	0xbd8d97f1	-0.06913746
44	0xbe032e3e	-0.12810609
45	0x3d8727ab	0.06599363
46	0x3e17deda	0.14831105
47	0xbdb19046	-0.08670096
48	0xbe0309d3	-0.12796716
49	0x3e064d27	0.13115369
50	0x3cb583c9	0.022157567
51	0x3d3eb06b	0.046554964
52	0x3dd3eec6	0.10348277
53	0xbd99c405	-0.07508091
54	0xbb084eaf	-0.0020798852
55	0x3cb208b1	0.02173266
56	0x3d25f3d2	0.04051573
57	0x3bcbd6b6	0.006220664
58	0x3c3f70f8	0.011684649
59	0xbdc3505b	-0.09536811
60	0xbd703798	-0.05864677
61	0xbcf4438d	-0.029817367
62	0x3dbb283c	0.091385335
63	0xbd30abb2	-0.04313249
64	0x3e027fde	0.1274409
65	0xbb9b5e41	-0.0047414606
66	0xbdb22427	-0.08698302
67	0xbe09acc0	-0.13444805
68	0x3d8a7954	0.06761423
69	0xbdd34eae	-0.10317741
70	0xbcc33337	-0.023828132
71	0xbdee3609	-0.116314
72	0xbd9f9b65	-0.07793311
73	0xbdc1814c	-0.094484895
74	0x3deaad7c	0.11458871
75	0xbddb531f	-0.107092135
76	0x3e2a2b65	0.16618116
77	0xbdc2468c	-0.09486112
78	0x3cce2c8b	0.025167724
79	0x3d1319ec	0.035913393
80	0xbce0a333	-0.02742157
81	0x3e0484be	0.12941262
82	0x3d1b4004	0.037902847
83	0x3ccef01d	0.02526098
84	0xbdbc0616	-0.09180848
85	0x3d80bdff	0.06286239
86	0x3d6efecd	0.058348466
87	0x3c258277	0.010101906
88	0xbe0b801c	-0.13623089
89	0x3da11de4	0.07867029
90	0x3df10891	0.11769212
91	0x3daaefca	0.083465174
92	0x3e1c3305	0.15253837
93	0xbcd00e78	-0.025397524
94	0xbdc5dfb1	-0.096618064
95	0x3df2c16c	0.118532985
96	0x3d177ab0	0.03698224
97	0x3d902852	0.070389405
98	0xbde19810	-0.11015332
99	0x3df9f562	0.12205006
100	0xbcc13f7b	-0.02358984
101	0x3e0211a7	0.12702046
102	0xbda2434f	-0.07922994
103	0x3d70581e	0.058677785
104	0xbe25da2e	-0.1619651
105	0x3d1876bc	0.03722261
106	0xbc0507bc	-0.00811952
107	0x3d53b06b	0.051681917
108	0xbe32acdb	-0.17448752
109	0x3d2d352a	0.04228703
110	0x3ceeed73	0.029165959
111	0xbde01666	-0.10941772
112	0xbd93c183	-0.07214644
113	0xbdc7a478	-0.09748167
114	0xbca84016	-0.020538371
115	0x3d0e7564	0.03477992
116	0x3e2937a5	0.16525133
117	0xbbc64fcf	-0.0060519944
118	0xbd1d76de	-0.03844344
119	0x3cfff120	0.031242907
120	0xbd3542fa	-0.044253327
121	0x3dcb6822	0.09931971
122	0x3dda25c3	0.10651734
123	0xbd8b0a1a	-0.06789036
124	0x3e26fc11	0.16307093
125	0xbdeb5ed9	-0.114927
126	0xbde919ce	-0.11381875
127	0xbccbcc95	-0.024877826

layer2.weight f4 [64, 128]
0	0xbc8a93de	-0.016916212
1	0x3e1d8eae	0.15386459
2	0xbce977be	-0.02849948
3	0xbdb14184	-0.08655074
4	0xbc6fff67	-0.014648295
5	0x3d00cd67	0.031445887
6	0x3dd1228c	0.102116674
7	0x3c1cf1f1	0.009579168
8	0x3d2ca147	0.042145994
9	0x3dbb7930	0.09153974
10	0x3da3297c	0.07966897
11	0xbee7ecca	-0.45297843
12	0x3e6c385f	0.23068379
13	0x3cbf74c6	0.023371112
14	0xbe10de8a	-0.14147392
15	0x3d96f7ef	0.07371508
16	0x3dcd24a0	0.10016751
17	0xbd30b26f	-0.043138918
18	0xbd19c43c	-0.03754066
19	0x3d371e79	0.044706795
20	0xbe21ca4a	-0.15799823
21	0xbd91b4f8	-0.07114595
22	0x3bcfde3d	0.0063436315
23	0xbe20343e	-0.15644929
24	0xbc1b9f23	-0.00949839
25	0xbda02ecb	-0.07821425
26	0x3d7500d2	0.059815235
27	0xbe78d40b	-0.24299638
28	0x3c9e2347	0.01930393
29	0xbcbdb508	-0.023157611
30	0x3c19c4a0	0.009385258
31	0x3d4ad739	0.04952166
32	0xbddad02e	-0.106842384
33	0xbd91c840	-0.07118273
34	0x3c944c20	0.018102705
35	0xbb98ddd1	-0.0046651145
36	0x3ca3bd74	0.0199878
37	0xbeb192a2	-0.34682184
38	0x3d8bb63e	0.06821869
39	0xbd979ea8	-0.07403308
40	0xbd21355a	-0.03935752
41	0xbc6c323a	-0.014416272
42	0xbd996ac0	-0.07491064
43	0xbd8e9979	-0.06962866
44	0xbea72654	-0.3264643
45	0x3cee6d15	0.029104749
46	0x3d455299	0.048174474
47	0xbd1bef81	-0.038070206
48	0xbecf35b2	-0.40470654
49	0xbc87a348	-0.01655735
50	0xbdbe16b4	-0.09281674
51	0xbcdcb105	-0.026939878
52	0x3d16a6a1	0.036780003
53	0x3d9bbc44	0.07604268
54	0xbb372c4f	-0.0027949994
55	0x3e3f3ecb	0.18676297
56	0xbee3bbd2	-0.44479233
57	0x3e308684	0.17238814
58	0x3df9d0b7	0.12198012
59	0xbe2e3b5a	-0.17014828
60	0x3da7874b	0.08180102
61	0xbb024afe	-0.0019881125
62	0x3de0e6eb	0.10981544
63	0xbd8eed74	-0.06978884
64	0xbb8deda2	-0.0043313066
65	0x3947cf61	0.00019055374
66	0xbe6b9335	-0.23005374
67	0x3cedaf49	0.029014247
68	0xbe3836b9	-0.17989625
69	0x3e5988d9	0.2124361
70	0x3d1ba602	0.038000114
71	0xbccf1a7f	-0.025281189
72	0xbd0f4856	-0.034981094
73	0x3dabdd88	0.08391863
74	0x3e381d93	0.17980032
75	0x3d05491c	0.032540426
76	0xbeb37ca5	-0.35056034
77	0x3d091b4d	0.0334733
78	0xbe707ae2	-0.23484376
79	0xbd0d3807	-0.03447726
80	0x3dda5fa8	0.10662776
81	0xbdbc4876	-0.09193508
82	0xbea2c476	-0.31790513
83	0x3d2d65d2	0.04233343
84	0x3c8d3677	0.017237885
85	0x3aec9e0d	0.0018052474
86	0xbdbbd27c	-0.09171006
87	0xbcf24395	-0.029573241
88	0xbcbfb71d	-0.023402745
89	0x3db2f3d5	0.087379135
90	0xbc960bcb	-0.01831617
91	0x3d9660af	0.0734266
92	0x3d89990a	0.06718643
93	0x3d94e0bb	0.072694264
94	0xbd5e9b9e	-0.054347627
95	0x3d7f5c64	0.06234397
96	0x3d8287c8	0.063735545
97	0x3dabf2bc	0.08395907
98	0xbdd1cba2	-0.10243918
99	0xbcb54f91	-0.022132667
100	0xbdb29d35	-0.08721391
101	0xbd392564	-0.045201674
102	0x3b93d127	0.004511017
103	0xbbf79463	-0.007555531
104	0xbf1e1658	-0.61752844
105	0x3d8d475d	0.06898377
106	0x3c938062	0.018005554
107	0xbe72c1ab	-0.23706691
108	0xbeb7de08	-0.35911584
109	0xbdc4e493	-0.096139096
110	0xbbaff601	-0.005369902
111	0x3e3ff8ff	0.18747328
112	0xbc3485e4	-0.01101825
113	0xbd2d36e9	-0.042288695
114	0x3cde195b	0.0271117
115	0x3c90903d	0.017646903
116	0xbde8111a	-0.11331387
117	0x3cc70aff	0.024297236
118	0xbd642567	-0.055699732
119	0xbe1d2ff6	-0.15350327
120	0xbc0adb96	-0.008475205
121	0xbe96b77b	-0.2943686
122	0x3d28c977	0.041207757
123	0x3c858e8c	0.016303323
124	0x3b59a15b	0.0033207748
125	0xbd8b623d	-0.06805847
126	0xbe18e43d	-0.14930816
127	0x3dfdadd7	0.12386673
128	0x3d7a01a0	0.061036706
129	0x3e1d50f1	0.15362908
130	0xbc21fc7e	-0.009886859
131	0xbe42437c	-0.18971056
132	0x3cb87d74	0.022520758
133	0x3b4fc7da	0.0031704814
134	0xbcc389e1	-0.023869457
135	0x3d4e4f55	0.050368626
136	0xbd8bb9f5	-0.06822578
137	0x3e477557	0.19478355
138	0xbc0025d7	-0.007821522
139	0xbe2ae1b9	-0.16687669
140	0xbe9584af	-0.29202792
141	0xbc947e2d	-0.018126572
142	0xbd14e8bb	-0.03635476
143	0x3a0a05c4	0.00052651414
144	0xbea989ca	-0.33112937
145	0x3c9ab8ea	0.018887002
146	0x3d648ef8	0.055800408
147	0xbe43184e	-0.1905224
148	0xbb4c4ab4	-0.0031172456
149	0xbe3a0e79	-0.18169583
150	0xbcbb5531	-0.02286777
151	0xbcc0d690	-0.023539811
152	0x3d60f695	0.05492266
153	0x3dc59b1a	0.09648724
154	0xbde47ee4	-0.11157015
155	0xbe936e3d	-0.28795043
156	0x3c300ae2	0.010744782
157	0x3d56745a	0.052357055
158	0xbc9f1c66	-0.019422721
159	0xbd0d1ef8	-0.034453362
160	0xbbcdc351	-0.006279387
161	0xbe8a70d3	-0.27039203
162	0x3cccd3c3	0.02500332
163	0xbd1339d0	-0.035943806
164	0x3d3b0caf	0.045666393
165	0xbcc6420d	-0.024201417
166	0xbe0ed538	-0.13948524
167	0xbec7af61	-0.3900099
168	0xbc81bf1a	-0.015838195
169	0x3d2638b7	0.04058143
170	0xbbfe194f	-0.007754482
171	0x3db615c2	0.08890869
172	0xbde408df	-0.111345045
173	0x3c8c232e	0.017106619
174	0x3cd38556	0.025820415
175	0x3d531189	0.051530395
176	0xbe24c568	-0.1609093
177	0xbc583099	-0.01319518
178	0xbd0081c1	-0.031373743
179	0x3d97dbf8	0.074150026
180	0x3d24dfec	0.04025261
181	0xbd8119e0	-0.063037634
182	0x3dca3786	0.098738715
183	0xbdf14471	-0.11780632
184	0xbd023c86	-0.031796
185	0x3dcec0e5	0.100953855
186	0x3d477fb5	0.048705775
187	0xbe97d9b5	-0.29658285
188	0x3de6ce7c	0.112698525
189	0xbde6d43a	-0.11270948
190	0x3e3122c4	0.17298418
191	0xbc8a5590	-0.016886503
192	0xbc9ab008	-0.018882766
193	0xbd4d3d3e	-0.050107233
194	0x3d2af581	0.041738037
195	0xbceff1ea	-0.029290158
196	0x3d263b29	0.040583763
197	0xbc83048e	-0.015993383
198	0xbe3834d8	-0.17988908
199	0xbd2e2063	-0.042511355
200	0xbd1957b4	-0.037437156
201	0x3bcea76f	0.0063065807
202	0xbbb56d68	-0.005536724
203	0x3d1ddb35	0.03853913
204	0xbdde739a	-0.10861893
205	0x3d4bc0de	0.04974448
206	0xbe37e19d	-0.17957158
207	0x3d041f49	0.0322564
208	0x3e0027fb	0.12515251
209	0xbedf4240	-0.43605232
210	0xbda4c94b	-0.08046206
211	0x3d0f6e83	0.0350175
212	0xbd07ac31	-0.0331232
213	0xbe471ebc	-0.19445318
214	0xbe60256e	-0.21889278
215	0x3e6954f0	0.22786307
216	0x38d9fc9a	0.00010394417
217	0x3c679051	0.014133529
218	0x3b8006fc	0.0039070826
219	0x3d95db46	0.07317214
220	0xbcbc89f6	-0.023015004
221	0xbd47f8b2	-0.04882116
222	0xbe92f72d	-0.28704205
223	0xbca05c93	-0.019575393
224	0xbcfe1f2b	-0.031020721
225	0x3d294266	0.041323088
226	0x3d35229c	0.04422246
227	0x3c84377b	0.016139736
228	0x3c3857f5	0.011251439
229	0x3c34bb1d	0.011030939
230	0x3dfeb733	0.12437286
231	0xbdc746f1	-0.09730328
232	0xbf81de3d	-1.0145947
233	0x3d43df81	0.04782057
234	0xbba25b3d	-0.004954724
235	0xbe9a5c6e	-0.30148643
236	0xbdfe21a7	-0.124087624
237	0xbebe1c5b	-0.37131009
238	0x3d0868bf	0.03330302
239	0x3e022eef	0.12713216
240	0xbe2a6b62	-0.16642526
241	0xbdde0ed2	-0.108426705
242	0x3d9c40a3	0.07629516
243	0xbc288450	-0.010285452
244	0xbcb4f5a4	-0.022089787
245	0xbd78d9b5	-0.060754497
246	0xbb951acd	-0.004550314
247	0xbee278d4	-0.4423281
248	0x3d2fec20	0.042949796
249	0xbe8ad9c9	-0.27119282
250	0x3c3059e8	0.010763623
251	0x3d9c0c35	0.07619516
252	0xbe17bafa	-0.1481742
253	0xbd69c02c	-0.057068035
254	0xbe8c5a08	-0.27412438
255	0x3d24cb3f	0.040232893

layer2.bias f4 [64]
0	0x3dbd15a5	0.09232644
1	0xbce0db90	-0.027448446
2	0xbc64872e	-0.013948245
3	0xbc78f953	-0.015196162
4	0x3c34904c	0.011020731
5	0x3d1b56a0	0.03792441
6	0xbd123953	-0.0356992
7	0x3cc6c19d	0.024262244
8	0x3ca0319f	0.019554911
9	0xbcbbf618	-0.022944495
10	0x3c9944f0	0.01870963
11	0x3ad6cc06	0.0016387708
12	0xbca6f0f9	-0.020378577
13	0x3cea94e1	0.028635444
14	0xbd254450	-0.04034835
15	0xbb8600af	-0.004089437
16	0x3acff667	0.001586628
17	0xbcb7050f	-0.02234128
18	0x3d9549b3	0.07289448
19	0xbb85530b	-0.0040687374
20	0xbaf4c485	-0.001867429
21	0x3cd9c8a2	0.026584927
22	0x3d8bffd2	0.06835903
23	0xbc8c2a8f	-0.017110137
24	0xbb90ccd2	-0.0044189477
25	0xbcc5fac7	-0.024167432
26	0xbb76c520	-0.0037654117
27	0x3d64a97c	0.055825695
28	0x3bc3b62a	0.0059726434
29	0xbbd02b5d	-0.0063528256
30	0x3d81771d	0.06321547
31	0xbb67d026	-0.003537187
32	0xbd6cbba3	-0.05779613
33	0x3cc2ebaa	0.023794014
34	0x3c3e4684	0.011613492
35	0x3bf1fb3e	0.0073846867
36	0x3d80831e	0.062750086
37	0xbd3a5d92	-0.04549939
38	0xbcb39a80	-0.021924257
39	0x3d915346	0.07095961
40	0x3d02a348	0.031894
41	0xbca39595	-0.019968787
42	0xbbdc4de3	-0.006723152
43	0xbca3b98b	-0.019985935
44	0x3cb68ebe	0.022284862
45	0xbd41a2d4	-0.047274426
46	0xbd91a854	-0.07112184
47	0x3d8cc233	0.06872978
48	0xbd056aaa	-0.032572426
49	0xbc26d6d8	-0.010183059
50	0xbd44c2b2	-0.04803724
51	0xbc5dc5ba	-0.013535911
52	0x3d0481eb	0.032350462
53	0x3d1fb40c	0.038990065
54	0xbd2f8e02	-0.04286004
55	0x3c798531	0.015229509
56	0x3d4eaffc	0.0504608
57	0x3d16433d	0.036685217
58	0xbc8c0677	-0.017092926
59	0xbb281c25	-0.002565154
60	0x3d32149e	0.043476693
61	0x3bd49d07	0.0064884457
62	0x3c103a1b	0.008802916
63	0x3dd8d329	0.105871506

layer3.weight f4 [4, 64]
0	0x3ea9e2b9	0.33180788
1	0x3e3ceb11	0.18449046
2	0x3d37ea1c	0.044901
3	0x3e484349	0.19556917
4	0xbe8f8c31	-0.28036645
5	0x3de3df29	0.11126549
6	0xbdf4eb3f	-0.11958932
7	0xbe20e425	-0.1571203
8	0x3e8e1712	0.27751976
9	0xbe0aa76d	-0.1354043
10	0xbe12c1ae	-0.14331695
11	0xbe2c8f4d	-0.1685154
12	0x3d529da9	0.051419888
13	0x3e1143de	0.14186046
14	0x3e83fecf	0.2578034
15	0x3e227f2e	0.15868828
16	0xbe2278e5	-0.1586643
17	0x3d876560	0.066111326
18	0x3d69f3aa	0.05711714
19	0xbdc1d36f	-0.09464156
20	0xbe32fc9f	-0.1747918
21	0xbe5756bd	-0.21029182
22	0x3dc3c5a2	0.0955918
23	0xbdb81884	-0.08989051
24	0x3e1527b0	0.14565921
25	0xbd3fdc07	-0.046840694
26	0x3c7ff220	0.015621692
27	0x3da3d509	0.079996176
28	0x3e222244	0.15833384
29	0x3d2d294a	0.042275704
30	0x3d1a0b53	0.037608456
31	0x3da5eb3c	0.08101508
32	0x3e299ba0	0.16563272
33	0x3d9fea05	0.078083076
34	0x3d1eea53	0.038797688
35	0xbe4dec9f	-0.20109795
36	0x3dd408cd	0.10353241
37	0xbe5f1ed2	-0.21789101
38	0x3e854db2	0.2603584
39	0xbc3e421d	-0.011612442
40	0xbdadee6e	-0.084927425
41	0x3d0e6a0c	0.034769103
42	0x3d3a760d	0.04552274
43	0x3e698914	0.22806197
44	0xbdaa51f1	-0.0831641
45	0xbe80a5c6	-0.25126475
46	0xbe2bedf0	-0.16789985
47	0x3d662f70	0.056197584
48	0x3e2cabdb	0.16862433
49	0xbddc1126	-0.10745458
50	0xbe03e962	-0.12881997
51	0x3eb1639b	0.34646305
52	0x3e2a6237	0.16639028
53	0x3e17abf4	0.14811689
54	0xbc3dd279	-0.011585825
55	0x3db5b561	0.08872486
56	0x3e7c045b	0.24611036
57	0x3d3e3fd9	0.04644761
58	0x3d1c31d1	0.038133446
59	0x3e1b89c0	0.15189266
60	0xbd582d1b	-0.05277739
61	0x3e1417fa	0.14462271
62	0xbda43dce	-0.08019601
63	0x3d8593f1	0.06522358
64	0x3eb00e8c	0.34386098
65	0x3e54c6bc	0.20778936
66	0x3e9c2afd	0.30501547
67	0x3dd6f358	0.10495633
68	0xbede0065	-0.43359676
69	0x3e3daa87	0.18522082
70	0x3d7643f2	0.06012339
71	0xbe50d9da	-0.20395604
72	0x3e9df206	0.30848712
73	0xbe04a2f7	-0.12952791
74	0xbe2d59a4	-0.16928726
75	0xbe70e789	-0.23525824
76	0x3de6502d	0.11245761
77	0x3e02f7cc	0.1278984
78	0x3e90ece3	0.2830573
79	0x3ea506d4	0.32231772
80	0xbe307ca2	-0.17235044
81	0xbc3c714f	-0.011501624
82	0x3dda9f8d	0.10674963
83	0xbe166440	-0.1468668
84	0xbeab46c4	-0.33452427
85	0xbe9a8a72	-0.3018375
86	0x3dd4a3b0	0.103827834
87	0xbe017dc9	-0.1264564
88	0x3e4ed31e	0.20197722
89	0xbdefc88d	-0.11708174
90	0x3d8e0dd8	0.06936234
91	0x3d90b74e	0.070662126
92	0x3e8a4c55	0.27011362
93	0xbd6c2cf0	-0.057660043
94	0x3d58dc26	0.052944325
95	0x3e22a890	0.15884614
96	0x3ca0e15b	0.019638708
97	0x3dac8fb7	0.08425849
98	0x3de695a6	0.11259012
99	0xbe7616bc	-0.2403211
100	0x3da7b4e7	0.08188801
101	0xbdc5f295	-0.096654095
102	0xbdf7f8cb	-0.12108
103	0x3da75b3a	0.08171697
104	0xbdfa67c9	-0.12226827
105	0x3c627972	0.0138229
106	0x3d1b279e	0.03787958
107	0x3ea0855e	0.3135175
108	0xbe2f5a3b	-0.17124264
109	0xbea56517	-0.32303688
110	0xbe5ab327	-0.21357404
111	0x3d0cadad	0.034345318
112	0x3e5a6930	0.21329188
113	0xbeb434ad	-0.35196438
114	0xbe4768ce	-0.19473574
115	0x3ec9859c	0.39359748
116	0x3e5b0907	0.21390162
117	0x3d7d8148	0.06189087
118	0x3b3ba5e3	0.0028632812
119	0x3e1923eb	0.14955108
120	0x3e357ce0	0.17723417
121	0xbc5830c8	-0.013195224
122	0xbcaf2ac9	-0.021382706
123	0x3e11af08	0.14226925
124	0xbe27cfb5	-0.16387828
125	0x3e7f3b54	0.24924976
126	0xbe07ab98	-0.13249052
127	0x3d201646	0.03908374
128	0x3ea635ef	0.32463023
129	0x3e46fcfe	0.19432446
130	0x3c4a6270	0.012352571
131	0x3dbc02e0	0.09180236
132	0xbe96c720	-0.29448795
133	0x3dd79ba2	0.105277315
134	0xbe0fcaa5	-0.14042147
135	0xbe22d1ec	-0.15900391
136	0x3e8c4cbb	0.2740229
137	0xbe00aa2f	-0.1256492
138	0xbe0a0928	-0.13480055
139	0xbe2bd801	-0.16781618
140	0x3c8e7888	0.017391458
141	0x3e2169fc	0.15763086
142	0x3e893c61	0.26803878
143	0x3dff8698	0.124768436
144	0xbe242680	-0.16030312
145	0x3d773a12	0.060358115
146	0x3d3325e7	0.04373732
147	0xbdcb9fd9	-0.09942598
148	0xbe277858	-0.16354501
149	0xbe4f0ddf	-0.20220135
150	0x3db9fdbd	0.090816
151	0xbdb98fa7	-0.09060603
152	0x3e18c3ab	0.14918391
153	0xbd64067a	-0.05567024
154	0x3c64afd8	0.01395794
155	0x3dad4011	0.08459485
156	0x3e09838e	0.1342909
157	0x3d2f9868	0.042869955
158	0x3dd0714c	0.1017786
159	0x3dba2519	0.09089107
160	0x3e77a8cb	0.24185483
161	0x3d9b5248	0.07584053
162	0x3d2c175a	0.042014457
163	0xbe575ad3	-0.2103074
164	0x3de5605e	0.11200021
165	0xbe1f5294	-0.15558845
166	0x3e42d5e6	0.19026908
167	0x3d979970	0.07402313
168	0xbd829986	-0.063769385
169	0x3e0750d1	0.13214423
170	0x3d207f8a	0.03918413
171	0x3e62d943	0.22153191
172	0xbda5b9f1	-0.08092106
173	0xbe525640	-0.20540714
174	0xbe3de277	-0.1854342
175	0x3cad9328	0.021188334
176	0x3e1549c2	0.14578918
177	0xbddc546e	-0.10758291
178	0xbde0863e	-0.10963105
179	0x3eaeb0da	0.34119302
180	0x3e1d5f5f	0.15368412
181	0x3e2163b3	0.15760688
182	0xbcc473e5	-0.023981044
183	0x3dadc143	0.08484127
184	0x3e6bcc46	0.23027143
185	0x3c848f85	0.016181717
186	0x3c5782d4	0.01315375
187	0x3e17f3c9	0.1483909
188	0xbd83afda	-0.064300254
189	0x3e22ecd0	0.1591065
190	0xbd85c529	-0.06531746
191	0xbce115cb	-0.027476212
192	0x3ea589e4	0.32331765
193	0x3e2ea0be	0.17053506
194	0x3d0da08f	0.03457695
195	0x3e9070c1	0.28211024
196	0xbe80cb0b	-0.2515491
197	0x3de24ea0	0.11050153
198	0xbddaf91b	-0.10692044
199	0xbe1b4f72	-0.15167025
200	0x3e91db09	0.28487423
201	0xbe1664c0	-0.1468687
202	0xbe1374fe	-0.14400098
203	0xbe203a52	-0.15647247
204	0x3d9f60d7	0.077821426
205	0x3e05b7ca	0.13058391
206	0x3e816cee	0.2527842
207	0x3e368571	0.17824341
208	0xbe210a47	-0.15726577
209	0xbc961459	-0.01832025
210	0x3d5facc5	0.054608125
211	0xbdd9075d	-0.105971076
212	0xbe2165a6	-0.15761432
213	0xbe56a6a2	-0.20962003
214	0x3dbfa239	0.093571134
215	0xbdb902d5	-0.09033743
216	0x3e128cba	0.14311495
217	0xbce85010	-0.02835849
218	0x3bc2bf03	0.0059431805
219	0x3da4f74c	0.08054981
220	0x3e1c56b0	0.15267444
221	0x3d7820d6	0.06057819
222	0xbb0c9780	-0.0021452606
223	0x3d9020b8	0.070374906
224	0x3e1454d7	0.14485489
225	0x3da9edc1	0.08297301
226	0x3d5957b8	0.05306217
227	0xbe454064	-0.19262844
228	0x3dd67ce9	0.104730435
229	0xbe7012ba	-0.23444644
230	0x3e99f15e	0.3006696
231	0xbd3301ab	-0.043702763
232	0xbdc170d4	-0.094453484
233	0xbd4a29ed	-0.04935639
234	0x3d9f4d61	0.07778431
235	0x3e5a5dd3	0.21324854
236	0xbda0bdbb	-0.07848688
237	0xbe8a8386	-0.2705347
238	0xbe23de7e	-0.16002843
239	0x3d8bf5f7	0.068340234
240	0x3e3c247e	0.18373296
241	0xbdac4aad	-0.08412681
242	0xbe02e84b	-0.12783925
243	0x3eb443e2	0.3520804
244	0x3e137692	0.144007
245	0x3e1ffc85	0.15623672
246	0xbd8ff0aa	-0.07028325
247	0x3dbe18b0	0.092820525
248	0x3e89850b	0.26859316
249	0x3d416840	0.04721856
250	0x3d86d6c6	0.065839335
251	0x3e1df3d6	0.15425047
252	0xbd1b790f	-0.037957247
253	0x3dfc7236	0.123264715
254	0xbdbf42a2	-0.09338881
255	0x3d7c1743	0.06154562

layer3.bias f4 [4]
0	0x3dd34a9e	0.103169665
1	0x3db6cc26	0.08925657
2	0x3dd9cdcf	0.10634958
3	0x3ddfcac0	0.10927343
