models/model_2/nets/300_policy_net.pt (torch, 46990 bytes, 6 tensors)

layer1.weight f4 [128, 19]
0.095732555 0.21418777 -0.12929522 -0.19466114 0.029703893 -0.40515563 -0.06716517 0.052399293
0.05294565 0.020950774 0.036803808 -0.08558002 -0.13184032 0.13911356 -0.018534018 -0.027248217
-0.17708784 -0.0016210467 0.05536426 -0.11831568 0.11327735 -0.10456864 0.018742856 0.21343094
-0.50292283 0.04124174 -0.05949167 0.029690638 0.024092918 -0.09031364 -0.045444116 -0.051229667
0.10317905 -0.10124266 -0.13714826 0.059992585 0.05300264 0.11533695 0.089598306 0.09748482
0.08807306 -0.20173703 -0.037295267 0.075084575 -0.19072115 -0.07230365 -0.10097307 -0.10159252
-0.21127817 -0.08118289 0.11471888 -0.0723003 -0.1702614 -0.021658275 -0.029807316 -0.064656205
0.072603 -0.11229918 -0.04807456 0.1086245 0.14703313 0.07297118 0.20866014 0.03968594
-0.06326608 0.07814375 0.0042965715 -0.010756466 0.064352475 0.010816372 0.14267635 -0.13519165
-0.15264466 0.048280034 -0.13800502 0.035187595 -0.121852174 0.094113454 -0.056877073 0.11573635
0.17726561 0.0016441718 -0.036817316 0.15167138 0.09440253 0.015793905 -0.07491506 -0.18100056
-0.08679745 -0.19929451 -0.07162913 0.004813139 0.008818995 -0.07673008 -0.10850742 -0.006562542
-0.08138165 0.11528609 0.12439665 -0.13215688 0.061799362 -0.058716226 -0.14581005 -0.11351302
-0.07382281 -0.11189328 -0.11008736 -0.10180223 0.043334294 -0.07613813 0.08430871 -0.029894298
0.025779102 -0.0015680596 -0.080803595 0.09189399 0.08782319 0.03130076 0.024878066 -0.12351885
-0.093237445 -0.13157651 -0.098544784 0.006550275 0.071073964 0.020186258 0.090355866 -0.12827301
-0.037249934 0.0031547204 0.076413 -0.105393365 0.00054047565 -0.08967566 -0.044758976 0.06060678
-0.09506597 -0.06974234 0.4774815 0.0038677421 0.038208876 0.14146142 0.059089154 0.037924156
-0.051190093 -0.09925803 -0.096814886 -0.15469518 -0.038178418 0.009529426 0.0853647 -0.1309434
0.17469572 0.047883924 -0.05765567 -0.024951717 -0.15111172 -0.27188742 -0.22875181 -0.007486257
0.119071335 -0.07201708 -0.022357503 -0.17913127 0.0039155832 0.12863852 0.089571826 0.111385465
0.035067316 0.035026915 0.057625726 0.073614314 -0.07186366 0.043555375 -0.021378139 -0.08393641
0.03669994 -0.06598546 -0.0987601 -0.14995705 -0.07052009 0.13752498 0.020820117 0.055674866
-0.025644276 0.005943627 -0.0037228882 0.1362027 0.17468856 0.17064951 -0.09793063 0.00022577278
0.027283205 -0.068453036 0.052805863 -0.137891 -0.017200485 -0.12724577 -0.14196171 0.06755136
-0.03624887 -0.09296359 0.07232908 -0.11113277 0.073502116 0.06008015 0.013787539 -0.12275378
-0.052891802 -0.028161803 -0.20973732 -0.19867443 0.008635536 0.11467674 0.34140912 0.047720995
0.009171325 0.05368187 -0.079516575 0.09993322 0.026249913 -0.035311997 -0.0077544646 -0.09224162
-0.13656144 -0.09246168 0.11699089 0.018851893 -0.027355738 -0.069092736 0.00931132 0.044473913
0.1436239 0.29733592 -0.15993546 0.029910197 -0.046344735 0.02581107 0.03478455 0.111755885
-0.08300835 -0.012026252 0.007838571 -0.07949873 -0.066645384 0.034086738 -0.11230397 0.06986126
0.073853225 -0.10187252 -0.031598404 -0.30125153 0.13363774 -0.06335105 0.09230207 0.059422344
00000000: 6e0f c43d 0a54 5b3e f765 04be 4055 47be
00000010: 9455 f33c 8f70 cfbe e58d 89bd a4a0 563d
00000020: 8add 583d f5a0 ab3c 97bf 163d 9444 afbd
00000030: 2601 07be c973 0e3e a7d4 97bc a737 dfbc
00000040: 8456 35be 4d79 d4ba a2c5 623d 7e4f f2bd
00000050: f5fd e73d 1528 d6bd 9e8a 993c a48d 5a3e
00000060: 8dbf 00bf 19ed 283d 8aad 73bd c839 f33c
00000070: 835e c53c 5cf6 b8bd 9c23 3abd 33d6 51bd
00000080: 8a4f d33d 5058 cfbd 9870 0cbe c9ba 753d
00000090: 4c19 593d c735 ec3d 517f b73d 1fa6 c73d
000000a0: a65f b43d 2794 4ebe ecc2 18bd f1c5 993d
000000b0: 684c 43be f013 94bd f8ca cebd bd0f d0bd
000000c0: 4e59 58be 3743 a6bd bbf1 ea3d 2e12 94bd
000000d0: 0159 2ebe b26c b1bc 792e f4bc 796a 84bd
000000e0: e2b0 943d 1dfd e5bd d4e9 44bd 8676 de3d
000000f0: da8f 163e ea71 953d 01ab 553e b98d 223d
00000100: a691 81bd d509 a03d 41ca 8c3b e33b 30bc
00000110: 3bcb 833d 2737 313c c019 123e ae6f 0abe
00000120: e24e 1cbe 49c1 453d 3051 0dbe de20 103d
00000130: a28d f9bd 8ebe c03d eff7 68bd 2e07 ed3d
00000140: 1e85 353e 4081 d73a c1cd 16bd be4f 1b3e
00000150: 1d56 c13d 3862 813c 116d 99bd 3658 39be
00000160: ddc2 b1bd dc13 4cbe 4bb2 92bd 89b7 9d3b
00000170: 8c7d 103c a924 9dbd 2339 debd 980a d7bb
00000180: 6cab a6bd 1d1b ec3d acc3 fe3d 2254 07be
00000190: 5421 7d3d 6d80 70bd 3b4f 15be 8479 e8bd
000001a0: 6a30 97bd 4e28 e5bd 7b75 e1bd b07d d0bd
000001b0: 4d7f 313d 4fee 9bbd 0caa ac3d e3e4 f4bc
000001c0: b22e d33c 5987 cdba 5b7c a5bd eb32 bc3d
000001d0: a5dc b33d 3a35 003d 16cd cb3c 73f7 fcbd
000001e0: 46f3 bebd febb 06be d9d1 c9bd b0a3 d63b
000001f0: 3a8f 913d a75d a53c 7f0c b93d 005a 03be
00000200: 6393 18bd 6dbf 4e3b 6b7e 9c3d 7ad8 d7bd
00000210: b5ae 0d3a dfa7 b7bd 3055 37bd d13e 783d
00000220: f3b1 c2bd 12d5 8ebd 7578 f43e f279 7d3b
00000230: e980 1c3d 43db 103e 7807 723d 5c56 1b3d
00000240: b4ac 51bd cb47 cbbd e246 c6bd 6a68 1ebe
00000250: f960 1cbd 4f21 1c3c b0d3 ae3d 0716 06be
00000260: 6fe3 323e ef21 443d 5a28 6cbd 8b67 ccbc
00000270: 08bd 1abe d434 8bbe ea3d 6abe 464f f5bb
00000280: acdb f33d b17d 93bd 1527 b7bc 306e 37be
00000290: 4b4e 803b d1b9 033e 6f71 b73d 101e e43d
000002a0: bfa2 0f3d 6278 0f3d f408 6c3d 1ac3 963d
000002b0: 412d 93bd 1f67 323d 3521 afbc dae6 abbd
000002c0: ad52 163d 6323 87bd bc42 cabd 578e 19be
000002d0: d66c 90bd 59d3 0c3e f38e aa3c 540b 643d
000002e0: f213 d2bc c2c2 c23b b3fb 73bb b878 0b3e
000002f0: 8fe1 323e bfbe 2e3e db8f c8bd 6bbd 6c39
00000300: 0781 df3c 1b31 8cbd f64a 583d 4c33 0dbe
00000310: 08e8 8cbc b74c 02be 695e 11be 5e58 8a3d
00000320: b279 14bd b263 bebd 4521 943d 9499 e3bd
00000330: 4788 963d 9a16 763d 21e5 613c 5566 fbbd
00000340: 13a5 58bd 95b3 e6bc 61c5 56be 4f71 4bbe
00000350: 107c 0d3c a3db ea3d 2dcd ae3e 1777 433d
00000360: 5343 163c 85e1 5b3d 96d9 a2bd caa9 cc3d
00000370: 0f0a d73c 50a3 10bd 2a19 febb 2de9 bcbd
00000380: c3d6 0bbe 8d5c bdbd eb98 ef3d 496f 9a3c
00000390: 2419 e0bc 7e80 8dbd 828e 183c 472a 363d
000003a0: 2512 133e 6a3c 983e 1fc6 23be 3b06 f53c
000003b0: fad3 3dbd bd71 d33c 3f7a 0e3d 45e0 e43d
000003c0: 4800 aabd c209 45bc 5a6d 003c 3bd0 a2bd
000003d0: 607d 88bd 899e 0b3d a0ff e5bd 6c13 8f3d
000003e0: 5c40 973d 8aa2 d0bd 546d 01bd a43d 9abe
000003f0: 55d8 083e 32be 81bd de08 bd3d d864 733d

layer1.bias f4 [128]
0.04592719 -0.013431463 -0.021935305 -0.14404076 0.085618295 0.041017395 0.17077982 -0.05990181
0.0040077395 -0.044857625 0.16152202 -0.02471614 0.084270865 -0.0051775724 -0.0725033 0.14503224
-0.052867915 0.10070445 0.04069914 0.08990262 0.0064344318 0.062852755 0.081038885 -0.0068454067
-0.059015404 -0.023454856 0.1515007 -0.039168157 -0.07491775 -0.10622099 0.0711294 -0.0448953
0.048029587 -0.008414789 -0.006560013 -0.13111958 0.0918258 0.043318268 0.0346149 -0.058516722
0.04990128 -0.086206816 0.0954529 -0.06893481 -0.12837444 0.06581534 0.14821783 -0.08752012
-0.12777394 0.13134073 0.0213265 0.0462829 0.103530005 -0.07507039 -0.0021126051 0.021751765
0.040357903 0.0062180567 0.012083559 -0.095664315 -0.059482414 -0.03049633 0.091357194 -0.04261225
0.12695983 -0.0047405288 -0.08706615 -0.13515154 0.06855024 -0.10337081 -0.0233794 -0.11648639
-0.07826416 -0.0945049 0.11444922 -0.10706979 0.1662957 -0.09430383 0.025400845 0.035135508
-0.02724912 0.1297456 0.038365364 0.025963578 -0.09227315 0.06292147 0.058682747 0.01024575
-0.13620406 0.07816718 0.11676466 0.08393917 0.15217707 -0.025305007 -0.09636082 0.1180416
0.03610365 0.07071491 -0.11000695 0.12209208 -0.024241034 0.1272081 -0.07972778 0.058802076
-0.16218485 0.03654659 -0.008537553 0.052004486 -0.17425321 0.042125907 0.028767698 -0.10903498
-0.072277606 -0.09734902 -0.02068392 0.034830023 0.16520408 -0.005976038 -0.03856942 0.031008674
-0.04364454 0.099534795 0.10619556 -0.067976 0.16347465 -0.1147284 -0.11354408 -0.02498736
00000000: 261e 3c3d a40f 5cbc abb1 b3bc 6c7f 13be
00000010: a558 af3d db01 283d e8e0 2e3e 9a5b 75bd
00000020: 5b53 833b a1bc 37bd 0766 253e 8179 cabc
00000030: 3496 ac3d a0a8 a9bb 9c7c 94bd 5583 143e
00000040: 078c 58bd 223e ce3d 24b4 263d dd1e b83d
00000050: edd7 d23b f2b8 803d b7f7 a53d 6f4f e0bb
00000060: 23ba 71bd 6624 c0bc 0023 1b3e ca6e 20bd
00000070: 7a6e 99bd 648a d9bd 4aac 913d 22e4 37bd
00000080: acba 443d 2fde 09bc 61f5 d6bb 3644 06be
00000090: 2a0f bc3d 7f6e 313d 5ac8 0d3d 3baf 6fbd
000000a0: 4965 4c3d 338d b0bd cf7c c33d b22d 8dbd
000000b0: 9774 03be 31ca 863d 6ac6 173e c03d b3bd
000000c0: 2cd7 02be 2f7e 063e eab4 ae3c 2393 3d3d
000000d0: 8a07 d43d 81be 99bd a273 0abb c230 b23c
000000e0: 544e 253d d7c0 cb3b 1ffa 453c a7eb c3bd
000000f0: d5a3 73bd 70d3 f9bc 7b19 bb3d 2f8a 2ebd
00000100: c201 023e 7056 9bbb bd4f b2bd 2a65 0abe
00000110: 1164 8c3d 13b4 d3bd 2886 bfbc 6b90 eebd
00000120: f648 a0bd c98b c1bd 5a64 ea3d 6847 dbbd
00000130: 6c49 2a3e 5e22 c1bd 6f15 d03c 40ea 0f3d
00000140: 8c39 dfbc 08dc 043e 0025 1d3d 92b1 d43c
00000150: b5f9 bcbd f9dc 803d 525d 703d cadd 273c
00000160: 1479 0bbe 1d16 a03d 4f22 ef3d 4de8 ab3d
00000170: 4ed4 1b3e 724c cfbc d258 c5bd cbbf f13d
00000180: 6ce1 133d fbd2 903d 534b e1bd 6a0b fa3d
00000190: 2295 c6bc d742 023e 5148 a3bd 72da 703d
000001a0: c913 26be e1b1 153d 18e1 0bbc a802 553d
000001b0: 6f6f 32be 378c 2c3d 3caa eb3c bb4d dfbd
000001c0: 4806 94bd ec5e c7bd 5371 a9bc eda9 0e3d
000001d0: 422b 293e a4d2 c3bb f8fa 1dbd e705 fe3c
000001e0: 9ec4 32bd e6d8 cb3d 0f7d d93d 0037 8bbd
000001f0: e665 273e b9f6 eabd cc89 e8bd 4bb2 ccbc

layer2.weight f4 [64, 128]
-0.017043393 0.15380259 -0.028627757 -0.08659171 -0.014689798 0.03143918 0.10197891 0.009583091
0.042211376 0.09135997 0.07965156 -0.4517618 0.23042609 0.023090526 -0.14161041 0.073866405
0.09966378 -0.0429321 -0.0373465 0.0446974 -0.15798868 -0.0710058 0.0062455116 -0.15659598
-0.009496526 -0.07819551 0.059756376 -0.24208133 0.018812725 -0.02318051 0.009287697 0.0495528
-0.106261775 -0.07125656 0.018131124 -0.004515464 0.019857049 -0.34692967 0.06823621 -0.07401346
-0.039472815 -0.01441329 -0.075323865 -0.0695782 -0.32583058 0.028985132 0.048145972 -0.03774112
-0.40485024 -0.016679803 -0.09276901 -0.027005117 0.03665027 0.07579893 -0.0028622604 0.18661962
-0.44520512 0.17241997 0.122006126 -0.17026272 0.08194987 -0.0021877645 0.10991266 -0.069508314
-0.0043491577 0.0001905159 -0.22986877 0.029455613 -0.17998736 0.21258774 0.03780439 -0.025217177
-0.034605253 0.08364754 0.17950802 0.03253372 -0.35045907 0.032828603 -0.23487006 -0.03441302
0.10675426 -0.09226896 -0.3181003 0.0423796 0.01729517 0.0016781626 -0.09177532 -0.029799715
-0.023397906 0.08739923 -0.017817823 0.07380695 0.06693076 0.07267934 -0.05442631 0.06249695
0.06329469 0.0840535 -0.102486834 -0.022249734 -0.08656339 -0.045275334 0.004437195 -0.00760546
-0.6166854 0.06892438 0.01799349 -0.23681608 -0.35860875 -0.096252546 -0.0055881133 0.18731181
-0.011077561 -0.042400014 0.027035741 0.017646652 -0.11340558 0.024227379 -0.05586021 -0.15341388
-0.008671686 -0.29358754 0.04114421 0.01627868 0.0029225359 -0.067886874 -0.14946894 0.12396154
0.060515963 0.15359294 -0.00988481 -0.18896194 0.02197732 0.0031698295 -0.024015749 0.050133135
-0.06880224 0.195147 -0.007819845 -0.1662053 -0.29144144 -0.017579595 -0.036624417 0.00029506747
-0.33025062 0.01875053 0.055722106 -0.19035144 -0.0029776627 -0.1823238 -0.022267774 -0.023621235
0.05491147 0.09700061 -0.112060934 -0.28728274 0.010604248 0.05176108 -0.019857999 -0.03431869
-0.005466603 -0.270465 0.024751237 -0.03613172 0.0458993 -0.023430705 -0.13938984 -0.39066705
-0.01625936 0.040573236 -0.008362016 0.08861626 -0.11194388 0.016589247 0.025483413 0.05167597
-0.1600601 -0.013192543 -0.03104601 0.0737829 0.039970476 -0.06323691 0.09792173 -0.11777997
-0.03215102 0.10134513 0.04901924 -0.29618433 0.1126836 -0.11226656 0.1732893 -0.01689999
-0.018769307 -0.050096806 0.042428054 -0.02809007 0.040839676 -0.016874034 -0.1809267 -0.041596863
-0.036301948 0.005759587 -0.0053972877 0.038531676 -0.108611435 0.04973405 -0.17996667 0.031869642
0.12563497 -0.4367504 -0.08044742 0.034722246 -0.03338003 -0.19580731 -0.21901874 0.2276465
0.0001039238 0.014285427 0.0045025623 0.07311488 -0.023273628 -0.048811473 -0.28650552 -0.019361876
-0.031348165 0.04100819 0.044537574 0.016063442 0.011535322 0.010369952 0.12464343 -0.097417146
-1.015121 0.047766495 -0.005157901 -0.30163544 -0.12416487 -0.37084255 0.033395726 0.12663427
-0.16653918 -0.10901175 0.07704843 -0.010283403 -0.022295384 -0.060760915 -0.004689399 -0.44232902
0.04261131 -0.27130044 0.010641814 0.07662981 -0.14881968 -0.057167046 -0.27407384 0.04043907
00000000: 969e 8bbc 6d7e 1d3e c284 eabc ff56 b1bd
00000010: 7aad 70bc 5fc6 003d 52da d03d 6602 1d3c
00000020: d6e5 2c3d f01a bb3d 5b20 a33d 534d e7be
00000030: d1f4 6b3e 5828 bd3c 5202 11be 4547 973d
00000040: 861c cc3d 92d9 2fbd a5f8 18bd 9f14 373d
00000050: c9c7 21be 7d6b 91bd 26a7 cc3b b25a 20be
00000060: 5197 1bbc f824 a0bd 1ac3 743d 2be4 77be
00000070: 251d 9a3c 0ee5 bdbc 6d2b 183c e0f7 4a3d
00000080: c69f d9bd f6ee 91bd b987 943c 75f6 93bb
00000090: 40ab a23c c4a0 b1be 6dbf 8b3d 5e94 97bd
000000a0: 3fae 21bd b825 6cbc 6643 9abd 047f 8ebd
000000b0: 44d3 a6be 3a72 ed3c b634 453d 6f96 1abd
000000c0: 8848 cfbe 15a4 88bc aefd bdbd d639 ddbc
000000d0: 981e 163d 783c 9b3d c394 3bbb 3719 3f3e
000000e0: edf1 e3be dc8e 303e 59de f93d 5a59 2ebe
000000f0: 55d5 a73d 9960 0fbb e419 e13d 605a 8ebd
00000100: 6183 8ebb 39c5 4739 b862 6bbe e64c f13c
00000110: 9b4e 38be 9ab0 593e c7d8 1a3d 4194 cebc
00000120: 3dbe 0dbd 674f ab3d f3d0 373e 1442 053d
00000130: 5f6f b3be 4977 063d c781 70be abf4 0cbd
00000140: faa1 da3d 82f7 bcbd 0bde a2be 3b96 2d3d
00000150: 9aae 8d3c cbf5 db3a b3f4 bbbd 881e f4bc
00000160: f7ac bfbc 5efe b23d aff6 91bc 1928 973d
00000170: ff12 893d e8d8 943d 1fee 5ebd cdfc 7f3d
00000180: a5a0 813d 3e24 ac3d 9ee4 d1bd 1345 b6bc
00000190: 2648 b1bd a172 39bd e465 913b 3937 f9bb
000001a0: 18df 1dbf 3a28 8d3d 1567 933c ea7f 72be
000001b0: 919b b7be 0e20 c5bd 7e1c b7bb abce 3f3e
000001c0: a97e 35bc a3ab 2dbd 0f7a dd3c b68f 903c
000001d0: 2f41 e8bd 7f78 c63c adcd 64bd 8718 1dbe
000001e0: b013 0ebc 1b51 96be d586 283d de5a 853c
000001f0: 0488 3f3b 4608 8bbd 630e 19be 8cdf fd3d
00000200: 96df 773d 7847 1d3e e6f3 21bc 3d7f 41be
00000210: c809 b43c eabc 4f3b adbc c4bc 6758 4d3d
00000220: 30e8 8cbd 9dd4 473e cf1e 00bc b931 2abe
00000230: d037 95be 1503 90bc 7c03 16bd 49b3 9a39
00000240: 9c16 a9be b69a 993c dd3c 643d 7deb 42be
00000250: e424 43bb 17b3 3abe e86a b6bc 5281 c1bc
00000260: d9ea 603d 41a8 c63d 3480 e5bd b916 93be
00000270: 71bd 2d3c 6d03 543d 3ead a2bc c191 0cbd
00000280: 3121 b3bb 637a 8abe 1bc3 ca3c dbfe 13bd
00000290: e800 3c3d c0f1 bfbc 36bc 0ebe 8305 c8be
000002a0: 5932 85bc 1f30 263d d600 09bc 717c b53d
000002b0: d542 e5bd 2ce6 873c 97c2 d03c 2faa 533d
000002c0: cbe6 23be 8925 58bc 3454 febc 7d1b 973d
000002d0: 15b8 233d 5a82 81bd 308b c83d a036 f1bd
000002e0: cab0 03bd 098e cf3d 66c8 483d 79a5 97be
000002f0: a9c6 e63d 03ec e5bd c072 313e d971 8abc
00000300: 17c2 99bc 4f32 4dbd 0ac9 2d3d 251d e6bc
00000310: 8147 273d 6a3b 8abc d944 39be 7961 2abd
00000320: 5ab1 14bd ebba bc3b bbdb b0bb 64d3 1d3d
00000330: ac6f debd eeb5 4b3d 2f49 38be be89 023d
00000340: 74a6 003e c09d dfbe 9ec1 a4bd ea38 0e3d
00000350: 80b9 08bd b681 48be 7346 60be 2a1c 693e
00000360: aaf1 d938 6c0d 6a3c 3b8a 933b 41bd 953d
00000370: 56a8 bebc 8aee 47bd dab0 92be cc9c 9ebc
00000380: ef66 00bd 34f8 273d 086d 363d 7b97 833c
00000390: a6fe 3c3c bbe6 293c 0e45 ff3d a482 c7bd
000003a0: 7cef 81bf cda6 433d 9c03 a9bb f66f 9abe
000003b0: 274a febd 13df bdbe f5c9 083d 6aac 013e
000003c0: 3f89 2abe 8d41 dfbd 91cb 9d3d b87b 28bc
000003d0: cfa4 b6bc 70e0 78bd 88a9 99bb f378 e2be
000003e0: 3289 2e3d e4e7 8abe 015b 2e3c 17f0 9c3d
000003f0: 3064 18be fe27 6abd 6853 8cbe 70a3 253d

layer2.bias f4 [64]
0.09230936 -0.027535053 -0.013710919 -0.015160411 0.010514063 0.0378703 -0.032958735 0.024708273
0.01934123 -0.022669673 0.018515304 0.001306084 -0.020307506 0.02890823 -0.040508073 -0.0046998854
0.0015925918 -0.022336807 0.0729737 -0.0041346624 -0.0027749438 0.026807105 0.06818126 -0.016744053
-0.003979969 -0.02494446 -0.0032395117 0.055915892 0.005842561 -0.006511209 0.06334996 -0.0030781305
-0.058773763 0.02372871 0.011965904 0.0075951144 0.06263343 -0.045356113 -0.022138253 0.07104655
0.03245873 -0.020001138 -0.0066395644 -0.019744612 0.02170655 -0.047499 -0.07116965 0.068786055
-0.031271175 -0.009737431 -0.04813286 -0.013854322 0.03194344 0.039414197 -0.04285109 0.015344242
0.05042024 0.036771137 -0.016957363 -0.0024670765 0.04339131 0.0067728735 0.008140875 0.10588227
00000000: b10c bd3d 3191 e1bc c3a3 60bc 5f63 78bc
00000010: 2d43 2c3c e31d 1b3d bdff 06bd 0169 ca3c
00000020: 8071 9e3c c0b5 b9bc 68ad 973c e830 ab3a
00000030: ed5b a6bc f4d0 ec3c cbeb 25bd 7f01 9abb
00000040: 83be d03a aefb b6bc 3c73 953d 107c 87bb
00000050: d5db 35bb 939a db3c 9ea2 8b3d d32a 89bc
00000060: 666a 82bb 5358 ccbc fd4d 54bb 1008 653d
00000070: f472 bf3b fb5b d5bb a0bd 813d 76ba 49bb
00000080: c2bc 70bd b662 c23c a40c 443c 70e0 f83b
00000090: f545 803d 55c7 39bd 485b b5bc db80 913d
000000a0: 72f3 043d 6dd9 a3bc b490 d9bb 74bf a1bc
000000b0: efd1 b13c 508e 42bd 65c1 91bd b4df 8c3d
000000c0: 3416 00bd bf89 1fbc f626 45bd 3dfd 62bc
000000d0: 20d7 023d c870 213d a084 2fbd 6a66 7b3c
000000e0: 7485 4e3d 559d 163d 2bea 8abc adae 21bb
000000f0: 16bb 313d fbee dd3b 4e61 053c ced8 d83d

layer3.weight f4 [4, 64]
0.33093104 0.18399957 0.043696538 0.19520427 -0.27957553 0.112653084 -0.12070522 -0.15566735
0.27716747 -0.13612518 -0.14428481 -0.16903515 0.051502984 0.14170803 0.25738814 0.15718059
-0.15883799 0.066097915 0.057135463 -0.09431609 -0.17679276 -0.21075423 0.095350064 -0.08987457
0.1432936 -0.04702603 0.01528939 0.07987138 0.15925476 0.042213555 0.037682056 0.0800329
0.16570666 0.07767688 0.038619213 -0.20108923 0.10253809 -0.21849851 0.26038215 -0.011517131
-0.08533354 0.03483165 0.04544289 0.22820342 -0.08363294 -0.25259295 -0.16722362 0.05616621
0.16657752 -0.107112005 -0.12865166 0.3468479 0.16573592 0.14902057 -0.011583406 0.08808562
0.24599576 0.04662825 0.038263362 0.15298572 -0.052629136 0.14443798 -0.08206424 0.06494314
0.3437028 0.20781507 0.30532256 0.105194785 -0.43361133 0.18432596 0.06079452 -0.20486532
0.3088465 -0.12902519 -0.16749132 -0.23441413 0.11207709 0.12798136 0.28347486 0.3222817
-0.17203617 -0.011499205 0.10666076 -0.14653298 -0.3334378 -0.30205876 0.10389953 -0.12649795
0.20309155 -0.11687307 0.06973773 0.07065757 0.2693616 -0.057511166 0.05284037 0.15973958
0.019546514 0.08437852 0.11294725 -0.24081166 0.08207498 -0.096622564 -0.121110894 0.081638694
-0.12179472 0.013674925 0.037861995 0.31352347 -0.17020671 -0.32158753 -0.21430483 0.034397148
0.21449581 -0.35202646 -0.19503891 0.3928231 0.21390851 0.0610647 0.0028627224 0.15008831
0.17710826 -0.013296305 -0.021368183 0.14142732 -0.16407214 0.24936537 -0.13140854 0.03943091
0.32465056 0.19437937 0.011905803 0.09215701 -0.2943623 0.10554673 -0.1408605 -0.15837795
0.27327758 -0.1261108 -0.13549961 -0.16833095 0.01766527 0.15774418 0.26844728 0.12469276
-0.1608262 0.060346175 0.043950673 -0.09928389 -0.16500086 -0.20255205 0.090746954 -0.090508565
0.14775418 -0.05563606 0.013722576 0.08468469 0.13372591 0.042683993 0.101987734 0.09019456
0.24211377 0.07563338 0.04172898 -0.20992115 0.111709595 -0.1556126 0.19028997 0.07421043
-0.06406646 0.13220134 0.039347798 0.22237985 -0.08138336 -0.20627476 -0.18521573 0.021346172
0.1446543 -0.10759273 -0.10848711 0.34155062 0.15362671 0.158378 -0.023976201 0.08450001
0.2307118 0.016240584 0.013379994 0.14948359 -0.064266495 0.15874642 -0.066448025 -0.027420316
0.3228144 0.17077817 0.03247914 0.2823044 -0.2509872 0.1119183 -0.10785876 -0.15031727
0.28416082 -0.14713633 -0.14477047 -0.15729159 0.07776284 0.13043824 0.2531899 0.17831236
-0.1575067 -0.018316515 0.054592084 -0.10582628 -0.15915589 -0.20996779 0.09335333 -0.0903289
0.14160292 -0.028563216 0.0055122827 0.08033377 0.15385322 0.060596067 -0.0021669478 0.06963871
0.14403714 0.08273002 0.052950665 -0.19293839 0.104229026 -0.23473834 0.3004376 -0.043683007
-0.094916075 -0.04941518 0.07772942 0.21407741 -0.078787476 -0.27187324 -0.1591778 0.06829646
0.18235087 -0.08424684 -0.12718292 0.35293984 0.14392626 0.15662248 -0.07026831 0.09253741
0.2692526 0.047354758 0.06593379 0.15450336 -0.037851315 0.12298794 -0.09469968 0.061299503
00000000: cb6f a93e 626a 3c3e 24fb 323d a1e3 473e
00000010: 8624 8fbe a9b6 e63d 4c34 f7bd 4367 1fbe
00000020: e5e8 8d3e 6664 0bbe 66bf 13be 8d17 2dbe
00000030: cbf4 523d e91b 113e 61c8 833e f3f3 203e
00000040: 6da6 22be 585e 873d e006 6a3d cb28 c1bd
00000050: 2909 35be f5cf 57be e546 c33d 2910 b8bd
00000060: 8fbb 123e 5e9e 40bd 5a80 7a3c 9b93 a33d
00000070: ae13 233e 1fe8 2c3d 8058 1a3d 4ae8 a33d
00000080: 02af 293e 0e15 9f3d 2e2f 1e3d 56ea 4dbe
00000090: 7dff d13d 13be 5fbe cf50 853e 59b2 3cbc
000000a0: 5ac3 aebd a2ab 0e3d 5322 3a3d 28ae 693e
000000b0: bf47 abbd dd53 81be ab3c 2bbe 8a0e 663d
000000c0: 4c93 2a3e 8a5d dbbd 43bd 03be 0c96 b13e
000000d0: adb6 293e d998 183e 53c8 3dbc 3c66 b43d
000000e0: 50e6 7b3e 44fd 3e3d 0bba 1c3d 4aa8 1c3e
000000f0: a691 57bd 8de7 133e 4c11 a8bd e900 853d
00000100: d0f9 af3e 79cd 543e 3d53 9c3e 5d70 d73d
00000110: 4e02 debe f2bf 3c3e ad03 793d 37c8 51be
00000120: 2121 9e3e 2e1f 04be d882 2bbe 420a 70be
00000130: ac88 e53d 8c0d 033e 9e23 913e 1b02 a53e
00000140: 402a 30be 2967 3cbc f570 da3d be0c 16be
00000150: 5cb8 aabe 72a7 9abe 47c9 d43d ae88 01be
00000160: 3bf7 4f3e 265b efbd a8d2 8e3d ebb4 903d
00000170: c3e9 893e d490 6bbd 256f 583d c692 233e
00000180: 0320 a03c a5ce ac3d e350 e73d 5597 76be
00000190: ed16 a83d 0de2 c5bd fd08 f8bd 3032 a73d
000001a0: 836f f9bd cb0c 603c 2e15 1b3d 2686 a03e
000001b0: ab4a 2ebe 1fa7 a4be ba72 5bbe 06e4 0c3d
000001c0: caa4 5b3e d03c b4be 48b8 47be 1c20 c93e
000001d0: d50a 5b3e fb1e 7a3d 839c 3b3b c0b0 193e
000001e0: de5b 353e bfd8 59bc 540c afbc 53d2 103e
000001f0: 8702 28be a359 7f3e f68f 06be 4e82 213d
00000200: 9938 a63e 630b 473e 8f10 433c d1bc bc3d
00000210: a8b6 96be e228 d83d bc3d 10be d42d 22be
00000220: 0aeb 8b3e 3123 01be 69c0 0abe f35e 2cbe
00000230: c2b6 903c b187 213e ec71 893e eb5e ff3d
00000240: a0af 24be 8d2d 773d 9f05 343d 5a55 cbbd
00000250: fcf5 28be ce69 4fbe 8ad9 b93d 8e5c b9bd
00000260: df4c 173e a3e2 63bd a8d4 603c 2b6f ad3d
00000270: 72ef 083e 69d5 2e3d f2de d03d edb7 b83d
00000280: acec 773e ace5 9a3d 02ec 2a3d 92f5 56be
00000290: 00c8 e43d e958 1fbe 60db 423e a3fb 973d
000002a0: 4735 83bd ca5f 073e 282b 213d 8bb7 633e
000002b0: 52ac a6bd b139 53be 31a9 3dbe 2bde ae3c
000002c0: 4220 143e 9459 dcbd 7d2e debd b9df ae3e
000002d0: 5250 1d3e d82d 223e bd69 c4bc 570e ad3d
000002e0: b73f 6c3e f90a 853c c337 5b3c 3a12 193e
000002f0: 279e 83bd 6c8e 223e e715 88bd 92a0 e0bc
00000300: ee47 a53e 79e0 2e3e d908 053d 348a 903e
00000310: 6581 80be 6c35 e53d 0ee5 dcbd c5ec 19be
00000320: 877d 913e e8aa 16be b63e 14be 0c11 21be
00000330: 2042 9f3d 9a91 053e 1ba2 813e 8497 363e
00000340: 7049 21be 840c 96bc f39b 5f3d 73bb d8bd
00000350: c3f9 22be cc01 57be 0830 bf3d 5cfe b8bd
00000360: 5b00 113e 68fd e9bc 61a0 b43b 0886 a43d
00000370: b38b 1d3e 9533 783d 5a03 0ebb bd9e 8e3d
00000380: 797e 133e 5b6e a93d cce2 583d a491 45be
00000390: 0776 d53d 3f5f 70be f5d2 993e f4ec 32bd
000003a0: 5c63 c2bd 9267 4abd 9a30 9f3d 1c37 5b3e
000003b0: 545b a1bd f832 8bbe 81ff 22be 04df 8b3d
000003c0: 30ba 3a3e 9b89 acbd 3d3c 02be 88b4 b43e
000003d0: 6861 133e a561 203e d5e8 8fbd 4184 bd3d
000003e0: 7adb 893e 10f7 413d 4b08 873d 2136 1e3e
000003f0: fb09 1bbd 1ae1 fb3d e8f1 c1bd 3015 7b3d

layer3.bias f4 [4]
0.103217855 0.08932573 0.10649083 0.10920788
00000000: e263 d33d 69f0 b63d dd17 da3d 62a8 df3d
