models/model_2/nets/390_target_net.pt (torch, 46990 bytes, 6 tensors)

layer1.weight f4 [128, 19]
0.083872624 0.20714627 -0.19547068 -0.19784896 0.04041253 -0.44481686 -0.059655655 0.038567897
0.0660733 0.0009687941 -0.0029011953 -0.07423198 -0.10332479 0.10842685 -0.02880405 -0.051913057
-0.15437987 -0.04196993 0.026757421 -0.10851851 0.09611154 -0.09159144 0.027332162 0.20283565
-0.48907956 0.04717554 -0.06666698 0.028003007 0.02366147 -0.07064947 -0.024027323 -0.06989132
0.12950759 -0.07557376 -0.10761544 6.707686e-05 0.032431487 0.13417307 0.07652309 0.0840052
0.036680724 -0.17865077 -0.01691557 0.07899157 -0.19247761 -0.08034059 -0.08160994 -0.07557357
-0.19804989 -0.064573035 0.108308315 -0.07634834 -0.13649416 -0.01425414 -0.012712145 -0.05348208
0.070147656 -0.093580045 -0.05681376 0.11654245 0.12761928 0.099763215 0.21487455 0.028723398
-0.040577758 0.057222642 0.011789044 -0.0066001182 0.06390383 0.01235835 0.11978994 -0.13075855
-0.14160697 0.025240796 -0.11861889 0.013058645 -0.10472146 0.08370704 -0.036438894 0.087186895
0.1992078 -0.011444596 -0.03242193 0.13486187 0.07506495 0.028916448 -0.072042435 -0.17975125
-0.06721523 -0.17943476 -0.09219361 -0.0243634 -0.019514937 -0.07932675 -0.11647101 -0.007905394
-0.053879112 0.09043743 0.1185695 -0.114215046 0.045784097 -0.055334143 -0.13244934 -0.10337758
-0.06314471 -0.09581415 -0.094249025 -0.087165974 0.03711253 -0.0652285 0.072239555 -0.025598332
0.022073103 -0.0013425967 -0.077662624 0.0898834 0.056807406 0.018956387 0.057456315 -0.102496795
-0.08723227 -0.11982345 -0.08258134 -0.0074821133 0.073332615 0.019512977 0.07514855 -0.104984276
-0.03332084 0.0064485488 0.050971154 -0.0830222 0.0063394606 -0.06319564 -0.050520066 0.050116397
-0.065433435 -0.11101182 0.47684816 -0.014200314 0.043118086 0.112299785 0.054584377 0.054364905
-0.028345961 -0.08105244 -0.13901149 -0.097104415 -0.07701487 0.046658266 0.008275739 -0.1024007
0.15369439 0.0702368 -0.023613382 0.0029274933 -0.12644385 -0.24926218 -0.18438101 -0.05168894
0.1180546 -0.050603062 0.016366823 -0.22589625 -0.039074935 0.18879223 0.13843925 0.12870334
0.06369279 0.039157722 0.05165072 0.062174883 -0.043815393 0.030350026 -0.0072459173 -0.09994574
0.05692826 -0.080826305 -0.098527946 -0.13014814 -0.084776655 0.12850639 0.016774746 0.048897494
-0.030579058 -0.009990622 0.0012672802 0.120989665 0.16831969 0.13330263 -0.099463575 0.0007475276
0.026160482 -0.06366501 0.04567501 -0.110340685 -0.037653454 -0.13636592 -0.12859863 0.017254988
-0.03965703 -0.07454869 0.06662947 -0.10513344 0.06945875 0.06632225 0.021516424 -0.08513422
-0.034161538 -0.019338548 -0.2332405 -0.22324874 2.318528e-06 0.09915224 0.41759983 0.034444638
0.03133859 0.03546981 -0.052630465 0.072037466 0.017421387 -0.029305805 0.0142833125 -0.102431364
-0.1445586 -0.10099442 0.08492707 -0.017320476 -0.0149703445 -0.09487863 0.02609751 0.075527586
0.1162763 0.24906796 -0.14279658 0.03660954 -0.038086228 0.0344521 0.010888612 0.09862879
-0.061459612 -0.067905836 -0.0023902059 -0.09272825 -0.025189146 0.03443882 -0.12961894 0.083366044
0.052469485 -0.076787554 0.0035103024 -0.3246714 0.13201189 -0.049743373 0.06866495 0.046732925
00000000: 69c5 ab3d 271e 543e 7729 48be eb98 4abe
00000010: 9c87 253d 09bf e3be 7d59 74bd 5ff9 1d3d
00000020: 7051 873d acf6 7d3a fb21 3ebb f006 98bd
00000030: f39b d3bd e50e de3d 79f6 ebbc c9a2 54bd
00000040: c215 1ebe a9e8 2bbd 6132 db3c f43e debd
00000050: 21d6 c43d 4b94 bbbd b3e7 df3c 26b4 4f3e
00000060: a368 fabe 243b 413d b388 88bd 9066 e53c
00000070: b3d5 c13c abb0 90bd f3d4 c4bc 2e23 8fbd
00000080: a39d 043e 6ac6 9abd 7c65 dcbd 9dab 8c38
00000090: e1d6 043d aa64 093e 23b8 9c3d eb0a ac3d
000000a0: 873e 163d 3af0 36be 8592 8abc 55c6 a13d
000000b0: da18 45be 9b89 a4bd 1d23 a7bd 51c6 9abd
000000c0: 97cd 4abe de3e 84bd c0d0 dd3d 855c 9cbd
000000d0: 20c5 0bbe 328a 69bc 9a46 50bc 0710 5bbd
000000e0: 93a9 8f3d e5a6 bfbd 8cb5 68bd cfad ee3d
000000f0: a1ae 023e a850 cc3d 1308 5c3e 554d eb3c
00000100: dd34 26bd 4a62 6a3d d626 413c ce45 d8bb
00000110: 03e0 823d ad7a 4a3c 6e54 f53d 92e5 05be
00000120: 6b01 11be c9c5 ce3c 76ee f2bd edf3 553c
00000130: 3478 d6bd 996e ab3d f340 15bd 0b8f b23d
00000140: 21fd 4b3e 1d82 3bbc dccc 04bd 3b19 0a3e
00000150: a7bb 993d 30e2 ec3c fc8a 93bd b610 38be
00000160: 23a8 89bd bfbd 37be 01d0 bcbd c195 c7bc
00000170: cadd 9fbc 1076 a2bd 5a88 eebd a085 01bc
00000180: 58b0 5cbd 4237 b93d 91d4 f23d 94e9 e9bd
00000190: 1b88 3b3d 0ea6 62bd cda0 07be a0b7 d3bd
000001a0: 0452 81bd 363a c4bd a205 c1bd 1384 b2bd
000001b0: 4f03 183d 8596 85bd 55f2 933d 98b3 d1bc
000001c0: a7d2 b43c 12fa afba 950d 9fbd ca14 b83d
000001d0: e2ae 683d 6d4a 9b3c 5057 6b3d d7e9 d1bd
000001e0: d5a6 b2bd ff65 f5bd 6820 a9bd 842c f5bb
000001f0: 692f 963d aed9 9f3c 7ce7 993d ff01 d7bd
00000200: 6f7b 08bd 594e d33b 21c7 503d 8b07 aabd
00000210: 40bb cf3b b76c 81bd 21ee 4ebd da46 4d3d
00000220: f701 86bd 2a5a e3bd 7125 f43e 6fa8 68bc
00000230: 979c 303d 6efd e53d de93 5f3d bcad 5e3d
00000240: ca35 e8bc d2fe a5bd 0759 0ebe aede c6bd
00000250: f9b9 9dbd bd1c 3f3d f796 073c 75b7 d1bd
00000260: 1062 1d3e 50d8 8f3d da70 c1bc 30db 3f3b
00000270: 7f7a 01be 963e 7fbe 60ce 3cbe c8b7 53bd
00000280: 9cc6 f13d 2845 4fbd b713 863c 5951 67be
00000290: 0a0d 20bd c052 413e 05c3 0d3e cfca 033e
000002a0: 5e71 823d d963 203d b58f 533d 17ab 7e3d
000002b0: c577 33bd 9ea0 f83c 296f edbb 5ab0 ccbd
000002c0: 9b2d 693d 4388 a5bd 05c9 c9bd 8e45 05be
000002d0: 629f adbd 2e97 033e 316b 893c bd48 483d
000002e0: ef80 fabc b5af 23bc de1a a63a 6ec9 f73d
000002f0: ff5b 2c3e 7c80 083e 8fb3 cbbd baf5 433a
00000300: 824e d63c cd62 82bd b815 3b3d 4cfa e1bd
00000310: 823a 1abd 82a3 0bbe 5caf 03be 555a 8d3c
00000320: 696f 22bd fcac 98bd 0875 883d 3350 d7bd
00000330: 6440 8e3d f6d3 873d 3643 b03c da5a aebd
00000340: f8ec 0bbd e06b 9ebc 99d6 6ebe 519b 64be
00000350: 0298 1b36 5410 cb3d a5cf d53e d215 0d3d
00000360: e55c 003d cb48 113d 0b93 57bd 6188 933d
00000370: 4cb7 8e3c ba12 f0bc 8e04 6a3c 89c7 d1bd
00000380: 2b07 14be 2ad6 cebd 3eee ad3d ace3 8dbc
00000390: 2d46 75bc ba4f c2bd 72ca d53c 35ae 9a3d
000003a0: 4522 ee3d ac0b 7f3e 4439 12be e3f3 153d
000003b0: 4e00 1cbd a51d 0d3d 2666 323c e4fd c93d
000003c0: 13bd 7bbd 3712 8bbd 00a5 1cbb 4fe8 bdbd
000003d0: 7859 cebc b80f 0d3d d4ba 04be d1bb aa3d
000003e0: 3eea 563d cb42 9dbd 1a0d 663b 543b a6be
000003f0: 202e 073e b5bf 4bbd 36a0 8c3d 066b 3f3d

layer1.bias f4 [128]
0.061181776 -0.009045363 -0.012428732 -0.13317981 0.07167773 0.04398993 0.14758736 -0.059903283
0.022064902 -0.046399202 0.17577657 -0.031596616 0.07645027 -0.007705141 -0.068612814 0.13228242
-0.052872058 0.08116583 0.028045189 0.079047896 -0.00043263304 0.038645912 0.067985885 -0.017718323
-0.050520122 -0.016416876 0.12766474 -0.022038344 -0.06117167 -0.07310027 0.05550272 -0.047011036
0.022808746 -0.014750347 -0.0039670556 -0.11810874 0.074173205 0.063840866 0.020200646 -0.029344553
0.040484287 -0.07384024 0.07875138 -0.031365935 -0.12736644 0.050654545 0.1280349 -0.097484894
-0.12479598 0.08962443 0.024473436 0.049512055 0.09997746 -0.06263322 0.023527296 0.012221782
0.04857291 0.012906462 0.013560614 -0.08050511 -0.03161583 -0.027537022 0.07334615 -0.03700938
0.11815824 -0.0037808043 -0.07722132 -0.13120915 0.06793444 -0.09328255 -0.009478852 -0.10642342
-0.075104356 -0.07866031 0.11539922 -0.09165519 0.15391113 -0.093217276 0.03836039 0.04453203
-0.021267885 0.11608747 0.036070343 0.033199195 -0.087430716 0.07032865 0.040373653 0.0044387174
-0.116465405 0.05755805 0.08346498 0.07258187 0.15886521 -0.020962927 -0.08520801 0.110214464
0.03615121 0.058629554 -0.06853254 0.122316524 -0.028224682 0.11619982 -0.06758663 0.041832145
-0.13850808 0.013228578 -0.01796864 0.07877806 -0.16493046 0.036440402 0.026596572 -0.079546586
-0.06453366 -0.08982468 -0.02994436 0.04121527 0.1465634 0.008608685 -0.046159413 0.01896743
-0.03446408 0.06043852 0.092675224 -0.062796205 0.14204223 -0.10790561 -0.10090594 -0.016924808
00000000: be99 7a3d 0133 14bc e1a1 4bbc 4a60 08be
00000010: c6cb 923d c92e 343d 2421 173e 255d 75bd
00000020: 74c1 b43c 170d 3ebd c6fe 333e 746b 01bd
00000030: f691 9c3d 687b fcbb e084 8cbd 0b75 073e
00000040: 5f90 58bd 453a a63d 06bf e53c dde3 a13d
00000050: 06d3 e2b9 2d4b 1e3d 2f3c 8b3d 0426 91bc
00000060: 30ee 4ebd af7c 86bc 8cba 023e c289 b4bc
00000070: 258f 7abd 98b5 95bd d256 633d a58e 40bd
00000080: 68d9 ba3c 70ab 71bc 13fe 81bb ffe2 f1bd
00000090: 1fe8 973d 00bf 823d d37b a53c fd63 f0bc
000000a0: dad2 253d 8d39 97bd 6748 a13d 9179 00bd
000000b0: 596c 02be 247b 4f3d 951b 033e 29a6 c7bd
000000c0: 0995 ffbd 038d b73d 847c c83c 27cd 4a3d
000000d0: fcc0 cc3d d845 80bd 51bc c03c de3d 483c
000000e0: 63f4 463d a075 533c 562d 5e3c dddf a4bd
000000f0: 9a7f 01bd 5295 e1bc 8236 963d 2697 17bd
00000100: f3fc f13d 5fc7 77bb 3626 9ebd b15b 06be
00000110: 3621 8b3d ec0a bfbd 304d 1bbc 86f4 d9bd
00000120: 50d0 99bd a818 a1bd 6d56 ec3d b7b5 bbbd
00000130: e19a 1d3e b3e8 bebd c91f 1d3d 3867 363d
00000140: fd39 aebc 44bf ed3d 7fbe 133d e1fb 073d
00000150: e00e b3bd 7808 903d d85e 253d a972 913b
00000160: 6a85 eebd fdc1 6b3d b0ef aa3d cea5 943d
00000170: 90ad 223e 72ba abbc 8a81 aebd 1fb8 e13d
00000180: 4b13 143d 8b25 703d ca5a 8cbd 1681 fa3d
00000190: 7337 e7bc 2cfa ed3d dc6a 8abd 2f58 2b3d
000001a0: 10d5 0dbe adbc 583c f832 93bc 6456 a13d
000001b0: 88e3 28be 8842 153d 0ee1 d93c 52e9 a2bd
000001c0: 392a 84bd 00f6 b7bd e04d f5bc 58d1 283d
000001d0: b714 163e 710b 0d3c a711 3dbd 9561 9b3c
000001e0: 352a 0dbd 628e 773d 82cc bd3d 4c9b 80bd
000001f0: 8573 113e 9efd dcbd c6a7 cebd e5a5 8abc

layer2.weight f4 [64, 128]
-0.011761839 0.13349047 -0.0761301 -0.06808926 -0.010614763 0.026900837 0.091589004 0.03276085
0.12418895 0.092060976 0.052942295 -0.42681262 0.25311062 0.044278853 -0.14557824 0.06275539
0.059136804 -0.0344787 -0.04330168 0.0073524527 -0.12774386 -0.126544 0.016184311 -0.17771119
-0.008134896 -0.0735128 0.06476866 -0.20069575 -0.0075648855 -0.017225053 0.02759131 0.0649827
-0.1250017 -0.08101032 0.035818294 -0.011099067 0.0036379856 -0.36885262 0.055931624 -0.06930044
-0.027249843 -0.01233747 -0.08714837 -0.050951265 -0.30429032 0.008473026 0.066954784 -0.06597824
-0.41561177 -0.021875905 -0.15488584 -0.018641947 0.04300098 0.046741776 0.0112723755 0.19020833
-0.48778415 0.17778341 0.11841573 -0.14031623 0.10916695 0.0040930384 0.11457721 -0.08701659
0.04704027 0.00016308411 -0.2397787 0.042857934 -0.20070466 0.050388854 -0.045997553 -0.0137854945
-0.02172712 0.08581233 0.10083135 0.02781295 -0.28910038 -0.025046365 -0.21502715 -0.039122704
0.12679428 -0.08699024 -0.3166392 0.05558346 0.029620409 -0.0037658329 -0.05656252 -0.07418124
-0.020038659 0.10891948 0.00092717767 0.044015348 0.07496601 0.062136933 -0.03442273 0.07091073
0.044877775 0.100196294 -0.09385956 -0.02036792 -0.04783843 -0.037916984 -0.022673406 -0.0088451775
-0.5432854 0.026658555 0.0069856476 -0.40317133 -0.3599467 -0.12715408 -0.011407462 0.22167358
0.008890417 -0.03723387 -0.00021112802 0.009266545 -0.11150015 -0.022486769 -0.06377106 -0.109791346
0.0020354043 -0.19367339 0.037070975 0.016279863 0.013535114 -0.065395035 -0.18536901 0.10956927
0.059868652 0.118113324 -0.0084652 -0.13980263 0.02630912 0.002714088 -0.07847125 0.08833648
-0.08723338 0.3060693 -0.0066919173 -0.116771445 -0.17464012 -0.013724702 -0.053453285 0.02442344
-0.29965556 0.032699905 0.053886898 -0.08256272 0.012802263 -0.25491807 -0.008019423 -0.022686832
0.04700993 0.094032966 -0.0827018 -0.20288225 -0.0033682254 -0.046881925 -0.08228068 -0.024071725
-0.026755584 -0.29318938 0.037928816 -0.012269347 0.11375156 -0.024534471 -0.097641915 -0.69195604
-0.052768618 0.034706797 -0.06024537 0.15192936 -0.089303724 0.028762192 0.06371227 0.02987146
-0.18684344 0.013113762 -0.016157651 0.061296336 0.13437727 0.0026802844 0.09637821 -0.10376293
-0.057317555 0.089114346 0.0433579 -0.2703138 0.08393744 -0.12756799 0.14998017 -0.000679986
-0.01727492 -0.04289358 0.044724286 -0.052627064 0.0679857 -0.006927628 -0.10743785 -0.064596206
-0.065150514 0.033240613 0.04128154 0.0330306 -0.022888724 0.04258264 -0.19503143 0.035465606
0.105458066 -0.35962322 -0.13604131 0.020245552 -0.039963994 0.058372885 -0.1787374 0.23777166
8.898664e-05 0.008521436 0.006955717 0.10872937 -0.02442851 -0.04178288 -0.24172671 -0.041593086
-0.04401016 0.04761292 -0.0074234833 0.026228104 0.031297307 0.05900763 0.10489906 -0.08657965
-1.1165435 0.028172262 -0.0058967 -0.55502933 -0.14055836 -0.28088388 0.008827946 0.095000945
-0.11763016 -0.09194836 0.073720776 -0.008797961 0.05268443 -0.057650726 0.0051888116 -0.53592485
0.053768206 -0.27504894 0.038298883 0.070252664 -0.096932024 -0.012417657 -0.20373803 0.021988222
00000000: bab4 40bc bab1 083e 19ea 9bbd 6272 8bbd
00000010: 8be9 2dbc 255f dc3c 0493 bb3d 3e30 063d
00000020: c756 fe3d 778a bc3d 05da 583d 2f87 dabe
00000030: b797 813e be5d 353d 7612 15be e685 803d
00000040: 6f39 723d 8a39 0dbd 1a5d 31bd d8ec f03b
00000050: 49cf 02be c094 01be f694 843c ecf9 35be
00000060: 3a48 05bc e18d 96bd 6ea5 843d 3083 4dbe
00000070: dce2 f7bb 8e1b 8dbc 2c07 e23c a615 853d
00000080: 7200 00be bde8 a5bd 34b6 123d dcd8 35bc
00000090: 456b 6e3b 40da bcbe 8f18 653d 64ed 8dbd
000000a0: 103b dfbc 1a23 4abc d87a b2bd 46b2 50bd
000000b0: f1cb 9bbe 72d2 0a3c 971f 893d 991f 87bd
000000c0: 11cb d4be 1935 b3bc 659a 1ebe ffb6 98bc
000000d0: cc21 303d 4e74 3f3d c5af 383c f9c5 423e
000000e0: d8be f9be db0c 363e f283 f23d 0faf 0fbe
000000f0: ec92 df3d e51e 863b 75a7 ea3d c135 b2bd
00000100: 4cad 403d 8f01 2b39 8c88 75be cd8b 2f3d
00000110: 8685 4dbe 8b64 4e3d ee67 3cbd 8edc 61bc
00000120: 13fd b1bc 60be af3d ab80 ce3d fcd7 e33c
00000130: f704 94be 092e cdbc 1430 5cbe 213f 20bd
00000140: 5cd6 013e f027 b2bd 891e a2be 7bab 633d
00000150: 80a6 f23c 31cc 76bb 1aae 67bd 55ec 97bd
00000160: 1d28 a4bc 2d11 df3d d70d 733a 7049 343d
00000170: c887 993d 4c83 7e3d d9fe 0cbd a539 913d
00000180: c2d1 373d b733 cd3d 7139 c0bd a0da a6bc
00000190: 3bf2 43bd d74e 1bbd 94bd b9bc 5deb 10bc
000001a0: c114 0bbf 0b63 da3c dce7 e43b 796c cebe
000001b0: ef4a b8be ae34 02be 5de6 3abc 66fe 623e
000001c0: 1da9 113c 8b82 18bd 3f62 5db9 b5d2 173c
000001d0: 315a e4bd 2c36 b8bc 679a 82bd 49da e0bd
000001e0: 6b64 053b 5152 46be bcd7 173d 595d 853c
000001f0: 62c2 5d3c d5ed 85bd 60d1 3dbe da65 e03d
00000200: d538 753d 66e5 f13d 9fb1 0abc 6c28 0fbe
00000210: 3986 d73c d7de 313b 89b5 a0bd c2e9 b43d
00000220: 6aa7 b2bd 1eb5 9c3e df47 dbbb de25 efbd
00000230: dcd4 32be 93dd 60bc d5f1 5abd ab13 c83c
00000240: 746c 99be 56f0 053d 82b8 5c3d a516 a9bd
00000250: 95c0 513c 9f84 82be e663 03bc bcd9 b9bc
00000260: 7c8d 403d 5b94 c03d 905f a9bd 5dc0 4fbe
00000270: 72bd 5cbb 4307 40bd c682 a8bd 1132 c5bc
00000280: 872e dbbc eb1c 96be 3f5b 1b3d 5f05 49bc
00000290: 94f6 e83d 84fc c8bc 7cf8 c7bd 0824 31bf
000002a0: e823 58bd b728 0e3d d9c3 76bd 5f93 1b3e
000002b0: dfe4 b6bd b09e eb3c 947b 823d feb4 f43c
000002c0: e353 3fbe 1bdb 563c 0d5d 84bc de11 7b3d
000002d0: 329a 093e b6a7 2f3b f061 c53d a981 d4bd
000002e0: d0c5 6abd 9581 b63d 0e98 313d 9266 8abe
000002f0: 64e7 ab3d 2fa1 02be 6794 193e 1741 32ba
00000300: 2284 8dbc 2eb1 2fbd d030 373d 7a8f 57bd
00000310: 163c 8b3d 2801 e3bb 6008 dcbd 044b 84bd
00000320: a26d 85bd 4f27 083d d516 293d 184b 073d
00000330: 2281 bbbc 226b 2e3d 52b6 47be 6244 113d
00000340: 66fa d73d 8920 b8be 6a4e 0bbe 00da a53c
00000350: 49b1 23bd 6818 6f3d f006 37be 6a7a 733e
00000360: 579e ba38 7e9d 0b3c c9ec e33b 81ad de3d
00000370: 4c1e c8bc 8624 2bbd 3587 77be 835d 2abd
00000380: ff43 34bd c405 433d b140 f3bb 52dc d63c
00000390: 9b31 003d fcb1 713d 52d5 d63d ac50 b1bd
000003a0: e6ea 8ebf 84c9 e63c 1b39 c1bb 6716 0ebf
000003b0: 88ee 0fbe 03d0 8fbe 17a3 103c db8f c23d
000003c0: 15e8 f0bd 6c4f bcbd ebfa 963d 5325 10bc
000003d0: a1cb 573d 2b23 6cbd e806 aa3b 5f32 09bf
000003e0: 0d3c 5c3d 37d3 8cbe 4adf 1c3d a1e0 8f3d
000003f0: 4c84 c6bd 6e73 4bbc b4a0 50be a520 b43c

layer2.bias f4 [64]
0.09296928 -0.008257076 -0.026979338 -0.03912154 0.003130326 0.041752767 -0.042727467 0.012287133
0.027718326 -0.029450806 0.009638741 -0.00036762492 0.001452323 0.039388552 -0.018088816 0.008618885
-0.0187579 0.003297874 0.09609922 -0.015830487 -0.0032721094 0.021195691 0.083435416 -0.0240495
0.01565789 -0.020839045 0.009084758 0.054088447 -0.005939074 -0.016367378 0.091617085 -0.000112220165
-0.035180714 0.03549663 0.025704218 -0.0047528846 0.070512585 -0.041462984 -0.011219174 0.081648745
0.028515168 -0.009891683 0.021530077 -0.042621743 0.0112447655 -0.04359139 -0.06181634 0.09741504
-0.02246949 -0.005757503 -0.042008363 0.0057800394 0.03921108 0.05744995 -0.036709864 0.025447197
0.053461716 0.04112552 -0.011149534 0.007846933 0.026659422 0.0030155473 -0.0052135424 0.1181084
00000000: ae66 be3d b048 07bc c603 ddbc e83d 20bd
00000010: 2826 4d3b f304 2b3d ff02 2fbd f94f 493c
00000020: 8b11 e33c d142 f1bc cfeb 1d3c c8bd c0b9
00000030: e05b be3a e455 213d ff2e 94bc 3936 0d3c
00000040: 2baa 99bc 2521 583b abcf c43d f0ae 81bc
00000050: e370 56bb 96a2 ad3c 30e0 aa3d 7503 c5bc
00000060: fa44 803c a5b6 aabc 3dd8 143c d98b 5d3d
00000070: 909c c2bb e114 86bc bda1 bb3d be57 ebb8
00000080: a719 10bd ea64 113d a791 d23c 16be 9bbb
00000090: e768 903d 17d5 29bd a0d0 37bc 7537 a73d
000000a0: a498 e93c ba10 22bc d85f b03c 2394 2ebd
000000b0: f73b 383c e38c 32bd 2133 7dbd 8981 c73d
000000c0: f011 b8bc 70a9 bcbb f610 2cbd 7c66 bd3b
000000d0: cc9b 203d a450 6b3d 155d 16bd a476 d03c
000000e0: acfa 5a3d 3c73 283d 89ac 36bc 6c90 003c
000000f0: dc64 da3c 7da0 453b 5dd6 aabb d1e2 f13d

layer3.weight f4 [4, 64]
0.3607386 0.20927939 0.110047854 0.25105244 -0.2769295 0.090313114 -0.11750179 -0.14386426
0.3217044 -0.15405475 -0.14660105 -0.17112085 0.05325271 0.14067473 0.2879298 0.15621299
-0.16887726 0.19444562 0.057122007 -0.1133019 -0.160585 -0.22783601 0.101790726 -0.081430085
0.16911897 -0.05699333 0.025720626 0.07948215 0.2058908 0.06646001 0.04763946 0.06247846
0.21921696 0.06717438 0.043249924 -0.20882325 0.1334913 -0.21757637 0.2764038 -0.0033265688
-0.116408534 0.049833704 0.04739988 0.24976335 -0.099628516 -0.2232245 -0.17129159 0.05697832
0.1727782 -0.10131444 -0.13950384 0.35953516 0.17816633 0.18264581 -0.009921558 0.0984062
0.34037343 0.05227501 0.049760565 0.15642577 -0.04401294 0.106967494 -0.08498435 0.06818692
0.35853472 0.2463344 0.4077219 0.10736305 -0.4883512 0.18157771 0.059184473 -0.18264125
0.3456405 -0.14889733 -0.17161784 -0.22201589 0.11386055 0.12653089 0.30241382 0.35218412
-0.17579027 0.042825975 0.10436224 -0.16352198 -0.3559184 -0.4034251 0.11300414 -0.13460244
0.2181796 -0.14347692 0.09179413 0.076225184 0.34697217 -0.080773115 0.057474572 0.15772209
0.17707069 0.1035137 0.12020475 -0.24618252 0.11569945 -0.10448784 -0.10768283 0.081993416
-0.1366817 0.06233068 0.042269435 0.3521259 -0.18041363 -0.31649104 -0.21964918 0.042039927
0.22725391 -0.4776119 -0.19524765 0.41788864 0.25714663 0.086798154 0.0024516862 0.15114266
0.2979299 0.0009503994 -0.011654459 0.15256214 -0.18997182 0.25191227 -0.14895457 0.049927466
0.36633575 0.26834852 0.07720942 0.15619287 -0.29478922 0.08383838 -0.13718767 -0.16201182
0.3197155 -0.14569193 -0.14263113 -0.17091939 0.024373146 0.16502851 0.29679167 0.109345205
-0.17190646 0.21357547 0.046193108 -0.12069474 -0.14090137 -0.21985517 0.10343372 -0.086458735
0.15924409 -0.066678576 0.006899991 0.0893894 0.18294606 0.076309085 0.10056977 0.08000595
0.24775162 0.047921702 0.047881924 -0.23399124 0.11848472 -0.1382497 0.20737855 0.067229375
-0.09065976 0.17820342 0.04505234 0.2595857 -0.11009233 -0.17372654 -0.17842436 0.029004738
0.13747975 -0.09927899 -0.11711862 0.35829958 0.1549783 0.18898 -0.020527985 0.08347085
0.32131487 0.014237313 0.014961005 0.15807724 -0.06637551 0.114838235 -0.06650472 -0.013150107
0.33421773 0.14956525 0.10442729 0.34981057 -0.24887179 0.09074949 -0.11312967 -0.1359132
0.32185498 -0.16052826 -0.14412276 -0.18331435 0.07761252 0.123221956 0.28057837 0.18312387
-0.16658412 0.18122607 0.057868745 -0.116427675 -0.14692885 -0.2207063 0.09713242 -0.072173886
0.17712013 -0.05037502 0.03087261 0.074173436 0.19830994 0.07370912 0.0014984278 0.055036284
0.1896605 0.08176627 0.055276375 -0.18221661 0.14983836 -0.25775844 0.35755488 -0.037935518
-0.13011621 -0.072777286 0.076247044 0.22589049 -0.0817146 -0.250625 -0.17143911 0.07375986
0.20263731 -0.07858095 -0.14648367 0.3651717 0.14815587 0.18167444 -0.060121365 0.10316623
0.34964672 0.06686726 0.1008213 0.15939437 -0.023470059 0.08857882 -0.11395618 0.08092122
00000000: bbb2 b83e 564d 563e c560 e13d f289 803e
00000010: b4c9 8dbe 15f6 b83d c7a4 f0bd 2751 13be
00000020: 70b6 a43e 87c0 1dbe 961e 16be 4e3a 2fbe
00000030: 831f 5a3d 090d 103e 896b 933e 4cf6 1f3e
00000040: 29ee 2cbe c11c 473e c4f8 693d d40a e8bd
00000050: 6570 24be d84d 69be a877 d03d d1c4 a6bd
00000060: 862d 2d3e d771 69bd 10b4 d23c 8ac7 a23d
00000070: 0ad5 523e 301c 883d 9821 433d 6ae9 7f3d
00000080: 697a 603e b992 893d d526 313d c3d5 55be
00000090: f1b1 083e 57cc 5ebe cd84 8d3e 9002 5abb
000000a0: 9967 eebd 6d1e 4c3d 6026 423d f7c1 7f3e
000000b0: 090a ccbd f794 64be 1067 2fbe 1962 693d
000000c0: c5ec 303e f27d cfbd 18da 0ebe fe14 b83e
000000d0: 3c71 363e 8107 3b3e 088e 22bc 3189 c93d
000000e0: 6d45 ae3e 521e 563d bcd1 4b3d 142e 203e
000000f0: ea46 34bd c611 db3d 460c aebd 95a5 8b3d
00000100: dd91 b73e 163f 7c3e edc0 d03e 29e1 db3d
00000110: 2b09 fabe 82ef 393e 6b6b 723d 4f06 3bbe
00000120: cbf7 b03e 8b78 18be 96bc 2fbe 2258 63be
00000130: b82f e93d 5091 013e fcd5 9a3e 7a51 b43e
00000140: 5d02 34be 4a6a 2f3d dfbb d53d 4e72 27be
00000150: f03a b6be bc8d cebe b76e e73d 39d5 09be
00000160: 796a 5f3e 9deb 12be 90fe bb3d f31b 9c3d
00000170: 56a6 b13e 606c a5bd 756a 6b3d e681 213e
00000180: 0552 353e fefe d33d e82d f63d 4517 7cbe
00000190: d5f3 ec3d b8fd d5bd d188 dcbd 2aec a73d
000001a0: 4af6 0bbe 754e 7f3d b722 2d3d d949 b43e
000001b0: 5abe 38be 1d0b a2be b7eb 60be 0f32 2c3d
000001c0: 40b5 683e 8c89 f4be 00ef 47be 80f5 d53e
000001d0: b9a8 833e 3bc3 b13d 78ac 203b 24c5 1a3e
000001e0: 458a 983e 3924 793a 58f2 3ebc 4039 1c3e
000001f0: f987 42be a5fa 803e 8c87 18be be80 4c3d
00000200: 5c90 bb3e fa64 893e f91f 9e3d 06f1 1f3e
00000210: 9dee 96be 75b3 ab3d ed7a 0cbe 6de6 25be
00000220: c0b1 a33e 4430 15be e50d 12be 7e05 2fbe
00000230: 31aa c73c 3cfd 283e 14f5 973e 61f0 df3d
00000240: 3f08 30be 87b3 5a3e fc34 3d3d ce2e f7bd
00000250: 7348 10be b721 61be 0fd5 d33d 4711 b1bd
00000260: e210 233e c78e 88bd 5219 e23b ca11 b73d
00000270: 3656 3b3e f047 9c3d 86f7 cd3d 29da a33d
00000280: 9ab2 7d3e 8c49 443d d61f 443d 669b 6fbe
00000290: 1ea8 f23d 5491 0dbe 0b5b 543e 8eaf 893d
000002a0: d3ab b9bd f57a 363e cd88 383d 6be8 843e
000002b0: 1678 e1bd 5fe5 31be e0b4 36be 589b ed3c
000002c0: 7ec7 0c3e c852 cbbd e3db efbd 0b73 b73e
000002d0: a2b2 1e3e f983 413e 4e2a a8bc c4f2 aa3d
000002e0: 6283 a43e 9e43 693c 011f 753c 00df 213e
000002f0: e2ef 87bd 4f30 eb3d a033 88bd 8c73 57bc
00000300: 961e ab3e a227 193e fadd d53d 5f1a b33e
00000310: 3fd8 7ebe deda b93d 87b0 e7bd d42c 0bbe
00000320: 2dca a43e 8561 24be eb94 13be c2b6 3bbe
00000330: 50f3 9e3d cb5b fc3d f8a7 8f3e d384 3b3e
00000340: 0795 2abe 5493 393e c707 6d3d a271 eebd
00000350: 8474 16be d500 62be 5ded c63d e7cf 93bd
00000360: fb5e 353e 0956 4ebd 8ee8 fc3c 3ee8 973d
00000370: c311 4b3e cff4 963d e566 c43a ba6d 613d
00000380: 5d36 423e 1375 a73d 7b69 623d fe96 3abe
00000390: 3a6f 193e eaf8 83be 6f11 b73e 4662 1bbd
000003a0: 2f3d 05be 420c 95bd 6927 9c3d d64f 673e
000003b0: fc59 a7bd ec51 80be bc8d 2fbe 690f 973d
000003c0: 2880 4f3e 0def a0bd d1ff 15be c9f7 ba3e
000003d0: 2cb6 173e dd08 3a3e d241 76bd d148 d33d
000003e0: e504 b33e b4f1 883d 667b ce3d 4738 233e
000003f0: 4844 c0bc d068 b53d dc61 e9bd 06ba a53d

layer3.bias f4 [4]
0.123607576 0.10272128 0.12996073 0.12572847
00000000: f825 fd3d 895f d23d 6d14 053e f7be 003e
