models/model_2/nets/400_policy_net.pt (torch, 46990 bytes, 6 tensors)

layer1.weight f4 [128, 19]
0	0x3dafbb74	0.08580676
1	0x3e51c7e4	0.20486408
2	0xbe54f829	-0.2079779
3	0xbe49054f	-0.19630931
4	0x3d28f9aa	0.041253723
5	0xbee3e771	-0.44512513
6	0xbd6efab9	-0.058344577
7	0x3d199825	0.037498612
8	0x3d87b8fa	0.06627078
9	0xba5bafe5	-0.00083803973
10	0xbba35d44	-0.0049854834
11	0xbd952563	-0.072825216
12	0xbdd2dd64	-0.10296133
13	0x3dd096a1	0.1018498
14	0xbcee3dd8	-0.029082224
15	0xbd561de6	-0.052274607
16	0xbe1c5ea0	-0.15270472
17	0xbd33b691	-0.04387528
18	0x3cd0f9e5	0.025509784
19	0xbde816c8	-0.1133247
20	0x3dbe48f0	0.092912555
21	0xbdc6dbf3	-0.09709921
22	0x3d0bdfe6	0.034149073
23	0x3e541825	0.20712335
24	0xbef86e71	-0.4852176
25	0x3d3a57ad	0.04549377
26	0xbd852d50	-0.06502783
27	0x3cfb4040	0.030670285
28	0x3cdf0868	0.027225688
29	0xbd7fed0e	-0.062481932
30	0xbcadc959	-0.021214174
31	0xbd864156	-0.065554306
32	0x3e0a8b32	0.13529661
33	0xbd97f7a3	-0.0742028
34	0xbdd7f840	-0.10545397
35	0xbc5b1195	-0.013370891
36	0x3ce0ae07	0.027426733
37	0x3e0cfce1	0.1376834
38	0x3da4a86b	0.08039936
39	0x3da4a13a	0.08038564
40	0x3c850f6d	0.016242707
41	0xbe329ac5	-0.17441852
42	0xbc7c55d9	-0.015401327
43	0x3da61d6e	0.08111082
44	0xbe45b3a9	-0.19306816
45	0xbd981144	-0.07425168
46	0xbda0d33d	-0.078527905
47	0xbd9bc3b8	-0.0760569
48	0xbe455344	-0.19270045
49	0xbd8068ab	-0.06269964
50	0x3dd8ccee	0.10585962
51	0xbd9edc04	-0.077568084
52	0xbe05c1b4	-0.13062173
53	0xbc3e933f	-0.011631786
54	0xbbfe9f95	-0.0077704885
55	0xbd55fec7	-0.052244928
56	0x3d923c87	0.07140451
57	0xbdb491c8	-0.08816868
58	0xbd681c05	-0.056667347
59	0x3df2fa81	0.11864186
60	0x3e016fca	0.126403
61	0x3dc947bc	0.09828135
62	0x3e5e3620	0.21700335
63	0x3cf715be	0.030161735
64	0xbd26b8e1	-0.040703658
65	0x3d5cc246	0.05389621
66	0x3c1c7bc0	0.009550989
67	0xbbd07559	-0.006361645
68	0x3d755852	0.059898682
69	0x3c1a6bc4	0.009425107
70	0x3defa8aa	0.11702092
71	0xbe077569	-0.13228382
72	0xbe123d59	-0.14281215
73	0x3cad41b4	0.021149494
74	0xbdf1deea	-0.118100956
75	0x3c071543	0.008244815
76	0xbdd762ad	-0.10516868
77	0x3da5c494	0.08094135
78	0xbd15e078	-0.036591023
79	0x3db2f44f	0.087380044
80	0x3e4fb8f8	0.20285404
81	0xbc81deab	-0.015853247
82	0xbd08fac2	-0.033442266
83	0x3e025a00	0.12729645
84	0x3d91fd3e	0.0712838
85	0x3d0e5c0a	0.034755744
86	0xbd969925	-0.07353429
87	0xbe2d5cb9	-0.16929902
88	0xbd8309bc	-0.06398341
89	0xbe325d25	-0.17418344
90	0xbdc26bf0	-0.09493244
91	0xbcd38e4e	-0.025824692
92	0xbcb6c23f	-0.02230942
93	0xbd9f9490	-0.07792008
94	0xbdf0e059	-0.11761541
95	0xbbab0041	-0.005218536
96	0xbd3726b2	-0.044714637
97	0x3dba2846	0.09089713
98	0x3df44ccc	0.1192871
99	0xbde6d3c8	-0.11270863
100	0x3d2d9ff8	0.042388886
101	0xbd668aa9	-0.05628458
102	0xbe0870ff	-0.13324355
103	0xbdd4fb01	-0.10399438
104	0xbd7e086c	-0.06201975
105	0xbdc0d0e0	-0.0941484
106	0xbdbd9c4c	-0.09258327
107	0xbdaf5de9	-0.08562834
108	0x3d156382	0.03647185
109	0xbd8339e7	-0.06407528
110	0x3d915288	0.0709582
111	0xbcce0714	-0.02514986
112	0x3cb1ac7d	0.021688694
113	0xbaacdb58	-0.0013187928
114	0xbda4ee8f	-0.08053314
115	0x3db57d00	0.088617325
116	0x3d5d2c4f	0.053997334
117	0x3cb73949	0.022366183
118	0x3d71cc81	0.05903292
119	0xbdcf4602	-0.10120775
120	0xbdb08fae	-0.08621155
121	0xbdf773ca	-0.12082632
122	0xbda5bfea	-0.08093245
123	0xbc111e95	-0.008857389
124	0x3d939310	0.07205784
125	0x3c886fa1	0.016654791
126	0x3d97473c	0.07386634
127	0xbdd1d635	-0.10245935
128	0xbd0b9ec2	-0.03408695
129	0x3bf1ff00	0.0073851347
130	0x3d3f9852	0.046776123
131	0xbda3efb3	-0.080047034
132	0x3bf56a25	0.00748946
133	0xbd85081d	-0.06495688
134	0xbd49dc01	-0.049282078
135	0x3d5dc48f	0.05414253
136	0xbd857536	-0.06516497
137	0xbdf04309	-0.11731536
138	0x3ef4a77d	0.47784033
139	0xbc56d53d	-0.013112363
140	0x3d24a4f1	0.040196363
141	0x3de2214b	0.110415064
142	0x3d3ebc45	0.046566267
143	0x3d552253	0.052034687
144	0xbccc8382	-0.024965052
145	0xbda0e107	-0.078554206
146	0xbe0d231c	-0.13782924
147	0xbdb66f1b	-0.089079104
148	0xbda1ad55	-0.078943886
149	0x3d413d79	0.047177766
150	0x38d86c16	0.00010319815
151	0xbdc33e50	-0.095333695
152	0x3e1a3c9c	0.15062183
153	0x3d95eed4	0.073209435
154	0xbcd5a957	-0.026081724
155	0x3a052f36	0.00050805823
156	0xbe074646	-0.13210401
157	0xbe7646cf	-0.24050449
158	0xbe3afa32	-0.18259504
159	0xbd73d5a0	-0.0595299
160	0x3de99983	0.11406233
161	0xbd2eeb6e	-0.042704992
162	0x3cbdeea3	0.02318508
163	0xbe63dcfb	-0.22252266
164	0xbd11bf41	-0.035582785
165	0x3e474003	0.19458012
166	0x3e13baac	0.14426678
167	0x3e036d7d	0.12834735
168	0x3d8d1538	0.06888813
169	0x3d224a67	0.039621737
170	0x3d4348a1	0.047676686
171	0x3d787461	0.060657863
172	0xbd2d1147	-0.042252805
173	0x3d03cb2d	0.032176185
174	0xbbea03d4	-0.0071415696
175	0xbdc88560	-0.09791064
176	0x3d654033	0.05596943
177	0xbda943a1	-0.08264852
178	0xbdc8d43e	-0.09806107
179	0xbe028fee	-0.12750217
180	0xbda2aadd	-0.07942746
181	0x3e034038	0.12817466
182	0x3c83466b	0.016024789
183	0x3d465139	0.048417304
184	0xbd04172d	-0.032248665
185	0xbc0fdd21	-0.008780749
186	0x3b85b07c	0.0040798765
187	0x3df682a5	0.12036637
188	0x3e2c547c	0.16829103
189	0x3e081848	0.13290513
190	0xbdd40237	-0.10351985
191	0xbb877627	-0.004133958
192	0x3d0b37ff	0.03398895
193	0xbd72171d	-0.059104074
194	0x3d3f5fa5	0.046722073
195	0xbdf1298e	-0.11775504
196	0xbd1885cd	-0.037236977
197	0xbe0dc261	-0.13843681
198	0xbe01328d	-0.1261694
199	0x3c853dbe	0.016264793
200	0xbd15cfd0	-0.03657514
201	0xbd8dca8b	-0.06923398
202	0x3d8e56fa	0.06950183
203	0xbdc647ef	-0.09681689
204	0x3d98507a	0.07437225
205	0x3d867e0d	0.06567011
206	0x3d2744b4	0.040837005
207	0xbdaec18f	-0.08533012
208	0xbcfe3aee	-0.03103396
209	0xbc8dd138	-0.017311677
210	0xbe71234e	-0.23548624
211	0xbe6b0267	-0.22950135
212	0xbb5af240	-0.0033408552
213	0x3dc66ca4	0.0968869
214	0x3ed85063	0.4224883
215	0x3cf0c200	0.029389381
216	0x3d10187c	0.0351796
217	0x3d08b662	0.03337706
218	0xbd4d9999	-0.05019531
219	0x3d90f308	0.070776045
220	0x3ca5625c	0.020188503
221	0xbd043538	-0.032277316
222	0x3c98a04d	0.018631125
223	0xbdc8d652	-0.09806503
224	0xbe110b76	-0.14164528
225	0xbdc61fbe	-0.09674023
226	0x3da85a51	0.082203515
227	0xbc77554e	-0.015096022
228	0xbc42bca1	-0.011885793
229	0xbdc6cad8	-0.09706658
230	0x3ca4a332	0.020097349
231	0x3d9b664c	0.07587871
232	0x3deab169	0.114596196
233	0x3e7cadc6	0.24675664
234	0xbe11b5be	-0.14229485
235	0x3d0ad5d6	0.033895336
236	0xbd0b8806	-0.03406527
237	0x3d1699f5	0.03676792
238	0x3bb97e97	0.0056608426
239	0x3dc6ee91	0.09713472
240	0xbd784df4	-0.060621217
241	0xbd852f8d	-0.0650321
242	0xbba6af2c	-0.0050868
243	0xbdba174b	-0.09086474
244	0xbcda08b8	-0.026615486
245	0x3d0e61b3	0.034761142
246	0xbe016221	-0.1263509
247	0x3daf7719	0.08567638
248	0x3d558c8d	0.052135993
249	0xbd90570d	-0.070478536
250	0x3b901da8	0.0043980666
251	0xbea888d8	-0.32916903
252	0x3e09e1df	0.13465069
253	0xbd46b0ba	-0.048508383
254	0x3d898166	0.06714134
255	0x3d3cb5ad	0.046071697

layer1.bias f4 [128]
0	0x3d7e6919	0.062111948
1	0xbbbdc0f7	-0.0057908255
2	0xbc2edf87	-0.01067341
3	0xbe087c5c	-0.1332869
4	0x3d8c878b	0.0686179
5	0x3d3e12af	0.046404537
6	0x3e14d48f	0.1453421
7	0xbd70fe21	-0.058836106
8	0x3c9a155f	0.018809019
9	0xbd3c34bf	-0.04594874
10	0x3e33993e	0.17538926
11	0xbd053801	-0.032524113
12	0x3da075d8	0.07834977
13	0xbbf6e9a1	-0.007535175
14	0xbd89c7d0	-0.06727564
15	0x3e0934f5	0.13399108
16	0xbd595f30	-0.053069293
17	0x3da67fa8	0.08129817
18	0x3ce844cd	0.02835312
19	0x3da5ced0	0.08096087
20	0xb950df07	-0.0001991951
21	0x3d18c79b	0.037299734
22	0x3d8b3be4	0.067985326
23	0xbcb121b1	-0.02162251
24	0xbd4b425b	-0.04962383
25	0xbc7dcf5a	-0.015491331
26	0x3e0040ad	0.12524672
27	0xbc9dcea3	-0.019263571
28	0xbd7217db	-0.05910478
29	0xbd928340	-0.0715394
30	0x3d60f1e3	0.05491818
31	0xbd444854	-0.04792054
32	0x3caee0f9	0.02134751
33	0xbc9c8436	-0.019106012
34	0xbb9195b1	-0.0044428934
35	0xbdef095f	-0.11671709
36	0x3d91d841	0.07121325
37	0x3d825f5d	0.06365845
38	0x3cadda8e	0.021222379
39	0xbcf1601e	-0.029464778
40	0x3d1b4b16	0.037913404
41	0xbd9499c1	-0.07255889
42	0x3da2896b	0.07936367
43	0xbce2fe11	-0.027709039
44	0xbdfe74e1	-0.12424637
45	0x3d46d2a3	0.048540723
46	0x3e01db54	0.12681323
47	0xbdce7cb3	-0.10082378
48	0xbdfc0635	-0.123058714
49	0x3db0cc1e	0.08632682
50	0x3cc7392b	0.024319252
51	0x3d47e8ba	0.04880593
52	0x3dc8cf8e	0.09805213
53	0xbd75f0a3	-0.060043942
54	0x3cccff08	0.025023952
55	0x3c841da0	0.016127408
56	0x3d41901d	0.047256578
57	0x3c6d92d3	0.014500338
58	0x3c426c3b	0.0118666245
59	0xbda22698	-0.079175174
60	0xbcfa0300	-0.030519009
61	0xbcf85228	-0.030312613
62	0x3d9c7b4f	0.07640707
63	0xbd1b2fb3	-0.037887286
64	0x3df56c16	0.119835064
65	0xbb727032	-0.0036993143
66	0xbd97b120	-0.07406831
67	0xbe09b955	-0.13449605
68	0x3d87b998	0.06627196
69	0xbdb9460b	-0.09046563
70	0xbbcb7ebd	-0.0062101767
71	0xbddb96de	-0.10722135
72	0xbd9f8a8c	-0.077900976
73	0xbd9c5d02	-0.07634927
74	0x3de71283	0.11282828
75	0xbdb88f8d	-0.09011755
76	0x3e1fd174	0.15607244
77	0xbdbd8151	-0.09253181
78	0x3d1b6ec5	0.037947435
79	0x3d3d32c8	0.046191007
80	0xbcbffeff	-0.023437021
81	0x3de860f9	0.11346621
82	0x3d147318	0.036242574
83	0x3d0a9a23	0.033838402
84	0xbdaeb1aa	-0.085299805
85	0x3d8d60d4	0.06903234
86	0x3d1bfcd8	0.038082927
87	0x3b8a54c5	0.004221531
88	0xbdea5287	-0.11441522
89	0x3d7df6eb	0.062003057
90	0x3daa0b70	0.08302963
91	0x3d94662f	0.072460525
92	0x3e2212bd	0.1582746
93	0xbca03209	-0.019555109
94	0xbdadff20	-0.08495927
95	0x3ddd4e10	0.10805905
96	0x3d0859fe	0.03328895
97	0x3d777477	0.060413804
98	0xbd84f8d4	-0.06492773
99	0x3df6485f	0.120255224
100	0xbcf91189	-0.03040387
101	0x3de480b5	0.111573614
102	0xbd8737dc	-0.06602451
103	0x3d2c2852	0.04203064
104	0xbe0743de	-0.13209483
105	0x3c4a4e98	0.01234784
106	0xbc72dd4a	-0.014823267
107	0x3da53344	0.08066419
108	0xbe29fe4a	-0.1660091
109	0x3d06683d	0.032814253
110	0x3cdfa570	0.027300566
111	0xbda22cda	-0.07918711
112	0xbd7bdba7	-0.061488774
113	0xbdb77294	-0.08957401
114	0xbd0150f6	-0.03157135
115	0x3d2be487	0.041965988
116	0x3e117630	0.14205241
117	0x3c24f3c7	0.010067887
118	0xbd3a3c90	-0.045467913
119	0x3c94e2c4	0.018174537
120	0xbd14968d	-0.03627639
121	0x3d627318	0.055285543
122	0x3db77d2f	0.08959424
123	0xbd73c95e	-0.05951821
124	0x3e0ec6bd	0.13943
125	0xbddbba63	-0.1072891
126	0xbdc90528	-0.098154366
127	0xbc91abcf	-0.01778212

layer2.weight f4 [64, 128]
0	0xbc33160b	-0.010930548
1	0x3e060f8e	0.13091871
2	0xbd98029c	-0.07422373
3	0xbd81bdb3	-0.063350104
4	0xbc46f0df	-0.012142389
5	0x3cd8902c	0.026435934
6	0x3dc4951c	0.09598753
7	0x3d02328c	0.031786487
8	0x3df373da	0.11887331
9	0x3dbd6115	0.092470326
10	0x3d537f0d	0.051634837
11	0xbed70518	-0.41996074
12	0x3e83a4f1	0.25711778
13	0x3d3fc4ad	0.046818424
14	0xbe17b362	-0.14814523
15	0x3d7b7d64	0.06139888
16	0x3d7041dc	0.05865656
17	0xbd09f791	-0.033683363
18	0xbd35ab72	-0.044352956
19	0x3c69ce54	0.014270384
20	0xbe037662	-0.12838128
21	0xbe0b395c	-0.135961
22	0x3c8c9bb1	0.017164083
23	0xbe39b41f	-0.18135117
24	0xbc02eb9c	-0.007990744
25	0xbd97be4d	-0.07409344
26	0x3d83f54d	0.06443272
27	0xbe4a8d4b	-0.19780461
28	0xbbf2b938	-0.0074073337
29	0xbc5f2ce9	-0.013621547
30	0x3d05aacd	0.03263359
31	0x3d8bffbc	0.06835887
32	0xbe049111	-0.12945963
33	0xbda60adb	-0.08107539
34	0x3d100ff8	0.03517148
35	0xbc5724fb	-0.013131375
36	0x3b613a66	0.0034367084
37	0xbebbec25	-0.367036
38	0x3d63b749	0.055594716
39	0xbd8c10e6	-0.068391606
40	0xbcde4b03	-0.027135378
41	0xbc46b9c5	-0.012129252
42	0xbdb3cde6	-0.087795064
43	0xbd4b7a79	-0.049677346
44	0xbe9e0ede	-0.30870718
45	0x3bb1299c	0.0054065716
46	0x3d84e6f4	0.06489363
47	0xbd96099c	-0.073260516
48	0xbed26009	-0.41088894
49	0xbcd47241	-0.025933387
50	0xbe201044	-0.15631205
51	0xbc95251d	-0.018206174
52	0x3d40b2d9	0.047045562
53	0x3d1b6a10	0.037942946
54	0x3c328aa1	0.0108973095
55	0x3e478ce1	0.19487335
56	0xbef00a31	-0.46882775
57	0x3e38cf01	0.18047716
58	0x3df31dd2	0.11870922
59	0xbe15a085	-0.14612015
60	0x3de26ed9	0.11056299
61	0x3c28be0a	0.010299215
62	0x3df50304	0.11963466
63	0xbdbdeb6b	-0.09273418
64	0x3d49d0dc	0.04927145
65	0x39281e95	0.00016033121
66	0xbe74cb46	-0.23905668
67	0x3d3071fb	0.04307745
68	0xbe4f1012	-0.20220974
69	0x3d3c02e9	0.045901213
70	0xbd3d5c3e	-0.046230547
71	0xbc770e8f	-0.015079155
72	0xbcce0668	-0.02514954
73	0x3db24689	0.0870486
74	0x3dc9534a	0.09830339
75	0x3cdfe84a	0.027332444
76	0xbe90be0e	-0.2827
77	0xbcc46158	-0.023972198
78	0xbe5733c1	-0.21015836
79	0xbd1fde4d	-0.039030362
80	0x3e027405	0.1273957
81	0xbdbbe099	-0.09173698
82	0xbe9e2096	-0.30884236
83	0x3d7cbfd9	0.061706398
84	0x3ce016d5	0.027354637
85	0xbbb530c3	-0.0055294945
86	0xbd651b40	-0.05593419
87	0xbd98c31c	-0.07459089
88	0xbca14523	-0.019686287
89	0x3ddf4fb1	0.10903872
90	0x3a9367ff	0.0011246203
91	0x3d33bdf3	0.04388232
92	0x3d9aa516	0.07551019
93	0x3d7a0d41	0.061047796
94	0xbcf0442d	-0.029329384
95	0x3d8db9be	0.06920193
96	0x3d292340	0.041293383
97	0x3dcbc405	0.09949497
98	0xbdc26925	-0.09492711
99	0xbcab0265	-0.020875165
100	0xbd56c705	-0.052435894
101	0xbd22d4e7	-0.03975382
102	0xbcde0519	-0.02710204
103	0xbc0862eb	-0.008324365
104	0xbf094278	-0.5361705
105	0x3cb5a157	0.02217166
106	0x3b2a234f	0.0025960987
107	0xbecce25f	-0.40016457
108	0xbeb3cdc9	-0.3511794
109	0xbe06bdd2	-0.13158348
110	0xbc305ed2	-0.010764794
111	0x3e659cb3	0.22423057
112	0x3bde0a58	0.0067761354
113	0xbd1b7f9e	-0.037963502
114	0x3a916f4d	0.0011095792
115	0x3c12a7a7	0.008951104
116	0xbddf283c	-0.10896346
117	0xbcdf7515	-0.027277509
118	0xbd849ec3	-0.06475594
119	0xbde957de	-0.113937125
120	0x3b437c4a	0.002982872
121	0xbe22533c	-0.15852064
122	0x3d16ff16	0.036864363
123	0x3c8ae449	0.016954558
124	0x3c933b88	0.017972723
125	0xbd8795cf	-0.066203706
126	0xbe445573	-0.19173221
127	0x3dd1e697	0.1024906
128	0x3d6a0b69	0.057139788
129	0x3decb27f	0.11557483
130	0xbc24441a	-0.010026002
131	0xbe1532b7	-0.14570127
132	0x3d01fe50	0.031736672
133	0x3b2eb8ad	0.0026660368
134	0xbda9d3d9	-0.0829236
135	0x3dd30813	0.103042744
136	0xbdbda2f5	-0.09259597
137	0x3e9fe21d	0.31227198
138	0xbbd78b84	-0.006577911
139	0xbde7e504	-0.11322978
140	0xbe331edc	-0.1749224
141	0xbc443ced	-0.011977416
142	0xbd68fcdf	-0.05688178
143	0x3cca0aca	0.024663348
144	0xbe9cffa5	-0.3066379
145	0x3d171afb	0.036890965
146	0x3d628903	0.055306446
147	0xbd81480b	-0.06312569
148	0x3cb082bf	0.02154672
149	0xbe87c369	-0.26516274
150	0xba475bc1	-0.000760492
151	0xbcaf9ad5	-0.021436134
152	0x3d3d2426	0.046177052
153	0x3db07f4c	0.0861803
154	0xbdb16206	-0.086612746
155	0xbe41379c	-0.1886887
156	0x3c6e0779	0.014528149
157	0xbd89c3ff	-0.067268364
158	0xbd9a87cd	-0.07545433
159	0xbd077f77	-0.033080544
160	0xbcbe579c	-0.023235135
161	0xbe968eea	-0.2940591
162	0x3cfd8a50	0.030949742
163	0xbb97d676	-0.00463372
164	0x3ddccbac	0.10781035
165	0xbcd29c0e	-0.025709178
166	0xbdb01952	-0.085985795
167	0xbf3c3cce	-0.7353028
168	0xbd65402a	-0.055969395
169	0x3d0bcc19	0.03413019
170	0xbda7b0a6	-0.0818799
171	0x3e16f40b	0.14741533
172	0xbd9db119	-0.07699794
173	0x3cfaa15d	0.030594522
174	0x3d80c85e	0.06288217
175	0x3d0596a7	0.032614376
176	0xbe4183da	-0.18897954
177	0x3c8147f0	0.015781373
178	0xbcb4b423	-0.022058552
179	0x3d639b2c	0.055567905
180	0x3e068224	0.13135582
181	0x3bff533f	0.007791906
182	0x3dc2f9c3	0.095202945
183	0xbdd3b863	-0.10337903
184	0xbd6599d8	-0.05605492
185	0x3db2fcb0	0.087396026
186	0x3d3ae656	0.04562982
187	0xbe8b33ca	-0.2718795
188	0x3dab54c2	0.08365776
189	0xbe01e263	-0.12684016
190	0x3e14228d	0.14466305
191	0x3c396724	0.011316095
192	0xbc549903	-0.012975934
193	0xbd2c9887	-0.04213765
194	0x3d395aa3	0.045252454
195	0xbd52b309	-0.051440272
196	0x3d7b04bd	0.061283816
197	0xbc0960c2	-0.008384885
198	0xbdd75c96	-0.10515706
199	0xbd73a120	-0.059479833
200	0xbd6e3ea7	-0.05816522
201	0x3d0d54be	0.034504645
202	0x3d75032d	0.05981748
203	0x3d04ee7a	0.03245399
204	0xbcc9230f	-0.02455285
205	0x3d2b6da9	0.041852627
206	0xbe421fc4	-0.1895743
207	0x3d16dcbf	0.036831614
208	0x3dd7c37b	0.10535332
209	0xbeb94949	-0.36188725
210	0xbe185739	-0.14877023
211	0x3c75fa99	0.01501336
212	0xbd066459	-0.032810543
213	0x3d74cdd5	0.05976661
214	0xbe35f999	-0.17770995
215	0x3e6af1cd	0.22943802
216	0x38b7782d	8.7485045e-05
217	0x3c12441c	0.008927371
218	0x3c43a25d	0.011940566
219	0x3de1b4fe	0.1102085
220	0xbca87431	-0.020563217
221	0xbd28418c	-0.041078135
222	0xbe7c601a	-0.24646035
223	0xbd29e4f5	-0.041478116
224	0xbd2d35de	-0.0422877
225	0x3d4fb629	0.05071083
226	0xbc612abe	-0.013743101
227	0x3ca468d7	0.020069523
228	0x3d2a7197	0.041612234
229	0x3d80fa43	0.06297734
230	0x3dd07279	0.10178084
231	0xbda1d398	-0.079016864
232	0xbf900d6a	-1.1254094
233	0x3cad923f	0.0211879
234	0xbb56882d	-0.0032734976
235	0xbf152703	-0.5826265
236	0xbe0b7b61	-0.13621284
237	0xbe8a4cc3	-0.2701169
238	0x3b89cea2	0.0042055408
239	0x3daf14fa	0.08548923
240	0xbddc4c17	-0.107567005
241	0xbdaf231e	-0.0855162
242	0x3d7b41a9	0.061341915
243	0xbc0dacdc	-0.00864717
244	0x3d578b37	0.052623
245	0xbd6f1b3f	-0.058375593
246	0x3be67e00	0.0070340633
247	0xbf0991a9	-0.53737885
248	0x3d523d71	0.051328126
249	0xbe8dc943	-0.27692613
250	0x3d4f1595	0.05055769
251	0x3d8bf062	0.06832959
252	0xbdbd76d4	-0.0925118
253	0x3b30c036	0.0026970035
254	0xbe45b237	-0.19306265
255	0x3cc4f102	0.024040703

layer2.bias f4 [64]
0	0x3dbd4150	0.09240973
1	0xbbd1c7cc	-0.0064019915
2	0xbcd9652a	-0.026537497
3	0xbd1b223e	-0.037874453
4	0x3aa0e8f4	0.0012276457
5	0x3d354d91	0.044263426
6	0xbd3900f1	-0.045166913
7	0x3c3184a0	0.010834843
8	0x3ce22442	0.02760518
9	0xbcf4200e	-0.029800441
10	0x3bbe00de	0.005798443
11	0xbabc8fed	-0.0014386155
12	0x3b0be29e	0.0021344791
13	0x3d27a9bc	0.040933356
14	0xbc5e4620	-0.013566524
15	0x3beb903b	0.0071888245
16	0xbcadf1bf	-0.021233438
17	0x3c20e84a	0.009821007
18	0x3dc91470	0.09818351
19	0xbc95605f	-0.01823443
20	0xbb5033af	-0.0031769087
21	0x3cb7eb86	0.022451174
22	0x3db0a16d	0.086245395
23	0xbcd9496a	-0.026524264
24	0x3c8355b5	0.01603208
25	0xbc9c7d3f	-0.01910269
26	0x3c1e69ed	0.009668809
27	0x3d67d195	0.056596357
28	0xbb8fe5eb	-0.004391422
29	0xbc60f938	-0.013731293
30	0x3dc02f96	0.09384076
31	0xb9cb1894	-0.0003873749
32	0xbd0cff4b	-0.034423154
33	0x3d1d1615	0.038351137
34	0x3cd550b6	0.026039463
35	0xbbfe47da	-0.00776003
36	0x3d939c48	0.07207543
37	0xbd20d139	-0.03926203
38	0xbbe875c7	-0.0070941183
39	0x3da945e4	0.08265284
40	0x3ce402cd	0.027833367
41	0xbbfdd6df	-0.007746562
42	0x3ccae1c1	0.024765851
43	0xbd28358a	-0.041066684
44	0x3c0af310	0.008480802
45	0xbd3225b1	-0.043492977
46	0xbd8070bf	-0.062715046
47	0x3dcc9f99	0.09991378
48	0xbcd3e766	-0.025867175
49	0xbb2f2f4d	-0.0026731074
50	0xbd2ea1ae	-0.04263466
51	0x3bd19258	0.0063956194
52	0x3d274766	0.040839575
53	0x3d7c4f4b	0.061599057
54	0xbd13bd47	-0.03606918
55	0x3cdd6c63	0.027029222
56	0x3d58ca2d	0.052927185
57	0x3d2bb947	0.04192474
58	0xbc10ec45	-0.008845394
59	0x3c1b9896	0.009496829
60	0x3cc77379	0.024347054
61	0x3adc400b	0.0016803754
62	0xbb78a481	-0.003793985
63	0x3df418e6	0.119188115

layer3.weight f4 [4, 64]
0	0x3eb77714	0.35833037
1	0x3e5b27ea	0.21401945
2	0x3de703f5	0.112800516
3	0x3e802a1a	0.2503212
4	0xbe92aa12	-0.28645378
5	0x3db8a9c7	0.090167575
6	0xbdf5975a	-0.11991759
7	0xbe138fe6	-0.14410362
8	0x3ea780af	0.32715365
9	0xbe1bb0e2	-0.15204194
10	0xbe164067	-0.14673005
11	0xbe2fafdc	-0.17156929
12	0x3d579e9b	0.052641492
13	0x3e10b849	0.14132799
14	0x3e95d212	0.29261833
15	0x3e10fd91	0.14159228
16	0xbe310b8f	-0.17289566
17	0x3e4f06ff	0.20217513
18	0x3d685dd6	0.056730114
19	0xbded7293	-0.11594119
20	0xbe222bfa	-0.15837088
21	0xbe6c742a	-0.23091188
22	0x3dd315fc	0.103069276
23	0xbdacf8fb	-0.08445927
24	0x3e29f198	0.16596067
25	0xbd6a2a3e	-0.05716919
26	0x3cd78e30	0.026312917
27	0x3da53f2c	0.0806869
28	0x3e59d1ee	0.21271488
29	0x3d90f17f	0.07077312
30	0x3d4679fe	0.048456185
31	0x3d813cab	0.063103996
32	0x3e6b923e	0.23005006
33	0x3d890ad8	0.066915214
34	0x3d30371e	0.043021314
35	0xbe56a995	-0.20963128
36	0x3e10c3d8	0.14137208
37	0xbe6240ee	-0.22095081
38	0x3e92ad9c	0.28648078
39	0xbb44da64	-0.0030037398
40	0xbdf499b1	-0.11943377
41	0x3d48a365	0.04898395
42	0x3d458dce	0.04823094
43	0x3e7d1fd5	0.24719174
44	0xbdd22c3f	-0.102623455
45	0xbe68db47	-0.22739898
46	0xbe2f9faa	-0.17150751
47	0x3d6b6d05	0.057477016
48	0x3e2c5ef6	0.168331
49	0xbdd02ba2	-0.10164572
50	0xbe13b6d1	-0.14425208
51	0x3ebfbd82	0.3744927
52	0x3e36c201	0.17847444
53	0x3e3b86f8	0.18313205
54	0xbc1fab0e	-0.009745372
55	0x3dc96416	0.09833543
56	0x3eb7896b	0.3584703
57	0x3d60a3e4	0.0548438
58	0x3d58052e	0.052739315
59	0x3e246db8	0.1605748
60	0xbd371b19	-0.044703577
61	0x3dd1fb1d	0.10252974
62	0xbdb025a2	-0.08600928
63	0x3d8b7137	0.068087034
64	0x3eb8a176	0.36060685
65	0x3e7fe6bd	0.24990363
66	0x3ed7559a	0.42057496
67	0x3ddbe7c2	0.10737564
68	0xbefefd5c	-0.49802673
69	0x3e39674a	0.18105808
70	0x3d6f7a2a	0.058466114
71	0xbe397ce9	-0.18114056
72	0x3eb521ba	0.35377294
73	0xbe166e09	-0.14690413
74	0xbe2fb299	-0.17157973
75	0xbe656bc5	-0.22404392
76	0x3de6261a	0.11237736
77	0x3e008bfd	0.12553401
78	0x3e9bb195	0.30408922
79	0x3eb671c4	0.3563367
80	0xbe31f50f	-0.17378639
81	0x3d8766e6	0.06611423
82	0x3dd32c8e	0.103112325
83	0xbe2895ed	-0.16463442
84	0xbeb7e1ba	-0.35914403
85	0xbed56044	-0.41675007
86	0x3de9194d	0.11381779
87	0xbe08ae0c	-0.13347644
88	0x3e5f8b90	0.21830583
89	0xbe15bc7a	-0.1462268
90	0x3dc5706c	0.096405834
91	0x3d9e917d	0.077425934
92	0x3eb34edc	0.35021102
93	0xbda97a77	-0.082753114
94	0x3d686b24	0.056742802
95	0x3e207cd0	0.15672612
96	0x3e4b2f81	0.1984234
97	0x3dd70275	0.104985155
98	0x3df699be	0.12041043
99	0xbe772c32	-0.24137953
100	0x3df41c1d	0.11919425
101	0xbdd7162c	-0.10502276
102	0xbddf23f9	-0.10895533
103	0x3da6c84f	0.081436746
104	0xbe1332b2	-0.14374807
105	0x3d8ffda8	0.07030803
106	0x3d2960fd	0.04135226
107	0x3eb6806a	0.35644847
108	0xbe3f5d4c	-0.18687934
109	0xbea57f4a	-0.32323676
110	0xbe63f2e8	-0.2226063
111	0x3d2c0375	0.041995484
112	0x3e694a8b	0.22782342
113	0xbef9bb16	-0.48775548
114	0xbe44c3f0	-0.19215369
115	0x3edc3ac7	0.43013594
116	0x3e85e350	0.26149988
117	0x3db98c39	0.090599485
118	0x3b1dd12f	0.0024080982
119	0x3e1b52cc	0.15168303
120	0x3e9b5838	0.30340743
121	0x3b22e88d	0.002485785
122	0xbc3eb506	-0.011639839
123	0x3e1ce709	0.15322508
124	0xbe43ea94	-0.19132453
125	0x3e825c5f	0.254611
126	0xbe1bb70f	-0.1520655
127	0x3d4c5792	0.0498882
128	0x3ebc4a27	0.36775324
129	0x3e8de51b	0.27713856
130	0x3d910fe0	0.07083106
131	0x3e336919	0.1752056
132	0xbe968405	-0.29397598
133	0x3da94b39	0.08266301
134	0xbe0fd1a8	-0.14044821
135	0xbe26bee0	-0.1628375
136	0x3ea7bfce	0.32763523
137	0xbe117f19	-0.1420864
138	0xbe1156ca	-0.14193264
139	0xbe2e3032	-0.17010573
140	0x3cb127bb	0.02162539
141	0x3e29d93e	0.16586778
142	0x3e9b692f	0.30353686
143	0x3dc73fc7	0.097289614
144	0xbe366176	-0.17810616
145	0x3e609199	0.21930541
146	0x3d3a394e	0.045464806
147	0xbdfeb3c6	-0.12436633
148	0xbe0af286	-0.13569078
149	0xbe603851	-0.21896483
150	0x3dd67e09	0.10473258
151	0xbdc01c4f	-0.093803994
152	0x3e1f09f8	0.15531147
153	0xbd8774af	-0.066140525
154	0x3bbdcb98	0.0057920925
155	0x3dc0d8f5	0.09416381
156	0x3e453355	0.19257863
157	0x3da64c67	0.08120041
158	0x3dcd408c	0.10022077
159	0x3da53eec	0.08068642
160	0x3e7ddc8e	0.24791166
161	0x3d454096	0.048157297
162	0x3d40232d	0.046908546
163	0xbe7446bd	-0.2385511
164	0x3dff0b96	0.12453382
165	0xbe0c3d76	-0.1369532
166	0x3e5df776	0.2167643
167	0x3d880eb2	0.06643428
168	0xbdc09f12	-0.0940534
169	0x3e383b9a	0.17991486
170	0x3d3ffb25	0.04687037
171	0x3e80c09b	0.25146946
172	0xbde7f0b1	-0.11325205
173	0xbe3f82e9	-0.18702282
174	0xbe37a935	-0.17935641
175	0x3cf065e2	0.029345457
176	0x3e0a6e70	0.13518691
177	0xbdc4ed2b	-0.09615549
178	0xbe004c69	-0.12529148
179	0x3ebd71d6	0.37000912
180	0x3e1eb09c	0.15497059
181	0x3e41cda4	0.18926102
182	0xbca54754	-0.020175613
183	0x3daaf83f	0.083481304
184	0x3eab1ef3	0.3342205
185	0x3c809095	0.015693942
186	0x3c642127	0.01392392
187	0x3e27b870	0.16378951
188	0xbd863c9b	-0.06554528
189	0x3de4b244	0.11166814
190	0xbd8a0f16	-0.06741159
191	0xbc5cd5ba	-0.013478691
192	0x3eaa5879	0.33270624
193	0x3e1c28ca	0.15249935
194	0x3ddb2247	0.10699897
195	0x3eb10cd0	0.34580088
196	0xbe83c448	-0.25735688
197	0x3dbc1c8f	0.091851346
198	0xbde9f7ad	-0.114241935
199	0xbe091ad4	-0.1338914
200	0x3ea7b936	0.32758492
201	0xbe22702c	-0.15863103
202	0xbe15cb79	-0.146284
203	0xbe3e854f	-0.1860554
204	0x3d9fcf9c	0.0780327
205	0x3dfd2baf	0.123618476
206	0x3e937f05	0.28807846
207	0x3e428c23	0.1899877
208	0xbe2e42fb	-0.17017739
209	0x3e40d909	0.18832792
210	0x3d6c032c	0.057620212
211	0xbdf368d3	-0.11885228
212	0xbe138147	-0.14404784
213	0xbe6371a5	-0.2221132
214	0x3dcadfaa	0.09905942
215	0xbd93b34d	-0.07211933
216	0x3e357fed	0.17724581
217	0xbd598791	-0.0531078
218	0x3cff3800	0.031154633
219	0x3d99bcb2	0.07506694
220	0x3e527697	0.20553051
221	0x3d9a859a	0.07545014
222	0x3b14f417	0.0022728497
223	0x3d634c6c	0.055492803
224	0x3e5ba092	0.21447971
225	0x3da750af	0.08169686
226	0x3d5debd9	0.05418
227	0xbe3c93f8	-0.1841582
228	0x3e247e25	0.16063745
229	0xbe853893	-0.26019725
230	0x3eb30be2	0.34970003
231	0xbd1a912e	-0.03773611
232	0xbe05e4e5	-0.13075598
233	0xbd9c13c1	-0.07620955
234	0x3d9e3dce	0.07726632
235	0x3e6988ff	0.22806166
236	0xbda9f0a9	-0.082978554
237	0xbe7b814a	-0.24561039
238	0xbe2cc2cd	-0.16871186
239	0x3d981a3b	0.07426878
240	0x3e5256fe	0.20540997
241	0xbd93b4ef	-0.07212245
242	0xbe1db5f6	-0.15401444
243	0x3ec13e70	0.3774295
244	0x3e19f047	0.15033065
245	0x3e3a4c92	0.18193272
246	0xbd720eed	-0.059096266
247	0x3dd6a1f2	0.10480107
248	0x3ebee917	0.37287208
249	0x3d8fe201	0.07025529
250	0x3dd68652	0.10474838
251	0x3e29d80a	0.16586319
252	0xbcd2957a	-0.025706042
253	0x3da8bf9d	0.08239672
254	0xbde98484	-0.114022285
255	0x3daa0cec	0.08303246

layer3.bias f4 [4]
0	0x3e003e0f	0.12523673
1	0x3dd5031b	0.10400983
2	0x3e06c76e	0.13162014
3	0x3e0239bb	0.12717335
