models/model_2/nets/500_target_net.pt (torch, 46990 bytes, 6 tensors)

layer1.weight f4 [128, 19]
0.07328683 0.20358656 -0.18759634 -0.15056083 0.01617769 -0.43772095 -0.06335377 0.033054262
0.0752796 -0.0017360247 0.0061253747 -0.081235215 -0.106785156 0.08902068 -0.022057157 -0.024808438
-0.13257158 -0.018886644 0.03083039 -0.0867569 0.07108125 -0.08743874 0.040522687 0.19477941
-0.4482713 0.053440407 -0.07311715 0.027356245 0.0074430476 -0.08150159 -0.016416296 -0.06717809
0.14513391 -0.07543988 -0.09871655 -0.04166456 -0.0084021585 0.10986208 0.07634117 0.06112128
-0.0119931735 -0.17554809 0.0031229707 0.07666424 -0.19789124 -0.06684317 -0.06387303 -0.039593067
-0.18457848 -0.048140645 0.086678885 -0.0851349 -0.08711765 0.014693678 -0.00980069 -0.028998006
0.07291229 -0.064520456 -0.050943777 0.12584803 0.12399695 0.107047744 0.21496956 0.0205957
-0.030216794 0.037833277 0.019450136 -0.0119496975 0.059457276 -0.0078929905 0.09318613 -0.13334951
-0.14434877 -0.0040570567 -0.10898361 -0.01894019 -0.09513125 0.07359327 0.0073871883 0.097008854
0.21588469 -0.02260935 -0.055054843 0.09370904 0.0617915 0.014308472 -0.086648755 -0.11062091
-0.06453224 -0.14655161 -0.08395115 -0.0070386105 -0.015225025 -0.051407948 -0.09759028 0.0029505882
-0.03940807 0.0854007 0.11971518 -0.09974465 0.019952582 -0.060331658 -0.13178736 -0.103733
-0.056315303 -0.08387693 -0.08267031 -0.07658995 0.028218029 -0.054948475 0.060843244 -0.0215935
0.01862401 -0.0011331912 -0.09037824 0.09171909 0.037509073 0.018299378 0.07762482 -0.072727226
-0.08575881 -0.11322478 -0.06925948 -0.015001474 0.056603834 0.010260719 0.057306446 -0.08440333
-0.025588237 0.022081105 0.022827143 -0.04553726 0.013831767 -0.059929933 -0.02835461 0.030017326
-0.041642874 -0.13766228 0.4820919 -0.03212149 0.041716035 0.07688874 0.007861245 0.011702699
-0.019847263 -0.03694532 -0.14582212 -0.067011 -0.054410923 0.034403402 -0.0076696253 -0.054287322
0.14777167 0.0825153 -0.06181715 -0.000113665286 -0.17055157 -0.17389221 -0.13308507 -0.069114335
0.10373154 -0.015445564 0.030027032 -0.2205402 -0.046629418 0.18751432 0.1788636 0.1150654
0.0972569 0.014532936 0.029751094 0.054402266 -0.0403676 0.044813816 0.009222139 -0.07621315
0.046429124 -0.07464163 -0.097829536 -0.11095145 -0.04365931 0.11059882 0.018534293 0.038893603
-0.017619597 -0.010521285 -0.002024569 0.11922152 0.14469828 0.116547644 -0.07842811 0.005003911
0.06354533 -0.025462737 0.016439246 -0.24869624 0.020858778 -0.095920734 -0.11048683 -0.018171176
-0.01903185 -0.017262524 0.042096376 -0.071620114 0.026867578 0.07453677 0.06823826 -0.040655367
-0.020540006 -0.012902216 -0.25477117 -0.25694126 -0.0064665745 0.09359781 0.4449536 0.02109732
0.045707706 0.03609851 -0.020985411 0.04420966 0.013059366 -0.027107224 0.009672295 -0.057441857
-0.10620464 -0.058786258 0.080815315 0.007172166 0.002945338 -0.11023259 0.028107109 0.06801632
0.11711008 0.21191043 -0.1257125 0.031561047 -0.010284615 0.024966339 -0.0073280805 0.0849174
-0.06347947 -0.11057378 -0.010986549 -0.083530016 -0.015932309 0.0020039545 -0.07680689 0.10298789
0.04282983 -0.08492394 -0.0025376033 -0.33395013 0.14552543 -0.048474852 0.053725272 0.04099381
00000000: 6817 963d ff78 503e 4119 40be 9e2c 1abe
00000010: 1387 843c f61c e0be 9fbf 81bd e863 073d
00000020: 312c 9a3d 538b e3ba 5eb7 c83b a65e a6bd
00000030: 2db2 dabd 7950 b63d 36b1 b4bc 113b cbbc
00000040: d8c0 07be 2ab8 9abc 0490 fc3c 9aad b1bd
00000050: 0c93 913d 1513 b3bd 1efb 253d 4174 473e
00000060: d183 e5be 54e4 5a3d 72be 95bd 341a e03c
00000070: cfe4 f33b 4eea a6bd 787b 86bc ab94 89bd
00000080: fc9d 143e 3980 9abd e72b cabd 75a8 2abd
00000090: 35a9 09bc 5fff e03d c258 9c3d 4f5a 7a3d
000000a0: 047f 44bc e1c2 33be c1aa 4c3b 2402 9d3d
000000b0: 00a4 4abe 12e5 88bd ddcf 82bd 572c 22bd
000000c0: 2402 3dbe 202f 45bd b384 b13d 355b aebd
000000d0: bd6a b2bd c1bd 703c 1393 20bc 3a8d edbc
000000e0: 0a53 953d 4d23 84bd 6caa 50bd 4ede 003e
000000f0: 1df2 fd3d d93b db3d fb20 5c3e 50b8 a83c
00000100: 3689 f7bc 11f7 1a3d e455 9f3c aac8 43bc
00000110: 7989 733d 9a51 01bc 5fd8 be3d c68c 08be
00000120: 2ad0 13be 0ff1 84bb cd32 dfbd 7528 9bbc
00000130: 2cd4 c2bd 11b8 963d 3a10 f23b 94ac c63d
00000140: e010 5d3e 3e37 b9bc 3081 61bd 86ea bf3d
00000150: 1519 7d3d 156e 6a3c e774 b1bd 378d e2bd
00000160: 7b29 84bd a011 16be 95ee abbd 25a4 e6bb
00000170: 6272 79bc 2491 52bd 6add c7bd a85e 413b
00000180: 5b6a 21bd 90e6 ae3d 3b2d f53d ec46 ccbd
00000190: 9973 a33c 541e 77bd 44f3 06be f871 d4bd
000001a0: e0aa 66bd abc7 abbd 0d4f a9bd 31db 9cbd
000001b0: 7f29 e73c a711 61bd c436 793d dae4 b0bc
000001c0: 6191 983c 9687 94ba 3a18 b9bd 38d7 bb3d
000001d0: 1da3 193d 94e8 953c c3f9 9e3d 03f2 94bd
000001e0: 51a2 afbd 65e2 e7bd ead7 8dbd bec8 75bc
000001f0: 6cd9 673d 931c 283c 2aba 6a3d a7db acbd
00000200: 6c9e d1bc 6fe3 b43c fdff ba3c 4785 3abd
00000210: a39e 623c 1779 75bd ed47 e8bc e5e6 f53c
00000220: b891 2abd 57f7 0cbe c0d4 f63e d391 03bd
00000230: 6fde 2a3d d877 9d3d 74cc 003c adbc 3f3c
00000240: ba96 a2bc fa53 17bd 6552 15be 103d 89bd
00000250: fddd 5ebd 95ea 0c3d 7b51 fbbb 625c 5ebd
00000260: 7551 173e c8fd a83d fb33 7dbd 965f eeb8
00000270: 12a5 2ebe cd10 32be 7447 08be d18b 8dbd
00000280: 3471 d43d 640f 7dbc 40fb f53c 4ad5 61be
00000290: 7dfe 3ebd c103 403e 0528 373e 69a7 eb3d
000002a0: a02e c73d 8d1b 6e3c 91b8 f33c e9d4 5e3d
000002b0: 7f58 25bd b18e 373d 7418 173c a415 9cbd
000002c0: 772c 3e3d b6dd 98bd da5a c8bd 843a e3bd
000002d0: 1bd4 32bd a281 e23d 3bd5 973c e64e 1f3d
000002e0: f956 90bc 7861 2cbc a2ae 04bb 6a2a f43d
000002f0: c92b 143e 88b0 ee3d eb9e a0bd d9f7 a33b
00000300: 0e24 823d 3b97 d0bc 99ab 863c 3aaa 7ebe
00000310: 07e0 aa3c 1772 c4bd eb46 e2bd b8db 94bc
00000320: afe8 9bbc 236a 8dbc 406d 2c3d 91ad 92bd
00000330: 6519 dc3c bca6 983d 80c0 8b3d 3e86 26bd
00000340: 8443 a8bc d163 53bc 5e71 82be ce8d 83be
00000350: 8fe5 d3bb 35b0 bf3d f5d0 e33e 49d4 ac3c
00000360: 0138 3b3d 08dc 133d 99e9 abbc 3015 353d
00000370: f3f6 553c f80f debc 8c78 1e3c 2748 6bbd
00000380: d181 d9bd dcc9 70bd 8082 a53d 7d04 eb3b
00000390: 9206 413b a0c1 e1bd e140 e63c 244c 8b3d
000003a0: 69d7 ef3d 0cff 583e c7ba 00be 2846 013d
000003b0: cd80 28bc 3586 cc3c 6520 f0bb 2ce9 ad3d
000003c0: 8601 82bd 8274 e2bd ed00 34bc c911 abbd
000003d0: 7984 82bc c754 033b ee4c 9dbd 51eb d23d
000003e0: 556e 2f3d 9aec adbd eb4d 26bb 83fb aabe
000003f0: 9e04 153e 918d 46bd 080f 5c3d 20e9 273d

layer1.bias f4 [128]
0.072701104 -0.0034781036 -0.0074380897 -0.12236729 0.06033156 0.053130955 0.1267556 -0.068398304
0.018886058 -0.04307921 0.16692299 -0.020450955 0.08688489 -0.0060750037 -0.066912584 0.1096034
-0.046542663 0.072131 0.023813067 0.07771553 -0.017100792 0.0081265755 0.060210764 -0.019871447
-0.04396853 0.0013997147 0.13115856 -0.012047679 -0.047224622 -0.04068875 0.05238125 -0.04513998
0.012110506 -0.028868342 -0.008263287 -0.10121534 0.05827419 0.07753045 0.019768817 0.00017255473
0.03452995 -0.062203832 0.0771669 -0.0025762897 -0.11429186 0.04257046 0.10799251 -0.13441657
-0.12786509 0.06951792 0.031224199 0.058098394 0.1007736 -0.046982214 0.032690275 0.013190725
0.06382108 0.023024369 0.02169526 -0.0642578 -0.011665761 -0.015632667 0.06710045 -0.03016296
0.12171288 0.015612288 -0.077782236 -0.12975815 0.07406987 -0.082860895 0.0067251227 -0.11430895
-0.09188424 -0.048129827 0.110464804 -0.071249306 0.17198017 -0.027345276 0.05908901 0.049887784
-0.009906747 0.0912549 0.03825854 0.03397645 -0.086907275 0.07167037 0.010110031 -0.0021449486
-0.09823465 0.044421837 0.053605586 0.0713749 0.15862498 -0.014250336 -0.08770076 0.0966458
0.036981206 0.061886568 -0.03240126 0.12497645 -0.04908603 0.11498573 -0.0497971 0.041970316
-0.10393821 0.0125775095 -0.022619138 0.08324436 -0.16496119 0.020419145 0.03013379 -0.06317002
-0.049933944 -0.077017546 -0.03797953 0.04329525 0.11936401 0.020927094 -0.060963307 0.011275179
-0.0259192 0.016229939 0.0774411 -0.046392545 0.13544407 -0.10557476 -0.0883398 -0.016580038
00000000: 51e4 943d e5f0 63bb 38bb f3bb b49b fabd
00000010: 3a1e 773d d89f 593d 38cc 013e 6914 8cbd
00000020: efb6 9a3c d373 30bd dced 2a3e c388 a7bc
00000030: b5f0 b13d d310 c7bb 7709 89bd bf77 e03d
00000040: 85a3 3ebd 6bb9 933d 9f13 c33c 5229 9f3d
00000050: f616 8cbc 5425 053c 909f 763d 72c9 a2bc
00000060: 5818 34bd a276 b73a 6e4e 063e a163 45bc
00000070: 9b6e 41bd 3fa9 26bd b98d 563d b3e4 38bd
00000080: 256b 463c 4d7d ecbc bd62 07bc fd49 cfbd
00000090: ebb0 6e3d 49c8 9e3d 37f2 a13c cfef 3439
000000a0: 476f 0d3d 72c9 7ebd ae09 9e3d f8d6 28bb
000000b0: da11 eabd 5d5e 2e3d 2d2b dd3d 7fa4 09be
000000c0: 11ef 02be 695f 8e3d e4c9 ff3c 95f8 6d3d
000000d0: 6462 ce3d 6c70 40bd 3de6 053d e91d 583c
000000e0: a0b4 823d 9a9d bc3c 42ba b13c 9899 83bd
000000f0: bf21 3fbc 1410 80bc f66b 893d 5018 f7bc
00000100: 9a44 f93d afca 7f3c 4b4c 9fbd 52df 04be
00000110: f2b1 973d f9b2 a9bd 6b5e dc3b d01a eabd
00000120: ce2d bcbd c823 45bd 5f3b e23d 28eb 91bd
00000130: 921b 303e 3303 e0bc 5107 723d 2257 4c3d
00000140: e94f 22bc d9e3 ba3d fdb4 1c3d e42a 0b3d
00000150: 71fc b1bd eac7 923d 8ba4 253c 4492 0cbb
00000160: 402f c9bd acf3 353d 8891 5b3d 012d 923d
00000170: 966e 223e 3e7a 69bc 759c b3bd 3cee c53d
00000180: 9b79 173d c57c 7d3d 2fb7 04bd a7f3 ff3d
00000190: 6f0e 49bd a37d eb3d 0bf8 4bbd 11e9 2b3d
000001a0: 8edd d4bd e611 4e3c c54b b9bc 057c aa3d
000001b0: 96eb 28be 0d46 a73c 23db f63c 495f 81bd
000001c0: 8987 4cbd 60bb 9dbd 6c90 1bbd 5c56 313d
000001d0: 1e75 f43d 4c6f ab3c a9b4 79bd 87bb 383c
000001e0: 8154 d4bc a6f4 843c 7099 9e3d 1c06 3ebd
000001f0: dab1 0a3e 9437 d8bd 7feb b4bd dcd2 87bc

layer2.weight f4 [64, 128]
-0.0038424737 0.106123775 -0.11199778 -0.03335247 -0.015819505 0.022695845 0.0957287 0.046588853
0.06020022 0.07304294 0.028404849 -0.4724027 0.23142631 0.059078783 -0.1498495 0.04456285
0.05058309 -0.025978146 -0.043839347 0.018691543 -0.09765017 -0.22422896 0.026217176 -0.22603771
-0.006853004 -0.010884248 0.049763225 -0.15808122 -0.02325651 0.029325765 0.041228436 0.08570311
-0.12901986 -0.08465381 0.016503204 -0.022833237 0.020049099 -0.3748379 0.060879834 -0.043592945
-0.0070984648 -0.010410812 -0.0677011 -0.02554467 -0.31380102 0.001597457 0.045344885 -0.096564114
-0.39215776 -0.0116966255 -0.15812048 -0.015655657 0.06480773 0.017116293 0.009750018 0.18857424
-0.3860199 0.17915553 0.10959508 -0.13898326 0.10232823 0.02227472 0.13024636 -0.089902386
0.057967186 -0.04684881 -0.20740165 0.026230697 -0.22997192 0.0056362185 -0.038948715 -0.015031621
-0.028056424 0.08848106 0.14495036 0.02400029 -0.21272674 -0.13758859 -0.20395736 -0.035409294
0.13047947 -0.093576185 -0.23853251 0.08197609 0.021001963 -0.0128899785 -0.020721404 -0.09623638
-0.016907029 0.10736597 -0.007780818 0.03480863 0.08274425 0.05231896 -0.013095018 0.076199666
0.017966926 0.09511787 -0.087582424 -0.021296026 -0.05692819 -0.05488019 -0.023091422 0.006335936
-0.48105073 -0.007030258 -0.01075611 -0.5619566 -0.36720303 -0.1472651 -0.0047394806 0.259733
0.00095249363 -0.042852774 -0.005001112 0.011171704 -0.11561508 -0.17210841 -0.06428973 -0.08494899
0.007290283 -0.2032385 0.029006734 0.022523623 0.013455711 -0.07111938 -0.1964675 0.06323242
0.03893463 0.07105201 0.03289425 -0.19269004 0.025491761 0.0022904596 -0.187388 0.1646222
-0.10897407 0.29364935 -0.13164853 -0.1038223 -0.13668372 0.027691044 -0.06871768 0.025662404
-0.33946383 0.03605794 0.04766276 -0.0039257077 0.03796748 -0.36595994 0.03180166 -0.012028464
0.041921698 0.115898706 -0.084945805 -0.14625013 -0.011236163 -0.19189319 -0.015375527 -0.06951946
-0.021057598 -0.3466653 -0.013139464 -0.004472812 0.10603374 -0.018341571 -0.06545095 -0.7831671
-0.06935337 0.029266391 -0.15940969 0.19215095 -0.055850036 0.046238292 0.08913834 0.011695436
-0.16081157 0.034954812 -0.0045582606 0.026014676 0.1461082 0.05939623 0.08547562 -0.10730226
-0.08737349 0.0974003 0.05884208 -0.25296164 0.0881212 -0.18080449 0.15015584 -0.009923803
0.030300459 -0.02774923 0.06979007 -0.0076486594 0.03402648 -0.021646177 -0.07431479 -0.05737022
-0.042979527 0.05112679 0.118586466 0.026792778 0.042340517 -0.048099976 -0.09931649 0.020988364
0.111368336 -0.33634737 -0.14529784 0.012170808 -0.05136971 0.10217578 -0.09347077 0.16794252
7.505302e-05 -0.0038393303 0.02099141 0.13157314 -0.010435891 -0.027357388 -0.24907267 -0.06401563
-0.055384606 0.06903621 -0.054774716 -0.001517164 0.08908712 0.08829189 0.08492578 -0.02799981
-1.2604556 -0.0056391726 0.01607425 -0.7008364 -0.1976361 -0.24689677 -0.0035374812 0.07244364
-0.0492494 -0.080415666 0.017857986 -0.0074184844 0.104924776 -0.10236404 0.026785811 -0.5564029
0.038264647 -0.25356174 0.06586268 0.06278497 -0.03846807 0.020177903 -0.1639273 0.009818299
00000000: 03d2 7bbb 6c57 d93d 185f e5bd 999c 08bd
00000010: e897 81bc a3ec b93c 690d c43d f4d3 3e3d
00000020: 8294 763d 8997 953d 49b1 e83c c4de f1be
00000030: 05fb 6c3e 98fc 713d 2672 19be 8987 363d
00000040: 3730 4f3d 1fd0 d4bc e390 33bd 021f 993c
00000050: d0fc c7bd 479c 65be 67c5 d63c 6e76 67be
00000060: 2a8f e0bb d853 32bc 86d4 4b3d 0be0 21be
00000070: 7084 bebc 963c f03c 26df 283d 1d85 af3d
00000080: c81d 04be fa5e adbd ba31 873c c50c bbbc
00000090: 023e a43c c1ea bfbe 225d 793d 848e 32bd
000000a0: 3d9a e8bb 1c92 2abc e0a6 8abd 0e43 d1bc
000000b0: 87aa a0be c361 d13a 8fbb 393d 68c3 c5bd
000000c0: e7c8 c8be 34a3 3fbc 56ea 21be 4b40 80bc
000000d0: eab9 843d 7837 8c3c 8abe 1f3c 9b19 413e
000000e0: 66a4 c5be 8c74 373e 6373 e03d a151 0ebe
000000f0: 7791 d13d 7979 b63c 4d5f 053e be1e b8bd
00000100: 006f 6d3d 8ae4 3fbd 1961 54be c2e1 d63c
00000110: c27d 6bbe 07b0 b83b b088 1fbd 3047 76bc
00000120: 96d6 e5bc 8f35 b53d de6d 143e 429c c43c
00000130: 0ad5 59be 06e4 0cbe 33da 50be 5609 11bd
00000140: 699c 053e dfa4 bfbd de41 74be 15e3 a73d
00000150: 4f0c ac3c 7d30 53bc efbf a9bc 9417 c5bd
00000160: 9c80 8abc b1e2 db3d 3bf6 febb 7e93 0e3d
00000170: d175 a93d 684c 563d 7d8c 56bc 920e 9c3d
00000180: 602f 933c 28cd c23d 6a5e b3bd 0175 aebc
00000190: 892d 69bd 0dca 60bd 392a bdbc af9d cf3b
000001a0: 484c f6be 145e e6bb 653a 30bc 63dc 0fbf
000001b0: 0902 bcbe aacc 16be a54d 9bbb b9fb 843e
000001c0: c4b0 793a 6486 2fbd 5ee0 a3bb 8609 373c
000001d0: 99c7 ecbd 303d 30be 55aa 83bd bcf9 adbd
000001e0: 54e3 ee3b c11d 50be 889f ed3c 7683 b83c
000001f0: 5875 5c3c 0aa7 91bd c72e 49be 0080 813d
00000200: eb79 1f3d b783 913d 1fbc 063d 8a50 45be
00000210: 19d4 d03c 891b 163b a4e2 3fbe b992 283e
00000220: cc2d dfbd 3559 963e dfce 06be c9a0 d4bd
00000230: d1f6 0bbe 54d8 e23c dbbb 8cbd f639 d23c
00000240: 34ce adbe 7eb1 133d 073a 433d 39a3 80bb
00000250: ca83 1b3d 1a5f bbbe 7542 023d 0913 45bc
00000260: 16b6 2b3d 4d5c ed3d 11f8 adbd 98c2 15be
00000270: e217 38bc a67f 44be a2e9 7bbc 3860 8ebd
00000280: fc80 acbc 1d7e b1be e846 57bc ab90 92bb
00000290: 3828 d93d 1041 96bc 260b 86bd a47d 48bf
000002a0: 2409 8ebd 12c0 ef3c 4b3c 23be 38c3 443e
000002b0: 02c3 64bd 5d64 3d3d 298e b63d 379e 3f3c
000002c0: caab 24be c72c 0f3d 765d 95bb bb1c d53c
000002d0: 639d 153e 7649 733d d80d af3d 4ac1 dbbd
000002e0: dff0 b2bd cf79 c73d 6504 713d 3084 81be
000002f0: e378 b43d d024 39be 74c2 193e 7297 22bc
00000300: ab38 f83c 5a52 e3bc 19ee 8e3d 9ba1 fabb
00000310: 5a5f 0b3d 5353 b1bc 5a32 98bd 09fd 6abd
00000320: 4d0b 30bd 536a 513d 76dd f23d 877c db3c
00000330: 406d 2d3d 7b04 45bd 7266 cbbd caef ab3c
00000340: 1515 e43d b935 acbe f5c8 14be 1268 473c
00000350: 0c69 52bd 8941 d13d 9a6d bfbd 20f9 2b3e
00000360: c965 9d38 469d 7bbb 2df6 ab3c 1cbb 063e
00000370: 4dfb 2abc 9a1c e0bc e80c 7fbe a01a 83bd
00000380: f8da 62bd db62 8d3d 745b 60bd 94db c6ba
00000390: 4f73 b63d 61d2 b43d 91ed ad3d dc5f e5bc
000003a0: 9c56 a1bf cfc8 b8bb 25ae 833c 046a 33bf
000003b0: 1e61 4abe 82d2 7cbe 16d5 67bb 555d 943d
000003c0: bdb9 49bd f8b0 a4bd e94a 923c c216 f3bb
000003d0: cde2 d63d 3da4 d1bd eb6d db3c 6c70 0ebf
000003e0: 64bb 1c3d d8d2 81be 03e3 863d 6895 803d
000003f0: b290 1dbd 214c a53c 8fdc 27be eedc 203c

layer2.bias f4 [64]
0.09653121 0.0070260637 -0.029994007 -0.04109558 -0.010607542 0.04411522 -0.051952917 0.004191461
0.027144864 -0.03169157 -0.0028792608 -0.009166888 0.017010134 0.062289886 0.0055139973 0.0122716855
-0.05684042 0.036516808 0.11620996 -0.027365636 -0.0056651435 0.012434262 0.10347577 -0.031637307
0.026217645 -0.025187235 0.014419548 0.06358272 -0.010925363 -0.031118726 0.11334003 0.012233841
-0.023459654 0.053069707 0.045980614 -0.01818176 0.08788063 -0.057889946 0.0028903312 0.09391647
0.022010813 0.001674572 0.052787837 -0.048449878 0.003396747 -0.041338068 -0.07035702 0.12000565
-0.008505832 0.002723019 -0.041003317 0.027049888 0.058155674 0.083022445 -0.030923191 0.046579447
0.06260415 0.05191755 -0.0025973488 0.02716757 0.012570521 -0.0031258673 -0.016778417 0.12762073
00000000: 28b2 c53d e53a e63b feb5 f5bc d753 28bd
00000010: 41cb 2dbc 29b2 343d 95cc 54bd 8658 893b
00000020: e85e de3c 05cf 01bd fbb1 3cbb b730 16bc
00000030: d658 8b3c ae23 7f3d c3ae b43b 2e0f 493c
00000040: 80d1 68bd a692 153d 7dff ed3d e62d e0bc
00000050: aba2 b9bb 13b9 4b3c 1beb d33d 1f96 01bd
00000060: 63c6 d63c 7655 cebc f83f 6c3c a837 823d
00000070: 4b00 33bc b3ec febc d11e e83d 7370 483c
00000080: 762e c0bc 9f5f 593d 2b56 3c3d eaf1 94bc
00000090: c2fa b33d 021e 6dbd b66b 3d3b 4757 c03d
000000a0: 0550 b43c 507d db3a 0f38 583d 6173 46bd
000000b0: f59b 5e3b 1b52 29bd 5717 90bd 86c5 f53d
000000c0: 0c5c 0bbc ae74 323b 18f3 27bd ba97 dd3c
000000d0: a534 6e3d ac07 aa3d a252 fdbc 17ca 3e3d
000000e0: 9b36 803d 7fa7 543d 4838 2abb 868e de3c
000000f0: 96f4 4d3c 5adb 4cbb e472 89bc 02af 023e

layer3.weight f4 [4, 64]
0.38278767 0.26132074 0.13268314 0.3578689 -0.27908278 0.08316255 -0.142457 -0.17628093
0.3579905 -0.1712858 -0.1749011 -0.14690469 0.049682938 0.14814854 0.3234336 0.15531743
-0.20549504 0.29655707 0.05488856 -0.12752989 -0.13243635 -0.23376487 0.10644721 -0.102035075
0.20481834 -0.06782749 0.024562083 0.09609556 0.24068932 0.098939255 0.05319283 0.055892833
0.27728486 0.05843144 0.03989119 -0.20506759 0.19049895 -0.2634218 0.3182812 0.0032602034
-0.13387519 0.049672768 0.05171651 0.24394089 -0.12873356 -0.22173785 -0.20944422 0.059123408
0.17333868 -0.092821285 -0.1394139 0.45798394 0.19760351 0.20657268 -0.008373519 0.11936911
0.44304937 0.06954526 0.074653395 0.18870613 -0.04243292 0.08270145 -0.10938242 0.06537595
0.37767988 0.3281852 0.49343446 0.18344504 -0.55836856 0.18482997 0.062349565 -0.20111994
0.38162225 -0.17173809 -0.16739629 -0.21303186 0.109881714 0.1252673 0.3213749 0.3923461
-0.18476631 0.2150881 0.10186601 -0.19454126 -0.3797402 -0.49569416 0.11684948 -0.15112744
0.24251209 -0.16189726 0.13449025 0.08984834 0.39772356 -0.11819891 0.06264224 0.15400767
0.2835519 0.12455319 0.12515701 -0.24263316 0.16538237 -0.1267143 -0.10632078 0.08430821
-0.18207926 0.14319532 0.045126017 0.40582865 -0.21004727 -0.33553338 -0.2517148 0.049316544
0.24584505 -0.59502786 -0.20728196 0.46301782 0.32642734 0.12729377 0.0020698954 0.15838248
0.40656158 0.015574437 -0.016702792 0.1742832 -0.20426595 0.24879435 -0.18099909 0.060680818
0.3914467 0.35965863 0.07724475 0.28766623 -0.26957357 0.08272462 -0.19767487 -0.19613506
0.35885277 -0.15683159 -0.16975914 -0.16060306 0.012628473 0.1765878 0.32268083 0.07158258
-0.21792431 0.31073046 0.043917667 -0.13895747 -0.09955506 -0.22668917 0.10236871 -0.13225037
0.17370978 -0.0639163 -0.008499614 0.13349482 0.23049402 0.11816165 0.098969124 0.08432012
0.297261 0.03923768 0.04128233 -0.25594673 0.16757499 -0.20500435 0.28300408 0.06312837
-0.1116704 0.18785861 0.049425583 0.28323925 -0.13379775 -0.18830082 -0.21515445 0.0315731
0.122706234 -0.070017725 -0.12571393 0.4553759 0.14328596 0.22394861 -0.017307386 0.101315245
0.40501487 0.012918309 0.040729683 0.20125528 -0.05113691 0.087545976 -0.08397229 -0.021598682
0.35635087 0.15025721 0.1347847 0.44866332 -0.2568188 0.07788886 -0.10612478 -0.16719225
0.36657664 -0.17533384 -0.18100502 -0.15979797 0.083052285 0.12650228 0.32485658 0.2143675
-0.21344459 0.29086924 0.057224322 -0.12177152 -0.12660567 -0.20064178 0.108973846 -0.071247734
0.22639202 -0.07047174 0.034236293 0.07922454 0.21681577 0.10573089 0.0029748455 0.04568344
0.25794494 0.0704893 0.047343403 -0.18762365 0.21346419 -0.2934152 0.3811594 -0.037745632
-0.15091771 -0.09437491 0.08089249 0.18771225 -0.10739773 -0.23124401 -0.20572096 0.07704327
0.22012538 -0.061318886 -0.13655263 0.45949432 0.18304719 0.19288439 -0.05073028 0.12847735
0.45730078 0.09992346 0.12170191 0.18946266 -0.024310222 0.06781649 -0.14369301 0.10076142
00000000: bffc c33e d5cb 853e 17de 073e 983a b73e
00000010: f0e3 8ebe 2151 aa3d 3fe0 11be fd82 34be
00000020: 884a b73e 8b65 2fbe 4619 33be 2f6e 16be
00000030: 5680 4b3d 40b4 173e 1799 a53e 880b 1f3e
00000040: 4b6d 52be 54d6 973e d4d2 603d 3297 02be
00000050: 659d 07be 0f60 6fbe ff00 da3d c4f7 d0bd
00000060: e6bb 513e 24e9 8abd 6c36 c93c c0cd c43d
00000070: 4377 763e aaa0 ca3d bae0 593d e2ef 643d
00000080: 48f8 8d3e ce55 6f3d f264 233d 3dfd 51be
00000090: 2812 433e 39df 86be c1f5 a23e 23a9 553b
000000a0: 9416 09be ac75 4b3d b1d4 533d a4cb 793e
000000b0: bbd2 03be 3f0f 63be 8c78 56be 632b 723d
000000c0: b27f 313e 1619 bebd 84c2 0ebe df7c ea3e
000000d0: 9358 4a3e ca87 533e 1631 09bc cb77 f43d
000000e0: 5ed7 e23e bf6d 8e3d e1e3 983d 2e3c 413e
000000f0: 24ce 2dbd 615f a93d e403 e0bd d3e3 853d
00000100: 425f c13e e407 a83e 71a3 fc3e 04d9 3b3e
00000110: 3ef1 0ebf 1144 3d3e 4262 7f3d 63f2 4dbe
00000120: fe63 c33e 1cdc 2fbe ef69 2bbe 0625 5abe
00000130: aa09 e13d 1246 003e 408b a43e 97e1 c83e
00000140: 6133 3dbe 0e40 5c3e 209f d03d d335 47be
00000150: 4f6d c2be a0cb fdbe c84e ef3d 27c1 1abe
00000160: 1755 783e 65c8 25be d0b7 093e 6802 b83d
00000170: 6ca2 cb3e 4512 f2bd 934a 803d 30b4 1d3e
00000180: b72d 913e be15 ff3d 2929 003e d474 78be
00000190: ff59 293e 65c1 01be b6be d9bd c8a9 ac3d
000001a0: fc72 3abe cba1 123e 0fd6 383d c6c8 cf3e
000001b0: a216 57be 08cb abbe c3e0 80be 2500 4a3d
000001c0: cebe 7b3e bf53 18bf b941 54be ac10 ed3e
000001d0: 7c21 a73e 4c59 023e 15a7 073b 042f 223e
000001e0: d728 d03e ec2b 7f3c 4bd4 88bc 4c77 323e
000001f0: 182b 51be f2c3 7e3e d357 39be 738c 783d
00000200: b46b c83e 2d25 b83e 7f32 9e3d fd48 933e
00000210: 8c05 8abe 876b a93d 486b 4abe a1d7 48be
00000220: 8dbb b73e 7698 20be 57d5 2dbe 2175 24be
00000230: a8e7 4e3c 6fd3 343e 6c36 a53e e399 923d
00000240: 8d27 5fbe 1018 9f3e 03e3 333d de4a 0ebe
00000250: 86e3 cbbd 3521 68be b0a6 d13d a46c 07be
00000260: fae0 313e 8de6 82bd f741 0bbc deb2 083e
00000270: a006 6c3e bcfe f13d 53b0 ca3d 07b0 ac3d
00000280: 9832 983e b1b7 203d a917 293d 730b 83be
00000290: c798 2b3e a9ec 51be e9e5 903e 7249 813d
000002a0: 73b3 e4bd 025e 403e 7b72 4a3d bc04 913e
000002b0: 4702 09be eed1 40be 7351 5cbe cb52 013d
000002c0: 684d fb3d 7465 8fbd 27bb 00be 0827 e93e
000002d0: 8eb9 123e c952 653e 38c8 8dbc 5e7e cf3d
000002e0: 1c5e cf3e 51a7 533c 2bd4 263d dd15 4e3e
000002f0: f074 51bd 4e4b b33d aaf9 abbd b8ef b0bc
00000300: 9f73 b63e 07dd 193e 0005 0a3e 33b7 e53e
00000310: c17d 83be 3284 9f3d f357 d9bd 7234 2bbe
00000320: efaf bb3e b78a 33be 6159 39be 14a2 23be
00000330: 5117 aa3d d089 013e 9a53 a63e 2783 5b3e
00000340: 3891 5abe d0ec 943e 0d64 6a3d 5963 f9bd
00000350: eba4 01be 0a75 4dbe ae2d df3d 55ea 91bd
00000360: 4fd3 673e 7d53 90bd 5b3b 0c3d 7a40 a23d
00000370: f404 5e3e 7089 d83d a0f5 423b 8f1e 3b3d
00000380: 5c11 843e b25c 903d 28eb 413d 6a20 40be
00000390: 5b96 5a3e 843a 96be 5327 c33e 2a9b 1abd
000003a0: 2c8a 1abe a247 c1bd f6aa a53d a437 403e
000003b0: 57f3 dbbd 3bcb 6cbe 84a8 52be ddc8 9d3d
000003c0: 8c68 613e 8329 7bbd 74d4 0bbe d742 eb3e
000003d0: b970 3b3e 7c83 453e 8eca 4fbd 918f 033e
000003e0: 5423 ea3e aca4 cc3d da3e f93d 8002 423e
000003f0: 3b26 c7bc 5fe3 8a3d 4324 13be 015c ce3d

layer3.bias f4 [4]
0.138374 0.117008284 0.14629851 0.136852
00000000: eab1 0d3e 0aa2 ef3d 47cf 153e ee22 0c3e
