models/model_2/nets/500_policy_net.pt (torch, 46990 bytes, 6 tensors)

layer1.weight f4 [128, 19]
00000000: a8a6 963d 7e1d 503e 78a4 41be 165e 19be
00000010: cfe0 853c 0e30 e0be 4efb 82bd 6663 063d
00000020: 456e 9a3d f563 03bb c190 ad3b 1058 a7bd
00000030: 440e dcbd 6ac0 b43d 44a1 b5bc 50da ccbc
00000040: e0cf 07be 5f79 9dbc 4f4a fb3c d9f5 b1bd
00000050: 7c04 923d 3406 b2bd e91b 263d 2183 473e
00000060: 5b3d e5be 60ec 5b3d 33ac 95bd 8a3c e23c
00000070: 9b8f ef3b 05fd a6bd b507 84bc 8b5f 89bd
00000080: a631 153e be7f 9abd e421 cabd d3a3 2abd
00000090: 98c1 09bc 76ee e03d 2562 9d3d 5d41 7b3d
000000a0: eb50 46bc 22ac 33be 0fc9 5e3b 5476 9d3d
000000b0: 6d9d 4abe 603f 87bd 2c05 82bd 077f 1fbd
000000c0: 40bc 3cbe 9042 43bd 9353 b23d c191 adbd
000000d0: 77c5 b2bd 3107 6d3c f524 23bc 8359 f0bc
000000e0: 52b9 943d 0ff1 84bd 80ac 52bd 13ea 003e
000000f0: d49a fe3d d2d6 da3d 82aa 5b3e 70a0 a13c
00000100: d436 fabc 99ce 183d 287a 943c 26ca 58bc
00000110: 73d8 6e3d 55c0 16bc a7f7 bc3d debf 08be
00000120: 0fff 13be 98a9 8abb 1948 dfbd 774a 9dbc
00000130: a9db c2bd a45e 963d ab81 de3b 17a4 c63d
00000140: 26db 5c3e 4c08 bebc 501f 61bd 7eeb bf3d
00000150: 0ece 7c3d 5a12 693c 8cc0 b1bd cfe6 e1bd
00000160: 96f2 83bd 4b30 16be 1635 acbd 09f5 e9bb
00000170: fc7c 7abc 78f0 52bd c819 c8bd f3f3 1e3b
00000180: 1054 25bd e67a ad3d c9d9 f43d 1f3d ccbd
00000190: 2d50 a33c 971b 77bd d5ef 06be de6c d4bd
000001a0: 279f 66bd 13bf abbd 7546 a9bd 5bd3 9cbd
000001b0: c41d e73c ed05 61bd 7f29 793d 78db b0bc
000001c0: 9089 983c be7f 94ba fbe2 b7bd 4d76 bc3d
000001d0: e90b 1a3d a353 983c 06d6 9f3d 9f53 94bd
000001e0: c241 afbd 5b81 e7bd 580d 8dbd 0744 6fbc
000001f0: d963 693d 5527 313c 6fcf 6b3d 423f acbd
00000200: 34b5 d2bc 1ce5 b33c 7559 b93c 40e0 3abd
00000210: 3c8c 603c 29cc 75bd f14c e8bc b9cf f43c
00000220: e660 2cbd d6ff 0cbe aac9 f63e ab65 05bd
00000230: 76fe 293d c122 9d3d dd7e 063c 9106 3f3c
00000240: 075b 9fbc 34d3 16bd a864 15be e386 89bd
00000250: 3846 5fbd be6a 0c3d 190a fdbb 79c2 5ebd
00000260: c73e 183e 75a7 aa3d 6eec 7dbd 1525 ad39
00000270: 7bf4 2dbe 7331 31be e46a 07be bd47 8cbd
00000280: ea12 d63d 0cd2 83bc 525e f03c b30c 62be
00000290: abf3 41bd a209 403e 29f7 363e 05ea ea3d
000002a0: 67d7 c63d 53ea 653c c6cb f13c a4c6 5f3d
000002b0: d238 24bd afee 363d ca29 1d3c fbaa 9bbd
000002c0: ec5e 3f3d a66e 98bd 2ce5 c7bd 036f e2bd
000002d0: c3a9 31bd 866e e33d e1cf 9a3c 5180 213d
000002e0: 65e8 8bbc e365 2dbc 7e1a 0bbb 5314 f43d
000002f0: 661d 143e cd8d ee3d ac6f 9fbd 886b 9a3b
00000300: 0e1b 803d 4298 cebc 510f 843c 69f9 7ebe
00000310: 4281 aa3c 1629 c3bd 4315 e2bd 0922 98bc
00000320: 572f 9fbc 9ff3 90bc 6146 2c3d a218 94bd
00000330: 8fbe d73c e013 983d 2c64 8b3d 307c 27bd
00000340: 09ee aabc 0e5b 5cbc 599f 82be 070a 83be
00000350: c6af ebbb 8541 be3d 1c94 e33e b5ab a93c
00000360: 0fe0 3c3d b386 113d 26e4 b1bc 08f6 303d
00000370: aa55 523c 651f e3bc b432 1f3c b307 6bbd
00000380: a146 d9bd d2a3 70bd 1ec5 a53d f59a eb3b
00000390: f854 293b cef5 e1bd eaff eb3c 4337 8a3d
000003a0: 6531 ef3d 6fa9 583e e51c 01be ce21 ff3c
000003b0: 3ab8 30bc 5068 d23c afdb e7bb bf60 ae3d
000003c0: 094e 80bd 9db4 e1bd d7d2 30bc 6db1 aabd
000003d0: 6673 81bc ced4 0c3b 16ed 9cbd 1efa d23d
000003e0: ea17 323d 457e adbd ac8d 29bb 7ed5 aabe
000003f0: 9c61 153e 0c74 43bd 5eef 5c3d 075e 293d
0.07356006 0.2032375 -0.18910396 -0.14977297 0.016342549 -0.43786663 -0.06395589 0.032809637
0.075405635 -0.0020048593 0.005296797 -0.081710935 -0.107449085 0.088257626 -0.022171624 -0.025006443
-0.13262892 -0.019222913 0.030675082 -0.0868947 0.071297616 -0.086925894 0.04055396 0.19483615
-0.44773373 0.05369222 -0.07308235 0.027616758 0.0073108203 -0.081537284 -0.016116956 -0.067076765
0.1456972 -0.07543896 -0.098697454 -0.04166014 -0.008407973 0.10982983 0.07684735 0.061341632
-0.012104253 -0.17546132 0.0033994352 0.07688585 -0.19786616 -0.06603885 -0.06348643 -0.038939502
-0.18431187 -0.0476709 0.08707347 -0.08475066 -0.0872907 0.014467047 -0.009957542 -0.029339558
0.072619095 -0.06491291 -0.05143404 0.12589292 0.12431875 0.10685505 0.21451762 0.019729823
-0.030543722 0.037306402 0.018124655 -0.01323179 0.05831189 -0.009201129 0.092269234 -0.13354442
-0.14452766 -0.004231643 -0.109024234 -0.019200547 -0.09514553 0.0734227 0.00679036 0.096992664
0.21567973 -0.023197316 -0.054961503 0.093710884 0.061719947 0.014225567 -0.086793035 -0.11030351
-0.06442754 -0.1466686 -0.08408563 -0.007139806 -0.015288588 -0.05149886 -0.097705424 0.0024254292
-0.04036337 0.08470707 0.11955602 -0.099725954 0.019935692 -0.060329046 -0.13177426 -0.10372327
-0.056304123 -0.08386054 -0.08265392 -0.076575 0.028212436 -0.054937292 0.06083059 -0.021589026
0.018620282 -0.0011329574 -0.0897884 0.092022516 0.037609015 0.018594569 0.078044936 -0.07242512
-0.08557464 -0.113039695 -0.06887311 -0.014603621 0.056979988 0.0108126 0.05757087 -0.08410503
-0.02572117 0.021959834 0.022625664 -0.045624018 0.0137053095 -0.060009155 -0.028357001 0.029884206
-0.042084597 -0.13769469 0.48200732 -0.03256766 0.04150244 0.076726444 0.0082089575 0.01165928
-0.019452585 -0.036822513 -0.14589179 -0.06715181 -0.054510325 0.034281485 -0.007722151 -0.054384682
0.14867698 0.08332721 -0.061993055 0.0003302476 -0.16987793 -0.1730402 -0.1322437 -0.068496205
0.10452826 -0.01609137 0.02934185 -0.22075157 -0.04735152 0.18753675 0.17867722 0.11470417
0.097090535 0.014032918 0.029516112 0.054632798 -0.04009325 0.04466122 0.009592483 -0.07600971
0.046721384 -0.074429795 -0.09760508 -0.1105633 -0.043374788 0.11105065 0.018897953 0.039429013
-0.017078588 -0.010583374 -0.0021225507 0.11917939 0.1446434 0.1164814 -0.077849716 0.0047125258
0.0625516 -0.025219087 0.016120585 -0.2489983 0.020813588 -0.09529321 -0.110392116 -0.018570917
-0.019431753 -0.017694293 0.042059306 -0.07231261 0.026335983 0.07425666 0.06806216 -0.04088992
-0.020865457 -0.0134494435 -0.25512198 -0.25593588 -0.0071925847 0.092898406 0.44448936 0.02071176
0.046112116 0.03552885 -0.021715235 0.043203384 0.012837807 -0.027724931 0.009716678 -0.05738039
-0.106091745 -0.05874998 0.08094238 0.007190103 0.0025838 -0.11033212 0.028808553 0.067488216
0.11679343 0.21158384 -0.12608679 0.031144049 -0.010786111 0.025684506 -0.007075749 0.085145466
-0.06264884 -0.110207774 -0.010792456 -0.083346225 -0.015802097 0.0021489146 -0.07662408 0.10301612
0.043479837 -0.084713496 -0.0025871797 -0.33366007 0.14588016 -0.047718093 0.053939216 0.041349437

layer1.bias f4 [128]
00000000: 9320 953d 237d 55bb d4ae e7bb 059e fbbd
00000010: 54d1 763d b8e3 573d db1d 023e 7e5a 8cbd
00000020: 0694 a13c a18b 2fbd 67a4 2a3e 2a1b acbc
00000030: a6e3 b03d 352c bcbb 6210 89bd 34cc e03d
00000040: d3ee 3ebd 4fff 933d 85e5 bf3c ca7b 9e3d
00000050: 1c8d 86bc 650e 023c 2a47 753d b039 9ebc
00000060: fc0e 34bd 5194 c03a 6b81 063e 0bb0 4ebc
00000070: 3253 42bd 218d 28bd a28e 563d cbd4 3abd
00000080: 2eeb 473c 09ba eebc 9516 09bc 5406 cfbd
00000090: 3198 6e3d 4064 9d3d ffb8 a53c f90d 9a39
000000a0: 8052 0b3d 2dbc 7ebd 0377 9f3d 0a37 0abb
000000b0: e2fa e9bd 8103 2d3d ea85 db3d 2ca2 09be
000000c0: b0cc 02be 7437 8d3d d197 003d ab9e 6f3d
000000d0: b8b8 ce3d 1200 3fbd 2a49 043d 18e9 4b3c
000000e0: 3720 833d 064b bc3c eeb9 b63c f632 83bd
000000f0: b93c 47bc 49d6 7fbc a49d 893d 79b7 f8bc
00000100: 96f0 f83d 14f8 7b3c c136 9fbd bcb2 04be
00000110: 71cb 973d 93fd a9bd 44b8 e93b f74f e9bd
00000120: e1af babd 65c2 47bd 7b41 e23d dea2 90bd
00000130: f102 303e d17c dbbc ace4 733d c7d0 4b3d
00000140: a7d0 22bc 4699 bb3d f026 1d3d c647 0c3d
00000150: 2f60 b1bd f73d 943d f437 213c 50f8 feba
00000160: 1825 c9bd a546 363d d115 5b3d 3054 903d
00000170: fa2a 223e 341d 6cbc 8ff1 b3bd 8bfb c63d
00000180: 327e 183d be40 7a3d 37a2 04bd 1bf5 fe3d
00000190: 193d 49bd 5074 e93d 8ec3 4bbd 1fe8 2b3d
000001a0: 36ee d3bd 4b36 463c 8289 b8bc 3ad4 aa3d
000001b0: df04 29be 7670 a23c 09df f73c 5ac1 7fbd
000001c0: 757a 4cbd 4c1f 9dbd badd 19bd c06d 303d
000001d0: e52b f43d cee6 a93c d662 7abd 3482 383c
000001e0: 7e68 d3bc 1901 823c 46dd 9e3d 7b36 3fbd
000001f0: 82e8 0a3e c07d d7bd eceb b4bd 7c5b 86bc
0.07281604 -0.0032575808 -0.0070704017 -0.12285999 0.060258225 0.052707404 0.12706701 -0.068531975
0.019723903 -0.04285777 0.16664277 -0.021009047 0.086371705 -0.0057425746 -0.06692578 0.10976449
-0.04661448 0.072264306 0.023424873 0.07738455 -0.016424708 0.007938002 0.05988232 -0.019314617
-0.043959603 0.0014692639 0.13135307 -0.012615214 -0.047442622 -0.041150216 0.05238212 -0.04561309
0.012202067 -0.029141443 -0.0083672 -0.10108629 0.05825061 0.07685137 0.020229815 0.0002938358
0.034014225 -0.062191177 0.077863716 -0.0021089935 -0.11424805 0.04223967 0.107189015 -0.1344077
-0.12773395 0.068953425 0.031394783 0.058500927 0.10093826 -0.046630926 0.032296337 0.012445711
0.06402629 0.022984993 0.022305455 -0.064062044 -0.0121604735 -0.015615054 0.06719521 -0.030360924
0.12155263 0.015378971 -0.07774115 -0.12958807 0.0741185 -0.083003186 0.007132562 -0.11392205
-0.091155775 -0.048769373 0.11047646 -0.070623145 0.17188622 -0.026792916 0.05954425 0.049759652
-0.009937442 0.09160094 0.03836721 0.034248136 -0.08660924 0.07238381 0.00984 -0.0019452665
-0.09821528 0.044500966 0.053487603 0.070473075 0.15836707 -0.014411259 -0.08786308 0.09715947
0.037229724 0.0610969 -0.032381263 0.12449094 -0.049130533 0.11399138 -0.049747042 0.041969415
-0.103481695 0.012097905 -0.022526506 0.0834126 -0.16505764 0.019829016 0.030257719 -0.062440254
-0.04992147 -0.07671985 -0.03756497 0.043073416 0.11922435 0.020739939 -0.061129414 0.011261512
-0.025806662 0.015869664 0.07757048 -0.046682816 0.13565257 -0.10522032 -0.08834061 -0.016401045

layer2.weight f4 [64, 128]
00000000: 2516 77bb 3d79 d93d 8382 e5bd 1289 07bd
00000010: fa96 81bc 43e3 b93c d2ef c33d f9a8 3e3d
00000020: 1643 763d f514 953d 066e e83c 6cd7 f1be
00000030: 79e1 6c3e 8884 703d 668c 19be 014e 363d
00000040: 5406 503d 426e d5bc 22bf 32bd f7aa 963c
00000050: 7a4c c8bd 58f6 64be 9f61 d73c a892 67be
00000060: 7083 e0bb 6e81 34bc da02 4a3d 27e3 21be
00000070: 618a c2bc 19a4 ef3c b39f 293d 8680 af3d
00000080: 966c 03be 5547 acbd 2492 863c 09aa bbbc
00000090: ee7c a33c f783 bfbe 12df 783d 3110 34bd
000000a0: cffa debb 8489 2abc 2a67 8abd 3c34 d0bc
000000b0: ffcb a0be 4a6d d63a 2365 393d 41f2 c4bd
000000c0: 57d3 c8be af35 41bc 481d 22be 942b 80bc
000000d0: dda8 843d 91c2 8a3c 2fd9 1f3c 85e9 403e
000000e0: 768d c5be 626a 373e 3266 e03d 3da9 0ebe
000000f0: f88c d13d faf3 b53c 583e 053e dd27 b7bd
00000100: d3dd 6b3d 9faa 3ebd 54dd 54be 872b da3c
00000110: a591 6bbe 7133 bc3b 2e4e 20bd 6f96 70bc
00000120: f732 e2bc 85f4 b43d 63a7 143e b8d6 c53c
00000130: 5cb0 59be 76da 0cbe 34f6 50be 2f3c 10bd
00000140: bff4 053e 2e43 c0bd 7f6f 74be 0d66 a73d
00000150: 65f8 ac3c 0397 54bc 2274 abbc e04f c5bd
00000160: 9479 8abc e442 dc3d 244f fcbb 0cfb 0d3d
00000170: 219e a93d 7941 563d ce74 56bc e539 9c3d
00000180: 8e3a 953c 58b4 c23d 67e2 b2bd cb45 afbc
00000190: fecc 68bd 207a 63bd 8ce0 bcbc 6309 ce3b
000001a0: f908 f6be f810 e2bb 9669 2fbc 60dd 0fbf
000001b0: 90e7 bbbe 8666 16be ee38 99bb 412f 853e
000001c0: f974 5c3a 40d9 2fbd 87dd a5bb 1616 373c
000001d0: 95ab ecbd dc7b 30be c2cd 83bd e98b adbd
000001e0: 85f5 e83b 59c6 4fbe 92fe ed3c 8e86 b73c
000001f0: 55ac 573c 316d 91bd f287 49be 7a30 803d
00000200: 8775 1f3d 1e02 913d 9f74 053d cbea 44be
00000210: 25c3 ce3c b813 163b e7bd 3fbe 196b 283e
00000220: c058 dfbd 995a 963e 8f39 07be 68c5 d3bd
00000230: d6bc 0bbe 085b e33c 611d 8cbd fc4a cf3c
00000240: 7e93 adbe 0e64 153d be8c 443d 9e62 aebb
00000250: 4daa 193d 6a8d bbbe 680a 023d 591e 4abc
00000260: 7ead 2b3d 30a6 ec3d 2e81 b0bd f80b 16be
00000270: 9ab7 3dbc fc63 45be 4b2c 78bc 5050 8dbd
00000280: 39f9 a7bc 1c67 b1be de9f 58bc e1c1 8cbb
00000290: 8fb7 d93d e199 94bc 56c1 85bd 036b 48bf
000002a0: 222f 8ebd 8db3 ef3c cd7e 23be 9f76 443e
000002b0: 2817 62bd 4ee8 3b3d d8aa b63d 0710 4a3c
000002c0: 4ff1 23be 45f9 0e3d deac 8dbb f1db d13c
000002d0: 1537 153e a52b 713d b233 ae3d 6ca6 dbbd
000002e0: 388b b3bd 129a c73d 2783 703d 65bf 81be
000002f0: 1c12 b33d 2844 39be dd98 193e d7a9 1abc
00000300: 43e5 f23c a246 e3bc acf8 8f3d bf8d f4bb
00000310: 9e35 083d 9138 b2bc 1e0b 98bd 2b0a 68bd
00000320: 0189 2cbd cdb3 4d3d 7753 f33d ce70 db3c
00000330: 78ae 2c3d cb7f 45bd bd64 ccbd 87be a83c
00000340: 723c e43d 9fb5 acbe 56e7 14be 3ff2 423c
00000350: a031 52bd f179 cf3d 9007 bfbd 7929 2b3e
00000360: f85d 9d38 b165 83bb 4a19 af3c 0bc2 063e
00000370: da66 32bc 110d e0bc 5387 7fbe e590 83bd
00000380: 0982 62bd 5a38 8c3d 95d4 60bd b885 00bb
00000390: ef3d b73d a022 b33d a3a6 ae3d dfb2 e5bc
000003a0: 9758 a1bf 8cfa adbb 3f91 813c cf73 33bf
000003b0: 99de 49be b079 7bbe 3ac3 81bb 5ab8 943d
000003c0: 54f6 49bd 3056 a5bd 9fb3 903c 3d0a f3bb
000003d0: 2a3c d63d 33bf d1bd 1683 dc3c b165 0ebf
000003e0: e91c 1b3d acb9 81be 0230 873d fd26 813d
000003f0: 67bd 20bd 7d88 a73c b303 28be 278c 173c
-0.0037702408 0.106188275 -0.11206534 -0.033089705 -0.015819062 0.022691375 0.095672265 0.046547864
0.060122572 0.07279388 0.028372776 -0.47234666 0.23132886 0.05872014 -0.14994964 0.044507984
0.050787285 -0.026053552 -0.04363931 0.01839207 -0.09780212 -0.22359598 0.026291667 -0.22614539
-0.006851606 -0.011017187 0.049319126 -0.15809308 -0.023747625 0.029253053 0.041412067 0.08569436
-0.12834391 -0.08412043 0.016427107 -0.022908228 0.019957032 -0.3740537 0.06075961 -0.043960754
-0.006804801 -0.010408763 -0.06757958 -0.025415532 -0.31405637 0.0016359475 0.045262467 -0.09616519
-0.3922374 -0.011792584 -0.15831482 -0.01564578 0.064775206 0.01693848 0.00975637 0.1883908
-0.3858449 0.17911676 0.10956992 -0.13931747 0.10231966 0.022211064 0.13012064 -0.0894315
0.057584595 -0.046549436 -0.20787555 0.026632084 -0.23004778 0.005743437 -0.039137058 -0.014684304
-0.027612193 0.08835701 0.14516978 0.024150237 -0.21258682 -0.13755211 -0.20406419 -0.035213646
0.13081644 -0.093878135 -0.23870657 0.081737615 0.021114537 -0.012975457 -0.0209294 -0.096343756
-0.016903676 0.10754946 -0.007699864 0.034663245 0.08282114 0.052308533 -0.013089372 0.0762823
0.018216398 0.09507054 -0.08734589 -0.021395585 -0.05683612 -0.05553639 -0.023056291 0.00628774
-0.4805372 -0.0068989955 -0.010706326 -0.56197166 -0.36700106 -0.14687547 -0.004675976 0.26012614
0.0008409764 -0.042931795 -0.0050618085 0.011174699 -0.11556164 -0.17234749 -0.064357296 -0.08473951
0.0071093463 -0.20290507 0.029052053 0.022403028 0.013163646 -0.07100905 -0.19680765 0.06259246
0.038930442 0.07080482 0.03258192 -0.19230191 0.025239537 0.0022899937 -0.18724786 0.16447105
-0.109055996 0.29365996 -0.1320555 -0.10340387 -0.13646254 0.027753368 -0.06841541 0.02530431
-0.3390159 0.036472373 0.047985785 -0.0053218147 0.037515927 -0.36631328 0.031748205 -0.012336337
0.041913502 0.11555135 -0.08618389 -0.14653003 -0.011579419 -0.19276422 -0.015147279 -0.06900084
-0.02050458 -0.3464898 -0.013221709 -0.004295573 0.10630714 -0.018139781 -0.065310165 -0.78288287
-0.069425836 0.029260421 -0.1596634 0.19185875 -0.055197865 0.04587584 0.089193046 0.012332923
-0.1601002 0.03490569 -0.004323586 0.025617572 0.14571793 0.058879513 0.08505954 -0.10725102
-0.08766788 0.097461835 0.058718827 -0.25341335 0.087436885 -0.18092406 0.14999719 -0.009439907
0.029650336 -0.027743641 0.07029852 -0.0074631865 0.03325426 -0.021755489 -0.074239954 -0.056650322
-0.042122845 0.0502203 0.11881154 0.026787188 0.042158574 -0.048217576 -0.09980152 0.020598663
0.111443415 -0.33732316 -0.14541373 0.011898576 -0.051316857 0.1013068 -0.09327614 0.1671504
7.5038464e-05 -0.0040099253 0.021374363 0.13159959 -0.01088878 -0.02734998 -0.24953966 -0.06424121
-0.055299792 0.06846686 -0.054890234 -0.0019610953 0.0894736 0.087468386 0.08527877 -0.028039394
-1.260516 -0.0053094085 0.015816329 -0.70098585 -0.1971382 -0.24558139 -0.0039600404 0.07261725
-0.049307182 -0.080730796 0.017663775 -0.007416992 0.10460694 -0.102415465 0.026917975 -0.5562392
0.037869368 -0.2533697 0.06600954 0.063062645 -0.03924313 0.020450825 -0.16407661 0.0092497235

layer2.bias f4 [64]
00000000: a9cc c53d 7c90 e53b 54dd f2bc 3373 28bd
00000010: e41d 31bc 2978 333d c895 4fbd 34f7 8a3b
00000020: 7a9c e03c e5db ffbc 04a0 26bb a10a 0fbc
00000030: af59 8a3c 07bd 7d3d d4ec b73b 08c2 4c3c
00000040: 5d52 68bd 0b71 153d 1feb ed3d 18a8 dfbc
00000050: dc53 afbb 3a12 493c bba7 d33d c8e1 01bd
00000060: c417 da3c 1555 d1bc 03dc 6c3c 3321 823d
00000070: 2614 32bc cc80 04bd 2d19 e83d 3b05 4b3c
00000080: e1ce bcbc 0a50 593d 64f3 3c3d 9617 91bc
00000090: 6d01 b43d 32e0 6bbd dba2 673b 8673 c03d
000000a0: 0307 b33c 7321 f83a 48c4 573d dd06 46bd
000000b0: ade6 513b 4776 2cbd 3662 90bd 5285 f53d
000000c0: 4105 fcbb 9ad2 383b cf09 28bd 467d da3c
000000d0: 9811 6e3d 49c9 a93d 5d45 fdbc 4f99 3f3d
000000e0: 934d 803d bd63 533d 00c4 54bb d434 e03c
000000f0: 13fa 523c e23e 7abb 4d80 8cbc 1989 023e
0.096581765 0.0070057493 -0.029646553 -0.041125488 -0.010810349 0.043815766 -0.050679952 0.0042408947
0.027418364 -0.031232784 -0.0025424967 -0.0087305615 0.016888468 0.06194785 0.005612949 0.0124974325
-0.056719173 0.03648476 0.116171114 -0.027301833 -0.005350573 0.012272412 0.103347264 -0.031709462
0.02662266 -0.025553266 0.014456752 0.063539885 -0.010869062 -0.032349393 0.11332927 0.012391384
-0.023047866 0.053054847 0.046130553 -0.017711442 0.087893344 -0.057586856 0.0035344872 0.09397034
0.02185393 0.0018930867 0.052677423 -0.04834639 0.0032028363 -0.042104986 -0.07049982 0.119883195
-0.007691056 0.00282017 -0.04102498 0.026671063 0.058122247 0.08290345 -0.030916864 0.046777066
0.06264796 0.05160879 -0.0032465458 0.02736894 0.012877005 -0.0038184454 -0.017151022 0.12747611

layer3.weight f4 [4, 64]
00000000: a00c c43e c8a4 853e 1e19 083e 81b4 b73e
00000010: c1a4 8ebe b797 a93d 19b8 11be e0fa 34be
00000020: a734 b73e 68cb 2fbe b449 33be b34b 16be
00000030: b23c 4b3d fca4 173e 0b68 a53e 99f9 1d3e
00000040: 8064 52be 6817 983e 5b7c 603d 0853 02be
00000050: 1500 07be f418 6fbe dc8d d93d ac14 d1bd
00000060: 6ae3 513e f8a4 8abd be0e c93c 9744 c43d
00000070: 4b65 763e add5 ca3d 0257 593d d370 653d
00000080: 51f8 8d3e 9c15 6f3d 0297 233d dfe2 51be
00000090: 772b 433e adf5 86be d326 a33e ba20 543b
000000a0: 2a22 09be 0167 4b3d 0461 533d ecf8 793e
000000b0: 7306 04be f48a 62be 370c 57be 13b5 713d
000000c0: a04e 313e affc bdbd 47b7 0ebe 5c87 ea3e
000000d0: d825 4a3e ae4a 533e 0e2a 09bc 4262 f43d
000000e0: 0b9b e23e d735 8e3d 6504 993d e3f6 403e
000000f0: f331 2ebd 1107 aa3d 66d1 dfbd 1296 853d
00000100: fc42 c13e c2e3 a73e 64a5 fc3e e563 3b3e
00000110: d304 0fbf d735 3d3e 14ac 803d 65d8 4dbe
00000120: 654d c33e e4df 2fbe a3fc 2abe 497c 5abe
00000130: 4e4a e13d a831 003e ecd3 a43e cadd c83e
00000140: 9799 3dbe 9725 5c3e f8af d03d 66d7 47be
00000150: eda3 c2be d0ee fdbe 777c ef3d 76bf 1abe
00000160: c7a6 783e 119a 25be 61cb 093e 8d90 b83d
00000170: b598 cb3e b09a f1bd 5257 803d a38f 1d3e
00000180: 2e58 913e 581e ff3d 16e5 ff3d 98f0 78be
00000190: 766a 293e 86aa 01be 7fd9 dabd 568b ac3d
000001a0: d279 3abe 7c19 133e 5c3b 393d 617c cf3e
000001b0: 052c 57be b97b abbe ebdf 80be 8778 4a3d
000001c0: 3341 7c3e 3e63 18bf 066d 54be 7cca ec3e
000001d0: c12d a73e e9e8 023e 0da0 073b 836f 223e
000001e0: f992 d03e 08f5 7f3c de41 89bc a270 323e
000001f0: fa55 51be bb82 7e3e 343b 39be ddce 783d
00000200: f614 c83e 3d1c b83e 82d7 9e3d fa60 943e
00000210: f8f1 89be 7040 a93d d276 4bbe 6c51 49be
00000220: efda b73e bf6c 20be 8113 2ebe e7e0 23be
00000230: 0059 4c3c d0d2 343e 08ea a43e 0936 923d
00000240: 5b12 5fbe 0ca2 9e3e 4aa1 333d dafe 0dbe
00000250: f2a6 cdbd 0ec2 68be 74e0 d03d e299 07be
00000260: cb1a 313e 5f51 83bd 4cd8 0cbc b29c 083e
00000270: 2595 6b3e eaba f13d 2f8d ca3d 62c4 ac3d
00000280: 967e 983e 3769 1f3d 3d76 2a3d 68db 82be
00000290: 174e 2b3e a403 52be ccf0 903e e755 813d
000002a0: 22bc e4bd 20e5 3f3e b5d4 493d 8be9 913e
000002b0: beb1 08be 03d8 40be de99 5cbe 4fe8 003d
000002c0: fcaa fb3d e247 8fbd 39f7 00be 7322 e93e
000002d0: b999 123e 5fc1 643e 30c1 8dbc f746 cf3d
000002e0: 017f cf3e 09bf 513c 1f3b 263d 4f62 4d3e
000002f0: b434 51bd 1481 b43d b542 acbd 198c b2bc
00000300: aec7 b63e 3fe3 193e d8b7 0a3e b291 e53e
00000310: e2a7 83be 6e5d 9e3d ac02 d9bd 01be 2bbe
00000320: 06a3 bb3e d14d 34be 626a 39be b993 23be
00000330: 3cf0 a93d aa45 013e b994 a63e 6c23 5b3e
00000340: 1157 5abe a410 953e a593 693d 5f59 f9bd
00000350: 3e2f 01be be0f 4dbe 2e61 de3d 32ea 91bd
00000360: a028 683e a2e1 90bd e263 0b3d 3fb0 a13d
00000370: a9d2 5e3e 9144 d83d 5e36 2d3b ac29 3c3d
00000380: 61d9 833e 8ded 8f3d 0b95 413d 8762 40be
00000390: c398 5a3e e66c 96be 753e c33e 0b23 1bbd
000003a0: a13c 1abe bb6d c1bd acf4 a43d 2351 3f3e
000003b0: 4204 dcbd 06b4 6cbe 535c 53be b547 9d3d
000003c0: 51a2 623e 985f 7bbd a132 0cbe 9828 eb3e
000003d0: 986a 3b3e 32e9 443e 9ebf 4fbd 6951 033e
000003e0: 4e8c e93e 12bb cb3d 9812 f93d f762 413e
000003f0: 7ae5 c4bc e721 8b3d 9b05 13be 6ff8 cd3d
0.38290882 0.2610228 0.13290831 0.358799 -0.27860072 0.082808904 -0.14230384 -0.17673826
0.35782358 -0.17167437 -0.17508584 -0.14677314 0.04961843 0.1480903 0.3230594 0.15427245
-0.2054615 0.29705358 0.054806095 -0.12726986 -0.13183625 -0.23349363 0.10622761 -0.10209021
0.20496908 -0.067697465 0.024543162 0.09583395 0.24062078 0.09904037 0.053061493 0.0560158
0.27728513 0.058370218 0.039938934 -0.204967 0.1905955 -0.2635931 0.31865558 0.003236814
-0.13391939 0.04965878 0.051606193 0.24411362 -0.12893085 -0.22123319 -0.21000753 0.059010576
0.1731515 -0.09276711 -0.13937102 0.45806396 0.19740999 0.20633957 -0.008371843 0.11932804
0.44258913 0.06943863 0.07471541 0.1884418 -0.042528104 0.08302129 -0.109286115 0.06522764
0.37746418 0.32790953 0.49344933 0.18299825 -0.55866736 0.1847757 0.06282821 -0.20102079
0.38144985 -0.17175251 -0.16697936 -0.21336474 0.110005006 0.12518942 0.32192934 0.39231712
-0.18515621 0.21498714 0.101898134 -0.19515762 -0.3801569 -0.49596262 0.11693662 -0.15112099
0.2428237 -0.16172053 0.13456489 0.09011946 0.39764944 -0.117970824 0.06266655 0.15386824
0.28387588 0.124569595 0.124948665 -0.24310529 0.16544518 -0.12662706 -0.10686015 0.08425014
-0.18210533 0.1436519 0.045222625 0.4052458 -0.21012886 -0.3349283 -0.25170836 0.04943135
0.24634247 -0.5952643 -0.20744714 0.46248233 0.32652095 0.1278416 0.0020694763 0.15862851
0.4073713 0.015622385 -0.01675504 0.17425779 -0.20442954 0.24854557 -0.1808899 0.060744155
0.39078492 0.35959044 0.077559486 0.28980237 -0.2694242 0.082642436 -0.19869545 -0.19659966
0.3590922 -0.15666483 -0.16999628 -0.16003762 0.012472391 0.17658544 0.32209802 0.07139213
-0.21784346 0.30983007 0.04385499 -0.1386675 -0.10041608 -0.22730276 0.10199061 -0.13242295
0.17295377 -0.06412005 -0.008596491 0.13341025 0.23006113 0.11803229 0.0989021 0.084358945
0.29784077 0.0389187 0.041616667 -0.2555802 0.16729008 -0.20509201 0.28308713 0.06315213
-0.11168696 0.18739748 0.04927512 0.28498492 -0.13349053 -0.18832402 -0.2154307 0.031471547
0.12288472 -0.069961324 -0.12594308 0.45534095 0.14316453 0.2233939 -0.017304033 0.10120957
0.40526584 0.012801894 0.040583726 0.20057033 -0.051075652 0.08813682 -0.08411161 -0.02179532
0.3569922 0.15028094 0.13546693 0.4483772 -0.25714022 0.07732664 -0.10596213 -0.167717
0.36647815 -0.1760781 -0.18106988 -0.1597432 0.08297774 0.12624231 0.3253534 0.21400231
-0.21322276 0.29114258 0.05702557 -0.12175249 -0.12615678 -0.20025536 0.10858379 -0.07124747
0.22671747 -0.07074286 0.034030803 0.078949444 0.21760048 0.10559953 0.002643011 0.04593818
0.25751784 0.07027731 0.04726128 -0.18787585 0.21347336 -0.29379958 0.38133588 -0.037875216
-0.1506219 -0.094447576 0.0805448 0.18683295 -0.107429996 -0.23115548 -0.20640688 0.07679693
0.22132231 -0.061370462 -0.13691188 0.45929408 0.18302381 0.19229582 -0.05071985 0.12824024
0.45614856 0.0994779 0.121617496 0.18885408 -0.024035204 0.06793576 -0.14357607 0.100571506

layer3.bias f4 [4]
00000000: 2d8f 0d3e 4fae ef3d eccf 153e 49d1 0b3e
0.13824148 0.117031686 0.14630097 0.13654055
