models/model_2/nets/600_target_net.pt (torch, 46990 bytes, 6 tensors)

layer1.weight f4 [128, 19]
00000000: c99e 913d f0f8 4e3e 4a49 3abe 2153 f2bd
00000010: 93b4 e5bc 3d95 d9be 5ed6 87bd 8ee0 e13c
00000020: 24db 8d3d bd36 c1bc 00b9 44bb 6610 57bd
00000030: 1c24 cebd 2c7d ab3d d102 0bbc 1806 113c
00000040: b656 dabd 2cb9 c03c 9fa6 303d abd0 a3bd
00000050: 4b8d 273d 3257 afbd 2059 ec3c ab12 4f3e
00000060: 7855 d2be d8b4 573d c6e7 a3bd 42bb 313d
00000070: 85e1 fb3c bff5 08bd dc59 8d3a 09e3 abbd
00000080: bd4a 403e 5217 87bd cd18 a8bd 3d0c e3bc
00000090: 2779 a5bc f868 af3d e8dd 833d 2e86 8a3d
000000a0: 06dd 80bc 6e8d 2bbe 5bcf 1cbc b170 ba3d
000000b0: 9f48 50be 57f1 59bd 3f45 2cbd 9ab3 4ebd
000000c0: 8a8e 1fbe 328c 64bd 7134 6f3d 89e6 c7bd
000000d0: 8af1 93bd 9764 5c3c 0fb3 14bd a932 9cbc
000000e0: fdce a43d a987 6fbd 62d1 64bd c2be 293e
000000f0: 602c d73d 1a62 b33d 05cb 583e 6c19 4d3c
00000100: 3604 43bc 2c4b ab3c 3c0c 423c 4f2f a9bc
00000110: 52be 673d 59c8 39bc 1f57 cb3d 8a91 0fbe
00000120: 3dbc 0fbe 849a 18bd b67f b8bd 2ffe 32bd
00000130: 518b b9bd 76cb 323d 8e8d 443d 3dfe df3d
00000140: 0256 563e 0c88 70bd 8faf 73bd 1947 b03d
00000150: d506 6b3d 76ac 0f3c a52e aebd 30ff 84bd
00000160: 8609 ccbd ff34 c1bd 6cdf 56bd 94f2 613c
00000170: fd3c 38bb 54c4 d5bc 5a2a 8bbd eb6e 293b
00000180: ebff 95bd 8b36 c53d b321 ed3d a84b afbd
00000190: e55b 0a3c 7bf7 6bbd 8401 f5bd e1af c2bd
000001a0: 9c3e 62bd 79da a0bd 119e 9ebd 8346 94bd
000001b0: 2639 823c 4463 3dbd b6e4 513d 7ff9 94bc
000001c0: 7d47 803c 88a9 79ba 0ac1 bebd cc85 c53d
000001d0: e1e8 9a3c 8c6e da3c 542b 873d 693b 97bd
000001e0: 8524 a2bd 34d1 d7bd 15c7 2fbd d8a6 963b
000001f0: 6363 9e3c 672a d13b b5e1 2b3d edb8 a8bd
00000200: 68fd d5bc 4e1d 0e3d 3802 27bc b18b 97bc
00000210: 8faa 913c 8ca5 97bd af35 a8bc 9a78 463d
00000220: df0d 30bd 393d 90bd aaf0 e43e 0c75 71bd
00000230: 5d3e af3d d780 973c 086d 87bb 96a1 143b
00000240: 0d07 253b d17a a6ba c2cd e1bd 691d a2bd
00000250: b4cf 6dbd 6347 053d 159d 99bb 7508 83bd
00000260: a92a 003e 9503 923d f49c 05bd 1e88 4b39
00000270: 3ec2 5dbe 9d82 18be 5d01 f0bd 3882 47bd
00000280: e188 ce3d 8cc5 503c 48d7 743c a6cb 43be
00000290: 877b 11bd 47d8 6b3e d6a1 073e 6fef b23d
000002a0: a9b9 523d 78a3 b43c 9801 90bb 7727 4f3d
000002b0: f945 02bd ff01 853d 6492 763b 686a a8bd
000002c0: fb5b 023d 35ed 54bd aa9b 66bd 142c d2bd
000002d0: 1c01 0ebd 25a8 873d 44e3 573c 2efc 8c3c
000002e0: 18b6 b83b e66d afbc c365 d2bc 222d ec3d
000002f0: 0814 d63d 9f79 d13d 65bf 57bd d13e c63c
00000300: eab9 003d 7e69 113c ff4d 8a3c 9af1 bebe
00000310: 3f25 183d d872 d8bd 23a5 7bbd d87f d6bb
00000320: 3242 2c3c 6cf8 83bc fd2f d13c 8aef 90bd
00000330: d29a a9bb dc62 823d a34a 373d 07dd 32bd
00000340: 8df4 7f3b 3548 1abc 6b78 87be dfc7 7dbe
00000350: a24d 3fbc 1cf6 653d b956 e03e 44e8 643c
00000360: 4d35 573d c08b 2d3d ee57 073a ba7e ca3c
00000370: 13b9 c2bb a811 e2bb 5f56 21b9 afd0 9dbb
00000380: 1fe4 6dbd 1906 f9bb 4c63 af3d 836b 8d3d
00000390: 9596 ce3b 53c9 0bbe c779 283d c63d 323d
000003a0: 3372 de3d 9993 3a3e a9b4 e3bd e0d0 243d
000003b0: bc1a 0bbb 31fe a03c fa54 89bc 3300 8b3d
000003c0: a9a7 24bd 7be6 08be 6ee3 be39 162c c2bd
000003d0: d292 6f3b e242 90bb 6e65 cbbd 5bfc eb3d
000003e0: 52f0 a93c ed06 90bd 1884 c3bb 2d2a afbe
000003f0: e3b1 083e 90af 3bbd 21f4 1b3d eecc 433d
0.07110364 0.2021215 -0.1819202 -0.11832262 -0.028040206 -0.42496672 -0.06632684 0.027572896
0.069265634 -0.023585672 -0.0030017495 -0.052505873 -0.10065481 0.08373484 -0.008484558 0.0088515505
-0.1066107 0.023525797 0.043127652 -0.07998785 0.04090623 -0.08561553 0.028851092 0.20221965
-0.41080832 0.0526627 -0.08003192 0.043391474 0.030747185 -0.033437487 0.0010784226 -0.08392913
0.1877851 -0.06596245 -0.082078554 -0.027715797 -0.020199372 0.08564943 0.0643881 0.06763874
-0.015730392 -0.1675317 -0.009570922 0.091035254 -0.20340203 -0.053208675 -0.042058226 -0.05046425
-0.15581718 -0.055797763 0.05839962 -0.09760768 -0.07223804 0.013451717 -0.036303576 -0.019067125
0.080472924 -0.058478985 -0.055863746 0.16576675 0.10506511 0.08758946 0.21171196 0.012518268
-0.011902859 0.020909868 0.011843737 -0.020652441 0.056577988 -0.0113392705 0.099287264 -0.14020362
-0.14036651 -0.037256733 -0.09008734 -0.04369944 -0.090597756 0.043651067 0.04798656 0.10937164
0.20931247 -0.058723494 -0.059493598 0.08607311 0.057379562 0.008769145 -0.085049905 -0.06493986
-0.09962754 -0.09433936 -0.052459165 0.013790745 -0.0028112524 -0.026094593 -0.06795187 0.0025853466
-0.07324203 0.09629544 0.11578693 -0.08559352 0.008444761 -0.057609063 -0.1196318 -0.095062025
-0.05523549 -0.0785417 -0.077449925 -0.072400115 0.015896391 -0.046237245 0.051243506 -0.018185375
0.015659088 -0.00095238583 -0.09314163 0.0964466 0.018909873 0.026664041 0.06600061 -0.073843785
-0.07917122 -0.10537949 -0.04291447 0.004597526 0.0193345 0.0063832286 0.041963298 -0.08238397
-0.02612181 0.034695916 -0.0101934 -0.018499227 0.017781524 -0.074046224 -0.02053341 0.04845486
-0.04298198 -0.07042927 0.44714862 -0.058949515 0.08556817 0.018494053 -0.0041328706 0.002267932
0.0025181205 -0.0012701397 -0.11025573 -0.07915766 -0.05805941 0.032538783 -0.004687915 -0.063980974
0.12516274 0.071295895 -0.032620385 0.00019410296 -0.21656129 -0.14893575 -0.1171901 -0.04870817
0.10084701 0.012742411 0.014943905 -0.19120654 -0.035518195 0.23031722 0.1324533 0.087370746
0.05144659 0.022050604 -0.0043947212 0.050574746 -0.031805012 0.06494521 0.0037623877 -0.082234204
0.031826 -0.05198403 -0.056300797 -0.102623135 -0.034669027 0.06623868 0.013176743 0.017210092
0.0056369416 -0.021414708 -0.02568329 0.11532046 0.104530394 0.102282755 -0.052672762 0.024199875
0.0314273 0.008875249 0.016882895 -0.37293702 0.037144896 -0.1056878 -0.061436784 -0.006546002
0.010513829 -0.016109668 0.025535578 -0.070769385 -0.0051759267 0.06366512 0.044748913 -0.04366782
0.0039055676 -0.00941663 -0.2645906 -0.24783276 -0.011676224 0.05614291 0.43816164 0.013971392
0.052541066 0.042369604 0.0005162944 0.024718631 -0.0059424727 -0.0068990774 -0.00015386332 -0.004816137
-0.05807888 -0.007599604 0.08563861 0.06905272 0.006304572 -0.13651018 0.04113176 0.043515943
0.108616255 0.18220367 -0.111184426 0.04023826 -0.0021225652 0.019652458 -0.016764153 0.067871474
-0.040198956 -0.13369171 0.00036409072 -0.09481065 0.0036556018 -0.0044025043 -0.099314556 0.11522742
0.020744476 -0.07032571 -0.0059666745 -0.34211865 0.13349108 -0.045821726 0.038074616 0.047802858

layer1.bias f4 [128]
00000000: 0741 843d 5e78 7d3c 5d55 1a3c af4d e6bd
00000010: 6657 723d 9916 773d 1e79 003e 0f7c d4bd
00000020: 2469 e33c 3289 3abd 18c7 2c3e d7fc abbb
00000030: fabc ab3d 3bb7 003c 9395 85bd 1805 d63d
00000040: ae5a 19bd 425f 783d 42c8 903c 88e7 a23d
00000050: 394a ffbc 3f59 ebbb 9ac2 563d e361 9cbc
00000060: 6da4 17bd 866c bb3c ef31 163e 437f b2bc
00000070: f6b0 13bd 75c7 d6bc e515 383d bb4d 48bd
00000080: fa8d c7bb 21ad 03bd cb12 993a e202 c1bd
00000090: a9ba 513d 6f48 a13d 5410 cc3c a750 153d
000000a0: 6720 c83c a07b 56bd 1d9d e23d 0a96 983b
000000b0: eef6 e5bd d23c 043d b452 b93d ee1b 1dbe
000000c0: e786 13be 8659 5d3d b8dd 1c3d cab2 9e3d
000000d0: 6f20 ce3d de28 6ebc 66bf 233d de6d 4f3c
000000e0: 7455 a03d cc68 df3c e57f 7d3c 73cb 62bd
000000f0: 54f6 673c a3d4 0ebb 7f21 4d3d 718d aebc
00000100: df19 e23d 2e5a db3c f7c4 c2bd f195 13be
00000110: 8f52 953d 3571 90bd c529 5e3c 1575 0abe
00000120: ba4d dbbd 9065 e3bc c4b6 e83d d616 19bd
00000130: 8e7d 563e db4b 303d fe66 a53d 2fc0 6c3d
00000140: a637 fb38 632d 9c3d f6f9 213d 7fa6 193d
00000150: 96e4 c7bd c088 8d3d ceda 16bc 94fe 1abc
00000160: e169 a9bd 89ed 253d b7ad e33c c621 993d
00000170: 827c 393e 0129 a8bc bb55 bfbd 9456 ad3d
00000180: 9d6e 0c3d e600 9e3d d54a 2abc 96a7 053e
00000190: 20e2 8cbd 7d52 f63d df71 2cbd 5e3c 573d
000001a0: 95ea b3bd a7f8 273c f18c 8abc a544 b33d
000001b0: 5f3e 2bbe 245f 023c eb77 eb3c 30ba 81bd
000001c0: 78fd 27bd 2512 72bd 9b32 3ebd 7468 423d
000001d0: 6fa5 c13d 0d28 1c3d 968c 95bd 129b b4bb
000001e0: c617 7ebc 4ba7 c439 d153 633d a734 00bd
000001f0: 27b9 0c3e 9ffe e3bd 76f3 bebd 5518 c1b9
0.064577155 0.015470592 0.009419766 -0.11245286 0.05916538 0.060324285 0.12546203 -0.10375225
0.027760096 -0.045540996 0.16872823 -0.0052486467 0.08385654 0.007856186 -0.0652267 0.1045019
-0.037439995 0.06063772 0.017673615 0.07954317 -0.031163322 -0.00718227 0.05243168 -0.019089645
-0.037022043 0.022878896 0.14667486 -0.021789199 -0.036057435 -0.026218155 0.044942755 -0.048902255
-0.006089923 -0.03214753 0.0011678574 -0.09424378 0.051203404 0.07875144 0.02491013 0.03645387
0.024429513 -0.05236399 0.11065123 0.004656558 -0.11228739 0.032284565 0.090489775 -0.15342686
-0.1440693 0.054040454 0.038297385 0.07748945 0.1006478 -0.014536111 0.039977454 0.012660472
0.07828799 0.02727165 0.015472387 -0.055369806 0.01415785 -0.0021794222 0.050080772 -0.021307679
0.11040091 0.0267764 -0.09510224 -0.14412667 0.072911374 -0.070528425 0.013559763 -0.13521226
-0.107081845 -0.02775839 0.11362985 -0.037375294 0.20946333 0.04304109 0.08076285 0.057800468
0.00011978978 0.07625844 0.039545022 0.0375123 -0.09760396 0.069108486 -0.009207441 -0.00946011
-0.08272148 0.040509734 0.027792795 0.07477145 0.18113902 -0.020527365 -0.09342524 0.08463779
0.034285177 0.07715015 -0.010393818 0.1305221 -0.068790674 0.12027452 -0.042100783 0.052547805
-0.08784977 0.010252154 -0.01691291 0.08753327 -0.16723011 0.007957254 0.028743705 -0.063343406
-0.04101321 -0.059099335 -0.04643498 0.047462896 0.09455382 0.038124133 -0.07302205 -0.00551165
-0.015508598 0.00037508676 0.055499855 -0.031300213 0.13742505 -0.111325495 -0.0932378 -0.00036829957

layer2.weight f4 [64, 128]
00000000: 1db5 293b 830e b33d bfdf 04be 7804 fabc
00000010: 1900 d1ba fb7f 9c3c dac4 913d 4797 c13b
00000020: 4248 58bd 2d6d 8d3d 6b42 f6bd 60a1 d5be
00000030: 9066 783e 5c06 783d a160 15be a1d7 583d
00000040: 67e2 d63c 7e42 d7bc 8260 e0bc 6a0e 233d
00000050: da0e 9cbd 22a4 90be 363a 623c ea81 76be
00000060: 2df2 bcbb 3387 51bd d6a4 033d e21f 0bbe
00000070: 8cd0 34bc c39e b63c 7d96 093d c060 f53d
00000080: 53e6 16be 760f a4bd 1e6a 2dbc 7f71 fbbc
00000090: 02c1 e23b 28eb babe 1012 463d dcf9 3bbe
000000a0: 3c6a 523b 0a82 0fbc 637f 89bd b6a1 183d
000000b0: a6f1 82be 3f92 a53c 7dee 483d 9615 02be
000000c0: ed48 b9be 9356 833c 0cdd babd 9865 08bc
000000d0: e938 993d 74a0 c2bc c951 223d bb1c 083e
000000e0: af5f 98be 6bf2 423e 29a0 d93d b351 01be
000000f0: 7dda d43d 5429 44bc cdcd 003e 2401 93bd
00000100: 8f5e e03c bb0b e5bd b184 32be eba0 8dbc
00000110: 3676 75be ef31 213d 9e27 94bc cd5f 0cbd
00000120: c622 71bd 3299 973d f6e0 2f3e 916d 6e3d
00000130: 0ffc efbd fbc9 f3be e7b6 5abe fbfc c2bc
00000140: 38ba 1b3e 515e 93bd b806 35be c8bf e23d
00000150: 5232 f63c a2ae 20bd 8ec0 cbbc e88f 09be
00000160: e4c7 68bc 5a91 cc3d cfda cebc 1938 4e3d
00000170: 4f3d c73d f95e 3a3d d723 3dbc 9a21 cc3d
00000180: 2099 183d 67e2 c83d 80b7 a0bd c5cf 96bc
00000190: 16c0 67bb 91a5 87bd 91bf 0dbd fb95 a33c
000001a0: 9ffc fcbe b706 c7bc 4176 2bbc d18e eebe
000001b0: 4c41 d8be 47d6 c6bd 59c6 803c 87b9 603e
000001c0: 2a7f acbc 5076 27bd 2b9b b1bc 91cb 463c
000001d0: aa14 02be 22df 06bf c8c3 83bd 5496 8cbd
000001e0: 7437 17bc fdeb bbbe 3211 ec3c 466c 833c
000001f0: 3d93 103c 33d4 5cbd a42c 58be a16c 543d
00000200: 054f 883c d47a d1bd 425f b13b 331a 20be
00000210: 6f15 1a3d 4a58 fc3a ef12 66be eeed 223e
00000220: ecfe 85bd c4c4 443e 9a33 a8be 675d 99bd
00000230: e47e f1bd 7127 f23c ee46 cdbc 7adc f33b
00000240: 6781 2cbe cb2f 0f3d 21ae 473d a474 2d3e
00000250: 455f 413d 074d fcbe 14f6 583d 26da 0a3c
00000260: 798b 103d 4d0d 053e b6b3 92bd ffb5 8dbd
00000270: ef49 b13d 0954 8fbe 6726 b83d 926b c9bd
00000280: fd22 5839 a6a9 a7be cfe0 e6bc b85f 113d
00000290: 1f57 9d3d 88a4 b63a 7b4f c1bd 667c 3abf
000002a0: c371 a1bd a9c4 c93c 9f4e 49be 29ae 313e
000002b0: 233a 92bc d49b ca3c ef26 aa3d dd30 3b3b
000002c0: 0290 30be eff0 af3d 81f7 d93b e10f 10bd
000002d0: 2e13 2a3e 15a8 7e3d b0fd 633d e283 3ebd
000002e0: b8f9 42be 6628 c43d 9e73 1a3d 3e56 3ebe
000002f0: 32af 9b3d 6fd6 66be 086e 133e fbb5 cb3c
00000300: 83f8 3e3d 80ae 2abd 4371 cd3d 1dad 81bd
00000310: 3d1e 983c 8add 983b b9d9 acbd 125c b3bc
00000320: 3af1 a03c b434 2d3d e411 d53d 1779 75bd
00000330: 4c77 833d f5bb bdbe a36d fbbd 2274 cc3c
00000340: f5eb c23d 20a6 aebe d26b 02be fee5 46bc
00000350: b8e8 1cbd c2ba d13d 5409 61bd 270d ec3d
00000360: 41a0 8438 5ca4 52bc c675 ff3c 1d8b f03d
00000370: 2e65 83bc 1484 98bc 63b0 93be f031 70bd
00000380: a86b dfbb 85b3 b73d 6cce b1bd cfd4 06bd
00000390: 0915 db3d c024 c33d 7b1e a53d 39e2 fe3c
000003a0: 65ac afbf b060 60bc 27bc b03b 7d10 3ebf
000003b0: 60b9 9fbe d8db f0bd 92f7 dbbc 20dd 973d
000003c0: 027b ecbc 5ed9 a8bd 09ce 42bc 8f49 e9bc
000003d0: 4620 103e bc69 31be 0747 843d a816 cfbe
000003e0: 4afc ae3c ce93 a6be 4c81 ce3d e8f7 323d
000003f0: 719a 7e3b e50d 243d 341b 87bd 638e ea3b
0.0025895305 0.08743002 -0.12975977 -0.030519709 -0.0015945464 0.019103995 0.071176246 0.0059079262
-0.052803285 0.06905589 -0.12024387 -0.41724682 0.24257874 0.06055294 -0.14587642 0.052940015
0.026231004 -0.026276823 -0.027389769 0.03980867 -0.0762002 -0.28250223 0.013807824 -0.24072996
-0.0057661743 -0.051154327 0.03213962 -0.13586381 -0.01103605 0.0222925 0.033590782 0.11981344
-0.14736299 -0.080107614 -0.010584382 -0.030693768 0.006919981 -0.36507535 0.04835707 -0.18357033
0.0032106778 -0.008759031 -0.0671375 0.037263595 -0.25574988 0.020211337 0.049055565 -0.12703547
-0.3618845 0.016032493 -0.091241926 -0.008325003 0.07481558 -0.02375815 0.039628778 0.1329221
-0.297605 0.19037788 0.10626251 -0.12628822 0.10393236 -0.011972744 0.12578507 -0.07177952
0.027388839 -0.11183878 -0.1743343 -0.017288646 -0.23970875 0.03935426 -0.018085297 -0.03427105
-0.058871053 0.074022666 0.1717566 0.05820996 -0.11717998 -0.47615036 -0.21358834 -0.023802271
0.15207756 -0.07195724 -0.17678344 0.110717356 0.030053291 -0.039229043 -0.02487209 -0.13433802
-0.014207814 0.09988661 -0.02525082 0.050346468 0.097284906 0.04550073 -0.011544189 0.099673465
0.037255406 0.09808808 -0.078475 -0.01840962 -0.0035362295 -0.06623376 -0.03460652 0.019968977
-0.49411485 -0.024295194 -0.010465206 -0.46593335 -0.42237318 -0.09708839 0.01571958 0.21945773
-0.02105673 -0.040884316 -0.021680435 0.012133495 -0.12703195 -0.52684224 -0.06433827 -0.0686461
-0.00922953 -0.36703482 0.028816793 0.01604284 0.008824167 -0.053913306 -0.21110779 0.05186141
0.016639242 -0.10228506 0.005412967 -0.15634994 0.037618097 0.0019252386 -0.2246816 0.15911075
-0.06542763 0.19215685 -0.3285187 -0.07488518 -0.117917806 0.029559823 -0.025058236 0.0074420543
-0.16846238 0.03495769 0.048750047 0.16939026 0.047209997 -0.49277517 0.052969053 0.008474862
0.03528926 0.12993355 -0.071631834 -0.069194786 0.0865668 -0.279938 0.089917 -0.098349705
0.000206124 -0.3274662 -0.028183369 0.035491675 0.07682633 0.0013934532 -0.09438988 -0.72846067
-0.078830265 0.024629908 -0.19658898 0.17351593 -0.017849987 0.024732508 0.08308207 0.002856306
-0.17242435 0.08590876 0.006651819 -0.035171393 0.16608879 0.062172014 0.055661857 -0.046512492
-0.19040573 0.09578018 0.037707917 -0.18587586 0.07601775 -0.22542737 0.14397442 0.024867048
0.046623718 -0.041670322 0.100313686 -0.06331847 0.018569106 0.0046650814 -0.08439965 -0.021894488
0.019646276 0.04228659 0.10403803 -0.059929933 0.064192384 -0.37057462 -0.12276771 0.02495772
0.095176615 -0.34111118 -0.12736443 -0.012139795 -0.038307875 0.10240699 -0.054940537 0.11525946
6.3241e-05 -0.012856569 0.031184088 0.11745284 -0.016039457 -0.018617667 -0.2884551 -0.058641374
-0.0068182535 0.089697875 -0.0868195 -0.032917794 0.106973715 0.09528494 0.08062454 0.03111373
-1.3724486 -0.013694927 0.0053935233 -0.7424391 -0.31196117 -0.11760682 -0.02685145 0.07415223
-0.028867248 -0.082445845 -0.011889943 -0.028477458 0.14074811 -0.1732549 0.0645886 -0.40446973
0.021360535 -0.3253464 0.10083255 0.043693453 0.0038849378 0.040052313 -0.065969855 0.007158087

layer2.bias f4 [64]
00000000: 5029 dd3d 3ac1 c93c 7f33 fbbc fc8f 4fbd
00000010: b32b d1bc 3d58 403d e1fc 8abd 48c8 70ba
00000020: 1d9c 183d 0768 cdbc f2d0 65bc 98f1 cdbb
00000030: 19e8 863c f3a2 933d 931d c43c 6834 9e3c
00000040: 39d9 d6bd 8c1b 6a3d 6887 023e 47c3 f0bc
00000050: ff19 d5bb 3816 50bb 4e9d ea3d e97b 32bd
00000060: 7269 1d3d 8c7e 02bd 521d 1c3c c6c3 7b3d
00000070: 2402 74bc 9eea 19bd d804 003e 9a22 583c
00000080: 7557 8cbc 6437 693d c2b8 5a3d fec4 f6bc
00000090: 0bfc c83d 306a a8bd ea14 583b 0ae2 cf3d
000000a0: 55b3 7e3c c404 b13b ce8d 9f3d 6cba 5fbd
000000b0: 677e d7ba d95d 26bd 5b5d 9abd 72b3 073e
000000c0: 4575 413c ded5 12bc 9b2f 23bd 815a 713d
000000d0: 966c 973d 8383 cd3d f446 d5bc f8c1 703d
000000e0: e061 8d3d aed8 863d 2405 933c 3d44 133d
000000f0: c3f2 833b 3089 4abc 3581 a6bc 215a 053e
0.10798895 0.02462827 -0.030664204 -0.050674424 -0.025533533 0.04695915 -0.06786514 -0.00091851177
0.037258256 -0.025074018 -0.014026867 -0.0062849037 0.016468095 0.072088145 0.023939883 0.019312099
-0.10490651 0.057155177 0.12746966 -0.02938999 -0.006503343 -0.0031751525 0.11455785 -0.0435752
0.03843064 -0.031858966 0.009528475 0.061466 -0.0148930885 -0.037577264 0.12501848 0.013191843
-0.017131547 0.05693759 0.053398855 -0.03012323 0.098136984 -0.08223379 0.003297145 0.101505354
0.015545686 0.0054021794 0.07790719 -0.054621145 -0.0016440869 -0.040616844 -0.075373374 0.13252047
0.011807744 -0.008962123 -0.039840322 0.058924202 0.07393758 0.100348495 -0.02603481 0.058778733
0.06903434 0.06584297 0.017946787 0.03595375 0.004026742 -0.01236181 -0.020325283 0.13022663

layer3.weight f4 [4, 64]
00000000: c6a8 d03e c87c a63e f786 273e 4d0f ca3e
00000010: 2d27 86be 9ae2 a73d 4025 45be c9b3 68be
00000020: 6a04 cc3e 31df 5cbe d8ea 48be 4378 11be
00000030: 5874 443d 7974 273e 2402 b23e 1855 3a3e
00000040: fcdf 8bbe 24c6 cb3e 70f6 5b3d 6723 f9bd
00000050: 69c6 e8bd f65e 5abe b7a1 ed3d 4ae8 09be
00000060: a491 943e 85c5 84bd a370 403c a629 073e
00000070: 4fc2 903e 9766 123e 3cd4 7a3d c156 873d
00000080: 6bd7 b63e ec62 503d 01b8 e23c 06d8 63be
00000090: e0ab 643e ff47 90be 742f c53e a557 f23b
000000a0: 8777 27be 3e20 993d a7ff 6e3d 9a9f 6f3e
000000b0: 98c5 1bbe e6ad 68be 85d3 6fbe aac4 7f3d
000000c0: e7c2 573e 9215 5bbd ba2c 0cbe a750 023f
000000d0: e75c 7c3e 4279 763e b198 e6bb 5637 043e
000000e0: e60b 003f d7c5 a63d 3e3d e23d 690a 663e
000000f0: f4b5 48bd 26d4 9e3d dd36 04be 9c47 7b3d
00000100: 5657 c43e 7b48 c93e 3b04 0d3f fb3f 6a3e
00000110: 7ce7 1abf f653 3b3e 172b 5f3d 43a8 5dbe
00000120: 1a80 d43e b38d 52be 59d7 40be c99f 56be
00000130: e7b0 dc3d d6dc 053e 38fb ab3e f2cd d63e
00000140: 5391 69be 4177 b43e 2a93 ce3d f624 84be
00000150: c844 c6be de80 11bf d5f5 f43d e5d3 27be
00000160: 416b 9a3e 5c11 40be 9aa3 493e a39d da3d
00000170: cc04 d53e 7af4 25be b45e 8e3d 2f1d 1f3e
00000180: 9ea3 ba3e a241 123e dad1 023e 52a9 79be
00000190: 9b5a 493e 2853 52be 4c72 c3bd 8e5c b33d
000001a0: ad2c 62be cf4f 523e c8d6 433d d918 d13e
000001b0: 17ac 6fbe 09ff a4be 7884 83be 6590 5f3d
000001c0: 9a28 8a3e 6176 3bbf 4ad8 58be 28fd fe3e
000001d0: 5c28 e33e 23d1 373e 0308 e43a da0d 253e
000001e0: 7d75 f93e 9881 0e3d e3ae a3bc b781 523e
000001f0: 6465 61be 5a2b 6e3e 6d5f 62be 69e2 8c3d
00000200: a669 cb3e 2d22 dd3e e9c5 d53d c938 863e
00000210: cb96 8cbe 5cf0 973d cdb0 87be 6ad1 77be
00000220: 596b d23e a8c2 34be 33ee 4ebe fbfe 25be
00000230: 469c 7c3c 5e84 4b3e 5a6a ab3e 5d85 9f3d
00000240: 9c8a 85be 4b6f d93e 9661 1f3d a2c4 bdbd
00000250: e7a1 a5bd 93f7 58be 2c98 e33d 91e1 1ebe
00000260: 6b22 683e b69f 79bd 500e 32bd 63d3 2f3e
00000270: 76d9 8d3e 87cd 1b3e efd2 e33d c311 b43d
00000280: c79d b23e 359d 3b3d 3fda d53c 6426 88be
00000290: 8b3e 4f3e dc26 8dbe 2a4d aa3e 250c 7b3d
000002a0: 6bf8 12be 76e0 5f3e a85f 853d c59c b13e
000002b0: 3717 1fbe f7fd 57be 607e 6fbe d366 263d
000002c0: bb97 223e edb8 f7bb 5fd5 f4bd 5ee8 ff3e
000002d0: 6bc2 3a3e af03 8b3e c291 6ebc 6c48 043e
000002e0: bb2d e73e f106 fdbb 1411 5e3d 3781 833e
000002f0: 0ae6 3ebd 1799 963d 3adf b7bd 1546 f7bc
00000300: 8f2f cd3e ac30 5c3e 7f4d 313e 811c 033f
00000310: caf8 61be c239 8e3d bc39 05be 65eb 5fbe
00000320: 402f cc3e 18ac 72be 4d39 40be 1829 0abe
00000330: 3350 a03d 750e 083e dd9f b63e dbbf 873e
00000340: c531 9bbe 8fa8 c13e 3a67 753d 2f59 f8bd
00000350: c5fc fbbd 520e 2cbe e2d9 ec3d 2516 dabd
00000360: 0dc5 a73e 5e2f 80bd 68a3 163d 64ae de3d
00000370: 9595 883e 5874 223e 51ed e6bb 6464 173d
00000380: c520 b73e a197 4f3d c972 e03c 7241 49be
00000390: 88a3 7c3e a422 91be 9cbe ed3e f54d 26bd
000003a0: e4f5 3dbe 1f9d b9bd 4d7f b33d d4cb 013e
000003b0: 588c 10be 8ffd 7bbe 8c25 75be 0cab a43d
000003c0: 4a59 853e 5a66 2bbd 5205 15be 1574 053f
000003d0: 2e0c 6c3e 8685 5d3e 9adf 2ebd 8fe3 063e
000003e0: 6812 083f a257 1d3e b609 313e 5385 4e3e
000003f0: 0ab7 dbbc 13ef 963d 75b6 27be 53fe 053e
0.40753764 0.32517076 0.16360079 0.394648 -0.26201764 0.08197518 -0.19252491 -0.22724833
0.39847118 -0.21569516 -0.19620836 -0.14206032 0.047962517 0.16353025 0.34767258 0.18196523
-0.27319324 0.39799607 0.053701818 -0.121649556 -0.11365969 -0.21325287 0.1160311 -0.13467517
0.29017365 -0.06482986 0.011745605 0.13199481 0.28273246 0.14296947 0.06123756 0.06608344
0.35711226 0.05087559 0.02767563 -0.22250375 0.2233119 -0.2817993 0.38512766 0.007395702
-0.1635419 0.07476853 0.058349278 0.23400727 -0.15212095 -0.22722587 -0.23420532 0.062443413
0.21070443 -0.053487368 -0.13688937 0.50904316 0.24644814 0.24069694 -0.007037245 0.12911734
0.50018156 0.08143204 0.11046837 0.22464909 -0.04900165 0.07755308 -0.12911554 0.06134759
0.38347882 0.3931311 0.5508458 0.22875969 -0.6050947 0.18293747 0.054484453 -0.21646218
0.41503984 -0.20561866 -0.18832149 -0.2095939 0.10775929 0.13072523 0.33590102 0.41954
-0.22809343 0.35247234 0.10086663 -0.2580945 -0.3872435 -0.5683726 0.11960951 -0.16389425
0.30159953 -0.18756622 0.19691315 0.10674598 0.41605222 -0.16206542 0.06951657 0.15538476
0.36452955 0.1428285 0.12775365 -0.24380997 0.1966347 -0.20539534 -0.09543285 0.08757888
-0.22087355 0.20538257 0.047812253 0.4083927 -0.23405491 -0.32225826 -0.25687003 0.054581065
0.26984102 -0.73227507 -0.21176258 0.49802518 0.4436673 0.17950873 0.0017397407 0.16118565
0.4872245 0.03479156 -0.019980853 0.20557295 -0.22011334 0.23258725 -0.22106715 0.06879122
0.3972904 0.43190137 0.10438139 0.262152 -0.27458796 0.07418892 -0.26502076 -0.24200979
0.41097525 -0.1765238 -0.20208053 -0.16210549 0.015418118 0.19874713 0.33479577 0.07789109
-0.26082313 0.42467722 0.038911425 -0.0926602 -0.08087521 -0.21188192 0.11113009 -0.15515734
0.2266938 -0.060943328 -0.04347068 0.17170481 0.27704972 0.15215121 0.11124217 0.0879245
0.34886 0.04580422 0.026105044 -0.2659179 0.20238702 -0.2756871 0.33261997 0.06129088
-0.14352576 0.21862969 0.065123856 0.34689918 -0.155362 -0.21092974 -0.23388052 0.040625405
0.15878193 -0.0075598867 -0.1195476 0.4998197 0.18238227 0.27151248 -0.014561119 0.12918252
0.45152077 -0.0077217747 0.054215506 0.2568452 -0.0466061 0.07353418 -0.08978124 -0.030184785
0.40075347 0.21502942 0.17314719 0.5121537 -0.22067562 0.0694461 -0.13010305 -0.2186714
0.398798 -0.23698461 -0.18771859 -0.13492239 0.07827797 0.13286765 0.3566884 0.26513562
-0.3031141 0.37823913 0.059912898 -0.121263854 -0.12304071 -0.16802338 0.11564995 -0.10648755
0.32767525 -0.062590346 0.03677693 0.10873106 0.26676622 0.15864694 -0.0070473333 0.036960974
0.3576719 0.050681714 0.027398484 -0.19653872 0.24671757 -0.2834674 0.46434486 -0.04060169
-0.18550831 -0.090631716 0.08764515 0.1267541 -0.14116037 -0.24608444 -0.23940104 0.08040437
0.26044685 -0.041845657 -0.14552811 0.5213025 0.23051521 0.21632966 -0.04269371 0.13172744
0.53153086 0.1536546 0.1728886 0.20168047 -0.026820678 0.073698185 -0.16378196 0.13085298

layer3.bias f4 [4]
00000000: 8f6b 183e 19bb 003e a258 203e 644d 153e
0.1488478 0.12571372 0.1565881 0.14580303
