models/model_2/nets/600_policy_net.pt (torch, 46990 bytes, 6 tensors)

layer1.weight f4 [128, 19]
0.070694774 0.20164351 -0.18099241 -0.118500955 -0.028180927 -0.42538172 -0.06604558 0.027206182
0.068940535 -0.02354748 -0.0036632314 -0.053234413 -0.10140016 0.083731115 -0.0084134145 0.008998572
-0.10663881 0.023731891 0.04326683 -0.080379896 0.04058837 -0.083349556 0.028052028 0.20186104
-0.41124088 0.051977854 -0.080614835 0.04286482 0.030981405 -0.033988334 0.0004014535 -0.083746314
0.18784326 -0.066063225 -0.08211424 -0.027804023 -0.020254554 0.0855284 0.063937955 0.067379996
-0.015764361 -0.16734451 -0.010105465 0.09083917 -0.20390894 -0.053026747 -0.042347 -0.050899297
-0.15586933 -0.056088448 0.057986747 -0.09803849 -0.07236699 0.013198033 -0.036365364 -0.019295787
0.0802493 -0.0585298 -0.05605382 0.16623949 0.10515913 0.08762233 0.21141791 0.0122629665
-0.011824655 0.020739347 0.0122858435 -0.020444166 0.05682521 -0.0114787975 0.09950057 -0.14018968
-0.1403396 -0.037275597 -0.09006189 -0.043698214 -0.09036576 0.043937683 0.04714865 0.110016905
0.20923255 -0.058333725 -0.0593859 0.085996404 0.057832334 0.009487501 -0.08434703 -0.06469507
-0.09950655 -0.0939261 -0.05246525 0.013775909 -0.0028025783 -0.025978295 -0.0680162 0.0024663997
-0.072385944 0.09627407 0.1157611 -0.085575655 0.008443085 -0.057597157 -0.11960801 -0.09504265
-0.055224314 -0.07852531 -0.07743355 -0.07238521 0.015893038 -0.046227567 0.051233076 -0.018181646
0.015655736 -0.0009521881 -0.09308507 0.096407115 0.019103758 0.026638085 0.066030666 -0.07373459
-0.07921112 -0.105410635 -0.0429168 0.00451922 0.019255392 0.006166629 0.041878704 -0.08232292
-0.026134124 0.0346852 -0.01022287 -0.01847788 0.017766207 -0.07354266 -0.02000119 0.049914807
-0.042286873 -0.06986003 0.44752395 -0.05829578 0.08623175 0.018933628 -0.0036041674 0.0022313364
0.0028399623 -0.0013127124 -0.109650806 -0.07798107 -0.05724216 0.033571042 -0.00406577 -0.06339958
0.12521422 0.07142575 -0.031519555 -0.00023531432 -0.21627364 -0.14886124 -0.11716101 -0.04810513
0.100960955 0.012320757 0.014037315 -0.1913941 -0.036127955 0.2306071 0.13229404 0.08742527
0.051210936 0.02211367 -0.004289647 0.050841305 -0.031704087 0.0652726 0.004008766 -0.081706636
0.031905163 -0.05180486 -0.05602531 -0.10236548 -0.03460516 0.0664343 0.013310869 0.017396513
0.0057612397 -0.020879544 -0.025355136 0.11585319 0.10473155 0.10271131 -0.05307151 0.024299162
0.03167597 0.008873059 0.017009923 -0.37335062 0.036946293 -0.10577394 -0.061535303 -0.006708842
0.010354835 -0.016515352 0.025571568 -0.07071624 -0.006094043 0.06285756 0.043969717 -0.04411353
0.003005218 -0.008932063 -0.26450002 -0.24721012 -0.011665457 0.055745933 0.43819854 0.014058345
0.052795757 0.042536024 0.00077005726 0.024869822 -0.005547896 -0.0070017744 0.00065195153 -0.004996388
-0.057889238 -0.007992332 0.085884504 0.06909459 0.0058771097 -0.13660227 0.04055985 0.04351716
0.10826859 0.18195762 -0.11134908 0.040434122 -0.002197827 0.018969018 -0.016858922 0.067919396
-0.040368292 -0.13383728 0.0002620332 -0.09483894 0.0037658014 -0.0043218257 -0.09928571 0.11521085
0.020372918 -0.06955038 -0.005965669 -0.34247488 0.13320167 -0.04610901 0.037955485 0.047678463
00000000: 6cc8 903d a37b 4e3e 1356 39be a1b0 f2bd
00000010: b0db e6bc a2cb d9be e842 87bd 80df de3c
00000020: b230 8d3d a5e6 c0bc d312 70bb 540c 5abd
00000030: e3aa cfbd 387b ab3d 6bd8 09bc bf6e 133c
00000040: 7365 dabd 6269 c23c 8f38 313d 379e a4bd
00000050: fe3f 263d 2cb3 aabd 5ecd e53c a9b4 4e3e
00000060: 2a8e d2be bbe6 543d 6419 a5bd 0693 2f3d
00000070: b7cc fd3c 5a37 0bbd 2d7a d239 3083 abbd
00000080: fc59 403e 284c 87bd 832b a8bd 43c5 e3bc
00000090: e1ec a5bc 8429 af3d e7f1 823d 86fe 893d
000000a0: 4324 81bc 5c5c 2bbe 6491 25bc e309 ba3d
000000b0: 81cd 50be 9332 59bd 0c74 2dbd c87b 50bd
000000c0: 369c 1fbe 00bd 65bd 8383 6d3d 67c8 c8bd
000000d0: 2535 94bd 903c 583c d9f3 14bd 3312 9ebc
000000e0: bf59 a43d f2bc 6fbd b198 65bd af3a 2a3e
000000f0: ac5d d73d 5673 b33d f07d 583e 9cea 483c
00000100: 33bc 41bc 90e5 a93c 904a 493c 867a a7bc
00000110: 8dc1 683d 9111 3cbc f4c6 cb3d e28d 0fbe
00000120: 2fb5 0fbe 4cae 18bd 5e72 b8bd e6fc 32bd
00000130: af11 b9bd 00f8 333d f11e 413d 8b50 e13d
00000140: 0f41 563e 58ef 6ebd a13e 73bd e21e b03d
00000150: 99e1 6c3d 7771 1b3c 23be acbd d97e 84bd
00000160: 17ca cbbd 545c c0bd cde5 56bd 5ab4 613c
00000170: 76ab 37bb 6fd0 d4bc 144c 8bbd 52a3 213b
00000180: 153f 94bd 572b c53d 2814 ed3d 4a42 afbd
00000190: dd54 0a3c ffea 6bbd 0bf5 f4bd b9a5 c2bd
000001a0: e432 62bd e1d1 a0bd 7b95 9ebd b23e 94bd
000001b0: 1e32 823c 1e59 3dbd c6d9 513d adf1 94bc
000001c0: 7540 803c 439c 79ba 63a3 bebd 1871 c53d
000001d0: 7c7f 9c3c 1d38 da3c 163b 873d 2902 97bd
000001e0: 7139 a2bd 88e1 d7bd 87c9 2fbd f715 943b
000001f0: 7cbd 9d3c 6f11 ca3b 0189 2b3d eb98 a8bd
00000200: 3b17 d6bc 1112 0e3d d37d 27bc ec5e 97bc
00000210: 708a 913c 899d 96bd 89d9 a3bc 7873 4c3d
00000220: 0035 2dbd c712 8fbd dc21 e53e 8ec7 6ebd
00000230: 469a b03d b21a 9b3c e533 6cbb 9d3b 123b
00000240: a91e 3a3b 520f acba 9a90 e0bd 8ab4 9fbd
00000250: c176 6abd ca81 093d 273a 85bb a4d7 81bd
00000260: 2838 003e aa47 923d a61a 01bd b5be 76b9
00000270: d676 5dbe 156f 18be 1df2 efbd e309 45bd
00000280: 9ec4 ce3d 00dd 493c c4fc 653c d1fc 43be
00000290: e8fa 13bd 4524 6c3e 1778 073e 050c b33d
000002a0: 8fc2 513d ba27 b53c 2b90 8cbb f93e 503d
000002b0: 25dc 01bd a4ad 853d f75b 833b cf55 a7bd
000002c0: fdae 023d 5531 54bd cc7a 65bd fea4 d1bd
000002d0: 24be 0dbd b50e 883d d515 5a3c 2283 8e3c
000002e0: c8c8 bc3b 940b abbc 93b5 cfbc 7044 ed3d
000002f0: 7f7d d63d 4f5a d23d 8361 59bd 090f c73c
00000300: a9be 013d 4f60 113c 6558 8b3c d027 bfbe
00000310: ff54 173d 02a0 d8bd 710c 7cbd d8d5 dbbb
00000320: 53a7 293c 344b 87bc 777b d13c add3 90bd
00000330: 8ab0 c7bb 77bb 803d 9719 343d 64b0 34bd
00000340: 31f3 443b ca57 12bc 8c6c 87be a624 7dbe
00000350: 7920 3fbc d955 643d 8f5b e03e f954 663c
00000360: 5d40 583d 413a 2e3d abdd 493a ccbb cb3c
00000370: 20cb b5bb 246f e5bb bae7 2a3a beb8 a3bb
00000380: 441d 6dbd 45f2 02bc 37e4 af3d 7781 8d3d
00000390: c594 c03b 77e1 0bbe 1622 263d 0d3f 323d
000003a0: ecbb dd3d 1953 3a3e fd0a e4bd 409e 253d
000003b0: 6b09 10bb ea64 9b3c b91b 8abc 5319 8b3d
000003c0: 3959 25bd a40c 09be 8061 8939 eb3a c2bd
000003d0: aacb 763b 1a9e 8dbb 4e56 cbbd abf3 eb3d
000003e0: 1be5 a63c 6e70 8ebd a97b c3bb de58 afbe
000003f0: 0566 083e cddc 3cbd 3677 1b3d 7e4a 433d

layer1.bias f4 [128]
0.06425204 0.014943999 0.009167111 -0.11258764 0.059608787 0.06039379 0.12546623 -0.10328809
0.02789162 -0.045272987 0.16852511 -0.0050724703 0.08374231 0.007765849 -0.06489435 0.104278125
-0.037252516 0.06042565 0.017547637 0.079188414 -0.031038642 -0.0070521096 0.052616782 -0.018943166
-0.037014585 0.022919107 0.14678794 -0.02177747 -0.03559673 -0.02670715 0.044664703 -0.049045376
-0.0059189573 -0.03161675 0.0011669353 -0.094181605 0.051265877 0.07904796 0.025454804 0.036958694
0.024223251 -0.05235356 0.11008824 0.004546246 -0.11207136 0.03216668 0.09054244 -0.15314852
-0.14406422 0.05358359 0.037966266 0.07754618 0.100868456 -0.0139458375 0.03977816 0.012322927
0.07791436 0.027154583 0.015124376 -0.055257753 0.01437168 -0.0026065465 0.050293148 -0.02126676
0.1104075 0.026872257 -0.09522299 -0.14384873 0.0730898 -0.070327714 0.0133590745 -0.13559872
-0.10783857 -0.027597388 0.1133792 -0.03776968 0.2097728 0.043061342 0.0811998 0.057770707
8.572039e-05 0.07579704 0.038050506 0.037433155 -0.09747613 0.06982824 -0.009003218 -0.00932607
-0.08270509 0.040565103 0.027606716 0.07517887 0.18091854 -0.020056427 -0.09370629 0.08518442
0.03510308 0.07722136 -0.0095261065 0.1308358 -0.06819437 0.12036029 -0.042360906 0.0525319
-0.087663375 0.010863671 -0.017076777 0.08731327 -0.16764899 0.007935406 0.028869268 -0.06356284
-0.04105173 -0.059395187 -0.04625286 0.047821254 0.094045214 0.03803889 -0.07246006 -0.0057649994
-0.014772496 0.00022566208 0.055132788 -0.032210194 0.13725102 -0.111355565 -0.09325045 -0.00035870096
00000000: 9396 833d add7 743c a631 163c 5994 e6bd
00000010: 5828 743d 7b5f 773d 387a 003e b588 d3bd
00000020: f77c e43c 2b70 39bd d991 2c3e f736 a6bb
00000030: 1781 ab3d aa78 fe3b 54e7 84bd c58f d53d
00000040: 1896 18bd e380 773d 10c0 8f3c 892d a23d
00000050: c044 febc 6215 e7bb b284 573d b32e 9bbc
00000060: 9b9c 17bd dac0 bb3c 944f 163e aa66 b2bc
00000070: e0cd 11bd f4c8 dabc 56f2 363d cee3 48bd
00000080: d0f3 c1bb 9180 01bd daf3 983a 49e2 c0bd
00000090: 2bfc 513d e6e3 a13d 9886 d03c 0062 173d
000000a0: d76f c63c b070 56bd f175 e13d adf8 943b
000000b0: ab85 e5bd 35c1 033d 516e b93d f7d2 1cbe
000000c0: 9285 13be 777a 5b3d 8482 1b3d 88d0 9e3d
000000d0: 1f94 ce3d 157d 64bc 6dee 223d 1ae6 493c
000000e0: 9091 9f3d 4a73 de3c 3bcc 773c f455 62bd
000000f0: 3277 6b3c 98d2 2abb 3000 4e3d a137 aebc
00000100: 541d e23d 3523 dc3c 4504 c3bd 154d 13be
00000110: 1bb0 953d fa07 90bd 05e0 5a3c 64da 0abe
00000120: 78da dcbd eb13 e2bc 5b33 e83d 61b4 1abd
00000130: aece 563e 1761 303d 154c a63d faa0 6c3d
00000140: c9c4 b338 7a3b 9b3d d9da 1b3d 8253 193d
00000150: 91a1 c7bd 1c02 8f3d 3c82 13bc 5fcc 18bc
00000160: 4961 a9bd 9827 263d 7b27 e23c 61f7 993d
00000170: b642 393e 604d a4bc 15e9 bfbd 2b75 ae3d
00000180: 3fc8 0f3d 3b26 9e3d 6313 1cbc d2f9 053e
00000190: 7da9 8bbd 757f f63d a182 2dbd b12b 573d
000001a0: db88 b3bd 8afd 313c 99e4 8bbc 4dd1 b23d
000001b0: 2dac 2bbe 8103 023c 3e7f ec3c 3c2d 82bd
000001c0: dc25 28bd 5e48 73bd a473 3dbd 38e0 433d
000001d0: c79a c03d abce 1b3d f165 94bd 52e8 bcbb
000001e0: 5708 72bc b49f 6c39 ebd2 613d d6ee 03bd
000001f0: 888b 0c3e 630e e4bd 18fa bebd 0710 bcb9

layer2.weight f4 [64, 128]
0.0027726954 0.08744273 -0.12974115 -0.030422201 -0.0012767228 0.01910027 0.07136973 0.00604317
-0.052711196 0.06916238 -0.12068858 -0.41704968 0.2426463 0.060925353 -0.14587094 0.05315059
0.026895283 -0.026331043 -0.027463697 0.040566914 -0.07622181 -0.28316444 0.01400359 -0.24033503
-0.0057649645 -0.051698778 0.032862585 -0.13567968 -0.010674605 0.021804659 0.03368128 0.11953181
-0.14745243 -0.08001554 -0.010556192 -0.030156108 0.0069964393 -0.36551887 0.04871001 -0.18439719
0.0029491514 -0.008757161 -0.06676444 0.036773227 -0.25609088 0.020360641 0.049120713 -0.1276277
-0.36192983 0.016369859 -0.09224726 -0.008383437 0.07530951 -0.023124408 0.039717607 0.13307379
-0.29657874 0.19051826 0.10641183 -0.12543458 0.10411785 -0.011822344 0.12553531 -0.07180262
0.027882474 -0.1119008 -0.17471373 -0.017626926 -0.23946607 0.039427757 -0.018372795 -0.034540057
-0.05899843 0.07434603 0.1722216 0.058548238 -0.116710626 -0.47610793 -0.21352799 -0.023694593
0.151813 -0.071251415 -0.17625797 0.11109478 0.03019928 -0.039106365 -0.0249301 -0.13422523
-0.014205017 0.099896304 -0.02520046 0.050448045 0.09773483 0.045995735 -0.011549134 0.100336134
0.037240505 0.09844154 -0.07816168 -0.018555108 -0.003246236 -0.06538478 -0.034669977 0.020156862
-0.4946433 -0.024692098 -0.01049288 -0.46506995 -0.42230523 -0.097061396 0.016279997 0.2198764
-0.021211607 -0.04073688 -0.021908918 0.012151232 -0.12689078 -0.52828217 -0.06420047 -0.068472035
-0.009403964 -0.36730087 0.02903763 0.015823739 0.009505753 -0.053766623 -0.21120557 0.05285528
0.016854946 -0.10226992 0.0055877166 -0.15709226 0.03775446 0.0019248432 -0.223923 0.1586587
-0.06511048 0.1925032 -0.3288002 -0.074076265 -0.117293686 0.029421652 -0.025102448 0.007838453
-0.16906849 0.035109658 0.048841927 0.16912928 0.046660554 -0.49306878 0.0522112 0.008327343
0.03528178 0.13014126 -0.07144903 -0.069591 0.08616953 -0.27899542 0.08991843 -0.097964145
-0.00011458447 -0.3281639 -0.02747509 0.035612904 0.077268384 0.0013489312 -0.09530037 -0.7282712
-0.07911542 0.024625067 -0.19637625 0.17393707 -0.018153973 0.024536582 0.083446525 0.0025219053
-0.172394 0.08566357 0.0066967853 -0.034901552 0.16626327 0.06277013 0.055780813 -0.04565732
-0.19192329 0.09591918 0.03772131 -0.18555754 0.07629277 -0.22525707 0.1440453 0.024641106
0.04695989 -0.04171766 0.100113176 -0.06453052 0.018434536 0.0045970576 -0.084167264 -0.02219348
0.019074704 0.042109776 0.10366007 -0.05968727 0.06480597 -0.3706316 -0.122696705 0.025374949
0.095081285 -0.34142837 -0.12753502 -0.011692137 -0.03839423 0.102211624 -0.05470287 0.11516281
6.3227904e-05 -0.012709206 0.031121777 0.11779908 -0.015862854 -0.018609157 -0.28853607 -0.057874817
-0.0065359743 0.08967249 -0.08698338 -0.03211151 0.1064214 0.095908456 0.08075266 0.030377187
-1.3723655 -0.013463868 0.004899376 -0.74260455 -0.3115869 -0.11779161 -0.02663731 0.07362745
-0.028416226 -0.08279058 -0.011739971 -0.028472075 0.14079945 -0.17314333 0.06433484 -0.4042382
0.020963667 -0.32517165 0.1008173 0.043948375 0.003976591 0.039379638 -0.06549138 0.007903895
00000000: 1cb6 353b 2d15 b33d ddda 04be fb37 f9bc
00000010: b557 a7ba 2b78 9c3c 4b2a 923d c905 c63b
00000020: b2e7 57bd 02a5 8d3d 932b f7bd 8987 d5be
00000030: 4678 783e dd8c 793d 315f 15be 6fb4 593d
00000040: 7f53 dc3c 33b4 d7bc 8cfb e0bc 7e29 263d
00000050: 2e1a 9cbd eefa 90be 506f 653c 631a 76be
00000060: 07e8 bcbb 19c2 53bd eb9a 063d 9def 0abe
00000070: 8ae4 2ebc af9f b23c 62f5 093d 18cd f43d
00000080: c5fd 16be 30df a3bd e1f3 2cbc f109 f7bc
00000090: 6342 e53b 4a25 bbbe 2684 473d 9ed2 3cbe
000000a0: 8d46 413b 327a 0fbc cbbb 88bd 869f 163d
000000b0: 581e 83be 5ccb a63c cd32 493d d6b0 02be
000000c0: de4e b9be 151a 863c 22ec bcbd af5a 09bc
000000d0: df3b 9a3d 666f bdbc eeae 223d 7f44 083e
000000e0: 2bd9 97be 3817 433e 72ee d93d ec71 00be
000000f0: bd3b d53d 81b2 41bc 548c 003e 410d 93bd
00000100: c969 e43c 3f2c e5bd 28e8 32be 5866 90bc
00000110: 9836 75be 007f 213d 8b82 96bc e079 0dbd
00000120: 56a8 71bd bb42 983d dc5a 303e 47d0 6f3d
00000130: fb05 efbd 6bc4 f3be 15a7 5abe 2a1b c2bc
00000140: de74 1b3e 43ec 91bd f87c 34be a985 e33d
00000150: 7b64 f73c ff2d 20bd 363a ccbc 5772 09be
00000160: 29bc 68bc 6f96 cc3d 3271 cebc 9ca2 4e3d
00000170: 3329 c83d 0666 3c3d 9438 3dbc 087d cd3d
00000180: 8089 183d b89b c93d 3b13 a0bd e200 98bc
00000190: cdbe 54bb 75e8 85bd 1b02 0ebd 0120 a53c
000001a0: e341 fdbe 1547 cabc 54ea 2bbc a61d eebe
000001b0: 6438 d8be 20c8 c6bd a15d 853c 4727 613e
000001c0: f7c3 adbc b7db 26bd 557a b3bc f615 473c
000001d0: a8ef 01be 803d 07bf 897b 83bd 113b 8cbd
000001e0: 1513 1abc dc0e bcbe 53e0 ed3c c9a0 813c
000001f0: 05be 1b3c 643a 5cbd 4646 58be c77e 583d
00000200: 6213 8a3c e472 d1bd 2a19 b73b cbdc 20be
00000210: 6ca4 1a3d 054b fc3a 124c 65be 6d77 223e
00000220: a558 85bd 8f1f 453e 8058 a8be 4cb5 97bd
00000230: ac37 f0bd ad05 f13c a6a3 cdbc db6c 003c
00000240: 4a20 2dbe 25cf 0f3d 790e 483d 3a30 2d3e
00000250: 231f 3f3d 8373 fcbe 69db 553d 686f 083c
00000260: a183 103d c043 053e de53 92bd ba85 8ebd
00000270: a779 b03d 7dd8 8ebe 2727 b83d 6da1 c8bd
00000280: 124d f0b8 1905 a8be 7113 e1bc d6de 113d
00000290: e33e 9e3d 9fce b03a d72c c3bd fb6f 3abf
000002a0: 4407 a2bd 82ba c93c db16 49be 8f1c 323e
000002b0: a4b7 94bc f100 c93c 03e6 aa3d 8d46 253b
000002c0: 0e88 30be 6270 af3d b570 db3b eef4 0ebd
000002d0: eb40 2a3e a08d 803d 6c7a 643d 2c03 3bbd
000002e0: 8a87 44be 4671 c43d a981 1a3d cc02 3ebe
000002f0: 623f 9c3d caa9 66be 9c80 133e 25dc c93c
00000300: 0359 403d 23e0 2abd 2308 cd3d 9428 84bd
00000310: 0604 973c eaa2 963b e35f acbd 1acf b5bc
00000320: 8e42 9c3c 4d7b 2c3d bb4b d43d a47a 74bd
00000330: feb8 843d 6dc3 bdbe 6948 fbbd 20df cf3c
00000340: fab9 c23d b3cf aebe 8a98 02be 6190 3fbc
00000350: 4543 1dbd 5454 d13d 1e10 60bd 7bda eb3d
00000360: 3999 8438 463a 50bc 19f3 fe3c a540 f13d
00000370: d1f2 81bc 3b72 98bc 00bb 93be 250e 6dbd
00000380: ba2b d6bb 36a6 b73d 5824 b2bd 5c87 03bd
00000390: 77f3 d93d a76b c43d a761 a53d 94d9 f83c
000003a0: aca9 afbf 8e97 5cbc f28a a03b 551b 3ebf
000003b0: 5188 9fbe ba3c f1bd 7d36 dabc fdc9 963d
000003c0: 25c9 e8bc 1c8e a9bd 0259 40bc 453e e9bc
000003d0: bb2d 103e 7c4c 31be fcc1 833d 4ff8 cebe
000003e0: ffbb ab3c e67c a6be 4d79 ce3d 3603 343d
000003f0: 104e 823b 8b4c 213d 5820 86bd 577f 013c

layer2.bias f4 [64]
0.10824021 0.02457481 -0.030743716 -0.05065106 -0.025307344 0.04686343 -0.067282066 -0.0009040845
0.037337426 -0.02532801 -0.014082104 -0.006128758 0.016200896 0.07210109 0.023666922 0.020207718
-0.104684405 0.057134043 0.12731366 -0.02966111 -0.0066867275 -0.0029932344 0.114361495 -0.04316721
0.03842027 -0.032086644 0.009848162 0.0614658 -0.015950661 -0.038001794 0.12479669 0.013084534
-0.017089818 0.05700397 0.052860867 -0.030143756 0.09804843 -0.08245153 0.0019028403 0.10133377
0.01562273 0.005383565 0.077761024 -0.054990094 -0.0019294225 -0.0405088 -0.075336605 0.13235629
0.0110196415 -0.009966237 -0.03982645 0.05887714 0.07424364 0.09992592 -0.026029594 0.058532696
0.06865513 0.065864794 0.017353687 0.03603052 0.0043655275 -0.012072485 -0.020286474 0.1301014
00000000: 0bad dd3d 1d51 c93c 3fda fbbc 7c77 4fbd
00000010: 5951 cfbc def3 3f3d 2ecb 89bd 1500 6dba
00000020: 21ef 183d b07c cfbc a0b8 66bc c0d3 c8bb
00000030: beb7 843c bca9 933d 22e1 c13c a88a a53c
00000040: c764 d6bd 6305 6a3d 835e 023e dbfb f2bc
00000050: 561c dbbb 242a 44bb 5c36 ea3d 1ad0 30bd
00000060: 935e 1d3d 496d 03bd 2f5a 213c 90c3 7b3d
00000070: f6aa 82bc c5a7 1bbd 6895 ff3d 8360 563c
00000080: f2ff 8bbc ff7c 693d a384 583d 0af0 f6bc
00000090: 9ecd c83d 59dc a8bd ba68 f93a 1488 cf3d
000000a0: 7bf6 7f3c 9e68 b03b 2c41 9f3d 4b3d 61bd
000000b0: ade4 fcba 8eec 25bd 144a 9abd 6888 073e
000000c0: ba8b 343c 6d49 23bc 0f21 23bd 2829 713d
000000d0: 0d0d 983d f6a5 cc3d 043c d5bc fbbf 6f3d
000000e0: 109b 8c3d 1fe4 863d 5229 8e3c bd94 133d
000000f0: b30c 8f3b accb 45bc d22f a6bc 4d39 053e

layer3.weight f4 [4, 64]
0.40608823 0.32321888 0.16481319 0.39546505 -0.26192203 0.08156008 -0.19274677 -0.22786544
0.3983845 -0.21590766 -0.19658959 -0.14199938 0.047960404 0.1633635 0.3475973 0.18036184
-0.27344415 0.3969603 0.05356399 -0.1215974 -0.11324737 -0.21309721 0.11539918 -0.13430332
0.28968197 -0.064805485 0.011634199 0.13195199 0.28330332 0.14286168 0.061076507 0.06611522
0.35764068 0.0506148 0.027720366 -0.22265989 0.22305825 -0.2823026 0.38503698 0.007231137
-0.16309896 0.074893154 0.058217257 0.23410614 -0.1520948 -0.226168 -0.23385292 0.062358554
0.21219863 -0.053137243 -0.13709837 0.5086544 0.24595164 0.24028169 -0.0070358464 0.12929124
0.4998922 0.08120983 0.11044275 0.22354813 -0.048891604 0.07770648 -0.1293355 0.061067656
0.38440612 0.393865 0.55018455 0.22867814 -0.6051476 0.18248259 0.054438412 -0.2168781
0.41436443 -0.20528354 -0.18833803 -0.20948166 0.10786844 0.13098367 0.3357906 0.41988134
-0.22799718 0.35319385 0.100842655 -0.2582122 -0.38693106 -0.5687199 0.119651675 -0.16431624
0.30201948 -0.18752617 0.1972222 0.10693634 0.41549435 -0.16208199 0.06950477 0.15538442
0.3644062 0.14305298 0.12770605 -0.24346624 0.19665384 -0.2053111 -0.0951575 0.087647565
-0.22111201 0.205204 0.047805626 0.4080782 -0.2339647 -0.3222698 -0.25655138 0.054523136
0.26956654 -0.73228365 -0.21187292 0.4982907 0.4441599 0.17919725 0.0017393911 0.16111368
0.48682582 0.03481327 -0.019922895 0.2059151 -0.2201908 0.23261574 -0.22111908 0.068785734
0.3965074 0.4302971 0.10479395 0.26312473 -0.2743867 0.07458318 -0.26503724 -0.24149491
0.41086498 -0.1763247 -0.20251635 -0.16209146 0.0154542355 0.1988377 0.33430296 0.07773814
-0.2612618 0.42329052 0.03878719 -0.09234155 -0.08103245 -0.21159923 0.11079953 -0.1554742
0.2249484 -0.061181854 -0.04397399 0.17179206 0.27716607 0.15196714 0.11107674 0.08776803
0.35042864 0.04573408 0.02623238 -0.26629424 0.2024436 -0.2755675 0.33250275 0.061053958
-0.14274761 0.21919908 0.06512151 0.34818447 -0.15540245 -0.21039538 -0.23453346 0.04069302
0.15870741 -0.0074680485 -0.12064062 0.49930075 0.18203974 0.2710168 -0.014558137 0.1291642
0.452118 -0.0076158918 0.05376861 0.2566922 -0.04636406 0.073326126 -0.0900795 -0.030159365
0.40006113 0.21522921 0.17398384 0.51184016 -0.22075433 0.06955588 -0.13038047 -0.21909186
0.39894122 -0.23736346 -0.18788503 -0.13516074 0.07824246 0.13289829 0.35692555 0.26454538
-0.30366316 0.37866423 0.05992965 -0.12127393 -0.122973494 -0.16797824 0.115274034 -0.106202915
0.32779068 -0.062624075 0.03661697 0.10835185 0.26630563 0.15872195 -0.007121427 0.03692478
0.35813588 0.05046881 0.02749339 -0.19712298 0.24719016 -0.2839058 0.4644932 -0.04061593
-0.18508695 -0.090474516 0.087619185 0.12661918 -0.14104266 -0.24620655 -0.24004188 0.08042659
0.259777 -0.041864276 -0.14549042 0.52122754 0.23039971 0.21634045 -0.042684775 0.1319798
0.5314165 0.15375067 0.17288405 0.20084164 -0.02674269 0.073703565 -0.16376558 0.13096248
00000000: ccea cf3e f27c a53e cac4 283e 657a ca3e
00000010: a51a 86be f908 a73d 695f 45be 8f55 69be
00000020: 0ef9 cb3e e616 5dbe c84e 49be 4968 11be
00000030: 2172 443d c348 273e 46f8 b13e c6b0 383e
00000040: df00 8cbe 613e cb3e ea65 5b3d 0f08 f9bd
00000050: 3dee e7bd 2836 5abe 6856 ec3d cf86 09be
00000060: 3251 943e bdb8 84bd 5e9d 3e3c 6c1e 073e
00000070: 220d 913e 554a 123e 5c2b 7a3d 6b67 873d
00000080: ae1c b73e 7751 4f3d d215 e33c f400 64be
00000090: 6269 643e f789 90be 9123 c53e 2cf3 ec3b
000000a0: 6a03 27be 9561 993d 3875 6e3d 85b9 6f3e
000000b0: bdbe 1bbe 9698 67be 2477 6fbe af6b 7f3d
000000c0: 994a 593e 70a6 59bd 8463 0cbe 2d37 023f
000000d0: bfda 7b3e 670c 763e f58c e6bb ec64 043e
000000e0: dff1 ff3e 5751 a63d cf2f e23d cde9 643e
000000f0: 9042 48bd 9324 9f3d 8670 04be 1422 7a3d
00000100: e1d0 c43e aca8 c93e e5d8 0c3f 9a2a 6a3e
00000110: f4ea 1abf b7dc 3a3e d0fa 5e3d 4b15 5ebe
00000120: 9327 d43e d935 52be afdb 40be 5c82 56be
00000130: 21ea dc3d 9520 063e bfec ab3e b0fa d63e
00000140: 1878 69be d3d5 b43e 9886 ce3d 6434 84be
00000150: d41b c6be a197 11bf f00b f53d 8442 28be
00000160: 4ca2 9a3e dc06 40be 9ef4 493e 7101 db3d
00000170: adbb d43e d2f8 25be 8458 8e3d 181d 1f3e
00000180: 7393 ba3e 7b7c 123e 60c5 023e 374f 79be
00000190: a05f 493e 133d 52be efe1 c2bd 9180 b33d
000001a0: 306b 62be ff20 523e d5cf 433d a0ef d03e
000001b0: 7194 6fbe 8c00 a5be b45a 83be a753 5f3d
000001c0: a004 8a3e f176 3bbf 37f5 58be f51f ff3e
000001d0: ed68 e33e 7c7f 373e 48fc e33a fcfa 243e
000001e0: 3c41 f93e 5c98 0e3d 5735 a3bc 68db 523e
000001f0: b279 61be d232 6e3e 0a6d 62be 89df 8c3d
00000200: 0503 cb3e e74f dc3e 369e d63d 49b8 863e
00000210: 6a7c 8cbe 11bf 983d f6b2 87be 714a 77be
00000220: e55c d23e 768e 34be 7260 4fbe 4efb 25be
00000230: c333 7d3c 1c9c 4b3e c229 ab3e 2d35 9f3d
00000240: 1bc4 85be 89b9 d83e 51df 1e3d 911d bdbd
00000250: 57f4 a5bd 78ad 58be ddea e23d a134 1fbe
00000260: e058 663e d399 7abd 121e 34bd 42ea 2f3e
00000270: b6e8 8d3e 469d 1b3e 347c e33d babf b33d
00000280: 626b b33e a953 3b3d 4ae5 d63c b857 88be
00000290: 604d 4f3e 2f17 8dbe cd3d aa3e b713 7a3d
000002a0: 6e2c 12be b975 603e 6d5e 853d 3c45 b23e
000002b0: d221 1fbe e371 57be 8a29 70be b9ad 263d
000002c0: 3284 223e 88b6 f4bb 6e12 f7bd 59a4 ff3e
000002d0: a068 3a3e b7c2 8a3e 4185 6ebc 9f43 043e
000002e0: 037c e73e bb8e f9bb 793c 5c3d 296d 833e
000002f0: 3ee8 3dbd 022c 963d 9a7b b8bd c610 f7bc
00000300: d0d4 cc3e 0c65 5c3e d228 323e f507 033f
00000310: 6c0d 62be 5073 8e3d 7582 05be 9e59 60be
00000320: 0642 cc3e 680f 73be ef64 40be 9467 0abe
00000330: 953d a03d 7d16 083e f2be b63e 7e72 873e
00000340: bd79 9bbe 47e0 c13e cb78 753d 775e f8bd
00000350: 87d9 fbbd 7d02 2cbe cb14 ec3d ea80 d9bd
00000360: 2ed4 a73e 0d41 80bd adfb 153d 93e7 dd3d
00000370: 3659 883e 0288 223e dc5a e9bb 703e 173d
00000380: 965d b73e 62b8 4e3d d139 e13c 9bda 49be
00000390: 6b1f 7d3e 1a5c 91be 0dd2 ed3e e45c 26bd
000003a0: 6f87 3dbe b44a b9bd b071 b33d 75a8 013e
000003b0: 7d6d 10be 921d 7cbe 8acd 75be b2b6 a43d
000003c0: 7e01 853e e079 2bbd 71fb 14be 2b6f 053f
000003d0: e7ed 6b3e 5a88 5d3e 3bd6 2ebd b625 073e
000003e0: e90a 083f d170 1d3e 8408 313e 6ea9 4d3e
000003f0: 7c13 dbbc e5f1 963d 2ab2 27be 071b 063e

layer3.bias f4 [4]
0.14851987 0.12558438 0.1564789 0.14595026
00000000: 9815 183e 3199 003e 013c 203e fc73 153e
