models/model_2/nets/700_policy_net.pt (torch, 46990 bytes, 6 tensors)

layer1.weight f4 [128, 19]
000000 d5 32 69 3d fd 3b 57 3e 33 14 4d be ee 2a 6e bd
       0.056933243 0.21018977 -0.20027237 -0.05814641
000010 f6 74 81 bd f9 34 c5 be 2d 34 9d bd 67 09 b3 3b
       -0.06321137 -0.38516977 -0.07675967 0.0054637673
000020 b1 f8 8d 3d 10 0c 8b 3a 90 04 db bc 2f ac c2 bc
       0.069322 0.0010608453 -0.026735574 -0.023763744
000030 bd 24 8a bd 2d 49 b2 3d 8d e5 f9 bb a1 06 91 3c
       -0.067452885 0.087053634 -0.0076262415 0.017703356
000040 51 0e 9d bd 85 75 b6 3c 4a b8 14 3d 5a 01 80 bd
       -0.07668746 0.022272835 0.036308564 -0.06250258
000050 c6 8f 63 3c 34 d0 98 bd 64 0e d6 3c 0d a6 58 3e
       0.013889259 -0.074615866 0.026129909 0.21157093
000060 6a 99 d1 be ac 37 17 3d b7 43 82 bd 65 df 84 3d
       -0.40937358 0.036918327 -0.06360572 0.064879216
000070 2c d0 81 bb 77 5d 8b bc 4b 8f 5b 3c fe ab 9f bd
       -0.0039615836 -0.017012341 0.013400863 -0.07796477
000080 87 a8 3b 3e b9 fb 96 bd 4d 8f c2 bd 3f 86 10 bc
       0.18326007 -0.07372231 -0.09499989 -0.008821069
000090 f0 d8 5a bc 15 51 92 3c 0c a2 6c 3d 67 f0 81 3d
       -0.013357386 0.017860929 0.057771727 0.06344681
0000a0 2a 3f 8a bd 07 a1 1c be d8 48 a2 bc 89 35 ac 3d
       -0.06750329 -0.15295802 -0.019810125 0.084086485
0000b0 66 33 49 be b4 8d 4d bd ee 1c 0b bd d4 a3 3e bd
       -0.19648513 -0.050183967 -0.033963136 -0.046542957
0000c0 46 a4 f4 bd 23 7f 32 bd e0 2c 41 3d 5c 87 cf bd
       -0.11945395 -0.04357828 0.047161937 -0.101332396
0000d0 ad f4 a0 bd 32 c7 2d bc 68 dd 48 bd 64 0b 0d bd
       -0.07859168 -0.010606574 -0.049039274 -0.03443469
0000e0 d7 ce 50 3d 3a 64 33 bd a8 d0 7b bd 30 71 53 3e
       0.050978508 -0.043796755 -0.061478287 0.20648646
0000f0 6a ba c2 3d f3 2e 5a 3d 43 03 80 3e 60 2f 2f 3c
       0.09508212 0.05326743 0.25002488 0.010692447
000100 f0 61 fb bb ff 46 39 3c 61 49 e1 bb 9f 11 82 bb
       -0.007671587 0.011308431 -0.0068752025 -0.0039693858
000110 74 34 50 3d d7 24 c4 bc ae 2c ac 3d fd 14 05 be
       0.050831273 -0.023943348 0.084069595 -0.12996288
000120 b8 fe f4 bd d0 cc 5f bd 17 2b 94 bd 94 21 32 bd
       -0.11962646 -0.054638684 -0.07234781 -0.043489054
000130 65 8f d0 bd 7b 25 ca 3c 4d 79 09 3d 42 16 e0 3d
       -0.101836 0.024676075 0.033562947 0.10941745
000140 23 9c 4d 3e 1e 8a 84 bd 50 08 c8 bc 2b 1f ba 3d
       0.20079093 -0.06471656 -0.024418026 0.09087976
000150 7d cf 4f 3d ec 2a 94 ba 72 ce 90 bd d1 2d 80 bd
       0.050734986 -0.0011304296 -0.07070626 -0.06258739
000160 de 5b 9e bd 38 23 33 bd 2c 81 8d bc a2 12 e3 bc
       -0.07732366 -0.04373476 -0.017273508 -0.027718846
000170 9d 27 48 3d 15 13 6a bd aa b2 db bd e1 1d 25 bc
       0.048865903 -0.057147104 -0.10727437 -0.0100779245
000180 4b 88 8d bd d4 16 ef 3d e9 e3 ef 3d 67 d9 95 bd
       -0.069107614 0.11674276 0.11713392 -0.07316857
000190 c3 38 81 3a f0 36 60 bd 30 5d d9 bd 7d 43 b0 bd
       0.0009858835 -0.054739892 -0.10613477 -0.08606622
0001a0 ea 91 53 bd 48 db 88 bd 05 85 87 bd 8a 64 8d bd
       -0.051652826 -0.066824496 -0.06617168 -0.06903942
0001b0 41 88 0c 3c a1 e5 1d bd 1d fa 2e 3d 33 0a 78 bc
       0.008577407 -0.03854907 0.042718995 -0.01513915
0001c0 58 ef 55 3c ff 47 50 ba ad 2e bc bd 22 9c e1 3d
       0.013057552 -0.00079452986 -0.0918859 0.11016108
0001d0 55 c5 d8 3c 46 c0 c0 3c 55 e4 3b 3d e0 d3 83 bd
       0.026461283 0.023529183 0.04587205 -0.06436896
0001e0 a9 09 5e bd c9 d3 dc bd 77 c9 c7 bc ed 4e 1d 3d
       -0.05420843 -0.10782582 -0.024388058 0.038405348
0001f0 96 20 2a 3b 94 f1 94 3c fd 76 c9 3c 1c 12 4d bd
       0.0025959364 0.0181816 0.02459287 -0.0500661
000200 18 ee 2d bd da c9 b6 3c 4c af 00 bd bd 03 ad bc
       -0.042463392 0.022313047 -0.031417176 -0.021119947
000210 16 87 3b 3b f8 a7 8f bd 19 db ff bc 9b 6a 61 3d
       0.0028614453 -0.07014459 -0.031232404 0.055033308
000220 f5 e9 03 bb b8 7e 84 bd a7 e4 d0 3e be 41 50 bd
       -0.0020128463 -0.06469482 0.40799448 -0.050843947
000230 91 f2 0a 3e f5 2d 56 bd a3 9d 10 3c 4d c6 9e ba
       0.13569094 -0.05228992 0.008826646 -0.0012113542
000240 fa 78 bc 3b 5b ef 18 3c 6a 97 4e bd 04 07 5c bd
       0.005751726 0.009334411 -0.05043737 -0.053717628
000250 3f 26 39 bd c5 22 ea 3c 22 83 75 3c c1 8e 95 bd
       -0.04520249 0.028581033 0.014984878 -0.07302619
000260 c1 e8 ce 3d d8 78 ae 3d 5b ea 36 bd 18 e7 00 3c
       0.10102988 0.08519143 -0.044657093 0.007867597
000270 b2 06 61 be 7e 9d f6 bd 2e da d4 bd 76 1f 40 bd
       -0.2197521 -0.12041758 -0.10393177 -0.046905003
000280 6e e2 9a 3d f1 02 02 3d c1 91 10 bd 25 1f 4a be
       0.07562719 0.031741086 -0.03529525 -0.19738443
000290 bb 93 9f bc f9 7b 64 3e 68 58 b9 3d 4c 25 94 3d
       -0.019479623 0.22312917 0.09050065 0.07233676
0002a0 76 d0 90 3c 9f a7 82 3c ad 26 85 3c 78 05 3b 3d
       0.017677527 0.015949069 0.016253794 0.045659512
0002b0 6e 2b 75 bc 46 6c 61 3d 4e 94 e5 3a 7f 3d a5 bd
       -0.014963968 0.0550349 0.0017515512 -0.0806837
0002c0 26 92 4c 3d bf a9 99 bd 13 49 86 bd a8 57 ca bd
       0.049944066 -0.075030796 -0.065569066 -0.0988
0002d0 c4 fa b3 bc 10 7a ab 3d a8 24 b1 3c 40 cb 4b bc
       -0.02197016 0.08372891 0.021623924 -0.012438595
0002e0 30 af 20 3c ab 79 c1 bc 72 c8 df 3b ef f6 e2 3d
       0.009807393 -0.023617586 0.006829315 0.11082255
0002f0 67 19 d7 3d d5 43 88 3d f4 2d b3 bc a0 e1 29 3d
       0.10502892 0.06653563 -0.021872498 0.04147494
000300 57 dc 30 3c 91 48 85 bc 40 14 54 3d 0b 83 c4 be
       0.010794721 -0.016269954 0.051777124 -0.38381228
000310 f5 1b 0b 3d 3b d3 18 be 34 ad ce bc de d3 9c 3c
       0.03396221 -0.14924328 -0.025229074 0.019143995
000320 41 33 6c b9 e4 be 9d bb 8d bd 8e 3c dc 3e 2c bd
       -0.00022525807 -0.0048140157 0.01742437 -0.042052135
000330 25 e1 64 b9 f8 9f 12 3d a9 7d b3 3c bd ee 26 bd
       -0.00021827647 0.03579709 0.021910505 -0.040755022
000340 ab 22 26 3c e5 a5 04 bc 9d dd 86 be bd 26 8c be
       0.010140101 -0.008096193 -0.26340953 -0.27373305
000350 66 1b 92 3a 78 eb 44 3c 39 28 d8 3e 9d 07 01 3c
       0.0011147081 0.012019031 0.42218187 0.00787535
000360 3f 2f 8a 3d 5b f9 59 3d be db 48 bc 2b f9 8e ba
       0.06747293 0.05321632 -0.012259422 -0.0010907998
000370 c2 15 ad bb c8 f5 6b bb 29 c9 73 bb 8d c3 9d bc
       -0.0052821347 -0.0036004651 -0.0037198758 -0.019258285
000380 42 96 b8 bc 21 ac dd bc e5 a1 e2 3d 09 d1 29 3e
       -0.022532586 -0.027059617 0.11066035 0.16583647
000390 82 17 80 3c 01 24 21 be 45 38 89 3c d6 11 d9 3c
       0.01563621 -0.1573639 0.016750464 0.026497763
0003a0 b2 7d e5 3d ab 0d 25 3e e7 f2 bb bd 6a 77 0e 3d
       0.11205615 0.16118495 -0.09177189 0.03478185
0003b0 8d 97 d3 3b ff ca 39 3c ac 87 0b bc 74 5d 2e 3d
       0.0064572752 0.011339902 -0.008516233 0.042569593
0003c0 a2 96 51 bc 2f ed f7 bd 5e 64 b0 3c 69 20 a6 bd
       -0.012792261 -0.12105786 0.021532234 -0.081116505
0003d0 f8 dc dd 3c db 91 d6 bc 22 83 a7 bd 9a d5 f0 3d
       0.027082905 -0.026192596 -0.081793085 0.11759491
0003e0 6e d6 b6 3b 7c 80 3c bd 71 43 70 bb 91 05 b8 be
       0.005579761 -0.04602097 -0.0036661292 -0.35941747
0003f0 5f 46 05 3e 21 93 33 bd 69 e5 26 3d 78 e5 84 3d
       0.13015126 -0.043841485 0.040746126 0.0648908

layer1.bias f4 [128]
000000 52 26 85 3d f7 88 36 3d 4e ca 4d 3c fe ca c6 bd
       0.0650145 0.044564214 0.01256044 -0.097066864
000010 ed e6 5f 3d 49 85 8a 3d a1 48 f5 3d d3 f8 1d be
       0.054663587 0.067637034 0.119767435 -0.1542695
000020 1b 35 84 3c 7b 88 42 bd ec 84 2b 3e c5 12 5d 3c
       0.016138604 -0.04749344 0.16749924 0.013493245
000030 56 99 9b 3d f6 ef 0c 3d 2e c2 95 bd 6d 04 bb 3d
       0.07597606 0.034408532 -0.073124275 0.091317035
000040 0f 4c ee bc 2f 67 82 3d 86 f8 5f 3c 43 44 bd 3d
       -0.029089002 0.06367337 0.013670092 0.092415355
000050 df 72 d8 bc 29 d3 98 bc d7 5d 3c 3d 3c 90 8d bc
       -0.026421962 -0.018655377 0.04598793 -0.01728069
000060 4a 8c fc bc 7e 24 07 3d a1 f3 20 3e 33 24 1a bd
       -0.030828614 0.032993786 0.15717937 -0.03763218
000070 1a 85 79 bc 0b 65 d7 bc 42 74 09 3d 42 75 73 bd
       -0.015229488 -0.026293298 0.033558138 -0.059437998
000080 19 cb ef bc 0a 79 0a bd 42 5e 91 3c a2 d1 b6 bd
       -0.02927165 -0.033806838 0.017745141 -0.08926703
000090 c6 2d 43 3d 14 e0 8e 3d ed 8f 26 3d 6b 26 3d 3d
       0.047651075 0.06976333 0.040664602 0.046179216
0000a0 3c e2 0d 3c ed cd 9b bc 2a 33 19 3e ae f1 12 3d
       0.0086598955 -0.019019092 0.14960924 0.035875015
0000b0 57 3a e9 bd b2 32 92 3c 8f ec 95 3d 21 91 31 be
       -0.113880806 0.017846439 0.073205106 -0.17340519
0000c0 ff 6c 16 be 51 a2 88 3d 69 44 36 3d 3c 2c cb 3d
       -0.14690016 0.066715844 0.044498835 0.099205464
0000d0 c2 66 d3 3d 14 5b ca 3c 97 93 39 3d 04 f8 73 3c
       0.10322334 0.024701633 0.04530677 0.0148906745
0000e0 e9 7d 93 3d 44 7a 0f 3d 2c 7c 1f 3d 74 55 27 bd
       0.0720175 0.03502871 0.03893678 -0.04085298
0000f0 db fd bc 3c 72 37 e2 3a 24 15 27 3d f5 b0 93 bc
       0.023070266 0.0017258956 0.040791646 -0.018028716
000100 d5 07 c5 3d c9 9b f7 3c 58 6a ea bd 38 31 29 be
       0.096206345 0.030225651 -0.11446065 -0.16522682
000110 2b cd 6e 3d cb 39 80 bd 98 ef 12 3c 72 e3 1e be
       0.058301132 -0.06261023 0.008968256 -0.15516451
000120 44 77 0b be fd 88 15 bc bf f3 ff 3d 0f 25 d8 bc
       -0.13619715 -0.009126899 0.12497663 -0.026384858
000130 da 0e 6b 3e d9 4c bb 3d 60 a0 a4 3d 9c 8f 79 3d
       0.22954884 0.09145517 0.080384016 0.060927972
000140 c0 cc 23 3c 0f 62 8a 3d 72 e3 bf 3c 7c 9d 5c 3d
       0.009997547 0.067569844 0.023423884 0.053861126
000150 f6 2c db bd 36 e6 97 3d 41 9b d8 bc d2 c4 da bc
       -0.10701935 0.07416956 -0.026441218 -0.02670518
000160 11 3e 8d bd b3 d6 57 3d da cf f7 3a c5 1a a1 3d
       -0.06896604 0.052694988 0.0018906549 0.07866434
000170 bc ff 3e 3e 6e dc 85 bc 9c 43 bc bd 54 e6 9e 3d
       0.18652242 -0.01634046 -0.09192583 0.07758775
000180 89 ee 11 3d c0 1d ad 3d 6c 83 bc 3b aa e1 0e 3e
       0.035627875 0.0845294 0.0057529714 0.13953272
000190 38 00 8c bd 4d 6b ea 3d b6 5b fc bc c0 c8 76 3d
       -0.06835979 0.11446247 -0.03080545 0.060250044
0001a0 82 ef 9f bd 40 c5 aa 3b 50 ff e0 bc 22 38 9b 3d
       -0.07809354 0.0052115023 -0.027465492 0.07579066
0001b0 81 97 12 be 39 3f b0 bb ef 09 d0 3c 96 73 3a bd
       -0.14315607 -0.0053786305 0.025395362 -0.045520388
0001c0 fb aa 03 bd 0c 58 33 bd 72 1d 36 bd c2 bb 85 3d
       -0.03214548 -0.04378514 -0.044461675 0.065299526
0001d0 3c 82 cc 3d 34 5b 67 3d 0f 9a d2 bd be 50 36 bc
       0.09985778 0.056483462 -0.102832906 -0.011127649
0001e0 d2 da 53 bc 8a 2a 15 bc da e4 45 3d 46 71 35 bc
       -0.012930589 -0.00910438 0.048313953 -0.01107437
0001f0 58 44 0f 3e a8 a2 f8 bd 84 16 c4 bd 59 ad 01 bb
       0.13990915 -0.12140399 -0.09574607 -0.001978716

layer2.weight f4 [64, 128]
000000 53 e1 83 b9 07 59 b7 3d 0a 45 14 be d7 da 35 3a
       -0.00025154147 0.089525275 -0.14479461 0.0006937212
000010 ba e0 51 3c 5c 8b 82 3c 16 49 12 3d 9f 1d 0d 3c
       0.012809927 0.015935592 0.03571423 0.008613019
000020 18 4d 87 be 6e 3b 4a 3d dd 1a 8d be e1 08 92 be
       -0.26426005 0.049373083 -0.27559558 -0.285224
000030 02 12 3b 3e 98 f4 65 3d df 35 09 be 6a c4 85 3d
       0.18268588 0.056141466 -0.13399456 0.06531604
000040 ba b4 29 3d db 55 f1 bb c5 54 09 3b fe 97 11 3d
       0.04143212 -0.007364971 0.0020955068 0.03554534
000050 84 32 c0 bd 7b 99 6d be 71 06 35 3c 60 fa 88 be
       -0.09384635 -0.2320308 0.011048899 -0.2675352
000060 a3 8e 9d bb b2 3c 5d be 4c dc 52 3d 89 c7 15 be
       -0.0048082634 -0.21605185 0.051479623 -0.14626898
000070 7e a2 26 3c e3 9d 64 bc 3e af ad 3c 87 46 0e 3e
       0.010170577 -0.013953659 0.021201726 0.13894092
000080 d0 bf 28 be a6 e9 d8 bd 74 68 bb bc 2c aa c8 bc
       -0.1647942 -0.1059144 -0.022876956 -0.024495207
000090 64 be d2 3b fe 9e a8 be 63 38 3c 3d 51 03 95 be
       0.0064313877 -0.329338 0.045952212 -0.29104093
0000a0 df 08 80 3b 4f 9b 18 bc 92 1f 45 bc 50 da 08 3e
       0.0039073075 -0.009314372 -0.012031453 0.1336453
0000b0 e7 8b 35 be 3a b9 6d 3b 5d a0 74 3d 4f ca 24 be
       -0.1772915 0.0036273734 0.059723247 -0.160928
0000c0 11 b9 b3 be 40 ec 53 3d 15 c8 69 bc 7b 21 1b bb
       -0.35102132 0.051738977 -0.014268895 -0.002367108
0000d0 bf 6d a7 3d 22 8e 25 bd a5 7d 5b 3d 0a 13 bd 3d
       0.08175229 -0.04041875 0.05358662 0.09232147
0000e0 7e 8f 47 be 03 4d 24 3e 81 43 9d 3d 2c d6 ba bd
       -0.19488332 0.16045003 0.07678891 -0.09122881
0000f0 0f e2 ff 3d 10 67 3d bd 39 ff c8 3d a5 87 7a bd
       0.12494289 -0.046240866 0.09814305 -0.061164517
000100 9c 98 2e 3d a7 e5 18 be eb f4 40 be dc a4 ce bc
       0.04262601 -0.14931355 -0.18843429 -0.025225095
000110 6f c7 68 be 28 f1 c9 bc f1 ec 2e bc fe a0 9c bd
       -0.22732328 -0.024651125 -0.010676608 -0.07647894
000120 eb ce 0d be bc c0 c2 3d e4 c9 43 3e 48 1a 8c 3d
       -0.13848464 0.095094174 0.19119984 0.0684095
000130 96 64 ed bd 00 84 45 bf 37 fb 8e be e1 e3 06 3c
       -0.11591451 -0.7715454 -0.27926037 0.0082330415
000140 d6 87 1d 3e 88 3b 2c bb 09 fc 26 be d1 39 cb 3d
       0.15383849 -0.00262806 -0.16307081 0.09923137
000150 f2 25 fe 3c 86 e0 f4 bd 59 ab 22 bd d8 70 95 bd
       0.031023953 -0.11956887 -0.03971419 -0.07296914
000160 48 3b 42 bc f6 0c ba 3d 25 1c 83 bc c4 44 a2 3d
       -0.011854954 0.09084503 -0.016004631 0.07923272
000170 ee c8 cf 3d bc bd 6d 3d 44 ad d3 bb 31 3c eb 3d
       0.10145746 0.058042273 -0.006459864 0.1148609
000180 9c c6 be 3c 22 3d a3 3d f9 92 92 bd a5 5a 2b bb
       0.023288064 0.079706445 -0.07156939 -0.0026146558
000190 a6 92 ac 3d 8a 7f 91 bd 97 55 82 bd f1 2d 71 3c
       0.084264085 -0.07104404 -0.06363981 0.014720426
0001a0 16 b5 f0 be 48 42 a8 bc 54 5a c4 bb 12 fa a9 be
       -0.47013158 -0.020539418 -0.0059922133 -0.331986
0001b0 7a 71 b6 be 89 f0 fd bd 8d b6 ab bc ec 37 7d 3e
       -0.3563345 -0.12399394 -0.02096107 0.24728364
0001c0 dd 56 8a bd 32 d6 67 bd 0c 78 5d bc 9f c3 06 3c
       -0.06754849 -0.056600757 -0.013517391 0.008225351
0001d0 df 1c 29 be cb ce 54 bf d0 69 b9 bd 7e 9d 91 bd
       -0.1651492 -0.8312804 -0.09053385 -0.071101174
0001e0 03 bd 86 3c 5b 31 ad be fe 4f c2 3c 2f 8f b3 bc
       0.01644755 -0.33826718 0.023719784 -0.021918861
0001f0 fc f3 1c 3d 84 8f 09 bd dc 30 66 be 9a 59 c9 3c
       0.03831862 -0.033584133 -0.22479576 0.024578858
000200 98 d3 d2 3c 6e ff 11 be 44 75 e9 bd 58 3d c4 bd
       0.025735661 -0.14257595 -0.1139932 -0.09582013
000210 6d d6 90 3d 90 7d d2 3a b8 81 0b be 03 38 50 3e
       0.070721485 0.0016059149 -0.13623703 0.20333867
000220 2a f4 91 bd ec 86 b4 3d b9 2a bb be 36 f9 84 bd
       -0.07126649 0.08814797 -0.36556032 -0.06492846
000230 48 0b 0a be a4 bd ae 3c 12 60 e6 3c ea 82 6b bc
       -0.13480866 0.021330662 0.028121982 -0.014374474
000240 dc 6d 29 be ee ba e6 3c 38 c7 52 3d 33 48 14 3e
       -0.16545814 0.028165307 0.05145952 0.14480667
000250 06 da 87 3d 47 d5 14 bf c5 bf a7 3c 16 4a a8 3c
       0.066333815 -0.58137935 0.020477185 0.02054314
000260 ba f3 f0 3c 75 06 77 3d 2f 52 f0 bc 5d 4b b3 bd
       0.029413093 0.060308892 -0.029336063 -0.08754609
000270 4e 75 1e 3e b0 71 56 be c4 a6 4e 3d cb c0 0b be
       0.15474436 -0.20941806 0.05045201 -0.13647763
000280 ff e2 df b9 1d 8b 8f be e1 a5 31 bd 9d 7d 9f 3d
       -0.00042703 -0.28035823 -0.043371085 0.07787631
000290 93 e2 02 3d ae 1b 8a 3c f9 04 92 bd a7 01 11 bf
       0.03195436 0.016858902 -0.07129855 -0.56643146
0002a0 a9 0e 1f bd 74 94 02 3d e8 6f 2c be 76 fa 4f 3e
       -0.03883234 0.031879857 -0.16839564 0.20310387
0002b0 34 bd 66 bc 2f 42 13 3d 20 99 ab 3d 8f 14 13 3c
       -0.0140831955 0.03595179 0.08378816 0.0089770695
0002c0 7b fa 17 be e9 1d a9 3d bd 3b 88 ba 01 94 83 bd
       -0.14841644 0.08257658 -0.001039378 -0.06424714
0002d0 0d 0b 08 3e 4a da 27 3d cb a3 9c 3d 1c e2 60 bd
       0.13285466 0.04097966 0.076484285 -0.054903135
0002e0 74 f1 a7 be c5 93 b1 3d d7 36 1e 3c 8e 59 0c be
       -0.32801402 0.08670763 0.0096566295 -0.13706037
0002f0 c5 15 6f 3d 16 33 3d be e7 12 34 3e 61 82 d8 3c
       0.05837037 -0.18476519 0.17585336 0.026429357
000300 ec 01 e4 3c 0e db 69 bd 18 48 a6 3d c0 2b e5 bd
       0.027832948 -0.057093672 0.081192195 -0.11189985
000310 cc 2a fc 3c fb d4 bb bc 61 53 ea bd be 14 a5 bb
       0.030782126 -0.022928705 -0.114416845 -0.005037873
000320 d7 ba 8c 3d 62 06 57 3b e2 72 c2 3d 48 de 0c be
       0.06871574 0.00328102 0.094945684 -0.13756669
000330 bf 65 44 3e a5 1f 04 bf 1e a3 19 be ae f0 3a 3d
       0.19179438 -0.51610786 -0.1500363 0.045639686
000340 04 c6 a2 3d 85 f4 67 be 58 a8 87 be 0f d1 d8 3c
       0.07947925 -0.2265187 -0.26495624 0.026466874
000350 6d 94 9d 3b b2 26 82 bc f7 2d 8f bc 31 cf 1a 3d
       0.0048089535 -0.015887592 -0.017477972 0.03779525
000360 2b dd 5c 38 7d 8b 62 3c d7 ca 50 3c 77 87 ba 3d
       5.2658066e-05 0.013827202 0.012743673 0.09107869
000370 4b 64 96 bc 35 44 c3 3d 3e 96 9d be 6e 3b 68 3b
       -0.01835837 0.09534494 -0.30778688 0.0035435813
000380 e4 dd 4b 3d 76 4f df 3c fd b2 a6 bd b4 69 d9 bc
       0.04977216 0.02725957 -0.08139608 -0.026539661
000390 02 2b f4 3d 87 f1 ad 3d b8 08 91 3d de d3 1e 3c
       0.119222656 0.08493333 0.07081741 0.009694068
0003a0 66 00 ab bf 5c d5 a4 bc 02 ba 00 3c 3e 95 50 bf
       -1.3359497 -0.020121269 0.007856848 -0.81477726
0003b0 31 63 b0 be 65 10 85 bd 93 68 11 bd bb 64 c7 3d
       -0.34450677 -0.06497268 -0.03550012 0.0973601
0003c0 8c 06 77 bd 97 a4 5c bd 99 fe c9 bc 07 e4 f5 ba
       -0.060308978 -0.053867903 -0.024657534 -0.0018759974
0003d0 69 35 e8 3d 1c 7d ef bd 9b 55 0c 3e e5 1e 81 be
       0.11338312 -0.116937846 0.13704531 -0.25218883
0003e0 63 45 1d 3d b4 ef f4 be 5f 31 4b 3d e3 44 08 3d
       0.03839625 -0.4783913 0.04960763 0.03326882
0003f0 01 76 75 3d 5f c0 88 3c 6e 3b 88 3c 62 a8 ad bc
       0.05992699 0.016693292 0.0166299 -0.021198455

layer2.bias f4 [64]
000000 be 5b f9 3d 6b 98 55 3d 24 5e d8 bc 1c cf 94 bd
       0.121757016 0.05214731 -0.026412077 -0.072660655
000010 8a ee 24 bd 7a d3 54 3d d5 65 84 bd 90 90 8b bc
       -0.04026655 0.051959492 -0.064647354 -0.017036706
000020 5e c9 37 3d 59 02 52 bc f3 a3 fd bc d1 8b 9e bb
       0.044869773 -0.012817943 -0.030961966 -0.0048384448
000030 53 1e ec 3c ab bf b4 3d 7d 11 04 3d 9c da ef 3c
       0.028823053 0.0882562 0.03224324 0.029279046
000040 1f eb 05 be e3 e0 9c 3d 46 ba 10 3e b8 ee ee bc
       -0.13077973 0.07660081 0.14133558 -0.029166564
000050 0b 3b e3 bb 31 6e 91 bc 28 70 f7 3d 37 9c 2c bd
       -0.0069345287 -0.017752739 0.12081939 -0.042141166
000060 81 da 5f 3d 96 37 2b bd 59 1e 8f 3a 7a a5 91 3d
       0.05465174 -0.041801058 0.0010919078 0.0711164
000070 cf a8 19 bb 1c 07 41 bd 53 5a 0e 3e 7d 74 88 3c
       -0.0023446565 -0.04712592 0.13901643 0.016657108
000080 1a 63 17 3c 31 49 8c 3d 08 bc 74 3d 51 c3 1c bd
       0.009239936 0.06849898 0.059749633 -0.038272206
000090 3a f9 e4 3d ff 05 d5 bd 15 db 9d 3b ac cc e3 3d
       0.11180349 -0.10401534 0.0048173764 0.111230224
0000a0 2c 35 06 3b ae e7 42 3c 41 ac d6 3d 62 15 82 bd
       0.002047847 0.011896057 0.104820736 -0.06351735
0000b0 28 cb 8c bc 15 1f 1a bd 6f 58 a2 bd f9 1a 18 3e
       -0.017186716 -0.0376273 -0.079270236 0.14854039
0000c0 82 10 0a 3d 21 fe d6 bc a1 22 40 bd de 53 aa 3d
       0.03370715 -0.026244225 -0.046908025 0.08316778
0000d0 98 4b c0 3d 64 7f d1 3d 8c bd c4 bc 14 6e 90 3d
       0.09389418 0.10229376 -0.024016164 0.07052246
0000e0 d1 a7 9c 3d ef db c2 3d 2d 62 4c 3d 41 36 68 3d
       0.07649196 0.09514605 0.049898315 0.056692366
0000f0 a4 c3 0e 3c 2a e1 58 bc e7 40 f7 bc 0a 3a 0e 3e
       0.008713637 -0.013237277 -0.030182315 0.13889328

layer3.weight f4 [4, 64]
000000 55 87 d4 3e 9f c8 df 3e ee 58 3f 3e e5 8c d3 3e
       0.415095 0.4370775 0.18686268 0.41318431
000010 7f 0b a0 be 2a 29 ab 3d 83 52 77 be 4e 01 81 be
       -0.3125877 0.08357461 -0.2415257 -0.25196308
000020 3d 13 d8 3e f2 da 89 be 9e 53 4f be bf 0e 15 be
       0.42202178 -0.26924855 -0.20246741 -0.14556406
000030 22 c4 65 3d a4 1b 3d 3e 70 54 ab 3e 3b 97 8b 3e
       0.05609525 0.18467575 0.33462858 0.27263817
000040 49 8e b6 be 9d f0 fc 3e 56 cc 63 3d b3 d9 ef bd
       -0.3565543 0.49402323 0.05561479 -0.11711445
000050 a4 98 ec bd 14 c9 4d be e3 f4 ff 3d 9e f1 0d be
       -0.115525514 -0.20096236 0.1249788 -0.13861701
000060 c4 be a1 3e 4f e0 94 bd ca 49 66 3c 69 14 2e 3e
       0.31590855 -0.07269346 0.014055679 0.16999973
000070 c5 1e 9c 3e cb 53 3a 3e 72 01 8a 3d a0 90 88 3d
       0.30492225 0.18196027 0.06738557 0.0666821
000080 ec 61 c3 3e 76 a8 44 3d 7c ea 98 3c 6f b9 6c be
       0.38160646 0.04801222 0.018666498 -0.23117612
000090 ba 17 75 3e 73 57 b4 be c3 c5 e3 3e 3d 89 22 3c
       0.23934832 -0.35222968 0.44486818 0.0099204155
0000a0 98 19 48 be 08 0d c2 3d 9c d0 88 3d 65 cf 85 3e
       -0.19541013 0.09475142 0.06680414 0.26134792
0000b0 fa ab 3f be c6 56 54 be a9 a7 84 be 21 74 8f 3d
       -0.18717948 -0.20736226 -0.25909165 0.07004572
0000c0 c0 08 80 3e a6 98 3e bd a1 f2 0e be 45 52 22 3f
       0.25006676 -0.046532296 -0.13959743 0.63406783
0000d0 3d 26 ad 3e fc f0 86 3e a4 56 c0 bb 4e d2 ff 3d
       0.33818236 0.2635573 -0.0058697034 0.12491284
0000e0 e7 cc 08 3f 89 ad f0 3d fa 61 21 3e c7 ab 8b 3e
       0.53437656 0.11751849 0.15760031 0.27279493
0000f0 3d 28 3e bd 1b 5c bf 3d 0e e2 1f be 5d 9a 93 3d
       -0.046425093 0.093437396 -0.15613577 0.07207177
000100 0b d1 cf 3e ca c5 e7 3e 5c cc 0e 3f f6 43 a6 3e
       0.40589175 0.4526809 0.5578058 0.32473725
000110 69 7a 1f bf 21 dc 3e 3e c2 12 48 3d 04 30 73 be
       -0.6229616 0.1863866 0.048846014 -0.23748785
000120 bf 8d dc 3e 77 d8 7a be 3c d5 50 be bc c9 3e be
       0.43076894 -0.24496637 -0.20393842 -0.18631643
000130 fd 49 e5 3d d7 34 0a 3e 17 19 aa 3e f2 c4 cb 3e
       0.11195753 0.1349672 0.33222267 0.39798695
000140 02 85 9e be c6 95 f6 3e bf ad d0 3d 3b d4 a8 be
       -0.30960852 0.48161143 0.101893894 -0.3297442
000150 8c 78 c9 be 3a e1 3a bf 14 59 eb 3d 8c ee 21 be
       -0.39349782 -0.7299992 0.114916 -0.15813655
000160 e2 4d b5 3e 4e c5 4b be 8c 11 74 3e 01 a9 06 3e
       0.35410982 -0.19899485 0.23834819 0.13150407
000170 04 bb be 3e 23 ac 55 be e7 27 a0 3d 95 eb 26 3e
       0.37252057 -0.20866446 0.07820111 0.16300805
000180 f5 7e d7 3e 72 21 21 3e 44 a1 00 3e 68 6e 7a be
       0.42089048 0.15735415 0.12561518 -0.24456179
000190 dd 4f 57 3e 5a 36 9c be ed 79 e3 bd 66 9b b8 3d
       0.21026559 -0.30510217 -0.1110724 0.09014015
0001a0 ad 0e 8a be 38 b4 7a 3e 57 c4 70 3d e9 b4 ce 3e
       -0.26964322 0.2448281 0.058780994 0.40372398
0001b0 09 08 85 be 23 42 98 be a7 9f 8a be 60 ff 84 3d
       -0.25982693 -0.29737958 -0.2707493 0.064940214
0001c0 7b 77 9b 3e 22 5f 83 bf b5 f4 51 be b9 81 1b 3f
       0.30364594 -1.0263407 -0.20503505 0.60744816
0001d0 6c 5e 1f 3f 4d 9e 69 3e 85 1d be 3a 04 88 22 3e
       0.6225345 0.22814293 0.0014504647 0.15872198
0001e0 ee 3f 03 3f 12 ed 8d 3d 51 53 2e 3d 32 ae 84 3e
       0.51269424 0.06929983 0.042559925 0.2591415
0001f0 8d 27 78 be ca 67 59 3e 6c 08 88 be 4c 85 a0 3d
       -0.24233837 0.21230999 -0.26568925 0.07837924
000200 54 d3 d7 3e c7 96 07 3f 18 44 0f 3e 9b 54 83 3e
       0.42153418 0.5296444 0.1399082 0.25650486
000210 85 fa b3 be a2 2d b3 3d e7 38 94 be 0e d4 7e be
       -0.3515207 0.08748938 -0.28949663 -0.2488558
000220 53 15 df 3e 39 cf 49 be 16 97 49 be 10 7a 10 be
       0.43570957 -0.19707955 -0.19686541 -0.14109063
000230 4c f5 48 3c 26 ee 70 3e 0e bf a6 3e f4 a5 26 3e
       0.012265515 0.23528346 0.32567638 0.16274244
000240 f1 f1 b3 be 62 8f 07 3f 86 c1 32 3d e4 c5 d0 bd
       -0.35145524 0.5295316 0.04364159 -0.10193995
000250 65 7b c1 bd 18 47 35 be 16 ea 05 3e 2f 5e 2b be
       -0.09447364 -0.17702901 0.13077578 -0.16735147
000260 c6 a3 81 3e 70 28 97 bd 93 78 13 bd 26 af 5d 3e
       0.25320262 -0.0738076 -0.03600366 0.21648845
000270 46 17 9e 3e 1b 2c 41 3e d4 7c 00 3e d5 bc 9d 3d
       0.3087713 0.18864481 0.12547618 0.077020325
000280 c9 83 b8 3e 39 36 15 3d 3d 4a 9a 3c b3 5c 7f be
       0.36038044 0.036428664 0.018834228 -0.24937706
000290 ac 9d 5c 3e 22 34 b8 be b3 c5 b4 3e 3d 98 7f 3d
       0.21544522 -0.35977274 0.35307083 0.062401045
0002a0 a3 ea 1d be bd 01 88 3e 5c b0 af 3d e0 e5 db 3e
       -0.15421538 0.26563826 0.0857856 0.42948818
0002b0 73 3d 4c be 34 95 2e be 93 3c 87 be 55 b3 4c 3d
       -0.19945316 -0.17049104 -0.26413402 0.04997571
0002c0 5f 92 4f 3e 9f ad b5 3b d8 70 e0 bd 12 00 1e 3f
       0.2027068 0.005544379 -0.10959023 0.6171886
0002d0 34 c4 78 3e b4 d3 92 3e c4 20 46 bc 2b 8a ff 3d
       0.24293596 0.28677142 -0.012092773 0.12477525
0002e0 e1 3d f9 3e 2b 23 5c bc d6 5d 88 3d 8a a6 9d 3e
       0.48680022 -0.013436119 0.06658523 0.30791122
0002f0 e9 f6 11 bd 0c bd bd 3d b4 c6 cc bd f1 64 18 bd
       -0.035635862 0.092645735 -0.09998837 -0.03720564
000300 22 0f d3 3e 77 9d af 3e c9 35 49 3e a0 08 0e 3f
       0.41222483 0.34299824 0.19649424 0.5548191
000310 08 01 63 be 04 55 86 3d 9a 7f 47 be 02 ac 87 be
       -0.22168362 0.06559184 -0.1948227 -0.2649842
000320 fe e3 d3 3e 45 05 ac be 2e 6b 44 be b8 63 11 be
       0.41384882 -0.3359777 -0.19181511 -0.14198196
000330 0e 41 b5 3d 24 db 16 3e bd 56 b2 3e 1e 8b ad 3e
       0.08850299 0.14732033 0.348318 0.338952
000340 67 7b c5 be ff 1d e0 3e 27 6c 6c 3d 1e 65 d1 bd
       -0.3857071 0.43772885 0.05772033 -0.10224365
000350 37 64 ee bd 91 7f 29 be 4c cf f2 3d 27 d9 c4 bd
       -0.11640208 -0.16552569 0.11855945 -0.09611731
000360 0f 3e bc 3e 81 f8 82 bd 88 2f 88 3c 4c d0 0b 3e
       0.36766097 -0.063950546 0.016624227 0.13653678
000370 6f c4 8f 3e 88 b8 4a 3e 5e 83 62 bc c4 d4 11 3d
       0.28079554 0.19796956 -0.013825266 0.0356033
000380 b1 e3 cc 3e 98 96 34 3d 71 c5 7b 3c 5b 77 5a be
       0.40017465 0.04408893 0.015366898 -0.21334593
000390 54 53 87 3e 35 d3 b4 be 33 11 06 3f 56 6e 0e bd
       0.26430762 -0.35317388 0.52369994 -0.034773193
0003a0 77 56 6c be b3 5d bc bd 12 51 be 3d bc 0e db 3d
       -0.23079859 -0.09197559 0.09292807 0.1069617
0003b0 1e c4 32 be 53 1f 69 be 65 a7 7a be f7 0b a0 3d
       -0.17457625 -0.22765855 -0.24477918 0.07814782
0003c0 d2 df 8e 3e 3b 76 11 3a 40 66 2c be ff 67 28 3f
       0.27905136 0.0005548929 -0.1683588 0.65783685
0003d0 03 39 ac 3e 27 1f 76 3e 27 e0 11 bd 19 a9 f1 3d
       0.33637246 0.24035321 -0.03561416 0.11799831
0003e0 9d d2 10 3f ce ca 64 3e de e5 89 3e 6d 68 7b 3e
       0.5657137 0.22342989 0.26933187 0.24551554
0003f0 d2 86 20 bd 53 5b 9a 3d 9f d0 51 be d8 a7 23 3e
       -0.039191075 0.0753695 -0.20489739 0.15981996

layer3.bias f4 [4]
000000 41 42 26 3e 7b 20 0c 3e d9 b8 2d 3e 65 68 25 3e
       0.16236211 0.13684265 0.16965045 0.16153105
