models/model_2/nets/800_policy_net.pt (torch, 46990 bytes, 6 tensors)

layer1.weight f4 [128, 19]
00000000: 64e0 5c3d 1eab 5a3e 46fb efbd 7085 cebc
00000010: 23ad 7cbd 4969 b5be 2ccb 8cbd b9fb c4bc
00000020: 1fca 703d d220 e23c dee3 d1bc 6075 64bc
00000030: d875 8abd 230e 9f3d 4436 aebc eb11 173b
00000040: b0cc 97bd a9c8 213c 0917 393d 5ecb 8cbd
00000050: 5b2c 29bc 1412 44bd 751d e53c b2bf 663e
00000060: 6d78 f4be 197d 0b3d 13dd 42bd 0559 a93d
00000070: 116b 2c3c 72e1 96bc 6403 9f3c 2e9e 7cbd
00000080: 10a3 033e c6ad 1cbd b2d9 f0bd a3bc 8b3d
00000090: ab5b 46bd c1e1 e3bc 671f 4c3d 3fbe 943d
000000a0: 4256 d9bd 3a39 11be b0a1 bbbc 94b4 a53d
000000b0: 877a 34be cb30 38bd 1ccc ccbc 86c4 53bd
000000c0: 18ce c1bd 3010 2fbd 9941 2c3d bfcd a5bd
000000d0: bf27 89bd f657 21bc baf1 2abd a787 f5bc
000000e0: 1313 2d3d f656 7bbd c08c 5bbd 1fee 7a3e
000000f0: 0f6c b43d 3571 fa3c 4e3c 9a3e 2802 803c
00000100: 9fc0 343c 3d2c abbc 7a68 66bc f019 7c3c
00000110: 6ae6 113d 4152 d8bc 29e2 6d3c f76f b5bd
00000120: a6f1 c1bd 366f 06bd 5edb 8fbd 5266 bbbc
00000130: 4fdd c1bd dbe5 cb3c b96a 243c 5890 bb3d
00000140: 094f 3e3e 9d87 71bd b71c f9ba 8149 a73d
00000150: c40e 273d 405e e7bc d560 91bd 0ddb 61bd
00000160: 9042 bebd 37fd e5bc 3e70 d33c 688f 0ebd
00000170: 2379 8b3d 2e5e a7bd 1e79 97bd 6c16 08bc
00000180: c094 acbd 622a 023e 00d7 e63d 50cc 88bd
00000190: 285a 18bc bbfc 86bd 6638 dbbd db48 bfbd
000001a0: 858b 19bd 6026 12bd 9b3f 3ebd 635b 38bd
000001b0: 91cb 1b3c 2989 05bd 7ce3 133d d09e 51bc
000001c0: d5c0 343c 40e8 2fba 9a0c c8bd 9d25 133e
000001d0: 0857 0ebb 9c31 4d3c f03f fb3c 74d0 5fbd
000001e0: a32d 1dbd 1c59 0bbe 55e7 afbc 5b47 583d
000001f0: d2d8 3dbc 2d9b 843c 12e4 413c 57a1 05bd
00000200: 327e 14bd 962c 2a3c e78b 84bc 47e6 9cbc
00000210: da17 043c c637 70bd 8c4e e9bc 17b5 253d
00000220: 52d0 e2b9 eb75 8ebd 19bf ca3e 93e0 50bd
00000230: 6f49 193e f4fd a6bd 1ea8 44bb ecb1 163c
00000240: 05e1 e837 08e2 0f3a 7859 cdbc 2e9c 0ebd
00000250: 3960 18bd b5e9 fa3c 2ead 4e3c 607c 61bd
00000260: 7610 ca3d d2da 9e3d e965 babd 9e85 1f3c
00000270: 1beb 54be 6eb5 dfbd 5b3c b9bd d756 4dbd
00000280: ac13 693d 68cf 113d 047d 8bbd a8f7 35be
00000290: 99d7 293c c9d0 523e 7ad4 633d f148 523d
000002a0: 0c1a 2dbc 51b8 b43c 08f5 f83c 5b47 a03c
000002b0: 230c 0a3b e859 853d 25de 683b 81f2 23be
000002c0: afd8 4d3d 0f65 93bd 1f40 81bd 0583 9bbd
000002d0: cc18 7dbc d625 e23d 75a9 6a3c 4d11 5abd
000002e0: 9e3d 0f3d 0f4c 88bc 72bf 24bb 4d0e de3d
000002f0: 8285 e53d ce45 963d a1ac abbc 54e1 273d
00000300: 9cfe d93b 1d24 643b 8503 d63d e011 d0be
00000310: c51e 4f3c c640 2bbe bcab b63b bc3d 23bc
00000320: be8b 063b 812a 073c f18a 11bc 14f9 3bbb
00000330: b78f e2bb 9a07 333d cb09 313b 6a90 6fbc
00000340: 19c5 4dbb 3153 30bc bf14 86be 0405 9abe
00000350: c8f9 4dbb 396e 023c a2d5 d53e 46b7 b63b
00000360: 5399 873d 342c 413d 20c6 a23a 17c8 cebb
00000370: 6616 aa38 cb6a 13bc 1351 4a39 db9d a4bc
00000380: 82cc b2bc ef95 1abd d800 683d c4ac 4d3e
00000390: 6895 a73c 6de2 2abe 8228 f93c 2727 e43c
000003a0: d155 063e f845 153e 0784 a4bd 2b8a 053d
000003b0: f0be 913b 27a1 123d e690 80bc 9e00 0c3d
000003c0: 7b77 adbb 522f eabd eadf 843c 7972 5fbd
000003d0: c5f7 683b 1ead cfbc 8a9c 93bd d1ac e63d
000003e0: d6bb 353c ca53 82bc 611f f2bb c15d bdbe
000003f0: 932a d03d ac5f 36bd 5d09 253d 3478 8f3d
0.053924933 0.21354339 -0.117178485 -0.025210112 -0.061688554 -0.3543189 -0.068746895 -0.024045812
0.058786508 0.02760354 -0.02562135 -0.013944 -0.06760758 0.07766368 -0.02126611 0.0023051451
-0.07412088 0.009874501 0.045187984 -0.06874727 -0.010325517 -0.047868803 0.027968148 0.22534063
-0.47748128 0.03405485 -0.047574114 0.08268932 0.0105235735 -0.018418048 0.019410796 -0.06167429
0.12855172 -0.03825166 -0.11760272 0.06823089 -0.048427265 -0.027817609 0.049834635 0.07262849
-0.106121555 -0.14181986 -0.022904247 0.08091083 -0.17624865 -0.044968408 -0.02499967 -0.05170109
-0.094631374 -0.042740047 0.042054746 -0.080958836 -0.06697034 -0.009847632 -0.041734435 -0.02997191
0.04225452 -0.06136223 -0.053601027 0.24504898 0.08809673 0.03057156 0.30124134 0.015626028
0.011032253 -0.020895118 -0.014062995 0.015387043 0.03562013 -0.02640641 0.014519253 -0.08859246
-0.09469919 -0.032820903 -0.07024263 -0.022875939 -0.094660394 0.024889877 0.01003521 0.09158391
0.18584837 -0.05896722 -0.001900575 0.08168317 0.040785566 -0.028243184 -0.07098547 -0.055140544
-0.092900395 -0.028074844 0.025810357 -0.03480473 0.06810214 -0.0817226 -0.07396148 -0.008306127
-0.08426809 0.1271148 0.11271477 -0.066795945 -0.009298839 -0.06591173 -0.107041165 -0.09340068
-0.03748657 -0.03568113 -0.046447378 -0.04500903 0.009508983 -0.03260151 0.036105618 -0.0127942115
0.011032303 -0.0006710328 -0.097680286 0.14369817 -0.0021719355 0.012524035 0.030670136 -0.054642156
-0.0383736 -0.13608211 -0.021472612 0.052802425 -0.0115873385 0.016187275 0.011834161 -0.03262457
-0.03625316 0.010386607 -0.016179992 -0.019152774 0.008062327 -0.05864694 -0.028479837 0.040455904
-0.0004326129 -0.06956085 0.3959892 -0.05099542 0.14969419 -0.081539065 -0.0030007432 0.009197693
2.7761338e-05 0.00054886984 -0.025067076 -0.034816913 -0.03720114 0.030629018 0.012614531 -0.055050254
0.09866421 0.077565804 -0.09101469 0.009736447 -0.2079281 -0.10923277 -0.09044715 -0.050131645
0.056903526 0.03559819 -0.06810954 -0.17770255 0.010366344 0.20587458 0.055622555 0.051339094
-0.010565292 0.022060545 0.030390278 0.019565275 0.0021064363 0.06511289 0.00355328 -0.16010477
0.050255474 -0.0719701 -0.06311058 -0.07593349 -0.015447807 0.11042373 0.014322628 -0.053239156
0.034970872 -0.01663783 -0.0025138524 0.108425714 0.11207105 0.07337533 -0.02095634 0.040986374
0.0066526663 0.0034811564 0.1044989 -0.40638638 0.012641613 -0.16723928 0.0055746716 -0.009963449
0.002053007 0.00824988 -0.008883224 -0.0028682398 -0.006914105 0.04370842 0.0027013894 -0.014621833
-0.0031397997 -0.010762022 -0.26187703 -0.30081952 -0.0031429399 0.007960849 0.4176455 0.005576047
0.06621041 0.047161296 0.0012418665 -0.0063104737 8.110404e-05 -0.008997629 0.00019294424 -0.020094803
-0.021826033 -0.037740644 0.05664143 0.20085436 0.020456985 -0.16687937 0.030414823 0.0278507
0.13118674 0.14577472 -0.08032995 0.03260247 0.0044478104 0.035798218 -0.015694093 0.034180276
-0.005293784 -0.11434807 0.016220052 -0.05455253 0.0035548073 -0.025351103 -0.07207592 0.11263431
0.011092147 -0.015909094 -0.0073889946 -0.3698559 0.101643704 -0.044524834 0.040292133 0.07005349

layer1.bias f4 [128]
00000000: b757 643d 59d3 853d 9542 9f3c ff12 e4bd
00000010: 5597 3a3d bcfd b23d 6893 cf3d 7f0b 2cbe
00000020: f1d5 113c 5cbe 26bd da9b 363e 0802 5f3c
00000030: be39 803d 0254 473d 2de0 91bd 7a9c d43d
00000040: 203a 18bd c07e 873d 3deb f13b 90ad ad3d
00000050: 7f80 cdbc 5d29 84bc 4953 ee3c 1356 b6bc
00000060: ea5a d5bc eae0 523d 5347 283e 6971 07bd
00000070: 47a3 493c 1133 98bc bfbf a23c 2831 87bd
00000080: 12f9 3dbd 00c3 a4bc 5032 fd3c 111d a1bd
00000090: 85d7 743d fdc1 723d 9c5f b83c b369 183d
000000a0: 22d8 5abc c5e0 8cbc 4c5c 223e 57b9 403d
000000b0: 042a d9bd 5835 b53b 6ade 853d f80b 3fbe
000000c0: bf71 20be 2829 a33d adcc 2e3d 32f6 f13d
000000d0: dd2e e03d 3b67 5f3d fb9f 643d f40c d1bb
000000e0: a49c 823d 71c5 1a3d 36b9 423d ae61 21bd
000000f0: 10f2 d23c e79f 0fbb 6659 5d3d 2ad7 c8bc
00000100: a40d ae3d 497a e73c 3779 f7bd af9a 2dbe
00000110: 6948 4a3d 9bf6 66bd 1bb8 62bb 0163 2dbe
00000120: 2869 14be 5f31 193b 2ae5 f43d 81bd cebb
00000130: f011 703e 90e3 e63d e3bb c73d 2f49 753d
00000140: 8b76 703c 5925 913d 6eb9 c23b 1118 7b3d
00000150: 089f d4bd 385f 953d 02f8 29bd d908 98bc
00000160: a76d 6ebd 4768 7d3d 0e77 cabc 951b cf3d
00000170: 3207 433e 6545 78bc 5bb8 babd e8bf 8e3d
00000180: faad 013d 61d8 bf3d 7854 043b 1fbf 103e
00000190: fb95 6abd 081d 063e 350d d6bc e5d4 463d
000001a0: 1aa2 92bd f2a9 65bc 0073 05bd f987 813d
000001b0: 0b95 fcbd 9e04 96bc 9812 ad3c 3a59 aabc
000001c0: 9edd 0bbd de08 18bd 14e2 2fbd 9fc8 913d
000001d0: a1d9 cb3d af1c 833d dc7f 06be d9ea b4bc
000001e0: 3507 12bc c242 86bc 5f0b 5f3d 77b5 923b
000001f0: 7530 1f3e b0c7 01be f209 ecbd f916 83b9
0.055747714 0.06534452 0.019440928 -0.11136436 0.045554478 0.08739802 0.101355374 -0.1680126
0.008901105 -0.040708885 0.1783289 0.013611324 0.062610134 0.0486641 -0.07122836 0.10381408
-0.037164807 0.066159725 0.007382779 0.0848037 -0.025085686 -0.016133005 0.029092448 -0.02225784
-0.026044328 0.051484026 0.16433458 -0.03306714 0.012306995 -0.018579038 0.019866822 -0.06601173
-0.04638011 -0.020112514 0.03090778 -0.07866872 0.059775848 0.059267033 0.022506528 0.037210178
-0.013357194 -0.017197022 0.15855521 0.047051754 -0.10603717 0.0055300407 0.06536563 -0.1865691
-0.1566839 0.07966834 0.042675663 0.11814536 0.109464385 0.054541808 0.05581663 -0.006379718
0.06377533 0.03778595 0.047539912 -0.039399795 0.02575019 -0.0021915378 0.054040335 -0.02451666
0.084986955 0.028256552 -0.12083667 -0.16953538 0.049385462 -0.056387525 -0.0034594599 -0.16932298
-0.14493239 0.0023375375 0.11957772 -0.0063092117 0.23444343 0.11273873 0.097526334 0.059884246
0.0146767 0.070872016 0.005942515 0.06130225 -0.10381895 0.07293552 -0.041496284 -0.018558906
-0.05821004 0.061867025 -0.024714973 0.10112683 0.19045714 -0.015153264 -0.09117194 0.06970197
0.031660058 0.09367443 0.002019195 0.14135407 -0.05727194 0.13097012 -0.026129344 0.048542876
-0.07159825 -0.014017569 -0.032580376 0.06324763 -0.12333115 -0.018312749 0.02112703 -0.0207945
-0.034146897 -0.03711783 -0.042940214 0.071183436 0.09953619 0.06401955 -0.13134712 -0.02208464
-0.008912851 -0.016389254 0.054454204 0.0044771987 0.15545829 -0.12673831 -0.115253344 -0.00025003383

layer2.weight f4 [64, 128]
00000000: c8ca f9bb 7e63 a93d f504 01be 4dbe 7bbd
00000010: 47bd 813c e048 5c3c 131f b1bc 062c dabb
00000020: fe03 86be c481 bc3c 3f88 e8be 4df2 6fbe
00000030: a976 233e 792d 083d 6b21 d0bd 9913 563d
00000040: b977 343c e767 263c 97a7 053d bf0d 3b3d
00000050: 651a 7dbd df4d 1fbe 71b6 783b f58a 84be
00000060: de3a 85bb 1d73 3ebe be77 203d cfd7 e6bd
00000070: 46cc 3d3d 6e26 643c 8b29 5a3c 1bac e83d
00000080: 2c9b 12be 4c21 cebd d1ee 0bbd 9e33 98ba
00000090: 8ca6 533b 1190 77be 4e41 483d eaf8 50be
000000a0: 8d14 eeba f04c 0cbc c8f6 1dbd 40e3 fb3d
000000b0: 8a3f 14be 4c99 7cbc edd7 a93d 8a3a 3fbe
000000c0: e63d b7be 6d65 e83d ddf6 bb3c 6e20 043c
000000d0: adb2 c23d 3fe6 65bd d147 563d c454 2c3d
000000e0: 3af9 4ebe 1c95 1c3e 0b38 2b3d d90e ddbd
000000f0: f8f8 093e a5f5 53bd 46b8 983d 2b20 79bd
00000100: 2316 5e3c 14bd 85bd 8cb1 39be 04c4 4dbd
00000110: c3a4 5fbe 1040 6fbd ad29 dfbb 46c9 c0bd
00000120: 62f9 34be d478 e53d e574 303e 2e3d ba3d
00000130: 6452 83bd 6d2f 45bf f7a0 a1be 4f79 153d
00000140: e0f0 243e 5a81 833d 8f82 60be 7477 b83d
00000150: 70d0 e03b ccea 94bd 6788 88bd 1c9f 043d
00000160: c917 24bc 4b6b ae3d 8dca c5bb 8398 d03d
00000170: d756 a83d 91ad b13d bea8 28bd 719b 8a3d
00000180: 3041 85ba d64e 8a3d c12e 33bd 446e 9f3c
00000190: dcf8 073e dae8 d13b 19fd 37bd da47 633c
000001a0: ebca b9be dafb 09bd 6c6f ecbc 3956 94be
000001b0: 6585 bbbe a559 15be ccdb 353c e3ab 743e
000001c0: 807c a5bd 2486 b8bd 7815 f23c 844f 873b
000001d0: 45be 47be 19f4 50bf 5298 e8bd 80b6 a9bd
000001e0: 27bf 0a3d 98ea c4be 1d7f 973b 4cd8 4fbd
000001f0: b707 073d 0f59 58bd 3cbf 81be 49fe ec3b
00000200: 1796 a03c efc5 4bbe 3beb 25be 5c71 bcbd
00000210: 64cf 963d 05cd b13a 228f 1abe 358b 6c3e
00000220: 3c2b 09bd 57dd 563d 886d cdbe a74d e5bc
00000230: 4518 17be cc59 973a 2df5 bd3c e860 cfbd
00000240: d52f 43be b456 8a3c f6bf 423d 115e e93d
00000250: 6a94 903d 4760 09bf ede9 0d3c f53d 3fbc
00000260: 266b cb3c bdc0 503d 4273 edbc ae47 d7bd
00000270: 4d3d 2c3e cfb5 d3bd e4ef 313d 09da 1fbe
00000280: 2b41 1f3c c133 81be dc66 0f3d 6824 913d
00000290: a897 863c 7dea 053d 8fed 97bd 38b0 f6be
000002a0: 21d3 77bc 3941 523c d243 47be 2c91 673e
000002b0: 0847 413b 2e2c 3d3d 833d 993d ecde e0ba
000002c0: fe9f 30be 99a0 b13d a4f9 463c afb9 9abd
000002d0: 8889 e13d cf9a 3d3b 7863 af3d 3ae1 dcbd
000002e0: 8e8d 8dbe 52a3 ca3d 5c87 62bc ce0d 00be
000002f0: 18b0 443d d295 45be 42c2 243e 1ad5 903c
00000300: 323e 553d b37b 24be 5728 7d3d 96c9 b8bd
00000310: 4d80 3c3d f302 d1bc 7717 1cbe b7fb 91bb
00000320: bd26 c43d 2924 8b3c 06b7 483d 5441 5dbe
00000330: b17a 943e aa6c e7be f292 1bbe d15b 223d
00000340: 4e50 9b3d f090 b6bd 1662 ccbe 8170 303d
00000350: 8bd6 c03c b3aa e9bc cbf5 adbc 6d0a 263d
00000360: 858c 3a38 56b3 313d 6c4d 9fbb 2459 d63d
00000370: a635 15bd 8d51 4f3e 5285 86be 1711 68b8
00000380: 003e 313d 6e53 18bd 31db 8bbd 10ee 05bd
00000390: 2202 e23d 657e 253e c7cb 453d 6e1d 833c
000003a0: 821c 94bf 8eb2 1ebd 3c3c 013c e404 4fbf
000003b0: f0c4 9bbe 8faf 8cbd a0c7 e5bc 07d3 1e3e
000003c0: 5001 bfbd f6fa eebc 4aee 8cbc 9267 b0bd
000003d0: ec06 c33d ac72 bbbd ed66 f93d 11b8 27be
000003e0: 9c21 003d 0304 02bf 2e04 b43c d1de c03c
000003f0: 808c 603d f900 0d3c cd4a b53d 17a5 8bbc
-0.0076230504 0.0827093 -0.12599547 -0.06146078 0.015837325 0.013445109 -0.021621263 -0.00665808
-0.2617492 0.023011096 -0.45416448 -0.23432274 0.15963234 0.03324649 -0.10162624 0.052264784
0.011014872 0.010156608 0.03263053 0.045667406 -0.06179275 -0.15557049 0.003795054 -0.25887266
-0.0040658554 -0.185986 0.039176695 -0.11271631 0.04633739 0.013925178 0.013315569 0.113609515
-0.14317006 -0.100649446 -0.0341633 -0.0011612063 0.0032295315 -0.2417605 0.048890404 -0.20407453
-0.0018164084 -0.008563265 -0.038565427 0.12299204 -0.14477363 -0.015417408 0.08293138 -0.18674675
-0.35789412 0.113474704 0.022944862 0.008064372 0.09506736 -0.056127783 0.052314583 0.042073026
-0.2021226 0.15291256 0.041801494 -0.107938476 0.1347388 -0.051747937 0.07457022 -0.060821693
0.0135550825 -0.065302044 -0.18134135 -0.050235763 -0.21840195 -0.058410704 -0.006810388 -0.0941339
-0.17673257 0.11204687 0.17232092 0.090937 -0.06412199 -0.7702549 -0.3156812 0.036492642
0.16107512 0.06421156 -0.21924804 0.09007159 0.006860785 -0.072713464 -0.06666642 0.0323783
-0.010015436 0.08516558 -0.006036109 0.10185339 0.082196884 0.08675683 -0.04117655 0.06767929
-0.0010166522 0.06753318 -0.04374576 0.019461758 0.13278526 0.006405932 -0.044919107 0.013872111
-0.36287627 -0.03368745 -0.028861724 -0.28972033 -0.3662521 -0.14584978 0.011099767 0.23893695
-0.08080387 -0.0900996 0.029551253 0.004129352 -0.19506176 -0.81622463 -0.11357178 -0.08286762
0.033873703 -0.3846023 0.0046233074 -0.050743386 0.03296634 -0.052819308 -0.25341213 0.0072324616
0.019602818 -0.19899724 -0.16203015 -0.09201309 0.07363775 0.0013565129 -0.15093663 0.23099978
-0.033488497 0.05245718 -0.40122628 -0.02799113 -0.14755352 0.0011547147 0.023188198 -0.10125905
-0.19061215 0.016887046 0.04754635 0.11394895 0.07059558 -0.5366253 0.008661729 -0.011672487
0.024831366 0.05096506 -0.028985623 -0.10511719 0.1682026 -0.103374116 0.04344167 -0.15610518
0.009720127 -0.25234798 0.035010204 0.07087022 0.016429737 0.03269433 -0.074183576 -0.4818132
-0.015126021 0.012832933 -0.19459465 0.22613972 0.00294918 0.04618471 0.074824356 -0.001715628
-0.17248532 0.0867321 0.01214448 -0.075549476 0.1101256 0.0028931384 0.08563894 -0.10785146
-0.2764706 0.09894432 -0.0138262175 -0.12505266 0.0480195 -0.19295433 0.16089728 0.01767974
0.052061267 -0.16062813 0.06180605 -0.090228245 0.046020795 -0.025514102 -0.15243326 -0.0044550556
0.09577701 0.016985016 0.04900267 -0.21606952 0.28999856 -0.45200092 -0.15192774 0.039638344
0.07583676 -0.089143634 -0.39918584 0.043076042 0.023539802 -0.028523779 -0.021235367 0.040537287
4.4476725e-05 0.04338392 -0.0048615243 0.10466221 -0.036428116 0.20245953 -0.2627359 -5.5329027e-05
0.04327202 -0.03718894 -0.06828917 -0.032697737 0.11035563 0.16161497 0.04829004 0.016005244
-1.15712 -0.0387445 0.007887896 -0.8086684 -0.3042369 -0.06869423 -0.02804929 0.15510188
-0.09326422 -0.029172402 -0.017203469 -0.086135045 0.095228046 -0.09152731 0.12177835 -0.1637881
0.031282052 -0.5078737 0.02197465 0.023543747 0.05482149 0.008606189 0.08852158 -0.017046494

layer2.bias f4 [64]
00000000: b738 043e 45bc 863d 55d2 d9bc 8044 bebd
00000010: 2992 3cbd 0a4e 703d 28d4 7fbd d057 11bd
00000020: f2dd 413d 6760 a93a a85e 01bd 11e6 4bbb
00000030: 8cc3 273d 4735 be3d e28e 363d b87a 413d
00000040: c6f7 21be b056 bb3d c10b 1f3e 8759 f1bc
00000050: ac6b 42bb 1c56 9bbc f635 093e a7b5 2ebd
00000060: 6c3b 6e3d c7d0 1bbd a0de eebb 10cd 9b3d
00000070: be8e 3a3b dbb4 36bd 6341 1b3e 0783 4b3c
00000080: ae0b 5b3c dbb7 873d 6b95 903d a9f9 25bd
00000090: 3871 063e 6287 fabd fdce d239 f040 f73d
000000a0: 7874 f1bb 81c9 b63c 352d 043e 4f1d 8ebd
000000b0: 7fd8 e7bc 4cb2 0bbd 83a7 a8bd 8d81 283e
000000c0: a307 e93c 7a59 3cbd a058 5abd 37e8 bb3d
000000d0: cf39 db3d a70c bb3d 3d37 a6bc 6f56 9e3d
000000e0: ccc0 a93d 1bcf e13d ff92 953d 9db1 9b3d
000000f0: f702 923b 227a a8bc 28f3 dabc 1cf6 1b3e
0.1291226 0.06578878 -0.026589552 -0.09290409 -0.046037827 0.058668174 -0.062458187 -0.035484135
0.047330804 0.0012922407 -0.03158441 -0.0031112472 0.040957972 0.092875056 0.044569857 0.047236174
-0.15817174 0.09147394 0.15531828 -0.029461635 -0.0029666228 -0.018961959 0.1339949 -0.042653706
0.058162138 -0.038040902 -0.0072897226 0.07607472 0.0028466429 -0.04460607 0.15161662 0.012421376
0.013369484 0.066268645 0.07059749 -0.040521298 0.13129127 -0.122328535 0.0004020854 0.12072933
-0.0073686205 0.022312881 0.1290787 -0.06939184 -0.028301476 -0.034105584 -0.08235075 0.1645567
0.028446024 -0.04598377 -0.053307176 0.09175151 0.107043855 0.091332726 -0.020290012 0.0773133
0.08288726 0.1102583 0.07303428 0.076022364 0.00445592 -0.02056605 -0.026727274 0.15230602

layer3.weight f4 [4, 64]
00000000: 6843 e43e 5aff fa3e c60a 6a3e bb10 ec3e
00000010: 014a bebe a05c ce3d e421 9abe b8bd 85be
00000020: 656f ce3e 77c8 9bbe d28d 4fbe 4e09 14be
00000030: 51f9 8b3d 9bf3 343e 55c9 ac3e 6381 a43e
00000040: 21e5 e7be 6c3a 0d3f e1d2 723d abd5 10be
00000050: 3c93 01be edaf 42be 6f35 133e d04b 03be
00000060: a7f8 af3e f86a 9bbd 89ac c93c 36fe 3a3e
00000070: 5b14 a33e b009 4c3e 07a9 913d 7ecf 913d
00000080: 48c4 d23e f480 163d 965b 293c 9114 54be
00000090: 32d6 723e 81b3 c8be 7968 f23e 89ec 663c
000000a0: 9cc4 62be c090 ea3d 3adf 953d bf18 973e
000000b0: cca8 7cbe 4835 91be 344f 8cbe 8292 993d
000000c0: 07a2 873e 70fd 52bd cf2b 20be cb78 353f
000000d0: 32fe e33e ac6d 973e b47d a2bb 7a21 093e
000000e0: 346e 103f d40f 073e b94d 4c3e 5213 993e
000000f0: c819 63bd d899 d53d 6443 24be 0975 b23d
00000100: 4418 d23e baf3 ff3e 72ed 0c3f dff6 cc3e
00000110: d65a 2abf 8969 4a3e ddfd 8b3d 22d9 71be
00000120: 5044 d63e 1d59 9cbe b533 57be 325a 3cbe
00000130: d0ef f83d 33e1 0b3e 618d a63e bad7 c13e
00000140: 7051 cfbe 2797 093f a629 d73d 3992 c1be
00000150: 5e40 c1be 3de0 70bf 295c f03d 0dc9 2ebe
00000160: 56cb c33e cb2d 5dbe be40 913e 1ae7 1e3e
00000170: 5699 b63e a348 6abe 1e25 ad3d 37d9 2a3e
00000180: d3b7 dc3e 44e1 263e 1144 fc3d 15b1 78be
00000190: 1954 583e afdd bcbe 30fc 19be 99ec c13d
000001a0: 1abe 91be 4f73 953e 0622 883d 20b9 cd3e
000001b0: a479 9cbe 8cab b1be f640 93be abca 953d
000001c0: 9884 ab3e e5cc b2bf 185a 5abe a57f 2d3f
000001d0: 5ddc 3c3f 3b92 8c3e 249c a03a 03cf 1d3e
000001e0: 4199 093f cd2c b93d f60f 123e 7364 973e
000001f0: 7e53 85be b5a4 493e d705 9dbe 9402 af3d
00000200: b6c0 ef3e c9da 1b3f c932 263e 0f63 9e3e
00000210: b2c0 c9be 4870 e33d f9b7 b7be ece8 75be
00000220: 607e c63e ad0c 6abe 0113 53be f3b7 16be
00000230: 05db 9b3c 3254 5b3e e8ea ab3e 6cba 423e
00000240: 445e efbe cf7f 143f de24 503d 5be6 eabd
00000250: 46a6 dbbd 02a9 1bbe 93fa 2b3e 92c7 06be
00000260: d5f4 9d3e 3cc3 9cbd 7a53 15bd a2c2 673e
00000270: 879f a63e fa8a 553e 7cad 043e d4ce b63d
00000280: 69ab c23e c716 763c adcf 963c 1bd8 50be
00000290: 66a4 623e 99bd d5be b19a c13e ccaa 6f3d
000002a0: 06aa 1abe d7db 8e3e 4ab6 d93d e147 f43e
000002b0: 3f55 89be ecf1 57be 8885 85be a574 743d
000002c0: 2a61 603e 216b 2bbb 267c 07be 1b62 353f
000002d0: feb4 bc3e c756 9c3e cf63 27bc 41aa 0b3e
000002e0: 6fc2 0a3f fbc0 823b b9a4 9a3d 37c2 ac3e
000002f0: 87aa 6dbd 1010 c33d 1939 a7bd fa6f f0bc
00000300: 806f df3e d085 b83e b1cd 743e 8975 193f
00000310: 4e72 8fbe a0a9 a03d 06ad 85be 8c29 95be
00000320: 1aef d23e 8d00 bfbe a162 45be 649c 08be
00000330: 63e5 b43d 8056 0b3e eefe ad3e c869 c83e
00000340: 2af6 ebbe 65ec 003f f1a5 6b3d 658d 03be
00000350: f148 ddbd ffea 0dbe 2f9f f83d f4e4 ccbd
00000360: a4f3 c03e 55b0 adbd 6cd1 ff3c 37dc 203e
00000370: eec3 9e3e f9e2 763e a1f6 bcbb cea7 9a3c
00000380: 5c2a dd3e b43d 243d 0b23 de3b 65d3 4bbe
00000390: 7cab 843e c2b2 c7be 4025 0f3f fbc5 d8bc
000003a0: 08b5 87be 6059 d5bd 6319 c53d f23c 033e
000003b0: e25c 6ebe 2cdd a8be 225c 88be ae6a 9f3d
000003c0: b450 913e 0bd2 9b3c 552f 35be 6502 383f
000003d0: 77d6 dd3e be23 903e 0d2a f6bc b00a 023e
000003e0: dd5d 123f bb26 7b3e 1060 a63e d6de 8b3e
000003f0: 9284 28bd f917 c63d 641f 61be 67f3 273e
0.44582677 0.49022943 0.22855672 0.46106514 -0.37165835 0.100762606 -0.30103981 -0.26121306
0.40319362 -0.3042638 -0.20268944 -0.14456674 0.06834663 0.17671053 0.33747354 0.32129964
-0.45292 0.5516727 0.05928314 -0.14144008 -0.12653822 -0.19012423 0.14375852 -0.12821889
0.34369394 -0.07588762 0.024618404 0.18261036 0.31851467 0.1992557 0.071123175 0.07119654
0.41165376 0.036744073 0.010336777 -0.2071097 0.23714522 -0.3919945 0.4734533 0.01409448
-0.22145313 0.1145339 0.07317968 0.29511067 -0.24673766 -0.28360963 -0.27404177 0.07498647
0.26490805 -0.051511228 -0.15641712 0.7088744 0.44529873 0.2957586 -0.0049588326 0.13391677
0.56418157 0.13189632 0.19951524 0.29897553 -0.05544451 0.10429734 -0.16041332 0.08713729
0.41034138 0.49990636 0.5504981 0.40032098 -0.66544855 0.19766821 0.0683553 -0.23617986
0.41848993 -0.30536738 -0.21015818 -0.18393782 0.121551156 0.13660125 0.3252974 0.378599
-0.4049182 0.53746265 0.10505991 -0.37806872 -0.3774442 -0.9409216 0.11736328 -0.17068882
0.3824107 -0.215995 0.28369707 0.15517846 0.3566386 -0.22879271 0.08454345 0.16684423
0.43108997 0.1629687 0.1231767 -0.24286301 0.2112583 -0.3688788 -0.15037608 0.094689555
-0.28465348 0.29189536 0.066471145 0.40180302 -0.30561554 -0.34701192 -0.287605 0.073140465
0.33499599 -1.3968779 -0.2132343 0.67772895 0.7377375 0.27455315 0.0012253565 0.15411
0.5374947 0.09041748 0.14263901 0.29568824 -0.26040262 0.19691737 -0.30668518 0.085454136
0.46826714 0.60880715 0.1623031 0.3093495 -0.39404827 0.111054 -0.35882547 -0.24014634
0.3876829 -0.22856398 -0.20612718 -0.14718609 0.019025335 0.21418837 0.33577657 0.19016427
-0.46751606 0.5800752 0.05081641 -0.11469718 -0.107250735 -0.1520119 0.16794805 -0.13162068
0.30850855 -0.076544255 -0.036456563 0.2263284 0.32543585 0.20853797 0.12956804 0.08926168
0.380214 0.015020079 0.018409574 -0.20394938 0.22133026 -0.41746214 0.37813333 0.058512494
-0.15103921 0.279021 0.10630472 0.4771109 -0.2682285 -0.2108838 -0.2607844 0.059681553
0.21912065 -0.0026156383 -0.13230953 0.7085282 0.36856836 0.30534956 -0.010216667 0.13639165
0.5420293 0.00399029 0.075509496 0.33741924 -0.058023956 0.09524548 -0.081651874 -0.02935027
0.43639755 0.3603959 0.2390659 0.5994497 -0.28016895 0.078448534 -0.2610857 -0.2913326
0.41198045 -0.37305108 -0.19275905 -0.13340908 0.088328145 0.13607216 0.33983558 0.39143205
-0.46086246 0.5036071 0.0575313 -0.12846906 -0.10804928 -0.13859175 0.12139737 -0.10004607
0.37685883 -0.08480898 0.03122779 0.15709005 0.31008857 0.2411002 -0.005766705 0.018878844
0.4319638 0.040097907 0.00677908 -0.1990486 0.25912082 -0.3900357 0.55916214 -0.026461592
-0.26505303 -0.104174376 0.09623983 0.12816218 -0.2327762 -0.3298124 -0.26632792 0.077840194
0.28381884 0.019021055 -0.17693837 0.71878654 0.43327686 0.2815227 -0.030049348 0.1269939
0.57174474 0.24526493 0.32495165 0.27318448 -0.041142054 0.09672541 -0.21984631 0.16401444

layer3.bias f4 [4]
00000000: b3e3 333e da91 173e 79b2 383e 370c 383e
0.17567329 0.14801732 0.18036832 0.1797341
