models/model_2/nets/900_policy_net.pt (torch, 46990 bytes, 6 tensors)

layer1.weight f4 [128, 19]
000000 5a d5 37 3d b4 27 4f 3e 9b 81 9e bd 01 f7 7b 3b
       0.044881202 0.2022999 -0.07739564 0.0038446786
000010 55 28 42 bd 63 77 af be 8e 6d 5c bd 00 b2 2f bd
       -0.047401745 -0.34270772 -0.053815417 -0.042894363
000020 db c4 4a 3d df 04 8e 3c 41 5d a7 bc f9 64 48 bc
       0.049504142 0.017336307 -0.02043021 -0.012231105
000030 2d ce 3b bd 50 33 aa 3d 31 e3 6b bc 95 f2 91 b9
       -0.04585092 0.08310568 -0.014397428 -0.00027837293
000040 c2 92 5a bd 6e 96 5c 3c 8c 7e 49 3d ba ad 74 bd
       -0.053362615 0.0134636 0.04919295 -0.05973599
000050 c7 96 ad bc f4 dd 6b bc f4 b4 a6 3c b9 cf 50 3e
       -0.02119006 -0.0143961795 0.020349957 0.2039174
000060 4d dd 0d bf 74 ed 15 3d 73 50 57 bd 2a ee d1 3d
       -0.55415803 0.036603406 -0.052566957 0.10250504
000070 e3 53 ad 3c a4 66 96 bc 63 5d 9a 3c 95 92 28 bd
       0.021158164 -0.01835949 0.018843358 -0.041155417
000080 50 99 12 3d 75 9e 99 bc 13 c5 0e be 74 0d d0 3d
       0.03579074 -0.018752316 -0.13942365 0.10158816
000090 63 22 bd bd ae 02 c2 bc 73 cb 12 3d 49 d0 9d 3d
       -0.09235074 -0.023682918 0.035838556 0.07705743
0000a0 4c d7 e9 bd 93 e4 e3 bd c8 05 0a bd de fa b3 3d
       -0.11418018 -0.111275814 -0.03369692 0.087880835
0000b0 cd 31 3c be 0b f6 51 bd e5 ba de bc b7 f4 34 bc
       -0.18378372 -0.051260035 -0.027188728 -0.011044673
0000c0 9f 36 5d bd d7 53 1c bd d0 15 c3 3c ba b6 8b bd
       -0.05400717 -0.038165893 0.023814112 -0.06821962
0000d0 aa 19 5d bd 94 d3 b0 bb dd 09 0c bd 65 25 ba bc
       -0.053979553 -0.005396316 -0.034189094 -0.02272291
0000e0 ec 95 13 3d a2 a9 35 bd c2 7d 55 bd d5 7c 7b 3e
       0.03603165 -0.044351228 -0.052121885 0.24559338
0000f0 39 5a 0b 3d 69 d1 cb 3c 03 61 bc 3e 72 1a a3 3c
       0.03402159 0.024880128 0.36792764 0.019910071
000100 ef c0 8d 3c c4 5a 57 bd 81 7f 18 bc 72 a4 2a 3c
       0.017303912 -0.052576795 -0.009307743 0.010415183
000110 20 4e c1 3c 3d d2 57 bc 82 f0 14 bc 97 75 bd bd
       0.023596823 -0.013172683 -0.009090545 -0.09250944
000120 d7 b9 07 be 9b b4 2c bd 1f b9 b1 bd 3e 0b 8c bd
       -0.13254486 -0.042164426 -0.08677887 -0.06838082
000130 c3 4b ab bd e6 37 11 3c 5f 81 77 bd 4b a3 95 3d
       -0.0836406 0.008863425 -0.060426112 0.07306536
000140 e0 ed 3d 3e d5 2d 2c bd 5f cf 5a ba 5d 57 88 3d
       0.18547773 -0.042035896 -0.0008346941 0.06657288
000150 84 bb 0b 3d 17 26 a4 bc 00 2e 79 bd a4 29 13 bd
       0.034114376 -0.020037694 -0.060834885 -0.035928383
000160 0d e8 bf bd cd f7 3c 3c 2c 86 69 3d e9 e3 0e bd
       -0.09370432 0.01153369 0.057012722 -0.03488532
000170 5c 2f 8c 3d 28 74 d1 bd 0d 65 35 bd 5f ee 80 bc
       0.068449706 -0.10227233 -0.044285823 -0.015738664
000180 36 30 b6 bd ff a7 11 3e e9 e8 b8 3d 9a 22 66 bd
       -0.08895914 0.14224242 0.09028799 -0.056185342
000190 f1 35 35 bd 7d 23 81 bd 3f 79 c2 bd 92 1a a0 bd
       -0.044240896 -0.06305597 -0.09495782 -0.07817568
0001a0 85 c6 f8 3b b4 9e ce 3c 43 5f d0 bc 2a 12 5e bd
       0.0075920247 0.02522216 -0.02543605 -0.05421654
0001b0 b9 9b 4c 3c da 24 4a bc f8 f4 23 3d 50 2e b4 3b
       0.012488299 -0.012337888 0.040028542 0.005498685
0001c0 9c ac b5 3c 4b 2b 2a 3c ef 70 b8 bd a4 b7 3c 3e
       0.022177033 0.010386298 -0.090059154 0.18429428
0001d0 f2 24 9a bc 88 60 e2 3b 87 a8 5c bc db 32 2b bd
       -0.018816445 0.00690848 -0.013467914 -0.041796546
0001e0 d2 06 28 bd d5 7e 0e be 06 25 da bc cd eb 30 3d
       -0.04102213 -0.1391557 -0.026628982 0.043193627
0001f0 01 9e 3e bc 1f fd e5 3c f7 44 87 bb ad dc bf bc
       -0.011634351 0.0280748 -0.0041280943 -0.023420656
000200 1f 77 de bc a2 59 25 bc 1a 91 ac 3b 04 78 bd bc
       -0.02715641 -0.010092171 0.005266321 -0.023128517
000210 97 e0 15 3a 14 1d 78 bd 3d f3 fc bc d7 7d 07 3d
       0.00057173654 -0.060574606 -0.030877704 0.033078995
000220 23 3d 6f bb ef d3 92 bd 24 be c6 3e b4 e1 2e bd
       -0.0036504946 -0.071693294 0.3881694 -0.042695716
000230 01 03 19 3e f4 53 b1 bd 9c f8 1c bc 57 1b 87 3b
       0.14942552 -0.08658591 -0.0095807575 0.004123132
000240 a5 79 60 bb 01 2b 1c 3c 89 81 94 bc bc 04 6b bd
       -0.0034252193 0.009531737 -0.018128173 -0.057377562
000250 ba 08 07 bd b1 9a d5 3c b2 48 8b 3c 91 d3 d7 bc
       -0.032967307 0.02607474 0.017002437 -0.026346
000260 51 38 cc 3d 2b ae 9b 3d 9e b0 ed bd dc 68 97 3b
       0.09971679 0.07601579 -0.11605953 0.0046206545
000270 05 66 4a be e8 33 d9 bd f5 09 a5 bd b8 0a 38 bd
       -0.1976548 -0.106056035 -0.0805854 -0.044932097
000280 30 d8 26 3d a1 2b 5d 3c d7 9f 90 bd db ea 12 be
       0.040733516 0.0134991715 -0.07061737 -0.14347403
000290 1d 74 3c 3d 48 b8 38 3e b7 11 f7 3c 43 82 3a 3d
       0.04600917 0.18039048 0.030159814 0.045534384
0002a0 e5 fb 79 bd 45 e5 39 3d 56 43 45 3d 17 56 91 3c
       -0.06103124 0.045384664 0.04815992 0.017741246
0002b0 e2 06 11 3c 89 bf 6f 3d 8d 63 81 3b bf dd 3e be
       0.008851739 0.05853227 0.003948635 -0.18639277
0002c0 3a a2 b8 3c c3 27 73 bd 1d ec 5f bd d0 5a 58 bd
       0.022538293 -0.05936409 -0.054668535 -0.05282098
0002d0 00 f5 fe bc 28 76 bd 3d 90 36 0b 3c 5d 38 22 bd
       -0.031122684 0.09251052 0.008496895 -0.039604533
0002e0 ae a9 a3 3c 02 5a ed 3a 1c 51 2c 3a a9 2e d6 3d
       0.01997837 0.001810849 0.00065733655 0.104581185
0002f0 a1 d4 fa 3d 1b b0 9b 3d b8 8e 17 bd 68 1b 05 3d
       0.12247587 0.07601949 -0.03700134 0.03249684
000300 0a 42 77 3c b8 5e 18 bb dc 7b 06 3e e7 fc ce be
       0.0150914285 -0.0023249816 0.13133186 -0.40427324
000310 e1 47 89 3c 6a e1 40 be d3 ef c8 3c 6a 05 ea bb
       0.016757907 -0.18835989 0.02452842 -0.0071417587
000320 ee a2 e0 ba c6 0f 5c 3b 78 f5 a1 ba 65 56 92 3c
       -0.00171384 0.0033578738 -0.0012356481 0.017863462
000330 71 31 08 bc 4b 49 47 3d 93 b7 d5 3a 9d 04 b5 3b
       -0.008312569 0.048653882 0.001630532 0.0055242316
000340 2a 68 c8 bc 75 cb 49 bc 44 92 7e be 57 cf b6 be
       -0.024463732 -0.012316574 -0.24860483 -0.35705063
000350 df e5 2e bb e7 ef ea 3b 34 78 d9 3e 08 6f af 3b
       -0.0026687307 0.007169712 0.4247452 0.005353812
000360 95 9c 7a 3d 9e 9f 1c 3d 8e 5b b5 3b 8f eb ac 3c
       0.061184485 0.03823816 0.005534596 0.021108417
000370 0c e6 6d 3b a6 72 87 bc 92 48 96 bb ee c3 69 bc
       0.0036300449 -0.01653416 -0.004586288 -0.014267905
000380 8b cb 3a 3c 61 47 5f bd e2 0c fe 3c e5 e9 58 3e
       0.0114010675 -0.05451143 0.031012002 0.21182974
000390 12 1a 8b 3c 72 48 2f be 3d 22 d2 3c 88 0b 4c 3c
       0.016980205 -0.1711748 0.025651092 0.012453921
0003a0 c1 74 1f 3e f3 fe 11 3e bd 8e a7 bd 7d 4f f8 3c
       0.15571882 0.14257412 -0.08181522 0.03031134
0003b0 2d 32 47 3c 13 08 d2 3b dd 83 eb bc 03 fc d6 3c
       0.012157959 0.006409654 -0.0287494 0.026243215
0003c0 eb f6 82 3b 20 ee e1 bd 04 7a ab 3c 68 70 10 bd
       0.00399672 -0.11031747 0.020932205 -0.03526345
0003d0 c4 92 f9 bb 59 1b 00 bd da 17 b6 bc 49 a6 ea 3d
       -0.007616373 -0.03127608 -0.02222817 0.114574976
0003e0 f4 f3 a2 3c 96 62 13 bc ad f0 12 bc 72 47 bd be
       0.019891717 -0.008995673 -0.008968514 -0.3696857
0003f0 a9 64 98 3d ab e3 36 bd 9f cf 15 3d 64 26 89 3d
       0.074410744 -0.044650715 0.036574956 0.066967756

layer1.bias f4 [128]
000000 10 98 42 3d ab db 98 3d f6 bd 88 3c 9c fd 00 be
       0.0475083 0.07463773 0.016692143 -0.12596744
000010 60 01 26 3d 5a 67 ef 3d 60 13 92 3d cc 7a 21 be
       0.040528655 0.116896346 0.07132602 -0.157695
000020 70 72 ac 3b 98 5e fa bc 14 69 2f 3e 4c 04 31 3c
       0.0052626655 -0.030562684 0.17129928 0.010804247
000030 32 55 66 3d 98 f8 53 3d 21 50 98 bd 22 95 cf 3d
       0.056233592 0.05175075 -0.074371584 0.10135867
000040 3a 38 44 bd 01 20 80 3d 7b a2 d7 3b 88 61 7f 3d
       -0.047905184 0.06256104 0.0065806485 0.062348872
000050 4d c2 2e bd 10 f6 f5 bb 62 1e 9d 3c f4 85 09 bd
       -0.04266577 -0.0075061396 0.019179527 -0.033575013
000060 28 61 ae bc 3e 00 7e 3d 8d 36 2c 3e 5a 26 93 bc
       -0.021286562 0.06201195 0.16817684 -0.017962623
000070 87 40 f8 3c 88 e7 53 3c fb 24 98 3c 44 e9 70 bd
       0.030304207 0.012933619 0.018572321 -0.05881621
000080 4b cd 6e bd d9 dc 1d bb 5f de 15 3d 80 74 57 bd
       -0.05830125 -0.0024087934 0.036589023 -0.052601337
000090 a2 9d 8b 3d 3b 84 3c 3d e0 0f b7 3a 16 0d 1a 3d
       0.068171754 0.046024542 0.0013966523 0.037610136
0000a0 d5 35 fe bc bf 00 0a bc 3c 28 16 3e d0 6d 24 3d
       -0.031031528 -0.008423029 0.14663786 0.040143788
0000b0 ec 18 bc bd 26 15 2c 3c 0f 1b 6b 3d 34 76 4c be
       -0.09184441 0.010503089 0.057398852 -0.19966966
0000c0 c5 9f 38 be 22 97 94 3d 31 51 09 3d f9 3e 05 3e
       -0.18029697 0.07255389 0.033524696 0.13012303
0000d0 1e 45 e7 3d 52 bf 5c 3d fa 7f a0 3d ae 62 08 bd
       0.1129248 0.053893395 0.078369096 -0.033297233
0000e0 af 20 5c 3d 03 87 1d 3d 02 aa 49 3d 62 17 32 bd
       0.053742107 0.038458835 0.049234398 -0.04347933
0000f0 7a d4 54 3d 99 ad de bb f7 37 8d 3d 5a c1 7e bc
       0.051960446 -0.006795597 0.0689544 -0.015549028
000100 e6 33 92 3d db bb 5c 3c e9 49 01 be 04 f4 36 be
       0.07138805 0.013472523 -0.1262585 -0.17866522
000110 71 3d 60 3d 4f 02 56 bd 85 0e 12 3b 1a e9 32 be
       0.054746095 -0.052248295 0.0022286486 -0.17471734
000120 4f e6 03 be bb 01 ec ba e2 b1 fa 3d 35 f3 f1 3b
       -0.12880825 -0.0018005887 0.1224096 0.007383729
000130 d0 9b 5d 3e 01 2f eb 3d c8 c6 d9 3d 57 bc 89 3d
       0.21641469 0.11483575 0.10633618 0.06725376
000140 f3 cc b7 3c 90 b1 9e 3d 2b 30 c0 3b a9 93 90 3d
       0.022436595 0.07748711 0.005865117 0.07059414
000150 12 d4 bc bd 2e e7 79 3d 42 b4 57 bd d9 b8 84 bc
       -0.09220137 0.061011486 -0.05266214 -0.016201423
000160 1d fe 42 bd 07 1e 85 3d f8 2a 2a bd c5 97 e9 3d
       -0.047605623 0.06499868 -0.041544884 0.11405901
000170 26 b8 47 3e c7 70 b0 bc 46 50 a4 bd b2 b1 47 3d
       0.19503841 -0.021538151 -0.080231234 0.048753448
000180 3c 7a 07 3d ca d7 e1 3d 84 df 11 3c de 05 14 3e
       0.033075556 0.110274866 0.008903388 0.14455363
000190 f4 92 67 bd 66 07 04 3e 84 a6 89 bc d4 38 22 3d
       -0.05653663 0.12893447 -0.016803034 0.039604977
0001a0 6c 8b 70 bd cc 27 0a bd 8c 39 0c bd cf aa 38 3d
       -0.058726713 -0.03372936 -0.03423457 0.04508477
0001b0 7b c8 db bd bd ab 07 bd 8e df a1 3c 0b a6 de 3a
       -0.10731598 -0.033122767 0.01975992 0.001698674
0001c0 84 0f df bc 6f b5 10 bd 80 71 3d bd 49 fb 87 3d
       -0.027229078 -0.03532928 -0.04625082 0.06639726
0001d0 df fd c0 3d 92 75 9b 3d 29 d6 2c be 06 8a 40 bd
       0.09423422 0.07590784 -0.1687857 -0.04700663
0001e0 c6 28 a9 bb e5 71 85 bc 62 37 61 3d 1d 07 b8 3c
       -0.0051623313 -0.01628966 0.054984458 0.02246433
0001f0 2d 7a 34 3e aa 9a f9 bd de 2e 00 be d7 cd 03 3c
       0.17624731 -0.12187703 -0.12517878 0.0080446815

layer2.weight f4 [64, 128]
000000 8d e9 f1 3c ba b5 51 3d 1a c2 17 be 72 e0 ee bd
       0.029530311 0.0511987 -0.14820138 -0.11663903
000010 46 f6 7f 3c 38 8b 6e 3c 08 60 5b bd 47 65 1c bd
       0.015622681 0.0145595595 -0.05355838 -0.038182523
000020 d3 02 69 be 57 a9 7e 3d ec 83 0b bf e3 8b 21 be
       -0.22754984 0.062173214 -0.5449817 -0.15776019
000030 f8 71 b7 3d 8e 6d 84 3c 8b b0 18 bd 4b ad 4c 3d
       0.08957285 0.016165521 -0.03727774 0.049969953
000040 f9 2b 09 bd f4 3e 0f 3c 92 f9 68 3d 1b bf 09 3d
       -0.0334892 0.008743037 0.056878634 0.033629518
000050 ad 0b e2 bc 43 f4 03 be 60 8f 92 3c 6d 7d 8e be
       -0.027593458 -0.12886147 0.017890632 -0.27830067
000060 2a 7a 59 bb c0 f6 ec bd e8 76 8e 3c 5d 97 9f bd
       -0.0033184388 -0.11570501 0.017390683 -0.07792542
000070 6a 34 82 3d 99 8f c1 3d 68 a8 be bb 90 c2 db 3c
       0.063576534 0.09451217 -0.0058184154 0.026826173
000080 a9 e9 d4 bd 6c 16 ee bd ad 42 5a bd 6b 48 cf 3c
       -0.1039613 -0.116253704 -0.053286243 0.025303086
000090 f0 64 36 bc 86 54 37 be 90 6f 6f 3c a2 44 82 be
       -0.011132464 -0.17903337 0.014614001 -0.25442988
0000a0 11 f2 c4 bc a8 d0 2e bd ff 45 a4 bd 4b 63 0a 3e
       -0.024041208 -0.04267946 -0.08021163 0.1351444
0000b0 dc 38 e6 bd 76 c6 7d bc 56 d8 ba 3d 41 41 92 be
       -0.11241314 -0.015489211 0.09123294 -0.2856541
0000c0 f6 ad fd be 6a c2 ab 3d 26 54 a3 3c da 31 2a 3d
       -0.49546784 0.08386691 0.019937586 0.04155145
0000d0 64 b4 c9 3d 43 a4 dd bc ba 41 a9 3d 48 83 ca 3c
       0.0984886 -0.027055865 0.082644895 0.024720803
0000e0 d8 b9 50 be 09 3e 25 3e 53 11 30 3d bd 5a 84 bd
       -0.20383394 0.16136946 0.04298527 -0.064626195
0000f0 08 55 24 3e 63 81 88 bd 1c ff a8 3d bb 47 2a bd
       0.16048062 -0.066653036 0.08251783 -0.041572314
000100 8d 00 a7 bc 27 51 b6 3c 28 ae 1d be 3b d5 c6 bd
       -0.020386005 0.022255493 -0.15398467 -0.09708639
000110 17 1d 61 be 03 aa 41 bd 8f f1 9b 3c 92 e9 00 be
       -0.21983753 -0.047281276 0.019036083 -0.125891
000120 82 9f 6f be d1 36 9a 3d 0c 61 05 3e c5 a9 90 3d
       -0.23400691 0.07529987 0.13025302 0.07063631
000130 95 0e 45 bd 60 52 6c bf ec 4e bc be 4f dc 90 3d
       -0.04810961 -0.92313194 -0.36778963 0.070732705
000140 24 c9 42 3e b1 9a 41 3d 21 63 65 be eb 98 d3 3d
       0.19022042 0.047266666 -0.22401096 0.10331901
000150 86 97 f3 3c b6 43 1b be be e3 8a bd 89 45 6a 3d
       0.029735338 -0.15162548 -0.067817196 0.05719522
000160 35 37 06 bc 4e 0f d7 3d b6 e9 77 3c 1a 51 bf 3d
       -0.008191873 0.10500966 0.015131405 0.09341641
000170 5d 98 90 3d 30 f1 94 3d 4f 83 8b bd e4 43 b4 3d
       0.07060311 0.07272565 -0.068121545 0.088020116
000180 cb 74 22 3c 8e ca 92 3d e4 2d 32 bd 3c 73 19 3d
       0.009915541 0.071675405 -0.043500796 0.03746341
000190 84 34 c6 3d dc e1 bd 3d 19 61 2d bd df 17 3d 3c
       0.09677985 0.09271595 -0.042328928 0.011541336
0001a0 1a 00 a0 be 6e fb 4f bd 41 d5 19 bd 48 7c 7c be
       -0.31250077 -0.05077689 -0.03755689 -0.24656785
0001b0 33 f6 a8 be 23 1c 1f be 3b 8b 58 3d 36 df 12 3e
       -0.33000335 -0.15538077 0.052867156 0.1434296
0001c0 b6 61 9a bd 91 7e e6 bd a5 69 5f 3d f0 12 ab 3a
       -0.07538168 -0.112546094 0.05454411 0.0013051908
0001d0 30 bd 4f be 9c 51 60 bf 6f 5f 16 be 3b 7a 38 be
       -0.20287013 -0.87624526 -0.14684843 -0.18015377
0001e0 1f 96 e2 3c 79 e5 a5 be 55 50 ce 3c b3 a9 d7 bc
       0.027659474 -0.32401636 0.02518479 -0.026326036
0001f0 c3 86 97 3d 93 f5 2d bd 03 ef 7a be ab 83 72 3d
       0.07398751 -0.042470526 -0.24505238 0.0592076
000200 ef 21 5f 3c d0 e5 84 be 26 a2 82 be 05 80 b7 bd
       0.01361893 -0.25956583 -0.25514334 -0.08959965
000210 3d a7 7f 3d 46 5a 1d bd b3 3e be bd ea cf 7a 3e
       0.06241535 -0.03841617 -0.09289303 0.24493375
000220 0d 85 62 bd 49 23 02 3b d9 51 f2 be fb 46 75 3c
       -0.05530267 0.0019857457 -0.4732807 0.014970536
000230 54 89 3a be 7f ab 1e bc a2 9f 5e 3c 8d b7 37 be
       -0.18216449 -0.009684443 0.013587864 -0.17941113
000240 8e f5 44 be 69 93 8f 3c ac 1a 01 3d 94 7b b8 3d
       -0.19234297 0.017526345 0.031519577 0.09007946
000250 d8 f7 91 3d 81 92 ee be ac a3 a6 3b 84 cb c5 bc
       0.071273506 -0.4659615 0.005085429 -0.024144895
000260 d1 78 a6 3c c5 c8 57 3d de 24 e6 bc c4 31 35 be
       0.020321282 0.052681703 -0.028093752 -0.17694765
000270 30 e3 c7 3d 48 ca 8d bd 3c c7 90 3d b1 e7 29 be
       0.097601295 -0.06923348 0.07069251 -0.1659229
000280 70 c9 cc 3c 6a c6 63 be 98 b1 26 3e 65 23 7e 3d
       0.024998397 -0.22243658 0.16278684 0.062045474
000290 f5 6b 4f 3c a6 2c 19 3d 9a 1b c9 bd 2f b9 b0 be
       0.012660016 0.037396096 -0.09819718 -0.34516284
0002a0 d9 11 15 bd d6 cc 12 bd 50 5f 81 be 55 40 82 3e
       -0.036393974 -0.035839878 -0.2526803 0.25439706
0002b0 2e d5 b2 3b 40 db b1 3d bd f8 87 3d 0f 02 f5 bc
       0.005457542 0.08684397 0.0663924 -0.029908208
0002c0 8f 1e 63 be 38 ee 7f 3d 4c 6c 60 3c c1 9e 9b bd
       -0.22179626 0.062483042 0.013697695 -0.07598639
0002d0 93 cc e8 3d a7 82 b4 bc 98 65 84 3d 10 8d 42 be
       0.113671444 -0.022034956 0.0646469 -0.18999124
0002e0 4c 3a 84 be 75 e4 06 3e 21 a0 35 bd bf 58 f8 bd
       -0.25825727 0.13173087 -0.044342164 -0.12126302
0002f0 6d bb f8 3c ca 05 1a be 84 d0 17 3e 4a 75 fe 3c
       0.03036281 -0.15041271 0.14825636 0.031061787
000300 09 31 3d 3d 1e 51 33 be 2e 14 61 3d 7b e8 49 bd
       0.04618934 -0.17511413 0.054950885 -0.049293976
000310 60 a3 8f 3d 9d e9 0b be 41 82 b5 bd 23 86 29 bc
       0.07013583 -0.13663335 -0.088627346 -0.010346922
000320 ed 28 d5 3d fc ba 0c bd fb 81 57 bc 28 3f 86 be
       0.104081966 -0.03435801 -0.013153548 -0.2622006
000330 45 ae 95 3e d9 50 f8 be 5b 47 0c be 98 72 1f 3d
       0.2923452 -0.48499182 -0.13699095 0.038927644
000340 b2 3c bb 3d ac 3b b9 bd a5 42 0b bf 4d 9d 34 3d
       0.09142436 -0.09044585 -0.54398566 0.044095326
000350 ef f5 7a 3d ec 6e 66 3d d6 62 3e bd 20 d9 08 bd
       0.061269697 0.056258127 -0.046480976 -0.03341019
000360 72 a2 18 38 0f f3 6d 3d a7 94 c6 bc 21 5f af 3d
       3.6390913e-05 0.058093127 -0.024240805 0.08563066
000370 a6 0d a1 bd 86 55 5c 3e 26 eb 61 be 82 52 0c 3d
       -0.07863931 0.21517 -0.22062358 0.034258373
000380 ed 94 93 bb 21 38 dc bd 69 c9 29 bd 4b 6c 33 bd
       -0.0045038373 -0.10752893 -0.041451845 -0.043804448
000390 2a a0 d0 3d 5a 8e 8f 3e 95 67 dc 3c 01 88 0f 3d
       0.10186799 0.28038293 0.02690486 0.035041813
0003a0 da e8 6c bf 7c c4 cf bc 57 8f 67 3c 08 59 41 bf
       -0.92542803 -0.025362246 0.014133296 -0.75526476
0003b0 5c 80 83 be 3e 3e ce bc fc f2 d5 bb e9 47 27 3e
       -0.25683868 -0.025176164 -0.00652921 0.16336025
0003c0 4a 52 c5 bd 12 bb d7 3c cd 4c 26 bd e6 57 b4 bd
       -0.09634836 0.02633432 -0.040600587 -0.08805828
0003d0 28 1d bc 3d 0a 53 e0 bd 4e 9e df 3d f9 10 45 be
       0.091852486 -0.109533384 0.10918866 -0.19244756
0003e0 8a a2 23 bc b7 95 e7 be 48 b1 03 3c 39 30 55 3c
       -0.009987483 -0.4523141 0.008037873 0.013011985
0003f0 70 77 9e 3c 1a 75 81 bc c3 32 55 3e df 68 d4 3c
       0.019344062 -0.015802909 0.20820145 0.025928913

layer2.bias f4 [64]
000000 51 15 0f 3e df 11 8c 3d 41 73 cb bc 8a 96 12 be
       0.13972975 0.06839346 -0.02483523 -0.14315239
000010 dd 6c 41 bd fb 76 75 3d 0b 37 63 bd d3 0a 3a bd
       -0.04722296 0.05992792 -0.055472415 -0.04542048
000020 08 52 58 3d 50 73 c9 3b 5a 16 fa bc 6d fc 1f 3b
       0.052812606 0.0061477795 -0.030528236 0.0024411932
000030 04 19 3a 3d 56 81 c9 3d f0 39 70 3d ee 98 7d 3d
       0.045434013 0.09839122 0.058649004 0.061913423
000040 6b 88 2b be 96 9a d7 3d b6 94 2a 3e 1f 64 bf bc
       -0.16751258 0.10527532 0.16658291 -0.023363171
000050 79 54 28 bc 28 6c 96 bc af e0 11 3e 04 9b 21 bd
       -0.010274046 -0.01836212 0.14245866 -0.039454475
000060 55 00 80 3d 4e 9a fa bc 03 21 4d bc 7a 4f ab 3d
       0.06250063 -0.030591156 -0.012520078 0.08364768
000070 6e 91 45 3c d5 fb 41 bd a1 13 26 3e 5f 4f 51 3c
       0.012058599 -0.047359306 0.16218425 0.012775271
000080 ca fe ce 3b 73 ef 72 3d 4c fe 91 3d 55 46 51 bd
       0.0063169943 0.059310388 0.071285814 -0.051092464
000090 19 06 18 3e 47 67 07 be 26 e2 46 ba f1 c7 04 3e
       0.14846076 -0.13222991 -0.00075867993 0.12966897
0000a0 c4 5b a7 bb 4c 60 fc 3c dd 94 18 3e 1f 2b b0 bd
       -0.005107375 0.030807637 0.14900537 -0.08601975
0000b0 f1 e9 fd bc 74 f1 e6 bc 0a 8d b3 bd 0a 93 34 3e
       -0.030995341 -0.028191306 -0.087671354 0.17634216
0000c0 1e 62 ab 3c a7 fe 73 bd bd 7c 64 bd 43 8e c9 3d
       0.02092081 -0.059569027 -0.055783022 0.098415874
0000d0 9e 8f e0 3d c6 52 bc 3d d9 f3 87 bc b6 2e b1 3d
       0.10964893 0.09195475 -0.016595768 0.086514875
0000e0 7d 97 ae 3d ae 27 f0 3d 7b e7 cc 3d 5f 6f 90 3d
       0.08524988 0.11726318 0.10005089 0.07052492
0000f0 60 c7 86 bb 7a 4c 4b bd ac 25 d5 bc a4 70 27 3e
       -0.004113123 -0.04963348 -0.02601894 0.16351563

layer3.weight f4 [4, 64]
000000 9b e1 05 3f d0 5f 11 3f 89 3a 60 3e f0 cf 0d 3f
       0.5229737 0.56786823 0.2189733 0.5539541
000010 95 11 cd be ae d1 02 3e c1 7c b9 be a9 5d 90 be
       -0.40052477 0.12775299 -0.36227992 -0.28196457
000020 72 76 cb 3e 3f 4b ac be 9d 3f 54 be ec ac 0f be
       0.39738804 -0.33651158 -0.20727392 -0.14030808
000030 2a b8 87 3d 12 b1 26 3e 71 b9 a6 3e 0a 64 a9 3e
       0.066269234 0.16278484 0.32563356 0.33084136
000040 bc ed 09 bf c2 f1 16 3f 9d a8 7a 3d 37 d3 36 be
       -0.5387838 0.58962643 0.06119596 -0.1785401
000050 a6 9f cd bd 32 7a 43 be 69 bc 29 3e 52 e2 08 be
       -0.10040216 -0.19089583 0.16575779 -0.13367584
000060 d0 83 ab 3e ff 89 9a bd de e6 15 3d 59 86 63 3e
       0.33499002 -0.07545852 0.036597125 0.22219218
000070 b5 e6 a0 3e fc 7d 54 3e 31 2d a8 3d 9a b8 4f 3d
       0.31426015 0.20751184 0.082117446 0.05071316
000080 d4 2f db 3e 3b 26 27 3d 62 da ab 3a e0 6f 53 be
       0.42809927 0.040807944 0.0013111348 -0.20648146
000090 ba 78 77 3e 00 be db be 18 d7 fe 3e c9 62 9c 3c
       0.24167147 -0.42918396 0.49773479 0.019090073
0000a0 c2 d9 81 be 04 dd 05 3e c7 17 a6 3d 51 51 99 3e
       -0.2536145 0.13072592 0.08110004 0.29944852
0000b0 b5 e4 89 be ba a2 ca be e1 68 8d be 05 0f a4 3d
       -0.26932302 -0.39577276 -0.2761908 0.08010677
0000c0 97 4e 86 3e f5 7b 8c bd cc d2 15 be 61 a6 3b 3f
       0.26231834 -0.068595804 -0.14631194 0.7330075
0000d0 d7 c4 07 3f 9b e6 ba 3e af e7 84 bb 65 e6 26 3e
       0.5303473 0.36504063 -0.004055939 0.16298826
0000e0 eb 8d 17 3f 6e 41 16 3e a1 02 8e 3e fe 95 98 3e
       0.59200925 0.14673397 0.2773638 0.29801935
0000f0 c9 46 9f bd 12 95 1a 3e 30 38 3a be 76 09 c9 3d
       -0.07777173 0.15095928 -0.18185496 0.09816258
000100 9c 5c f2 3e a1 6a 13 3f ea 45 13 3f 60 ba f3 3e
       0.4733628 0.5758458 0.57528555 0.4760313
000110 36 e3 3b bf 22 60 4d 3e 43 32 0c 3e a3 d0 74 be
       -0.7339357 0.20056203 0.13691048 -0.23907714
000120 7e b7 d2 3e 94 b6 b3 be b4 b3 59 be 66 fb 34 be
       0.41155618 -0.35100234 -0.21259958 -0.17674026
000130 c8 80 0e 3e 35 ef 10 3e a9 9b a0 3e 3d a8 c2 3e
       0.13916314 0.1415375 0.3136876 0.3801898
000140 08 74 01 bf dc 70 14 3f ce 1b e3 3d 6f 8f e4 be
       -0.50567675 0.5798471 0.11089288 -0.4464068
000150 a5 13 c7 be 5f 63 9a bf 45 59 fc 3d 31 40 42 be
       -0.38882175 -1.2061576 0.12321714 -0.189698
000160 b3 89 bf 3e ec 28 68 be e9 02 b6 3e b4 9a 44 3e
       0.37409744 -0.2267186 0.35549095 0.1919964
000170 bf b0 ae 3e f8 ff 8b be d7 60 bf 3d f6 7d 4f 3e
       0.34119222 -0.27343726 0.093446426 0.20262894
000180 e4 95 d5 3e 4c 5e 2e 3e 5a 12 fd 3d 85 e0 62 be
       0.4171592 0.17028159 0.12357016 -0.2215596
000190 08 20 62 3e 34 2a d1 be c5 93 5c be 42 b5 d0 3d
       0.22082531 -0.4085251 -0.21540745 0.10190822
0001a0 a2 29 99 be bd b4 bb 3e 63 5b 9f 3d 4a 8e d4 3e
       -0.29914576 0.3666133 0.077811025 0.41514808
0001b0 c2 d1 b2 be 8c 35 df be 98 48 86 be 6e 08 aa 3d
       -0.34925658 -0.4359554 -0.2622726 0.08302389
0001c0 ef 90 b5 3e 17 8e ed bf 75 78 80 be cb ed 37 3f
       0.35462138 -1.8558987 -0.250919 0.7184722
0001d0 40 8d 4f 3f bb ba a7 3e ae 5d 83 3a 5e 6a 28 3e
       0.81074905 0.32759652 0.0010022426 0.16446826
0001e0 33 f8 0f 3f 2a 8e d8 3d 26 da 6b 3e 1a 71 9a 3e
       0.56238097 0.10573991 0.23032436 0.30164415
0001f0 f4 2c 91 be 2d 49 60 3e 0c 39 b3 be e3 e6 be 3d
       -0.2835461 0.21902914 -0.3500446 0.09321382
000200 aa 8b 11 3f 19 72 39 3f 41 ea f0 3d 8c a3 da 3e
       0.56853735 0.72439724 0.117634304 0.427029
000210 4e d0 da be 40 e3 16 3e ed 8c d7 be 5f 01 6a be
       -0.4273705 0.14735126 -0.42099705 -0.22852086
000220 dc 76 c8 3e b4 b5 80 be 6a 39 71 be 4e dd 20 be
       0.39153183 -0.25138628 -0.23557058 -0.15709421
000230 13 72 84 3c 16 14 59 3e 2b ed a9 3e 63 ef 2e 3e
       0.016167676 0.21199068 0.33188757 0.17083506
000240 0c 78 0e bf 9e 6b 1c 3f 88 18 6d 3d 65 82 16 be
       -0.55651927 0.6110171 0.057884723 -0.14698179
000250 46 fe 83 bd 03 a1 07 be c2 30 39 3e e1 9b 0e be
       -0.06444983 -0.13245015 0.18085006 -0.1392665
000260 94 32 95 3e 2b 5a 9d bd da 9d 8c bc 7b 51 82 3e
       0.2914015 -0.07683214 -0.017165113 0.2545279
000270 2b 2f a6 3e 55 5e 64 3e f5 3c 0c 3e 1d 56 c3 3d
       0.3245786 0.2230161 0.13695128 0.09537909
000280 04 be c8 3e 11 dc 53 3c a2 11 3b 3c 96 92 42 be
       0.3920747 0.012930886 0.011417778 -0.1900123
000290 2c f2 60 3e e3 ff e9 be 27 e1 c8 3e ec 30 73 3d
       0.21967381 -0.4570304 0.39234278 0.059372827
0002a0 9a f2 18 be da a6 93 3e c2 36 00 3e 3b d7 ed 3e
       -0.14936295 0.28838235 0.12520888 0.4645327
0002b0 d2 01 8b be 3e fd a3 be 4c ed 7d be fc 02 90 3d
       -0.27149826 -0.32029146 -0.24797553 0.07031819
0002c0 f8 72 60 3e eb dc 0a bd 20 b2 0b be 93 12 39 3f
       0.21918857 -0.03390209 -0.13642168 0.72293967
0002d0 49 9a f6 3e 18 15 bf 3e c5 e9 08 bc 5a f3 20 3e
       0.48164585 0.3732078 -0.008356516 0.15717831
0002e0 1e 41 17 3f 7c a3 06 3d 77 ad 1f 3e 86 19 ad 3e
       0.59083736 0.032870755 0.15593515 0.33808535
0002f0 21 77 d6 bd b8 34 2a 3e e4 0a 07 be 39 5e b0 bc
       -0.10471941 0.16621673 -0.13187748 -0.021529304
000300 af 6c fd 3e f4 db c9 3e 1c 6b 6f 3e 6b a6 29 3f
       0.49496982 0.39425623 0.23380703 0.6626956
000310 94 ec 9c be 01 3c b3 3d 00 77 a3 be 49 41 ae be
       -0.30649245 0.08751679 -0.31926727 -0.34034184
000320 56 55 cb 3e 74 39 d9 be 36 2b 3b be b6 ab d5 bd
       0.39713544 -0.42426646 -0.18278202 -0.10433142
000330 2e aa a5 3d 34 c1 dc 3d 38 1b a6 3e f9 08 eb 3e
       0.080891 0.10779038 0.3244264 0.45905283
000340 1e 2d 09 bf 70 2e 0f 3f fc be 7c 3d 5d cb 32 be
       -0.5358447 0.55930233 0.061705574 -0.1746039
000350 da 4b b8 bd 16 24 09 be 5b de 16 3e 24 88 d2 bd
       -0.089988425 -0.13392672 0.1473326 -0.10279873
000360 9a 33 c9 3e 0b 92 bc bd 41 1b 34 3d 26 28 58 3e
       0.3929718 -0.09207543 0.043971304 0.21109065
000370 7f e6 a6 3e 16 e6 85 3e c2 bb 34 3b 62 e0 09 bd
       0.3259773 0.26152104 0.0027577733 -0.033661254
000380 03 95 ec 3e f7 4d cd 3c 60 e2 87 3b 5c 41 4e be
       0.46207437 0.02506159 0.004146859 -0.2014212
000390 13 68 8a 3e d6 df d0 be 81 a1 16 3f 68 07 62 bc
       0.27032527 -0.40795773 0.58840185 -0.013795711
0003a0 63 80 a0 be a8 6c d6 bd 82 f7 d3 3d a3 18 20 3e
       -0.3134795 -0.10469943 0.10349943 0.15634398
0003b0 b9 85 87 be 6b 88 dd be ab dd 90 be bd b1 a2 3d
       -0.2646921 -0.4326814 -0.2829412 0.07944057
0003c0 73 f0 8d 3e c2 bd 1d 3d 22 8b 25 be 14 4e 40 3f
       0.2772251 0.038511045 -0.16166356 0.7511914
0003d0 8d 4d 01 3f 30 b7 b2 3e 2f 47 c9 bc 1b b4 23 3e
       0.5050896 0.34905386 -0.024570076 0.15986674
0003e0 af f1 14 3f e4 9b 86 3e 82 39 c1 3e 08 9a 89 3e
       0.5818128 0.2629081 0.37739187 0.2687533
0003f0 b7 03 6c bd 64 38 16 3e f2 c5 5e be 72 73 31 3e
       -0.05762073 0.14669949 -0.21755198 0.17329195

layer3.bias f4 [4]
000000 9c c0 3c 3e bb e1 22 3e 9e 48 3e 3e 52 d7 41 3e
       0.1843285 0.15906422 0.18582389 0.18929794
