models/model_2/nets/900_target_net.pt (torch, 46990 bytes, 6 tensors)

layer1.weight f4 [128, 19]
0.045019403 0.20239745 -0.0759514 0.003954418 -0.047106095 -0.34274808 -0.053749774 -0.04262029
0.0494973 0.017838012 -0.020437136 -0.012394763 -0.045668297 0.08358565 -0.015291963 -0.0013070169
-0.05427035 0.012288259 0.048231225 -0.060734436 -0.021180771 -0.014372118 0.019960597 0.20297098
-0.55461067 0.036657337 -0.052529745 0.10225819 0.020869061 -0.018848501 0.018782357 -0.041323926
0.03557425 -0.018506322 -0.13919088 0.10181377 -0.09202133 -0.023580471 0.03632566 0.07727947
-0.11419867 -0.1117268 -0.033412054 0.088165164 -0.18359274 -0.050929807 -0.026816737 -0.011701127
-0.054168884 -0.03821524 0.023536135 -0.068576805 -0.053989895 -0.0053961603 -0.034195296 -0.022726106
0.036040276 -0.04496851 -0.053291753 0.24495533 0.03317425 0.024927942 0.36621952 0.019214436
0.015341803 -0.05398082 -0.008728146 0.011025266 0.023957036 -0.013040902 -0.009026501 -0.09228506
-0.13227935 -0.04196144 -0.08663537 -0.06813676 -0.083408855 0.009262294 -0.06009012 0.07277432
0.18583909 -0.041627567 -0.0004783744 0.06704085 0.034546852 -0.019885575 -0.060160153 -0.035786856
-0.09365978 0.01198794 0.057392832 -0.034461446 0.06863634 -0.10202334 -0.043785054 -0.015931211
-0.08901758 0.14273399 0.08973664 -0.05608684 -0.044358548 -0.06314338 -0.094996676 -0.07837242
0.008389969 0.025706837 -0.024644567 -0.053616136 0.013055696 -0.012408906 0.039946217 0.005453885
0.0219907 0.010301889 -0.089807376 0.18430312 -0.019023776 0.006570715 -0.012682068 -0.04179298
-0.04146708 -0.13997906 -0.02673872 0.042716723 -0.011695721 0.027704813 -0.004169037 -0.023630168
-0.026799573 -0.009685759 0.005540657 -0.022692582 0.00094868697 -0.06032366 -0.030859971 0.03129842
-0.00372756 -0.07160752 0.38822198 -0.04298951 0.1493765 -0.086473644 -0.009578361 0.004329656
-0.002834251 0.010239327 -0.018491047 -0.057941947 -0.03353069 0.025573093 0.016527768 -0.026860356
0.100121215 0.07630895 -0.11678493 0.0049295863 -0.19748822 -0.10575816 -0.08079276 -0.04444849
0.041016057 0.012755859 -0.07109343 -0.14371803 0.045411583 0.18020202 0.028742678 0.044055585
-0.06210596 0.043857224 0.04658691 0.017116943 0.008691709 0.058405437 0.003971811 -0.18662073
0.022739116 -0.05947299 -0.055117212 -0.052825496 -0.031888086 0.0930754 0.008839408 -0.03938687
0.02002247 0.0017195924 0.00067795825 0.1043112 0.122598074 0.07603817 -0.03676769 0.032775775
0.0149918115 -0.002218982 0.13145342 -0.40418836 0.017229859 -0.18779176 0.024749478 -0.007259989
-0.0013962163 0.0035277868 -0.0012725365 0.017808944 -0.008188287 0.048585664 0.0017981157 0.005325554
-0.024513232 -0.012250096 -0.24868083 -0.35828367 -0.001857027 0.00702384 0.42468715 0.0050480203
0.061399784 0.038285512 0.0057052067 0.01995255 0.0026040033 -0.01757025 -0.0053151953 -0.013917501
0.01165809 -0.05415903 0.030957067 0.21224055 0.016670581 -0.17148897 0.026700472 0.011567342
0.15558478 0.14234349 -0.08185024 0.03001398 0.012056305 0.006476606 -0.028928591 0.025929015
0.0037621914 -0.109468214 0.021008546 -0.035256647 -0.0074848593 -0.031063244 -0.022354765 0.1145959
0.019774139 -0.0087412605 -0.008639984 -0.3695291 0.074491024 -0.044540912 0.036927413 0.06714645
00000000: 4466 383d 4741 4f3e 688c 9bbd 1094 813b
00000010: 52f2 40bd ad7c afbe b928 5cbd 9d92 2ebd
00000020: aebd 4a3d 0621 923c c86b a7bc 6713 4bbc
00000030: ae0e 3bbd f42e ab3d 248b 7abc 3650 abba
00000040: 964a 5ebd b254 493c 1b8e 453d acc4 78bd
00000050: 4c83 adbc 0879 6bbc 6884 a33c a0d7 4f3e
00000060: f7fa 0dbf 0126 163d 6e29 57bd be6c d13d
00000070: 98f5 aa3c 2c68 9abc 75dd 993c 4743 29bd
00000080: 4eb6 113d 929a 97bc 0e88 0ebe bd83 d03d
00000090: ae75 bcbd d52b c1bc 37ca 143d b344 9e3d
000000a0: fee0 e9bd 05d1 e4bd 14db 08bd f08f b43d
000000b0: bcff 3bbe c69b 50bd c6ae dbbc 15b6 3fbc
000000c0: 31e0 5dbd 9587 1cbd dace c03c ff71 8cbd
000000d0: 8224 5dbd 46d2 b0bb 5e10 0cbd 192c babc
000000e0: f89e 133d e630 38bd 7448 5abd 92d5 7a3e
000000f0: b9e1 073d af35 cc3c 2081 bb3e 9867 9d3c
00000100: 305c 7b3c fe1a 5dbd 7f00 0fbc 51a3 343c
00000110: 8c41 c43c 82a9 55bc e4e3 13bc f3ff bcbd
00000120: 3d74 07be c2df 2bbd e36d b1bd 498b 8bbd
00000130: 43d2 aabd e0c0 173c 0f21 76bd b40a 953d
00000140: 9a4c 3e3e ab81 2abd 53ce fab9 b74c 893d
00000150: 0081 0d3d 13e7 a2bc 7e6a 76bd 3d95 12bd
00000160: b3d0 bfbd 1169 443c bf14 6b3d 7227 0dbd
00000170: 3691 8c3d 9df1 d0bd f557 33bd 2c82 82bc
00000180: d94e b6bd dc28 123e d8c7 b73d 50bb 65bd
00000190: 4fb1 35bd 5151 81bd 9e8d c2bd b881 a0bd
000001a0: 1576 093c 2597 d23c 67e3 c9bc 989c 5bbd
000001b0: 8fe7 553c b94e 4bbc a59e 233d 81b6 b23b
000001c0: d725 b43c 41c9 283c eeec b7bd f5b9 3c3e
000001d0: c0d7 9bbc 274f d73b 73c8 4fbc 1e2f 2bbd
000001e0: 63d9 29bd ac56 0fbe 290b dbbc bbf7 2e3d
000001f0: 699f 3fbc 34f5 e23c 6b9c 88bb 0e94 c1bc
00000200: c78a dbbc 05b1 1ebc 668e b53b cbe5 b9bc
00000210: 4eb1 783a f115 77bd 0dce fcbc c632 003d
00000220: 144a 74bb f7a6 92bd 08c5 c63e c515 30bd
00000230: 27f6 183e 1819 b1bd 8fee 1cbc c9df 8d3b
00000240: d7be 39bb dac2 273c 897a 97bc 8954 6dbd
00000250: 7a57 09bd aa7e d13c 3e65 873c 400a dcbc
00000260: 5a0c cd3d de47 9c3d f02c efbd 5e88 a13b
00000270: 5a3a 4abe bc97 d8bd ad76 a5bd 9f0f 36bd
00000280: 7400 283d f3fd 503c 6f99 91bd d22a 13be
00000290: 7f01 3a3d e186 383e c475 eb3c a173 343d
000002a0: d262 7ebd a2a3 333d ead1 3e3d d538 8c3c
000002b0: ab67 0e3c 8a3a 6f3d f725 823b 8119 3fbe
000002c0: 6247 ba3c f399 73bd 96c2 61bd 8c5f 58bd
000002d0: 159d 02bd 519e be3d 2ad3 103c 2054 21bd
000002e0: 2a06 a43c f263 e13a 02b9 313a 1ca1 d53d
000002f0: b314 fb3d e6b9 9b3d b899 16bd e43f 063d
00000300: 37a0 753c 576c 11bb ba9b 063e c7f1 cebe
00000310: a225 8d3c 7c4c 40be 6bbf ca3c 34e5 edbb
00000320: 3f01 b7ba 7132 673b 3dcb a6ba 10e4 913c
00000330: 2a28 06bc c301 473d c0ae eb3a fc81 ae3b
00000340: f9cf c8bc a0b4 48bc 30a6 7ebe f570 b7be
00000350: 7c67 f3ba 3e28 e63b 9870 d93e dd69 a53b
00000360: 577e 7b3d 45d1 1c3d bef2 ba3b 8873 a33c
00000370: eda7 2a3b 7cef 8fbc 172b aebb 3b06 64bc
00000380: 9301 3f3c dcd5 5dbd ad99 fd3c 9655 593e
00000390: be90 883c ce9a 2fbe f3ba da3c f384 3d3c
000003a0: 9e51 1f3e 7ec2 113e 19a1 a7bd e1df f53c
000003b0: cf87 453c b539 d43b a7fb ecbc 1669 d43c
000003c0: 198f 763b df30 e0bd 1d1a ac3c 4669 10bd
000003d0: 8d43 f5bb 5878 febc 5721 b7bc 41b1 ea3d
000003e0: 60fd a13c 8137 0fbc b88e 0dbc eb32 bdbe
000003f0: c08e 983d 8870 36bd 3341 173d 1484 893d

layer1.bias f4 [128]
0.047521744 0.07432672 0.017067295 -0.12738939 0.040958513 0.11654954 0.07116053 -0.15759777
0.0055463077 -0.030861558 0.17155832 0.010846212 0.056122366 0.051918916 -0.074844494 0.10165471
-0.04826313 0.06276814 0.0069191577 0.06242035 -0.04295368 -0.0078073614 0.019082168 -0.033336457
-0.021291036 0.06196566 0.1680379 -0.017465672 0.028629238 0.012498779 0.018108878 -0.059158657
-0.058740288 -0.002013132 0.03642779 -0.052486032 0.06802207 0.04666597 0.00036137176 0.037901398
-0.03145916 -0.008408345 0.14665493 0.040341962 -0.09191911 0.010797133 0.057572987 -0.1991939
-0.1810393 0.072454765 0.0336358 0.13010713 0.1127749 0.05512867 0.07844925 -0.03317339
0.053525817 0.038319968 0.050594248 -0.043025456 0.05147695 -0.006920732 0.06866249 -0.015176052
0.07143192 0.015870376 -0.12624916 -0.17894125 0.054898396 -0.052033074 0.0025100417 -0.17482632
-0.12876901 -0.001777408 0.12256907 0.0075038397 0.21718903 0.11489988 0.10637636 0.06742211
0.02251262 0.07730684 0.0057343007 0.07016879 -0.09205034 0.061405405 -0.052376144 -0.015682474
-0.04761531 0.06534301 -0.041361008 0.11444607 0.19513136 -0.021552607 -0.08032691 0.048688844
0.032642633 0.11107293 0.008857565 0.14471588 -0.056509163 0.129368 -0.01683313 0.039633367
-0.058637902 -0.03365432 -0.034492094 0.045037284 -0.107684195 -0.033188336 0.019496428 0.001580082
-0.028222699 -0.035208564 -0.046785317 0.06726204 0.09451656 0.07603 -0.16849065 -0.047391847
-0.0053744502 -0.016234586 0.055580605 0.022874232 0.17656568 -0.12182527 -0.124892056 0.009095395
00000000: 29a6 423d 9b38 983d b6d0 8b3c 5d72 02be
00000010: 1dc4 273d 86b1 ee3d 9dbc 913d 4f61 21be
00000020: cdbd b53b 61d1 fcbc fcac 2f3e 4fb4 313c
00000030: 91e0 653d eea8 543d 1248 99bd 5830 d03d
00000040: 8faf 45bd 958c 803d 1aba e23b 7bac 7f3d
00000050: 33f0 2fbd e5d4 ffbb 3552 9c3c cf8b 08bd
00000060: 8a6a aebc b4cf 7d3d 2112 2c3e 2b14 8fbc
00000070: dd87 ea3c aec7 4c3c 1259 943c 5950 72bd
00000080: a899 70bd c0ee 03bb 4e35 153d 98fb 56bd
00000090: 284f 8b3d d124 3f3d 7f76 bd39 7f3e 1b3d
000000a0: 52db 00bd 28c3 09bc b62c 163e 9d3d 253d
000000b0: 1640 bcbd 75e6 303c a7d1 6b3d 7cf9 4bbe
000000c0: 5e62 39be 2a63 943d b1c5 093d ce3a 053e
000000d0: 87f6 e63d 9ace 613d 00aa a03d d2e0 07bd
000000e0: e33d 5b3d 66f5 1c3d ea3b 4f3d 763b 30bd
000000f0: 7fd9 523d 4fc7 e2bb eb9e 8c3d faa4 78bc
00000100: e64a 923d 9702 823c 7647 01be 603c 37be
00000110: 24dd 603d a220 55bd 837f 243b ac05 33be
00000120: 06dc 03be eaf7 e8ba 7e05 fb3d c5e2 f53b
00000130: cd66 5e3e a150 eb3d d9db d93d 9a14 8a3d
00000140: 636c b83c 0c53 9e3d cde6 bb3b a8b4 8f3d
00000150: e384 bcbd 3c84 7b3d 5e88 56bd 8878 80bc
00000160: 4508 43bd 8ed2 853d 296a 29bd b362 ea3d
00000170: 84d0 473e 188f b0bc 6f82 a4bd f46d 473d
00000180: 48b4 053d 347a e33d 521f 113c 6630 143e
00000190: 2776 67bd 0c79 043e a2e5 89bc 9956 223d
000001a0: 4c2e 70bd 1dd9 09bd 9547 0dbd 0479 383d
000001b0: 8889 dcbd 7ef0 07bd f9b6 9f3c c11a cf3a
000001c0: 4a33 e7bc db36 10bd f6a1 3fbd aec0 893d
000001d0: e691 c13d 9eb5 9b3d d088 2cbe f41d 42bd
000001e0: 281c b0bb 65fe 84bc 7da8 633d be62 bb3c
000001f0: a2cd 343e 877f f9bd 68c7 ffbd da04 153c

layer2.weight f4 [64, 128]
0.029426062 0.051546205 -0.14821735 -0.11574806 0.015229748 0.014606339 -0.053628743 -0.03792496
-0.22844163 0.061822418 -0.54450876 -0.1575041 0.08971416 0.015675582 -0.037901152 0.049812477
-0.033518672 0.008722893 0.05701391 0.033372466 -0.026673032 -0.12831427 0.017523479 -0.27794787
-0.0033190907 -0.115083404 0.017121071 -0.07755279 0.0629378 0.094977885 -0.0056700534 0.026942242
-0.10351254 -0.116135724 -0.053653046 0.024805916 -0.011288676 -0.17887437 0.014937007 -0.25398317
-0.023916762 -0.043539446 -0.08042895 0.13510033 -0.1117155 -0.015165511 0.09094925 -0.28510767
-0.49513608 0.08356356 0.020130333 0.04133828 0.09860455 -0.026936373 0.08241541 0.024709035
-0.20466174 0.1611719 0.04292199 -0.06504227 0.16022134 -0.066220194 0.08234094 -0.041938998
-0.02057121 0.022299824 -0.15377043 -0.0970978 -0.22016238 -0.04809444 0.018811123 -0.12557913
-0.23379281 0.075192 0.12971836 0.07034371 -0.04879508 -0.92384624 -0.36748418 0.07077178
0.19011651 0.047285352 -0.22458667 0.102774374 0.029821254 -0.15077202 -0.06749786 0.056613393
-0.00819355 0.10518673 0.014953735 0.09380468 0.07050402 0.072684474 -0.067339115 0.088168785
0.010046283 0.07124941 -0.043228555 0.037537888 0.096479334 0.09243629 -0.041942105 0.011884155
-0.31230444 -0.050380632 -0.037697982 -0.24750492 -0.3294806 -0.15504505 0.053059522 0.14364679
-0.07571305 -0.112171985 0.054993235 0.0012508336 -0.20326349 -0.8774419 -0.14656034 -0.1800669
0.027760742 -0.32350618 0.024655472 -0.026205203 0.0738634 -0.042422146 -0.24493483 0.058558006
0.014478507 -0.25918332 -0.2551207 -0.089470774 0.06279846 -0.03826928 -0.09279186 0.24540469
-0.054899894 0.001504711 -0.47330248 0.0152577665 -0.18193269 -0.009682826 0.013901225 -0.17998968
-0.19228175 0.017536871 0.03158887 0.09023404 0.070760086 -0.4663701 0.004511148 -0.023489946
0.02032538 0.052435637 -0.028039364 -0.17731102 0.09725517 -0.06864079 0.070751436 -0.16574351
0.024739241 -0.22270578 0.1627024 0.062602915 0.012300153 0.037230622 -0.09807494 -0.34512785
-0.036512256 -0.035354666 -0.252475 0.25450313 0.005728233 0.08727734 0.06665773 -0.029922994
-0.22147536 0.06244952 0.013564996 -0.075882345 0.113349035 -0.02199501 0.0648927 -0.19007432
-0.25816843 0.13117194 -0.044729397 -0.121499255 0.030017862 -0.15058707 0.14813341 0.031045288
0.045912948 -0.17697188 0.054947622 -0.04951627 0.06973467 -0.13617608 -0.088767365 -0.010454468
0.10390155 -0.03497218 -0.013248687 -0.26252145 0.29224578 -0.48502588 -0.13726509 0.038860947
0.09079905 -0.09001095 -0.5435496 0.04427037 0.06133548 0.05628226 -0.04679915 -0.034352623
3.6398193e-05 0.05797905 -0.02425674 0.085670024 -0.07843748 0.21575843 -0.22157973 0.03404962
-0.0041967286 -0.107628554 -0.04150678 -0.04400025 0.10185439 0.28037772 0.026642129 0.03503447
-0.92577684 -0.02552358 0.014405267 -0.7555947 -0.25641668 -0.02525894 -0.006653579 0.16382666
-0.09629379 0.026696442 -0.040746108 -0.088158965 0.09178696 -0.10952502 0.10977412 -0.19186902
-0.009753529 -0.45202586 0.008018604 0.012963016 0.019738978 -0.015500659 0.20786238 0.025306864
00000000: ed0e f13c 1d22 533d 4ac6 17be 520d edbd
00000010: 3186 793c 6d4f 6f3c d0a9 5bbd 3457 1bbd
00000020: 9aec 69be 8139 7d3d ed64 0bbf c148 21be
00000030: 0fbc b73d 146a 803c 3d3e 1bbd 2b08 4c3d
00000040: e04a 09bd 77ea 0e3c 6b87 693d 91b1 083d
00000050: 6781 dabc d164 03be 668d 8f3c 2f4f 8ebe
00000060: 1a85 59bb d9b0 ebbd 7d41 8c3c ffd3 9ebd
00000070: 89e5 803d c483 c23d dbcb b9bb fab5 dc3c
00000080: 62fe d3bd 91d8 edbd 4cc3 5bbd c735 cb3c
00000090: 24f4 38bc d82a 37be 59ba 743c 150a 82be
000000a0: 16ed c3bc 6b56 32bd efb7 a4bd be57 0a3e
000000b0: 19cb e4bd c378 78bc 9a43 ba3d a2f9 91be
000000c0: 7a82 fdbe 5f23 ab3d 5ee8 a43c 5452 293d
000000d0: 2ff1 c93d aba9 dcbc 69c9 a83d 9a6a ca3c
000000e0: d992 51be 3f0a 253e f8ce 2f3d e234 85bd
000000f0: 1011 243e 749e 87bd 5ea2 a83d 3ac8 2bbd
00000100: f484 a8bc 1fae b63c ff75 1dbe 36db c6bd
00000110: 3f72 61be adfe 44bd c919 9a3c d197 00be
00000120: 6267 6fbe 43fe 993d e4d4 043e 5d10 903d
00000130: 5add 47bd 3081 6cbf e326 bcbe ccf0 903d
00000140: e7ad 423e 49ae 413d 0cfa 65be 5f7b d23d
00000150: b44b f43c fb63 1abe 513c 8abd 72e3 673d
00000160: 3d3e 06bc 246c d73d 8300 753c ab1c c03d
00000170: 6964 903d 99db 943d 17e9 89bd d691 b43d
00000180: 2a99 243c 36eb 913d 6d10 31bd 54c1 193d
00000190: f596 c53d 3d4f bd3d 7ccb 2bbd c2b5 423c
000001a0: 5ee6 9fbe ec5b 4ebd 3369 1abd ee71 7dbe
000001b0: aeb1 a8be 21c4 1ebe f154 593d 2518 133e
000001c0: 720f 9bbd 6dba e5bd 9640 613d 03f3 a33a
000001d0: 4e24 50be 08a0 60bf ea13 16be 7563 38be
000001e0: 7f6a e33c 9aa2 a5be 46fa c93c 4bac d6bc
000001f0: b245 973d d8c2 2dbd 32d0 7abe 85da 6f3d
00000200: 4337 6d3c adb3 84be 2e9f 82be 743c b7bd
00000210: 7b9c 803d 40c0 1cbd a909 bebd 5e4b 7b3e
00000220: b6de 60bd b939 c53a b454 f2be b6fb 793c
00000230: 904c 3abe b7a4 1ebc f7c1 633c 374f 38be
00000240: 82e5 44be 7ca9 8f3c 5563 013d a0cc b83d
00000250: aaea 903d 10c8 eebe 41d2 933b fd6d c0bc
00000260: 6981 a63c c0c6 563d cfb2 e5bc 0591 35be
00000270: b82d c73d 8b93 8cbd 21e6 903d abb8 29be
00000280: f3a9 ca3c fc0c 64be 759b 263e f535 803d
00000290: 9586 493c 237f 183d 84db c8bd 99b4 b0be
000002a0: e08d 15bd 0ed0 10bd 6744 81be 3c4e 823e
000002b0: e7b3 bb3b 76be b23d d983 883d 1121 f5bc
000002c0: 70ca 62be 11cb 7f3d b83f 5e3c 3468 9bbd
000002d0: 8a23 e83d e12e b4bc 77e6 843d d8a2 42be
000002e0: a72e 84be f051 063e 2c36 37bd 9ad4 f8bd
000002f0: 05e8 f53c 7f33 1abe 49b0 173e b052 fe3c
00000300: 370f 3c3d 1e38 35be c210 613d 93d1 4abd
00000310: 0dd1 8e3d be71 0bbe aacb b5bd 3849 2bbc
00000320: 56ca d43d fd3e 0fbd 0511 59bc 3669 86be
00000330: 3da1 953e 5055 f8be 388f 0cbe a82c 1f3d
00000340: daf4 b93d a957 b8bd 1126 0bbf d954 353d
00000350: ea3a 7b3d 3a88 663d 77b0 3fbd 56b5 0cbd
00000360: 43aa 1838 717b 6d3d 12b6 c6bc c473 af3d
00000370: d4a3 a0bd c7ef 5c3e cce5 62be 9d77 0b3d
00000380: b684 89bb 5c6c dcbd 0303 2abd 9b39 34bd
00000390: 0999 d03d ab8d 8f3e 9840 da3c 4e80 0f3d
000003a0: b6ff 6cbf d416 d1bc 1204 6c3c a76e 41bf
000003b0: 0c49 83be d6eb cebc 4406 dabb 2dc2 273e
000003c0: ae35 c5bd 7fb2 da3c 64e5 26bd b08c b4bd
000003d0: cdfa bb3d a74e e0bd 41d1 e03d 5079 44be
000003e0: 44cd 1fbc ef6f e7be 7660 033c d462 543c
000003f0: a3b3 a13c 7af6 7dbc e0d9 543e 5750 cf3c

layer2.bias f4 [64]
0.13968503 0.06831145 -0.024740063 -0.1432235 -0.04765723 0.06010906 -0.055262007 -0.044960406
0.052906357 0.0063596596 -0.030532055 0.0022639097 0.045144476 0.0983806 0.059003673 0.06178467
-0.16745366 0.10498453 0.16654485 -0.023005506 -0.00991076 -0.01863999 0.14225143 -0.03897217
0.062745325 -0.03033099 -0.01333425 0.083546355 0.011921113 -0.047096964 0.16212474 0.012710179
0.0064294394 0.059253808 0.071353234 -0.051401835 0.1485211 -0.13232137 -0.00030640137 0.12958571
-0.0053169257 0.030586855 0.14898969 -0.0859991 -0.030330902 -0.028275346 -0.0874721 0.17633149
0.02108193 -0.058989316 -0.05597167 0.09855745 0.109798804 0.09196575 -0.01659912 0.08672905
0.084963985 0.11747088 0.1000688 0.07038102 -0.0040722876 -0.049590867 -0.025679046 0.16355896
00000000: 9809 0f3e e0e6 8b3d acab cabc 2ea9 12be
00000010: 3a34 43bd eb34 763d 6a5a 62bd 6728 38bd
00000020: 56b4 583d b164 d03b 5c1e fabc 1a5e 143b
00000030: 6ae9 383d c57b c93d d6ad 713d ec11 7d3d
00000040: f978 2bbe 2102 d73d bc8a 2a3e 0b76 bcbc
00000050: be60 22bc e4b2 98bc 5caa 113e 48a1 1fbd
00000060: 9f80 803d b278 f8bc e677 5abc 5a1a ab3d
00000070: c650 433c bfe8 40bd 0704 263e 5b3e 503c
00000080: 0cae d23b 1fb4 723d a521 923d bb8a 52bd
00000090: ea15 183e 417f 07be 7fa4 a0b9 1eb2 043e
000000a0: 9b39 aebb 4991 fa3c c190 183e 4c20 b0bd
000000b0: 8378 f8bc b3a1 e7bc 9324 b3bd 3e90 343e
000000c0: 03b4 ac3c c89e 71bd 8d42 65bd 7dd8 c93d
000000d0: 32de e03d 8a58 bc3d e1fa 87bc 009f b13d
000000e0: 9901 ae3d 9394 f03d dff0 cc3d ed23 903d
000000f0: d370 85bb cb1f 4bbd dd5c d2bc 007c 273e

layer3.weight f4 [4, 64]
0.5231809 0.5678058 0.21870159 0.5542237 -0.39871538 0.12845801 -0.36201212 -0.2816212
0.3978203 -0.33637333 -0.20724684 -0.13995573 0.066254474 0.16333714 0.32633838 0.32986602
-0.53936297 0.59053546 0.061336454 -0.17739862 -0.100610204 -0.19127177 0.16563484 -0.13371822
0.335548 -0.07542442 0.037347637 0.22232488 0.3142892 0.20749749 0.08233521 0.051765025
0.42801622 0.040996924 0.0016083315 -0.20639697 0.24165173 -0.4286643 0.49768996 0.019193431
-0.2537991 0.13068713 0.08136381 0.29947546 -0.26900238 -0.39580137 -0.27533454 0.08029114
0.2623932 -0.06787546 -0.14620155 0.73335594 0.5307225 0.3650097 -0.0040567773 0.16341172
0.5917754 0.14740992 0.2771776 0.2980472 -0.077786125 0.15133646 -0.1809706 0.098530896
0.47271076 0.5759979 0.57523453 0.47462934 -0.7348456 0.2005683 0.1371397 -0.23908256
0.41127348 -0.3505404 -0.21267878 -0.1771462 0.13918519 0.14127798 0.31340322 0.3802153
-0.50554043 0.57988536 0.11065345 -0.44720593 -0.38842577 -1.205808 0.12290567 -0.1896081
0.3746447 -0.22695796 0.3543822 0.19163938 0.3416291 -0.27360296 0.093145974 0.20193641
0.41723636 0.16996273 0.12361807 -0.22233692 0.22069257 -0.40895104 -0.2153166 0.10153254
-0.29849213 0.366345 0.077614285 0.41470873 -0.34952617 -0.43590632 -0.26227 0.08287943
0.35457996 -1.8555353 -0.25106344 0.7182933 0.81066495 0.32706293 0.0010024521 0.16435672
0.5626789 0.10548135 0.22988862 0.30134314 -0.28296205 0.21859705 -0.35017768 0.09306129
0.5679001 0.72358036 0.11842446 0.42736897 -0.42620784 0.14739607 -0.42065138 -0.22878754
0.39251566 -0.25202417 -0.23548065 -0.15709117 0.01613406 0.21185184 0.33241573 0.17068762
-0.55636364 0.6100397 0.057872742 -0.14636198 -0.06441927 -0.13260697 0.18085152 -0.13966326
0.29105785 -0.07675533 -0.016655168 0.25416327 0.32395744 0.2231526 0.13693513 0.09563141
0.39161378 0.012338688 0.011348492 -0.19001803 0.21934336 -0.45691213 0.39247134 0.059509397
-0.14978845 0.28838342 0.12499291 0.4645406 -0.2716875 -0.3211036 -0.24837834 0.07010995
0.21857612 -0.03404667 -0.13627256 0.7230184 0.48137763 0.3731566 -0.008358193 0.1571177
0.5906316 0.03264899 0.15552856 0.3371908 -0.105237566 0.16602553 -0.13171834 -0.021785842
0.4964029 0.39418274 0.2336898 0.6629436 -0.30566165 0.08726324 -0.31970745 -0.34066498
0.39771202 -0.424688 -0.18285535 -0.10418511 0.080824696 0.10804584 0.32430008 0.46058476
-0.535535 0.55866164 0.061855357 -0.17431642 -0.090080485 -0.13465585 0.14777945 -0.1028691
0.39157432 -0.091936186 0.044384576 0.21148932 0.3250916 0.26153386 0.0030105961 -0.033150714
0.46096364 0.025256943 0.0040629543 -0.20094617 0.2703623 -0.4071939 0.5894324 -0.0135632735
-0.3139754 -0.10488012 0.10368483 0.15632223 -0.26479635 -0.43281272 -0.28386784 0.079542145
0.27634254 0.038892966 -0.16165374 0.7509713 0.5051821 0.34893718 -0.024574919 0.15964152
0.5815938 0.2627945 0.37742952 0.26860264 -0.05800129 0.14708607 -0.21721111 0.17342956
00000000: 2fef 053f b95b 113f 4ff3 5f3e 9be1 0d3f
00000010: 6c24 ccbe 7f8a 033e a759 b9be a730 90be
00000020: 1aaf cb3e 2039 acbe 8438 54be 8e50 0fbe
00000030: 6db0 873d da41 273e d315 a73e 33e4 a83e
00000040: b113 0abf 552d 173f ef3b 7b3d fca7 35be
00000050: b90c cebd bfdc 43be 2e9c 293e 6eed 08be
00000060: f3cc ab3e 1e78 9abd d6f9 183d 22a9 633e
00000070: 84ea a03e 397a 543e 5d9f a83d 9007 543d
00000080: f124 db3e 64ec 273d a6ce d23a ba59 53be
00000090: 8d73 773e e379 dbbe 38d1 fe3e 8b3b 9d3c
000000a0: f5f1 81be d9d2 053e 12a2 a63d d954 993e
000000b0: aeba 89be 7aa6 cabe a6f8 8cbe ae6f a43d
000000c0: 6758 863e 4a02 8bbd dcb5 15be 37bd 3b3f
000000d0: 6edd 073f 8de2 ba3e b7ee 84bb 6755 273e
000000e0: 987e 173f a0f2 163e 39ea 8d3e a599 983e
000000f0: 554e 9fbd f2f7 1a3e 5b50 39be 91ca c93d
00000100: 2507 f23e 9974 133f 9242 133f 9e02 f33e
00000110: d71e 3cbf c761 4d3e 596e 0c3e 0fd2 74be
00000120: 7092 d23e 087a b3be 77c8 59be d065 35be
00000130: 9086 0e3e 2dab 103e 6376 a03e 94ab c23e
00000140: 196b 01bf 5e73 143f 479e e23d 2df8 e4be
00000150: bedf c6be eb57 9abf f8b5 fb3d a028 42be
00000160: 6ed1 bf3e ab67 68be 9571 b53e 1d3d 443e
00000170: 02ea ae3e b015 8cbe 51c3 be3d 6bc8 4e3e
00000180: 01a0 d53e b60a 2e3e 782b fd3d 4aac 63be
00000190: 3cfd 613e 0862 d1be f47b 5cbe 4bf0 cf3d
000001a0: f6d3 98be 9291 bb3e 3df4 9e3d b454 d43e
000001b0: 18f5 b2be 1d2f dfbe 4148 86be b1bc a93d
000001c0: 818b b53e 2e82 edbf 638b 80be 12e2 373f
000001d0: bd87 4f3f cb74 a73e b664 833a 214d 283e
000001e0: b90b 103f 9b06 d83d ec67 6b3e a649 9a3e
000001f0: 67e0 90be e8d7 5f3e 7d4a b3be eb96 be3d
00000200: e761 113f 903c 393f 8688 f23d 1bd0 da3e
00000210: ea37 dabe ffee 163e 9e5f d7be 4847 6abe
00000220: d0f7 c83e 5009 81be d721 71be 82dc 20be
00000230: 942b 843c b0ef 583e 6532 aa3e bcc8 2e3e
00000240: d96d 0ebf 902b 1c3f f80b 6d3d eadf 15be
00000250: 40ee 83bd 1fca 07be 2431 393e e303 0fbe
00000260: 8905 953e e631 9dbd 6b70 88bc b021 823e
00000270: c0dd a53e 1d82 643e b938 0c3e 67da c33d
00000280: 9a81 c83e 3528 4a3c 06ef 393c 1694 42be
00000290: 8c9b 603e 63f0 e9be 01f2 c83e 20c0 733d
000002a0: 2562 19be fea6 933e 48fc ff3d 44d8 ed3e
000002b0: a01a 8bbe b167 a4be e456 7ebe ce95 8f3d
000002c0: 6bd2 5f3e 8574 0bbd 098b 0bbe bc17 393f
000002d0: 2177 f63e 620e bf3e cdf0 08bc 76e3 203e
000002e0: a233 173f f3ba 053d e142 1f3e 46a4 ac3e
000002f0: cb86 d7bd 9902 2a3e 2ce1 06be 3978 b2bc
00000300: 8528 fe3e 52d2 c93e 614c 6f3e acb6 293f
00000310: af7f 9cbe 12b7 b23d b2b0 a3be a46b aebe
00000320: e9a0 cb3e b570 d9be 6f3e 3bbe 015f d5bd
00000330: 6b87 a53d 2347 dd3d a90a a63e c4d1 eb3e
00000340: d218 09bf 7304 0f3f 0b5c 7d3d 0180 32be
00000350: 1e7c b8bd 39e3 09be 7f53 173e 09ad d2bd
00000360: 6e7c c83e 0a49 bcbd 9acc 353d a890 583e
00000370: 6872 a63e c4e7 853e 6c4d 453b 0bc9 07bd
00000380: 6d03 ec3e a6e7 ce3c 8822 853b d5c4 4dbe
00000390: ed6c 8a3e b87b d0be 0be5 163f 7e38 5ebc
000003a0: 62c1 a0be 63cb d6bd b658 d43d ef12 203e
000003b0: 6393 87be a199 ddbe 2057 91be fee6 a23d
000003c0: c57c 8d3e 3b4e 1f3d 8f88 25be a83f 403f
000003d0: 9d53 013f e5a7 b23e 5751 c9bc 1179 233e
000003e0: 55e3 143f 008d 863e 713e c13e 4986 893e
000003f0: c392 6dbd bb9d 163e 976c 5ebe 8597 313e

layer3.bias f4 [4]
0.18453145 0.15898947 0.18574469 0.18945585
00000000: d0f5 3c3e 23ce 223e db33 3e3e b700 423e
