models/model_final/nets/0_policy_net.pt (torch, 58874 bytes, 6 tensors)

layer1.weight f4 [128, 9]
000000 66 b8 78 be f9 12 92 3e fe a6 98 3e bb fc 3f be
       -0.24289092 0.285301 0.29814905 -0.18748753
000010 41 65 7f be 7d 14 a6 3e a6 28 d1 bc 93 89 53 3d
       -0.24940969 0.32437506 -0.025532078 0.051644873
000020 4f 5c 98 3e 2f 29 a1 3e 62 30 f8 3d a1 fe 85 3e
       0.29757926 0.31476733 0.12118603 0.2617083
000030 f5 ee 7e be b5 10 20 3e 2b ee 95 be 99 b7 4a be
       -0.24895842 0.15631373 -0.2928327 -0.197966
000040 5d a2 56 3d b0 12 5d bd 9c 60 82 be 5d 35 46 3e
       0.052400935 -0.0539729 -0.25464332 0.19356294
000050 87 40 ab 3e 39 f6 a1 3d 2f be 3b be 0c e5 a7 3e
       0.33447668 0.07908291 -0.18334268 0.32791936
000060 03 2b 55 3e 8d a4 18 3e 1c b0 7d be 41 fb c0 3d
       0.20817189 0.14906521 -0.24774212 0.09422923
000070 56 e6 92 3e aa 34 18 3e d7 b8 79 be 67 31 92 3e
       0.28691357 0.1486384 -0.24386917 0.28553316
000080 09 cf cb bd 18 4b 68 be e2 44 90 3d 01 05 99 3e
       -0.09951598 -0.22684896 0.07044388 0.2988663
000090 ff 85 55 3e 47 b6 1e be dc 02 6b bd 8e ba 6b be
       0.20851897 -0.15499221 -0.057375774 -0.23020384
0000a0 e5 15 78 3e cf 1b 35 be 06 06 03 be 16 6f 93 3e
       0.24227102 -0.1768639 -0.12795267 0.2879569
0000b0 4a a2 6b be 98 26 02 bd 5d ca 65 3e 61 16 c7 bd
       -0.23011127 -0.031775087 0.22440477 -0.09721065
0000c0 ad 27 dd 3d 5a 4d 42 3e 82 ab 48 3e ae 38 f5 bd
       0.10798583 0.1897482 0.19596675 -0.119737014
0000d0 5d 3e ab bc 45 ea 66 bd 67 f1 5c be d2 48 cb 3c
       -0.02090376 -0.05637576 -0.21576463 0.024814997
0000e0 15 69 9d 3e 30 9e 76 3c fc 8b 8c be 2b 1e 86 3e
       0.30744234 0.015052363 -0.2745055 0.2619489
0000f0 ea 75 9c 3d 46 13 02 be a9 f6 69 bc 17 15 85 3e
       0.07639678 -0.12702665 -0.01428 0.25992653
000100 db fe 20 3e d4 44 4e 3e f4 3c c3 3d c9 96 87 3e
       0.1572222 0.20143443 0.0953311 0.26482227
000110 93 99 a2 3b 47 1e 84 be 41 b3 8c be bf ce 60 be
       0.004962155 -0.2580435 -0.2748051 -0.21953867
000120 d1 87 1e 3e 8d 22 a6 3e ce 37 26 3e 01 2e 25 3e
       0.15481497 0.32448235 0.16232225 0.1613083
000130 e7 4d 5b 3e 8d 8f 92 be ef f7 26 3e a6 63 93 3e
       0.21416436 -0.28625146 0.16305517 0.28786963
000140 77 c5 79 3d 64 eb 83 bc 14 cd 98 be 32 e2 15 3e
       0.060979333 -0.016103454 -0.29843962 0.14637068
000150 cf 31 50 3e 6a 75 45 3e 76 bd 32 3e fc 0f 4c be
       0.203315 0.19283071 0.17455086 -0.19927973
000160 d2 a9 0f be d9 86 8d 3e 91 2b c6 bd 79 c1 8b bd
       -0.14029625 0.27641943 -0.096762784 -0.06824011
000170 ad fd a5 3e a5 82 11 be b5 d0 86 3d 92 dc 96 3e
       0.32420102 -0.14209993 0.065827765 0.29465157
000180 3f a8 af 3c 7f 4d aa bc 05 e2 21 3d 9f e9 66 3d
       0.02144253 -0.020788906 0.03952219 0.056375142
000190 8b 79 9a 3d 4e 40 36 3e c1 4b 37 bd 4f c3 3d be
       0.07542714 0.17797968 -0.04474998 -0.18531536
0001a0 8b aa 2f 3e 9c 00 83 be d5 16 a7 3e 97 ef 8d bd
       0.171549 -0.25586402 0.32634607 -0.06930464
0001b0 7e 8c 22 3e 09 49 5b 3d cb 04 87 be c9 66 15 be
       0.15873906 0.05353645 -0.26370844 -0.1458999
0001c0 97 74 cb 3d 1d 5c 8d be 16 4d 6f 3e 21 e9 ac 3d
       0.09934347 -0.2760934 0.2336925 0.08442903
0001d0 ea 9c 2a 3e 28 18 4a 3e 45 4d cb bd 42 3b 10 3e
       0.1666142 0.19735777 -0.09926847 0.14085105
0001e0 4a 87 9e bd 2c 5a 64 bc 72 a1 9b 3e c7 73 f0 3d
       -0.07740648 -0.013937514 0.3039661 0.11740833
0001f0 8b 7c 11 be 8d 9b 0c 3e 6e 45 9e be f4 3b bc 3d
       -0.14207666 0.13731213 -0.30912346 0.09191123
000200 30 0d 83 3e d2 eb c5 3d dc 27 97 be 8f a9 54 3e
       0.25596 0.0966412 -0.29522598 0.20767806
000210 5e 93 9e be 4e 13 a1 bd d8 7e 1d 3d d6 1a 05 be
       -0.30971807 -0.0786501 0.038451046 -0.12998518
000220 36 b9 4d 3c 80 4d 2c be 8b 72 b3 3d 72 d2 cd 3d
       0.012556365 -0.16826439 0.08762082 0.10049905
000230 3c 37 2b bb 5e 36 9f bd 9d b9 14 3e 7b 29 86 be
       -0.0026125452 -0.077740416 0.14523931 -0.26203522
000240 cf 54 11 3e 21 0d 88 3e 66 98 b4 3d cd 6c be bc
       0.14192508 0.26572517 0.0881813 -0.02324524
000250 ae 00 00 be f7 c6 a7 3e 5d cc 6a 3d 4f 8a 84 be
       -0.1250026 0.32768986 0.057323802 -0.2588677
000260 4f c5 f1 3d e8 8e cd 3d 76 0f 55 bd f8 f5 a8 3e
       0.11805212 0.10037023 -0.052016698 0.3300016
000270 d6 7b a2 be 3f 40 25 3e 88 a9 60 be 03 c3 ff bc
       -0.31735104 0.16137789 -0.21939671 -0.031220919
000280 a3 9b 95 3e 18 67 6d 3e b6 67 99 3e 36 e5 a3 be
       0.29220304 0.23183858 0.29961938 -0.32010812
000290 42 05 8e 3e 5d 66 a3 bb 96 b5 80 be ee cd 9e 3c
       0.27738386 -0.004986568 -0.2513854 0.019385304
0002a0 51 7d 8c be 49 80 d7 3d 5f d4 49 be 66 2c a4 3e
       -0.2743936 0.10522515 -0.1970992 0.32065123
0002b0 8a 7b ee bd b4 00 15 be 40 a4 45 be 67 b7 b3 bc
       -0.11644657 -0.1455105 -0.19300938 -0.021938039
0002c0 32 0d 33 be 94 08 85 be 5b c6 33 3d 4e c1 5a 3d
       -0.17485502 -0.25983107 0.04389034 0.053407006
0002d0 84 46 56 be 1c 30 86 3e d4 ed a4 be a2 d5 a7 be
       -0.20925337 0.2620858 -0.32212698 -0.32780176
0002e0 b2 a2 34 bd 33 02 a0 3e 46 96 b6 3d 0e 75 d9 3d
       -0.04410047 0.31251678 0.08915381 0.106180295
0002f0 e4 ea ab 3d ea 50 aa 39 d5 b6 11 bd 55 ad 55 3e
       0.08394411 0.00032485212 -0.035574753 0.20866902
000300 df 7b d7 3c 99 08 79 be 48 f8 89 3c 6b 9b 81 3e
       0.026304184 -0.24319686 0.016842023 0.25313887
000310 93 fd 47 3e 10 04 83 be b3 cd 8e 3e 17 80 53 3e
       0.19530325 -0.25589037 0.2789131 0.20654331
000320 39 7c db bd 14 a7 37 3d cf 96 9f be d2 5e 5f bd
       -0.10717053 0.044837072 -0.31169745 -0.054533787
000330 e2 e1 4e 3e 38 40 49 be a1 e9 94 3e 07 5f 90 bd
       0.20203355 -0.19653404 0.29084495 -0.07049375
000340 d4 db e1 3d 12 96 53 3e 14 32 65 be 81 b1 40 3e
       0.11028257 0.20662716 -0.22382385 0.18817712
000350 f9 a5 fc bd e2 26 11 bd 00 0c dc bd b3 dd 9e be
       -0.12336344 -0.035437472 -0.10744476 -0.31028518
000360 fa 57 92 be 21 e0 9b 3e ff 90 2b 3e e6 6f 20 be
       -0.28582746 0.30444434 0.1675453 -0.15667686
000370 8a 27 86 be 6c f5 24 be ad 59 99 bd f1 6e 6b 3d
       -0.2620204 -0.16109246 -0.074878074 0.05747885
000380 1c 79 2e bd dc 14 89 3e e6 37 a8 3e 8d e7 a5 3e
       -0.042595968 0.26773727 0.32855147 0.32403222
000390 9b af 59 3e 35 af 96 3e 33 cb d2 bd 24 0b 4c be
       0.21258394 0.29430547 -0.102926634 -0.19926125
0003a0 47 0e 96 be fc 14 13 3e a2 8b 05 be 62 d0 3e be
       -0.29307768 0.14363474 -0.13041547 -0.18634179
0003b0 ce bd 6c be 06 26 2a be 70 87 91 be 9a d2 04 39
       -0.2311928 -0.16616067 -0.28423643 0.00012666956
0003c0 d0 06 8d be 08 5e af bc 23 6f 32 be 91 cc 85 be
       -0.2754426 -0.021407142 -0.17425208 -0.26132634
0003d0 47 41 44 3e 59 25 47 3e b2 f1 16 be 44 fa c1 3d
       0.19165526 0.19447841 -0.14740637 0.094715625
0003e0 54 3e 73 be c9 01 3f bd eb ea 22 be 8b e4 5e 3e
       -0.23754245 -0.04663256 -0.15909927 0.2176687
0003f0 13 69 0d 3e c3 67 1e be 61 a0 be bd 82 9b 96 3d
       0.13809614 -0.1546927 -0.093079336 0.073538795

layer1.bias f4 [128]
000000 ed 42 d7 3c 8e e3 40 bd 1a 2b 00 be 75 88 82 be
       0.02627703 -0.047092013 -0.12516442 -0.25494733
000010 52 eb 36 3e 39 4c 48 3d a4 7d 76 3c ff 46 21 3e
       0.17863205 0.048900817 0.0150446035 0.15749739
000020 89 92 19 3e 60 c9 94 be 9f 1a 67 3d 3a 5f 98 3e
       0.14997305 -0.29059887 0.056421872 0.29760152
000030 f5 fa 1b be fd 95 44 bd f6 a1 a6 be ce bf 8c 3b
       -0.15232451 -0.047994602 -0.3254544 0.004295326
000040 a3 8f f6 bd d7 2f 3f 3a f0 68 72 be 3d bd 49 be
       -0.12039115 0.00072932005 -0.23672843 -0.19701095
000050 64 b7 92 3e cd 91 6d 3e 29 53 36 3e 44 d0 3a bb
       0.2865554 0.2320015 0.1780516 -0.0028505484
000060 61 63 7c be 63 c0 77 be ee da a1 be 16 02 6b 3e
       -0.24647285 -0.24194483 -0.31612343 0.22950014
000070 95 9c 1c 3e e6 e6 58 3d cd 8c e2 ba c9 fa 7b bd
       0.15294106 0.052954577 -0.0017284394 -0.061518464
000080 d5 5c 7f 3e cc 53 81 3e c0 fa 7d 3e a0 dd 59 3e
       0.24937756 0.25259244 0.24802685 0.2127595
000090 31 28 a6 3e 99 3f d2 bd 90 80 43 3e d7 a2 15 3e
       0.3245254 -0.102660365 0.19092011 0.146129
0000a0 bc 33 dd 3d de fc 61 3e 95 84 e5 3d 49 b3 48 3e
       0.10800883 0.22069117 0.11206929 0.19599642
0000b0 9c df 75 3e 98 fd cf 3d 7a 47 36 be cf 2d 69 be
       0.24011081 0.10155791 -0.17800704 -0.22771381
0000c0 a1 67 da 3d 12 92 4d 3d 88 e9 1f 3e 48 a7 41 3e
       0.10664297 0.05018813 0.15616429 0.18911469
0000d0 d5 78 a6 3e 35 22 95 3e a8 90 a7 be 44 73 ea 3d
       0.32514063 0.2912766 -0.3272755 0.114477664
0000e0 52 e2 8b 3e 26 43 72 3e c6 54 38 be 19 00 59 be
       0.27321106 0.23658428 -0.18001089 -0.21191444
0000f0 80 00 6f bc 85 90 1c be 77 cd 18 be 92 a1 8b be
       -0.014587522 -0.15289505 -0.14922129 -0.27271706
000100 d0 e7 37 bd 20 1d 89 be 39 62 4a 3d 21 95 58 3e
       -0.044898808 -0.26780033 0.04941008 0.21150638
000110 b4 42 93 3e 84 50 77 bd 5a 9b 5e be ff c1 08 bd
       0.28761828 -0.06037952 -0.2173895 -0.033388134
000120 a7 02 53 be de de 70 be 89 e8 71 3e 96 31 e0 bd
       -0.2060648 -0.23522517 0.23623861 -0.10946958
000130 aa 58 a5 be a2 bc 4d 3d 90 c1 90 3d bf 73 a2 be
       -0.32294208 0.050228722 0.07068169 -0.31728932
000140 0a e4 46 3d 22 c6 14 be 84 cd ad 3e 91 15 1e 3e
       0.04855732 -0.14528707 0.33945858 0.15437914
000150 d0 48 68 3e 29 f3 a7 be ad a1 8e 3d 27 fa a9 3e
       0.22684026 -0.32802704 0.06964431 0.33198664
000160 47 4a 36 3e 14 be 64 be 7e 15 67 3d 89 ce 7a 3e
       0.17801772 -0.22338134 0.05641698 0.2449285
000170 49 55 89 be 8d 2b 78 be 5c 3e 99 3e 81 34 82 be
       -0.2682288 -0.24235363 0.2993039 -0.25430682
000180 57 bd 44 3e 57 f6 1f bd 5f 2f 0d bc 05 bc 6d be
       0.19212852 -0.039053287 -0.008617251 -0.23216255
000190 81 f8 40 3e a1 8c 43 be e0 56 d1 bd c3 74 48 be
       0.18844797 -0.19096614 -0.10221648 -0.19575791
0001a0 54 6b 79 3e fc 34 3c be 15 fc 6d 3e a7 00 a4 bd
       0.24357349 -0.18379587 0.23240693 -0.08007937
0001b0 4f 4b b9 3d 01 e0 ff bd ad dd 27 3e 88 c9 71 be
       0.09047567 -0.12493897 0.16393156 -0.23612034
0001c0 d7 fb b3 3d 5a b0 b5 bd be c8 88 bd 52 66 47 be
       0.08788269 -0.08871527 -0.066789135 -0.19472626
0001d0 f7 f3 9d 3e 2d 29 9e 3e 75 cc 04 3e 17 66 ae bd
       0.30850193 0.3089079 0.12968619 -0.08515566
0001e0 76 c5 3f 3e 1d 41 d0 bd ae 12 51 be bc d7 e5 bd
       0.18727669 -0.101686694 -0.20417282 -0.11222789
0001f0 4a 16 2d be 98 22 a2 be ab 18 45 3e 18 1a 58 3e
       -0.16903034 -0.31667018 0.19247691 0.21103704

layer2.weight f4 [96, 128]
000000 c4 67 f6 bc 2b 24 13 3d ee 27 94 3c 53 f7 96 3b
       -0.030078776 0.035923164 0.018085446 0.00460712
000010 63 c1 28 bd 28 02 d1 3c a7 64 6d bd b2 ef 61 bc
       -0.041200053 0.025513723 -0.057957318 -0.013790058
000020 a8 da 94 bb 42 d2 a5 3d f6 bf 09 3d b0 73 5d 3d
       -0.0045426674 0.08096744 0.033630334 0.054065406
000030 fc 45 6c bd a0 6d 09 bb 11 5e 95 3d 80 5d 40 bd
       -0.05768393 -0.0020969883 0.07293332 -0.04696417
000040 ff 8f 46 bd cd fe a3 bd 0b a7 85 bd 5c be a3 bd
       -0.04847717 -0.08007584 -0.065260015 -0.079952925
000050 8a 57 32 3d d6 93 52 3c 00 ab 80 3d 31 df 32 3d
       0.043540515 0.01285263 0.06282616 0.043669883
000060 70 cb 08 bd 4e 91 37 3d 2a fa 65 bd df 24 51 3d
       -0.033397138 0.044816308 -0.05614678 0.051060554
000070 3c b8 09 3d 01 01 78 3d fa 2c 11 bd 6f ae 34 bd
       0.033622965 0.060547832 -0.035443284 -0.044111665
000080 d1 d5 79 bd 52 dd a7 3d 0f 31 e1 3c 19 4a 98 bd
       -0.060994927 0.081965104 0.027489213 -0.07436008
000090 0d f8 4b 3d 56 18 b3 bd 8d 74 fc bc 34 5c 27 bd
       0.049797107 -0.08744876 -0.030817294 -0.040859416
0000a0 bf 7b 95 3d 52 28 eb bc 86 0b 98 3c 8f cd 83 bd
       0.07298993 -0.02870575 0.018560182 -0.064356916
0000b0 5f 46 e8 bb 17 02 a7 3d 64 e2 63 bd 96 72 15 3d
       -0.007088467 0.081546955 -0.055635825 0.03648623
0000c0 31 47 62 bd 34 c7 52 3d 1a 91 72 bd 1b 47 1d bd
       -0.055243675 0.051459506 -0.05922041 -0.03839789
0000d0 c3 35 8c bc 73 5b 95 bd 7d 93 96 3d 81 97 9e 3d
       -0.01711548 -0.07292833 0.0735235 0.07743741
0000e0 6d 06 d7 3b e0 66 c4 3d 47 f3 78 3c d9 57 ae bc
       0.0065620453 0.09589934 0.015194721 -0.021282123
0000f0 40 13 ab bd 23 93 36 bd 64 b4 2b 3d f4 08 27 3d
       -0.08353281 -0.044573914 0.04192008 0.040780023
000100 e8 e8 a2 3d 1a 37 7e 3c 58 2a 35 bc 59 6b 48 bd
       0.079545796 0.015516067 -0.011057459 -0.0489305
000110 27 64 a9 3d 6f d5 5c bc 26 23 a7 bd 94 f8 0e bd
       0.08271056 -0.013478621 -0.08161001 -0.03490503
000120 56 18 95 3d 42 44 f6 bc 2b 38 9c bd 92 1e b2 bd
       0.07280032 -0.030061845 -0.07627901 -0.08697237
000130 6f 94 90 3d 1e a1 9f bd 40 0a 8a 3d ef f8 0a bd
       0.070595615 -0.077944025 0.06740236 -0.033928808
000140 af 10 56 bc 9c e0 a4 3d 67 38 a1 bb 21 b9 a3 3d
       -0.013065501 0.08050653 -0.0049200538 0.07994295
000150 99 56 71 bc 36 d8 0f 3d 2e 4b a6 bd 68 2d f6 39
       -0.014730119 0.035118304 -0.08119808 0.00046954607
000160 a8 03 f1 bc 2e 5d 22 39 8d ba 0c bd dc ba cc 3b
       -0.029420689 0.00015484236 -0.034357596 0.0062478613
000170 9f d1 9e bd b9 c1 84 3d 86 9a 97 bd cd 5e 8c 3d
       -0.07754826 0.06482262 -0.0740252 0.06854019
000180 3a ae 60 3d 90 71 99 3d cc 12 a3 3b 97 79 31 3d
       0.054853655 0.074923635 0.004976606 0.043328848
000190 dc bd a6 3d 30 11 88 bd f0 2d 99 bc eb d3 7c 3d
       0.081416816 -0.06643903 -0.018698663 0.06172554
0001a0 97 60 f9 ba 48 79 84 bd 45 0e ab bd c8 55 04 bd
       -0.0019025978 -0.06468445 -0.08352331 -0.03230837
0001b0 2e 01 82 bd 96 ff 3f 3d ea 6c 83 3d 13 a6 67 3d
       -0.06347881 0.046874605 0.06417258 0.056554865
0001c0 b7 6a 60 bd b2 bb 82 3c 04 5c 9e 3c 2f c0 a9 bd
       -0.05478927 0.01595864 0.019330986 -0.08288609
0001d0 39 85 8d 3d c0 12 90 bd de 5b 72 bb a2 fa 8f 3c
       0.06910176 -0.07034826 -0.0036981027 0.017575566
0001e0 54 b0 a3 3d 8a 8e 22 3c 95 cd 01 bd 94 cf 43 3d
       0.07992616 0.009921679 -0.0316902 0.047805384
0001f0 fa 6b 17 bd 66 80 9e 3d fe 8f 0d 3d ff 6b cd 3c
       -0.03696821 0.07739334 0.03456115 0.02507591
000200 fe 71 15 bd 5e da 96 3d bd de 98 bd ac 64 a7 bd
       -0.036485665 0.07365869 -0.07464359 -0.081734985
000210 0e 7c ab 3d ed 11 8a bd da 7d 32 bd e5 14 8e bc
       0.08373271 -0.067417 -0.043577053 -0.017343948
000220 ad 86 4a 3c f2 84 87 3d 4d 9d 55 bd 69 cb 9b bd
       0.012361211 0.06617154 -0.052151967 -0.07607157
000230 59 e6 dd bb 9d a3 19 3b fd 58 0b 3c 7c 15 ad 3d
       -0.0067718443 0.0023443468 0.008505103 0.084513634
000240 cc c0 82 bc ff de aa 3d b2 19 05 3d be 90 8f 3d
       -0.015961073 0.083433144 0.032495208 0.07010029
000250 65 f6 6f bd f1 c6 ab 3d eb c9 51 bc 6c a1 5e 3d
       -0.05858459 0.083875544 -0.012804489 0.054353163
000260 78 9b 05 3d e6 48 97 3d 22 58 0b bc 55 a7 a0 bd
       0.03261897 0.07386951 -0.008504899 -0.07844416
000270 41 ec b8 3d ee f2 59 3d 11 86 ac 3c 20 a1 88 bd
       0.09029437 0.05321019 0.021060022 -0.06671357
000280 f0 12 8a bc 4b 32 86 3d 5d 81 5f bd 54 bf 9a 3d
       -0.016854733 0.06552561 -0.05456673 0.07556024
000290 52 12 a0 bd 94 a0 c4 bd 03 6c 75 bc d5 ca 45 3d
       -0.07815994 -0.0960094 -0.014979365 0.04828914
0002a0 6a f9 cd bc e1 20 33 bd b9 77 78 ba 99 66 d6 bb
       -0.025143344 -0.043732528 -0.0009478289 -0.0065429923
0002b0 83 1e 2b bc 27 2b 84 3d a3 c4 a7 bd 9e aa c0 bc
       -0.010444286 0.06453543 -0.08191802 -0.023518857
0002c0 c0 27 b6 3d e7 9a fc bc 96 bc 9e 3d 86 09 aa bd
       0.088943005 -0.030835582 0.07750814 -0.08302598
0002d0 88 69 71 bd d2 99 a2 3c d9 b1 84 3d 0e f2 ac 3d
       -0.058938533 0.019848738 0.06479234 0.08444606
0002e0 c5 3c 2c bd c7 46 88 bd 4e a5 cc bc cc 90 12 bd
       -0.04205014 -0.06654125 -0.024981167 -0.03578262
0002f0 4a a5 51 3d a6 e2 5f 3d 9e 2f 23 bc e5 38 cd bc
       0.051183023 0.05465951 -0.009960083 -0.025051543
000300 2a fc 9f 3d 1d 93 87 bd cb 41 81 3d 75 56 19 bc
       0.07811768 -0.066198565 0.06311377 -0.009358992
000310 93 f5 b6 39 7c ff 1d bc df b1 98 bc c6 37 10 bd
       0.00034896712 -0.009643432 -0.018639503 -0.03520944
000320 22 43 8b 3d e5 2b 8b bd 4d cc 83 bd 6b 47 a5 3d
       0.06799914 -0.067954816 -0.06435452 0.080702625
000330 8f 2e 86 bd 78 50 35 bb 8b be ef bc 4e 24 b5 3c
       -0.06551849 -0.0027666371 -0.029265663 0.022112038
000340 10 f6 81 bd e0 91 0f bc 2d 56 39 bd 3c ea d6 3b
       -0.06345761 -0.008762807 -0.0452482 0.0065586846
000350 47 a5 a3 3d 6e 3f 2b 3b 30 43 14 bb 27 f8 d6 bc
       0.079905085 0.0026130336 -0.0022623055 -0.026241375
000360 b3 54 5f 3d 62 2d 47 3b ae b4 f8 bc 90 49 09 bd
       0.054524135 0.003039204 -0.030359592 -0.03351742
000370 fe 55 bb bb c7 1d 89 bd ef 3a 47 3d dd 69 70 bd
       -0.005717038 -0.06695133 0.048640188 -0.05869471
000380 c5 11 37 3d 11 d9 8d bd 83 08 50 3d a8 5f 2c bd
       0.04469468 -0.06926168 0.050789367 -0.042083412
000390 af c7 bc 3c 1f 4b 67 3d 4f 04 dd 3c ce 62 2a 3c
       0.023044435 0.056468125 0.026979594 0.010399533
0003a0 7e e7 8a 3d 22 81 41 bd fe fc c1 bc a3 6b 0d 3d
       0.06782435 -0.04724229 -0.023680206 0.03452648
0003b0 4a 64 9b bc 9f b1 67 3d f1 b3 84 bd 62 fd 86 bd
       -0.01896872 0.056565877 -0.064796336 -0.06591298
0003c0 7c 34 87 3d 52 f9 ab bc 3e 59 cb bc 35 17 45 bd
       0.066018075 -0.020992909 -0.024822827 -0.048117835
0003d0 3e 6b cb bb 9d 89 33 3d bb bc 1c 3d a9 aa 16 3d
       -0.0062078526 0.04383241 0.038265925 0.036783848
0003e0 13 cd 67 3d d9 c6 27 3d d4 b5 86 bb be 41 81 3c
       0.05659206 0.04096112 -0.004111031 0.015778419
0003f0 63 af da bc 45 7f 51 bd 16 e7 91 3d 6c db 2f 3a
       -0.026694959 -0.051146764 0.07124154 0.00067084166

layer2.bias f4 [96]
000000 0b a5 86 bd 11 d2 e7 3c d4 2a 51 bc 72 c6 22 3c
       -0.06574448 0.02829841 -0.012766559 0.009935008
000010 a6 38 36 bd 88 03 dd bc df b8 b2 3d 55 e1 e8 3c
       -0.044487618 -0.026979223 0.087266676 0.02842776
000020 a2 3b 2c 3d e2 c3 54 bd 9b 8b 07 3d 2d ea 34 3d
       0.042049058 -0.05194462 0.033092123 0.04416864
000030 6e 13 43 bd 42 1b 77 bd 16 5a 1e bd 8d 66 ee bc
       -0.04762595 -0.06032873 -0.03866013 -0.029101634
000040 71 81 36 bd c2 cc ff 3b a8 80 b3 bc c5 6e c0 3c
       -0.04455704 0.0078063915 -0.021911934 0.023490319
000050 c4 ef 62 bd ea 8b 36 3b a9 78 97 bc 60 22 64 3d
       -0.05540444 0.0027854391 -0.018490152 0.055696845
000060 94 37 7f bd ff 00 88 3d d4 9a 97 3c db 8c 2d bd
       -0.062308863 0.06640815 0.018506445 -0.04237066
000070 77 24 08 3b 30 36 58 bd 32 3f 83 bd f0 8d 32 bd
       0.0020773688 -0.052786052 -0.06408538 -0.043592393
000080 ff 58 25 3a 3e 59 33 3d 70 92 47 bd 65 1e 92 bd
       0.0006307512 0.04378628 -0.048723638 -0.071347035
000090 f4 72 93 bd 70 f3 58 3d 30 fa 46 3d 31 61 b7 bc
       -0.0719966 0.052966535 0.04857844 -0.022385212
0000a0 fc 6c 18 3c 15 ca b3 3d 02 17 6b bd 24 98 63 bd
       0.009303328 0.087787785 -0.05739499 -0.055565014
0000b0 76 a3 e4 bc 13 05 91 3d 1b 6e 77 3c 02 f6 4b 3b
       -0.027909975 0.07081046 0.015101935 0.0031121974
0000c0 0a 6a 6a bd 50 52 c9 bc 00 89 ac 3b 01 d3 6b 3c
       -0.057230033 -0.024575382 0.005265355 0.014393569
0000d0 ff 22 9e 3d de 9b 92 3c c0 19 fa 3b 21 9d 83 3c
       0.07721519 0.017896589 0.007632464 0.016066136
0000e0 16 8c cc bb 6a 4d a9 bd 5f c8 9c 3d 33 20 46 bd
       -0.0062422855 -0.08266719 0.07655405 -0.04837055
0000f0 78 0b 36 3d e9 6d 44 3c 53 f9 77 3d 82 74 81 3d
       0.04444453 0.011989095 0.06054051 0.0632105
000100 64 df a2 bd 91 54 94 3d 9c e8 85 3c 90 00 b1 bc
       -0.07952765 0.07242692 0.016346268 -0.021606714
000110 36 58 14 3d 58 59 79 3d 2f 49 9c 3d 8d c0 90 3d
       0.036216937 0.06087622 0.07631146 0.07067976
000120 9e ba 3e 3d ef 2d 9e bd d4 ba 5d 3d cb 63 7f bd
       0.04656469 -0.07723605 0.05413325 -0.06235103
000130 41 e8 26 3d d3 a0 32 bd 1e 44 ae 3c e4 97 e0 b8
       0.04074884 -0.043610405 0.021272715 -0.00010709444
000140 c4 b1 9c bc 72 2c 00 bd 30 df a4 3d b3 da 03 bc
       -0.019127734 -0.031292386 0.08050382 -0.008047747
000150 82 e3 7a bd d6 a4 9c bd 59 27 f1 3c 7f 77 a2 3c
       -0.061252125 -0.076486275 0.029437708 0.01983237
000160 8b 93 15 3d 47 0b 95 3c 7d 1a 17 bb 6f de 98 3d
       0.03651766 0.018193854 -0.002305656 0.07464301
000170 1a e0 8e bd 0e a5 ad bc 4e 7d 6e 3c da 3b 09 3d
       -0.06976338 -0.021196868 0.014556242 0.033504345

layer3.weight f4 [4, 96]
000000 ff 74 c8 3c 3f d2 38 bb b4 44 15 3d aa 4f b7 3d
       0.02446985 -0.0028201488 0.036442474 0.089507416
000010 2d f8 ac bd d4 34 4b 3d 9e e3 81 3d fe 76 75 3c
       -0.08445773 0.049610928 0.06342243 0.014981983
000020 51 02 10 bd 8e f1 4d 3d ba 3d 5e 3d b5 d0 b1 bd
       -0.03515846 0.050279193 0.054258086 -0.08682386
000030 99 5d ad bd 1d 6a 88 bd b9 e9 81 3c da 12 41 3d
       -0.08465118 -0.066608645 0.015858518 0.04713712
000040 de d5 a4 3d 98 1c 01 bd b4 51 6e 3d ee 78 8f bc
       0.080486044 -0.03152141 0.058183387 -0.017513718
000050 86 77 8c bd 52 08 8c bd 82 0b 8a 3d 47 be c9 3c
       -0.06858735 -0.068375245 0.06740476 0.024626864
000060 5f 60 df bc ca c9 c2 bd f4 29 4f 3d ca c7 94 bd
       -0.027267633 -0.095111445 0.05057712 -0.07264669
000070 45 72 4e bd d3 1e 85 bd 16 52 82 3d 4e b3 99 3d
       -0.050401945 -0.0650002 0.06363313 0.07504903
000080 69 10 82 bd c6 f0 00 3c 9e f2 4d bc 1d 74 13 3d
       -0.06350786 0.007869905 -0.0125700515 0.035999406
000090 5d 21 8f 3d ea ef 49 3d 3f 77 e9 3c 0e 3d 3d 3c
       0.069887854 0.049301066 0.028499244 0.011550201
0000a0 27 66 e6 3c 59 2b b9 bd 6d 67 48 bd ee 49 88 3d
       0.028124882 -0.09041471 -0.04892676 0.06654726
0000b0 19 26 8f 3d 41 a1 84 3d b4 5d 33 bd a9 6c e5 bc
       0.069896884 0.06476069 -0.043790534 -0.028005915
0000c0 13 8d d2 3d 37 55 a4 bd d8 0b a3 bc bb ae e4 bc
       0.10280814 -0.08024066 -0.019903108 -0.02791535
0000d0 3c dd cb 3c b0 e6 8a 3b 4c 00 c3 3d 2d a9 a0 bc
       0.024885766 0.004238926 0.09521541 -0.01961192
0000e0 44 f3 8d 3d 63 fa 62 3d 71 7b a4 3d 94 35 49 bc
       0.06931165 0.05541457 0.08031357 -0.01228084
0000f0 aa eb 80 3c 26 46 82 3d ec 8e 83 bd c6 35 71 bd
       0.015737373 0.06361036 -0.064237446 -0.058889173
000100 0e 36 23 3b 37 95 96 bd af 1f 0d bd d5 f1 85 bd
       0.0024904045 -0.07352679 -0.034454044 -0.065402664
000110 a6 75 35 bd cc c5 6e 3d 09 59 81 bd 35 ce 84 3c
       -0.04430165 0.058294103 -0.0631581 0.016211608
000120 59 dd 2f 3d d5 d4 1c bd 07 33 a5 3c bb ba b6 bd
       0.042935703 -0.03828891 0.020165933 -0.08922335
000130 1f 74 b9 3b ea c3 cc bd d4 62 f0 bc 13 c7 85 3d
       0.0056595947 -0.09998305 -0.029344 0.06532111
000140 4a ed 8d 3d 28 45 2f 3c 0f 6d 9d 3c ba d1 7a bc
       0.06930025 0.0106976405 0.019217042 -0.015308792
000150 30 db 3d 3d 80 f0 6e 3b 33 02 a2 3d 58 2d b8 3c
       0.04635161 0.0036459267 0.07910576 0.02248256
000160 7e 1c 86 3c fb 59 81 bd b0 43 95 bd 1f 02 ff bc
       0.016371008 -0.063159905 -0.07288301 -0.031128941
000170 11 38 7e bd 1b 09 1b bc 07 96 33 3d 31 79 ba bd
       -0.062065188 -0.00946262 0.04384425 -0.09105147
000180 4b 99 9f 39 c2 4d b4 bc 94 e1 11 bd 65 6a 8f bd
       0.00030441055 -0.022009734 -0.03561552 -0.07002715
000190 b8 bd ba bc 2a 45 84 bd 52 c7 92 3d 08 63 d5 bc
       -0.022795543 -0.064585045 0.071669236 -0.026048198
0001a0 fd 87 88 3c 49 6a b0 3d 26 9e c1 3a 5c 87 a4 bd
       0.016666407 0.08614022 0.0014771863 -0.0803363
0001b0 f8 b8 57 3d ee cb b1 3d ad f8 40 3d c2 c2 e2 bc
       0.052666634 0.086814746 0.047112156 -0.027680758
0001c0 ec 1b b1 3d 0e 53 b4 bd f0 dc f5 bc f2 bf b0 bd
       0.08647904 -0.08804904 -0.030012578 -0.08630361
0001d0 0b 14 0f bc 7d 2c aa bd d7 1a e0 bb f0 b7 8c bd
       -0.008732806 -0.08309267 -0.006839137 -0.06871021
0001e0 e8 76 8d bd a6 30 3f ba 84 35 0e bd a5 c7 b7 bd
       -0.06907445 -0.0007293321 -0.034719005 -0.08973626
0001f0 8b f0 b9 3d 2f c1 9a 3c 40 60 a9 bd ba 43 c8 3d
       0.09079083 0.018890945 -0.08270311 0.09778543
000200 5c 48 7d bc 74 e1 c7 bc 0c c7 2c 3d 99 a7 88 3c
       -0.015459146 -0.024399497 0.042182013 0.01668148
000210 42 ba be 3d 74 23 81 3d d6 1d a7 3b 5f 04 9c 3d
       0.093128696 0.0630559 0.0050999923 0.07618021
000220 8f 34 25 bc 64 25 93 bd 9c c7 58 3d 8a cc 8b 3d
       -0.010083332 -0.07184866 0.052924737 0.06826122
000230 8c 96 9a bd 56 c1 07 bd ad e1 69 3d 75 b5 ef 3c
       -0.07548246 -0.033143364 0.057099987 0.02926133
000240 5d 3c 9b bd c6 98 3d 3d 00 b8 4f 3d 3c d8 57 3c
       -0.07579873 0.046288274 0.050712585 0.013174113
000250 27 f2 72 bc 18 fe 84 3d 9d d8 12 3d 2c 16 6d 3d
       -0.014828241 0.06493777 0.03585111 0.057882473
000260 c4 47 67 bd f2 29 3a bc 67 75 95 bc a7 fd a6 bd
       -0.056464925 -0.01136254 -0.018244458 -0.08153849
000270 40 82 83 bd 1b 5b 0c bd 36 86 8a bc 08 04 98 3d
       -0.064213276 -0.034266572 -0.0169097 0.07422644
000280 7c 82 50 bd 5c be e5 3c 5a 1c 29 bd 34 2a 76 3d
       -0.05090569 0.028044872 -0.041286804 0.06009884
000290 85 78 17 bd 4a 09 7d bc af a3 7c 3c 1f 6c 21 3d
       -0.03698017 -0.015444109 0.015419885 0.039409753
0002a0 87 e8 ae 3d 82 8c b7 bd be 60 1d bc ba 40 a3 3d
       0.08540445 -0.089623466 -0.009605585 0.0797133
0002b0 58 17 ac bd 6a c1 91 3b f0 61 4e 3d b7 90 1b bb
       -0.0840289 0.0044481056 0.05038637 -0.002373738
0002c0 af 52 b8 bd 03 37 97 bd ec df 84 bd cb f5 08 bd
       -0.09000146 -0.073835395 -0.06488022 -0.03343753
0002d0 59 11 05 bc 6e c2 b2 3d e0 4d 74 3d 1c d1 37 3d
       -0.008121812 0.08728491 0.05964458 0.044877157
0002e0 c0 ca 3e 3d 05 8f 72 3d 9b 92 3a 3d 36 82 86 3d
       0.046580076 0.059218425 0.04554997 0.065678045
0002f0 7a cd 89 3d 24 e6 0f 3c 1f f0 63 3d e1 05 b3 3d
       0.06728645 0.008782897 0.05564892 0.08741356
000300 52 3d a6 3b b5 6d 89 3d 34 e5 8c bd 0a 75 f7 3b
       0.005073228 0.06710378 -0.068796545 0.007551794
000310 b0 e6 f0 3c 30 46 14 bd eb 6a 9c 3d 48 7a f0 bc
       0.029406875 -0.03619975 0.076375805 -0.029355183
000320 2c 0b 1d bd a7 97 12 bd bc 45 ce 3d 5b 74 2a bd
       -0.038340732 -0.03578916 0.100718945 -0.04161487
000330 98 3a 11 bd d8 15 de bd cb 5e ac bd 9a a4 7c 3c
       -0.03545627 -0.1084401 -0.08416518 0.015420103
000340 f6 27 48 3d 72 ec 92 bd ba c8 ab 3d f7 07 4e ba
       0.048866235 -0.071740046 0.08387895 -0.0007859463
000350 51 df 04 3c f5 91 9c 3d e7 3d 6a 3d 83 ca 43 3d
       0.008109883 0.076450266 0.05718794 0.047800552
000360 fb fd a3 bd df 49 be bd fa 45 fa 3c 79 6e 8a bd
       -0.08007427 -0.092914335 0.030550946 -0.06759352
000370 60 a2 20 bc 4b e3 90 3c a6 44 07 3c a6 92 79 3d
       -0.009804338 0.017686507 0.008256113 0.06093087
000380 1e 61 03 3d 31 4d 01 bd 11 91 5c bd 79 50 57 bc
       0.03207504 -0.031567756 -0.053849284 -0.013141745
000390 f4 da 2a bc 4c 55 29 3b e3 d6 40 bd e6 7d 28 bd
       -0.010428179 0.0025838194 -0.047079932 -0.04113569
0003a0 12 6d 55 bd dc 64 a8 3d ba 44 c8 bd f0 63 10 3d
       -0.05210597 0.082223624 -0.097787336 0.035251558
0003b0 dd 6d b4 3d 6a 81 af 3d 38 65 c4 bd 01 1b d8 bc
       0.08810017 0.08569606 -0.095896184 -0.026380064
0003c0 f6 d5 99 bd ce af 24 bb f8 41 6c bd 61 44 8b 3d
       -0.07511513 -0.0025129202 -0.0576801 0.068001516
0003d0 91 11 92 3d c8 d6 a6 bc f3 c2 6f bc 8d 3a b2 3c
       0.07132257 -0.020366088 -0.014633882 0.021756435
0003e0 2d 08 50 bd 4a 64 0e 3d e4 8e 80 3d 4e e5 6d 3d
       -0.050789047 0.03476361 0.06277254 0.05808001
0003f0 25 a9 93 bd fe 28 6d 3d 99 89 61 3d 64 ca 47 3c
       -0.07209996 0.05790042 0.055062864 0.01219425

layer3.bias f4 [4]
000000 e1 cd be 3c 60 96 0e 3d 92 c2 4e bd 17 0e 28 3d
       0.02329153 0.034811378 -0.050478525 0.041029062
