models/model_final/nets/10_policy_net.pt (torch, 58884 bytes, 6 tensors)

layer1.weight f4 [128, 9]
-0.24344923 0.25308806 0.21409793 -0.09016351 -0.2682435 0.28349826 -0.012019117 0.08260772
0.27011347 0.29728177 0.101013176 0.2572113 -0.25697148 0.15068018 -0.23684333 -0.21733621
0.05536388 -0.07916651 -0.2693561 0.1709416 0.28443775 0.08831513 -0.17946877 0.26615122
0.19386376 0.12658007 -0.24845132 0.08032353 0.2519339 0.13477089 -0.21351528 0.27545515
-0.06894731 -0.22984444 0.100730255 0.26585838 0.17644739 -0.14256229 -0.028289761 -0.17383155
0.21064517 -0.15676725 -0.14434405 0.2868319 -0.2324397 -0.05572779 0.1841348 -0.15958697
0.11924895 0.23448625 0.14640206 -0.12555687 -0.021881515 -0.042235475 -0.19657329 0.07622643
0.14616781 0.05332105 -0.32970163 0.18664353 0.10995466 -0.21093473 -0.025846459 0.24012926
0.13495645 0.1377637 0.06087624 0.25328135 -0.015725454 -0.31608513 -0.2167925 -0.24479504
0.121262066 0.26367122 0.05425982 0.17463437 0.15600592 -0.31378123 0.1368547 0.23767877
0.01958737 0.025366757 -0.33495077 0.18716273 0.19554535 0.15838441 0.23770438 -0.17187208
-0.07119404 0.3320072 -0.08395813 -0.11786929 0.29894817 -0.1149143 0.039525717 0.28255525
0.019239685 0.019183299 0.03252135 0.036502108 0.06329851 0.13809389 -0.045866024 -0.23001967
0.1613358 -0.22113827 0.27851498 -0.05747397 0.13880399 0.038811464 -0.24753338 -0.1341284
0.11975188 -0.30518776 0.2309989 0.031714126 0.14308764 0.15601917 -0.106895834 0.13663185
-0.02098801 -0.027084002 0.27731645 0.09931311 -0.21038683 0.11398221 -0.28460196 0.08456296
0.23526986 0.088929124 -0.27159974 0.19110334 -0.2851425 -0.07239525 0.035389267 -0.055498227
0.04357515 -0.23290431 -0.014389772 0.1466184 0.035598505 -0.05393016 0.17248525 -0.23277564
0.1249172 0.2299473 0.04608532 0.075448126 -0.16428101 0.27343217 0.027840607 -0.252715
0.0951882 0.08359948 -0.03101455 0.27968523 -0.28047186 0.14366628 -0.20950602 -0.045871284
0.26142204 0.20164695 0.2620062 -0.33296302 0.17868622 0.047432683 -0.3241724 0.0136559745
-0.2856606 0.10023071 -0.18403707 0.33134037 -0.09132215 -0.14252985 -0.19928733 -0.023166772
-0.12845427 -0.1945266 0.09246418 0.16890758 -0.22508977 0.22111331 -0.34047988 -0.33372915
-0.0933486 0.27937195 0.0655559 0.08810896 0.061247703 -0.0194963 -0.045728445 0.15715116
0.040273055 -0.2928871 0.017315103 0.21216257 0.12498531 -0.26327896 0.24881628 0.17964037
-0.1186866 0.021368572 -0.31859672 -0.06569398 0.18299231 -0.19211945 0.2542204 -0.08158632
0.13529909 0.1357168 -0.28468025 0.23162551 -0.10688812 -0.078363664 -0.050598573 -0.27766266
-0.2124136 0.31532738 0.14544758 -0.03597602 -0.23694488 -0.15935591 -0.054354273 0.12400014
-0.029300759 0.27987313 0.29431164 0.26613048 0.27137017 0.29992187 -0.11060128 -0.20340957
-0.30774483 0.16487148 -0.11979979 -0.17145154 -0.21265997 -0.15284547 -0.26170915 0.000116379284
-0.2533978 -0.019700877 -0.16035238 -0.25724405 0.16305718 0.18854657 -0.24637885 0.06268117
-0.2279095 -0.03319281 -0.20339349 0.20556083 0.09425363 -0.14587148 -0.100322396 0.08094622
00000000: c14a 79be c294 813e 7d3c 5b3e a5a7 b8bd
00000010: 3657 89be af26 913e d5eb 44bc 3c2e a93d
00000020: 504c 8a3e 5135 983e ffdf ce3d 33b1 833e
00000030: c491 83be e84b 1a3e 0f87 72be 628d 5ebe
00000040: 3cc5 623d 0d22 a2bd 0be9 89be 510b 2f3e
00000050: d3a1 913e 90de b43d a9c6 37be f944 883e
00000060: 3984 463e 359e 013e 066a 7ebe aa80 a43d
00000070: 7bfd 803e 6101 0a3e c0a3 5abe 7508 8d3e
00000080: 3f34 8dbd 575c 6bbe aa4b ce3d 971e 883e
00000090: a0ae 343e d9fb 11be eebf e7bc e600 32be
000000a0: 5eb3 573e 9887 20be edce 13be a1db 923e
000000b0: ac04 6ebe d342 64bd d58d 3c3e c46a 23be
000000c0: cb38 f43d 2a1d 703e 6cea 153e fb91 00be
000000d0: dd40 b3bc 1bff 2cbd 824a 49be 9a1c 9c3d
000000e0: 04ad 153e 2c67 5a3d a7ce a8be 7b1f 3f3e
000000f0: e92f e13d 46ff 57be f4bb d3bc 72e4 753e
00000100: 0632 0a3e ed11 0d3e 5d59 793d 18ae 813e
00000110: abd2 80bc e9d5 a1be dafe 5dbe 8dab 7abe
00000120: 3f58 f83d eaff 863e 8c3f 5e3d 5ad3 323e
00000130: 04c0 1f3e efa7 a0be a323 0c3e 1062 733e
00000140: b175 a03c f2cd cf3c ab7e abbe 96a7 3f3e
00000150: 0a3d 483e 862f 223e c768 733e 3cff 2fbe
00000160: 2ece 91bd d9fc a93e 3df2 abbd 7465 f1bd
00000170: bc0f 993e 3058 ebbd b8e5 213d 15ab 903e
00000180: 8b9c 9d3c 4b26 9d3c 1b35 053d 3c83 153d
00000190: a6a2 813d 7c68 0d3e 03de 3bbd 478a 6bbe
000001a0: 3635 253e 1272 62be 8499 8e3e d369 6bbd
000001b0: a222 0e3e c5f8 1e3d 6479 7dbe f558 09be
000001c0: 7940 f53d 9241 9cbe fa8a 6c3e ace6 013d
000001d0: 9185 123e 7dc3 1f3e 34ec dabd 38e9 0b3e
000001e0: 0cef abbc 45df ddbc 6cfc 8d3e ac64 cb3d
000001f0: a56f 57be 816f e93d 59b7 91be 582f ad3d
00000200: 95ea 703e 7920 b63d 1f0f 8bbe 98b0 433e
00000210: 33fe 91be f643 94bd 56f4 103d 1c52 63bd
00000220: db7b 323d 787e 6ebe 14c3 6bbc 2223 163e
00000230: bdcf 113d dfe5 5cbd f99f 303e bd5c 6ebe
00000240: 97d4 ff3d 4e77 6b3e f6c3 3c3d 8c84 9a3d
00000250: 4839 28be 4dff 8b3e fc11 e43c dc63 81be
00000260: 08f2 c23d 3436 ab3d 3a12 febc e732 8f3e
00000270: 029a 8fbe 411d 133e bf88 56be 87e3 3bbd
00000280: 1cd9 853e 8a7c 4e3e ad25 863e 217a aabe
00000290: 85f9 363e c648 423d edf9 a5be 4fbd 5f3c
000002a0: 1b42 92be c245 cd3d 3774 3cbe 72a5 a93e
000002b0: 1b07 bbbd 58f3 11be fa11 4cbe 3ec8 bdbc
000002c0: 8489 03be fb31 47be dc5d bd3d 1cf6 2c3e
000002d0: ef7d 66be 876b 623e 6153 aebe 8cde aabe
000002e0: 8d2d bfbd d709 8f3e 2c42 863d 7872 b43d
000002f0: dfde 7a3d b4b6 9fbc c04d 3bbd 3cec 203e
00000300: 5cf5 243d 4cf5 95be 67d8 8d3c 2541 593e
00000310: 4cf8 ff3d 80cc 86be b2c9 7e3e a5f3 373e
00000320: f611 f3bd 250d af3c 1c1f a3be 918a 86bd
00000330: 5662 3b3e f6ba 44be 2d29 823e bb16 a7bd
00000340: d88b 0a3e 58f9 0a3e 9cc1 91be 3d2f 6d3e
00000350: 29e8 dabd 217d a0bd 7340 4fbd cd29 8ebe
00000360: f382 59be 9772 a13e 36f0 143e 975b 13bd
00000370: aea1 72be 322e 23be 96a2 5ebd c9f3 fd3d
00000380: 2508 f0bc 884b 8f3e 04b0 963e 4142 883e
00000390: 08f1 8a3e 5c8f 993e ed82 e2bd 994a 50be
000003a0: bb90 9dbe 12d4 283e 9859 f5bd fe90 2fbe
000003b0: 89c3 59be 8683 1cbe befe 85be a710 f438
000003c0: 5bbd 81be bc63 a1bc 6a33 24be 7eb5 83be
000003d0: 76f8 263e 5a12 413e bd4a 7cbe fc5e 803d
000003e0: 1c61 69be 2ff5 07bd 6246 50be 8a7e 523e
000003f0: 0c08 c13d 555f 15be d475 cdbd 22c7 a53d

layer1.bias f4 [128]
0.024867842 -0.048713297 -0.15203914 -0.24704836 0.17054528 0.046766154 -0.048382975 0.116717726
0.09929649 -0.21149044 0.050386857 0.27479485 -0.15016736 -0.061811414 -0.29944828 0.037041232
-0.12995115 -0.0021649266 -0.22879107 -0.1443022 0.23112856 0.18596773 0.13574202 0.00032464863
-0.2062519 -0.22268221 -0.29096556 0.20383427 0.14049914 0.045165997 -0.019515103 -0.088435665
0.28536126 0.2227192 0.2049595 0.19206798 0.3211433 -0.025595283 0.20322867 0.11987257
0.04192439 0.25410882 0.10178862 0.15395017 0.2114089 0.093433484 -0.20278035 -0.18519282
0.07924825 0.03709927 0.14752431 0.15312299 0.2626878 0.270271 -0.30110383 0.093548365
0.23007524 0.2262925 -0.15591973 -0.21136746 0.00432587 -0.13910556 -0.13724734 -0.20009427
-0.038195595 -0.18939056 0.08720888 0.18376729 0.27964652 -0.061052844 -0.22013481 0.0023577653
-0.15205492 -0.17333806 0.2141362 -0.05575053 -0.29114684 0.053428765 0.07322143 -0.32629126
0.035454817 -0.13389258 0.3238185 0.18744451 0.20733792 -0.24793108 0.10491508 0.30377123
0.17394497 -0.15430954 0.08465218 0.20995824 -0.22107601 -0.21228322 0.32602268 -0.22330913
0.14876388 0.020436825 -0.02064345 -0.19635428 0.1540357 -0.17180482 -0.047502834 -0.1680011
0.20310116 -0.21856914 0.2127247 -0.09614651 0.058381025 -0.102872156 0.11469703 -0.21169165
0.06564273 -0.046886753 -0.032285653 -0.14564317 0.2972629 0.29488334 0.13528542 -0.09667982
0.2084383 -0.07607934 -0.19253047 -0.10328089 -0.18541777 -0.29967338 0.15607573 0.19136316
00000000: a5b7 cb3c 9887 47bd 26b0 1bbe 3ffa 7cbe
00000010: 6ca3 2e3e de8d 3f3d 3a2d 46bd b409 ef3d
00000020: f55b cb3d f390 58be 7362 4e3d e9b1 8c3e
00000030: 79c5 19be f72d 7dbd 4951 99be 8cb8 173d
00000040: ea11 05be 71e1 0dbb 3548 6abe f5c3 13be
00000050: f7ac 6c3e 536e 3e3e f5ff 0a3e 9a35 aa39
00000060: b333 53be ce06 64be 70f9 94be eeb9 503e
00000070: 02df 0f3e fbff 383d 23de 9fbc c21d b5bd
00000080: df1a 923e 8110 643e e7e0 513e 78ad 443e
00000090: e56c a43e 33ad d1bc 2d1b 503e c07f f53d
000000a0: e9b8 2b3d 8d1a 823e 8d76 d03d 1da5 1d3e
000000b0: 937b 583e 0e5a bf3d a7a5 4fbe 30a3 3dbe
000000c0: e84c a23d 67f5 173d 9d10 173e 46cc 1c3e
000000d0: 047f 863e f660 8a3e 482a 9abe 4996 bf3d
000000e0: d898 6b3e 39b9 673e 6ca9 1fbe b670 58be
000000f0: 07c0 8d3b b071 0ebe 918a 0cbe 83e5 4cbe
00000100: fc72 1cbd 99ef 41be 929a b23d 7e2d 3c3e
00000110: d42d 8f3e 8c12 7abd 056b 61be bd84 1a3b
00000120: 49b4 1bbe 887f 31be 8546 5b3e ab5a 64bd
00000130: 3311 95be 1fd8 5a3d 1ef5 953d a60f a7be
00000140: 1239 113d 231b 09be 8acb a53e 74f1 3f3e
00000150: 6450 543e a5e1 7dbe b8dd d63d e787 9b3e
00000160: a11e 323e 5203 1ebe 1f5e ad3d 4bff 563e
00000170: c061 62be c660 59be 72ec a63e 26ab 64be
00000180: 8f55 183e 216b a73c 741c a9bc 1911 49be
00000190: 89bb 1d3e 9aed 2fbe 5592 42bd 7b08 2cbe
000001a0: c0f9 4f3e 97d0 5fbe 81d4 593e 76e8 c4bd
000001b0: f120 6f3d a3ae d2bd 47e6 ea3d b2c5 58be
000001c0: b26f 863d 530c 40bd f63d 04bd 7c23 15be
000001d0: d832 983e f3fa 963e 4388 0a3e 1200 c6bd
000001e0: da70 553e 7ccf 9bbd b526 45be ee84 d3bd
000001f0: 28de 3dbe ca6e 99be 51d2 1f3e b4f4 433e

layer2.weight f4 [96, 128]
0.005738729 0.015279975 0.093196645 -0.030052153 0.021249644 0.01609014 0.058070567 -0.020404344
-0.0054003065 0.15110877 0.015109158 0.045997802 -0.04512897 0.061686862 0.06711408 -0.56588274
-0.010307703 -0.11496787 -0.20123313 -0.17067842 0.05810442 0.0530585 0.08377292 0.115641505
-0.1626394 0.012388552 -0.051671088 -0.00032944852 0.12878734 0.087667756 -0.013884091 -0.058054328
-0.10260389 0.09034709 0.04023504 -0.13550603 -0.017314928 0.26955533 -0.4144606 0.023011519
0.10274536 -0.028165337 -0.21370642 -0.052487426 -0.0053668134 0.07502875 -0.033958577 0.05605627
-0.032776788 0.045302495 -0.048429403 0.0071845776 -0.028892798 -0.14655046 0.06764524 0.07595951
0.029954994 0.1245669 0.057384863 -0.11022714 -0.24059047 -0.0041641355 0.038556743 0.06583739
-0.02129362 0.09625461 -0.010174835 -0.036096793 0.008128422 -0.06246056 -0.042108703 0.08323066
0.1727357 0.04022139 -0.06110581 -0.19345908 0.04733376 -0.059300903 0.042997036 0.04730031
0.03217938 0.1345172 -0.029520521 0.073570564 -0.071078956 0.1673318 -0.12505037 0.024810279
-0.07503464 0.10562232 -0.09300472 0.035441373 -0.25283474 0.023948828 -0.17210005 0.18084076
0.05593028 0.08803096 0.12562111 0.021682616 0.086198606 -0.11584625 0.08152715 -0.08408948
-0.017266594 -0.09740302 -0.09666565 0.003572714 -0.047054533 0.13468584 0.14834811 -0.054695655
-0.037229225 0.047826402 -0.22109933 -0.121577375 -0.0318251 -0.17054218 0.0619271 0.043400448
0.06203974 -0.057094723 -0.04534731 0.043988977 -0.072868265 -0.0037346112 0.045570794 0.029660113
-0.031848386 0.024518218 -0.06603125 -0.09243178 0.067898765 -0.053432625 -0.080220886 -0.026467897
0.0073517174 0.08352183 0.004233639 -0.06424955 -0.011326484 0.018109478 0.007816203 0.098227434
-0.013778178 0.066724926 0.01806965 0.07811189 -0.056904934 0.08049257 -0.0036438496 0.10598698
-0.042868506 0.09606331 -0.007815999 -0.0546966 0.0901316 0.055615705 0.022943392 -0.039939433
-0.089897044 0.0604851 -0.043789607 0.067789756 -0.073983185 -0.08457688 0.023125257 0.06351513
-0.027200334 -0.06147672 0.0074687814 -0.004984374 -0.018347677 0.059302296 -0.07936267 -0.017991263
0.08258506 -0.0345784 0.08174974 -0.06564412 -0.054661866 0.049035598 0.05953066 0.06281795
-0.029707845 -0.032291427 -0.016195878 -0.007309993 0.21690941 0.09685585 -0.009166515 -0.0154338535
0.049262743 -0.06830967 0.033949874 -0.0126486905 -0.02239488 -0.009765812 -0.06324735 -0.123232946
0.039560243 -0.07721107 -0.029415552 0.02007598 -0.0297748 -0.0036052312 -0.05333408 0.017372036
-0.050148983 -0.0009555276 -0.04813427 -0.01204683 0.073451936 -0.05557806 0.02359328 -0.026901728
0.05149433 0.04409051 0.021502566 -0.041418765 -0.012122758 -0.06701572 0.012283568 -0.049953308
0.034792595 -0.008077812 0.048206624 -0.041881327 0.02109142 0.0446612 -0.031222003 0.049406596
0.0577455 -0.050035927 -0.021726876 0.02814295 -0.03096409 0.27510566 -0.055397045 -0.03691143
0.057841834 -0.06564791 -0.003795831 -0.0266373 0.032089405 0.0662686 0.015441228 0.06240958
0.027551048 0.025817169 0.030383976 0.014509628 -0.015782408 -0.024492376 0.06204454 -0.0026343986
00000000: f30b bc3b dc58 7a3c e2dd be3d ef2f f6bc
00000010: bc13 ae3c 78cf 833c 67db 6d3d 0327 a7bc
00000020: 0ef5 b0bb 42bc 1a3e 678c 773c 3168 3c3d
00000030: 28d9 38bd 5dab 7c3d 1b73 893d b1dd 10bf
00000040: a4e1 28bc 4674 ebbd 0f10 4ebe 53c6 2ebe
00000050: e6fe 6d3d df53 593d 2391 ab3d 74d5 ec3d
00000060: f18a 26be 5af9 4a3c 10a5 53bd d5b9 acb9
00000070: d4e0 033e 278b b33d 197a 63bc 60ca 6dbd
00000080: fd21 d2bd e507 b93d 7fcd 243d 18c2 0abe
00000090: 09d8 8dbc 2803 8a3e 2e34 d4be a782 bc3c
000000a0: 296c d23d feba e6bc dbd5 5abe 0efd 56bd
000000b0: 18dc afbb aca8 993d 2618 0bbd 429b 653d
000000c0: f440 06bd 1c8f 393d e95d 46bd 9b6c eb3b
000000d0: 97b0 ecbc 5311 16be 9689 8a3d a990 9b3d
000000e0: 2d64 f53c ee1c ff3d 640c 6b3d c4be e1bd
000000f0: 595d 76be 4d73 88bb aded 1d3d c1d5 863d
00000100: f56f aebc 2321 c53d 5ab4 26bc 3bda 13bd
00000110: 132d 053c a5d6 7fbd 2d7a 2cbd d674 aa3d
00000120: a1e1 303e 2fbf 243d 164a 7abd 231a 46be
00000130: 0be1 413d 81e5 72bd a91d 303d f8bd 413d
00000140: 87ce 033d e0be 093e 05d5 f1bc 2aac 963d
00000150: d891 91bd 0759 2b3e 340d 00be ed3e cb3c
00000160: c3ab 99bd 8450 d83d 4279 bebd f92a 113d
00000170: 8e73 81be 5530 c43c ff3a 30be 522e 393e
00000180: 2617 653d 9349 b43d d2a2 003e be9f b13c
00000190: e588 b03d cc40 edbd b5f7 a63d 1b37 acbd
000001a0: ac72 8dbc 3c7b c7bd a4f8 c5bd 3224 6a3b
000001b0: 41bc 40bd 16eb 093e 91e8 173e 8d08 60bd
000001c0: ac7d 18bd 9ee5 433d dd67 62be 8ffd f8bd
000001d0: 095b 02bd 9ca2 2ebe 45a7 7d3d abc4 313d
000001e0: 621d 7e3d 28dc 69bd 1abe 39bd c92d 343d
000001f0: f53b 95bd 61c0 74bb 71a8 3a3d c4f9 f23c
00000200: 7473 02bd 6eda c83c 643b 87bd e04c bdbd
00000210: 820e 8b3d 2bdc 5abd d94a a4bd 34d3 d8bc
00000220: ade6 f03b 7e0d ab3d 57ba 8a3b 4595 83bd
00000230: b892 39bc 545a 943c 880f 003c 772b c93d
00000240: debd 61bc 14a7 883d cd06 943c 20f9 9f3d
00000250: 2615 69bd 4ad9 a43d a7cd 6ebb b40f d93d
00000260: e396 2fbd d7bc c43d ad0e 00bc 8b09 60bd
00000270: eb96 b83d 4bcd 633d c8f3 bb3c 8897 23bd
00000280: f11b b8bd 39bf 773d bb5c 33bd 5bd5 8a3d
00000290: 7f84 97bd a536 adbd 2e71 bd3c 3814 823d
000002a0: 3cd3 debc 03cf 7bbd aebc f43b f653 a3bb
000002b0: de4d 96bc f7e6 723d e588 a2bd 6a62 93bc
000002c0: 5b22 a93d 15a2 0dbd 686c a73d 6d70 86bd
000002d0: 1fe5 5fbd 8dd9 483d 6cd6 733d b3a6 803d
000002e0: de5d f3bc 0444 04bd 38ad 84bc aa88 efbb
000002f0: 801d 5e3e 5c5c c63d 272f 16bc 46de 7cbc
00000300: bbc7 493d f1e5 8bbd 060f 0b3d 743c 4fbc
00000310: 7875 b7bc c900 20bc d487 81bd 8e61 fcbd
00000320: ec09 223d d620 9ebd e2f8 f0bc 6276 a43c
00000330: 48ea f3bc be45 6cbb d674 5abd cd4f 8e3c
00000340: 0569 4dbd 5f7c 7aba 7128 45bd 1160 45bc
00000350: f86d 963d d2a5 63bd b246 c13c 0361 dcbc
00000360: b8eb 523d 4098 343d 2626 b03c b9a6 29bd
00000370: 889e 46bc 8a3f 89bd 0541 493c d79b 4cbd
00000380: ae82 0e3d cd58 04bc 4f74 453d c18b 2bbd
00000390: eac7 ac3c aaee 363d 49c5 ffbc 925e 4a3d
000003a0: 8c86 6c3d 79f2 4cbd 90fc b1bc 0b8c e63c
000003b0: 67a8 fdbc a6da 8c3e 03e8 62bd 7130 17bd
000003c0: 8feb 6c3d 6972 86bd 7ac3 78bb 7836 dabc
000003d0: 2e70 033d d5b7 873d 34fd 7c3c 30a1 7f3d
000003e0: bcb2 e13c 877e d33c d1e7 f83c cab9 6d3c
000003f0: 1c4a 81bc 3ca4 c8bc 6a22 7e3d e0a5 2cbb

layer2.bias f4 [96]
-0.06501351 0.02917479 -0.011745875 0.0043659536 -0.035643797 -0.015426525 0.088588215 0.02251651
0.04218127 -0.04795943 0.026513692 0.03489656 -0.043823346 -0.060113028 -0.0390824 -0.028073229
-0.042399563 0.01201423 -0.020163603 0.031698808 -0.05419174 0.00037103402 -0.016868254 0.04523078
-0.061070506 0.042834003 0.017024323 -0.037521806 0.00506346 -0.05283829 -0.0537452 -0.042865414
0.023454003 0.045998584 -0.037439093 -0.06615593 -0.06170105 0.05222484 0.054507773 -0.022477517
0.025709178 0.07792502 -0.052812185 -0.051128108 -0.027884893 0.0626669 0.013268586 -0.0006865349
-0.05893752 -0.025682332 0.0072059673 0.015696025 0.07238892 0.038749065 0.009037256 0.017585734
-0.0048835617 -0.061269075 0.07345768 -0.045018423 0.033312414 0.010944696 0.057526138 0.058622774
-0.07641913 0.06303963 -0.003236534 -0.015701111 0.020733355 0.05363945 0.07445755 0.07176442
0.043070674 -0.06657401 0.049637906 -0.05735281 0.030231006 -0.032392573 0.014442491 0.0052116946
-0.0076449835 -0.031359006 0.06159019 -0.006542274 -0.06546436 -0.07036272 0.022192484 0.05875649
0.042136002 0.0109099625 0.00097599905 0.06581726 -0.061995104 -0.021603545 0.012731311 0.031836886
00000000: ce25 85bd f8ff ee3c c571 40bc 4610 8f3b
00000010: 3bff 11bd 89bf 7cbc bd6d b53d 8b74 b83c
00000020: 44c6 2c3d 1b71 44bd 3e33 d93c b2ef 0e3d
00000030: 1c80 33bd 1439 76bd de14 20bd d4f9 e5bc
00000040: 2aab 2dbd 55d7 443c 242e a5bc 9cd6 013d
00000050: 28f8 5dbd 5887 c239 4b2f 8abc e943 393d
00000060: 1125 7abd b572 2f3d 9876 8b3c 77b0 19bd
00000070: 62eb a53b f66c 58bd ed23 5cbd a593 2fbd
00000080: 9c22 c03c 0369 3c3d bc59 19bd c37c 87bd
00000090: 3dba 7cbd b7e9 553d 8b43 5f3d c522 b8bc
000000a0: 0e9c d23c 2797 9f3d 9751 58bd b56b 51bd
000000b0: dc6e e4bc 8157 803d 7c64 593c 94f8 33ba
000000c0: 7868 71bd c163 d2bc 0920 ec3b f394 803c
000000d0: a440 943d 57b7 1e3d 0011 143c f50f 903c
000000e0: 4906 a0bb 48f5 7abd fb70 963d 3d65 38bd
000000f0: 9972 083d 6251 333c 87a0 6b3d 6f1e 703d
00000100: a281 9cbd ec1a 813d 081c 54bb 9e9f 80bc
00000110: ffd8 a93c 0ab5 5b3d 337d 983d 39f9 923d
00000120: e06a 303d f457 88bd 1e51 4b3d c8ea 6abd
00000130: 04a7 f73c 13ae 04bd 33a0 6c3c ddc6 aa3b
00000140: c582 fabb 4d72 00bd ff45 7c3d 9260 d6bb
00000150: 2e12 86bd 541a 90bd 03cd b53c a5aa 703d
00000160: cd96 2c3d b3bf 323c 30da 7f3a 33cb 863d
00000170: 94ee 7dbd ebf9 b0bc fd96 503c 6567 023d

layer3.weight f4 [4, 96]
0.16313016 -0.026025048 0.033535272 0.065884516 -0.08801758 0.002963666 0.067581736 0.016465206
-0.05178367 0.053492032 0.07279304 -0.09019462 -0.07790757 0.064152636 0.044330765 0.04261276
0.070641726 -0.08012565 0.053515837 -0.0857478 0.006193928 -0.06686924 0.086515844 0.019396042
-0.028134681 -0.17806621 0.046529323 -0.058366597 0.026521213 -0.04523244 -0.029805666 0.064823635
0.105246 -0.036005773 -0.022396766 0.045575894 0.17749953 0.06116449 0.04394201 0.07358713
-0.06965146 -0.0061721434 -0.045024093 0.06111739 0.06231923 0.058604684 -0.015666785 0.005926395
0.10719018 -0.031095691 -0.0145621635 0.041416597 0.028081287 0.1736929 0.09025818 -0.00092348014
-0.031010069 0.102516204 0.060501527 -0.03899511 0.010585061 0.03612115 -0.055390358 -0.0054281475
-0.098859094 -0.048525188 -0.07537447 -0.033408873 -0.032897495 0.05321804 -0.06927086 0.0275655
0.09658752 -0.064456575 0.02002533 -0.08209872 0.0018117877 -0.04378118 0.023348385 -0.021258308
0.062451288 -0.04566988 -0.007095467 -0.04434612 0.053635027 0.0033536132 0.072652094 0.2403519
0.027238863 -0.026908118 -0.04349193 -0.013063366 0.038554337 -0.062108237 0.06890754 -0.0450656
0.12548065 -0.03787394 -0.03279101 -0.043195143 -0.10685949 -0.06754941 0.06965443 -0.01607162
-0.024287686 0.089061186 0.08246342 -0.04776126 0.048469584 0.124926634 0.037718277 -0.025469089
0.0795831 -0.120934404 -0.027621247 -0.12741782 -0.004206981 -0.07475027 0.040835403 -0.046861343
-0.061710157 -0.14696099 -0.031963404 -0.088873886 0.10177103 0.020105422 -0.10887556 0.07342819
0.15359756 -0.052487 0.028641786 0.02465476 0.14359133 0.061374076 0.1437817 0.07764799
-0.07138952 -0.08345891 0.04870925 0.06275002 -0.054378666 -0.030435197 0.061327495 0.0558922
-0.06828908 0.13105857 0.04300926 0.043953728 0.00037808067 0.1939179 0.034430303 0.055660896
-0.052452654 0.10661759 0.006690294 -0.1119893 -0.048907857 -0.020159453 -0.15413544 0.0701748
-0.10373943 0.01748766 -0.09594041 0.04001493 -0.12456007 -0.014205712 -0.11193559 0.04020295
0.12912527 -0.09284486 -0.011968605 0.07336179 -0.06160148 -0.047923587 0.09701324 -0.09159951
-0.12759309 -0.08797763 -0.115189016 -0.06363279 0.014999782 0.08032182 0.053857565 0.21983324
0.040507652 0.16585255 0.036366906 0.05353899 0.11359718 -0.043518268 0.07390314 0.07853891
0.13826287 0.022162033 -0.06328534 0.013328488 -0.035817698 -0.02685757 0.08331548 -0.02780311
-0.046580553 0.021815509 0.0751116 -0.033537768 -0.032647688 0.04000881 -0.043199025 0.013466756
0.043389272 -0.061468724 0.07714874 -0.06468327 0.13190432 0.069539696 0.050390285 0.031832453
-0.07038615 -0.15307231 0.02811383 -0.04414295 0.02295176 0.021820951 -0.032625724 0.04252804
0.115163416 -0.03799551 -0.03768523 -0.001182577 0.19868885 0.025707945 -0.056545634 0.027497655
-0.047485076 0.037952088 -0.0899871 0.032463446 0.07201515 0.07859779 -0.035106916 0.0077688782
-0.06551143 -0.005840632 -0.037253417 0.05793253 0.0647693 0.15935546 -0.0022435829 0.023195786
-0.050373014 0.101897016 0.06787553 -0.018085793 -0.054321755 0.041254 -0.044875994 0.0329888
00000000: 980b 273e 7b32 d5bc 485c 093d 76ee 863d
00000010: 9042 b4bd 113a 423b 4b68 8a3d 0ae2 863c
00000020: 1d1b 54bd 761a 5b3d 8414 953d f5b7 b8bd
00000030: 018e 9fbd 7562 833d 2d94 353d b88a 2e3d
00000040: 9cac 903d eb18 a4bd 6c33 5b3d 8b9c afbd
00000050: 6ff6 ca3b bdf2 88bd 382f b13d 73e4 9e3c
00000060: b47a e6bc fd56 36be 8895 3e3d d011 6fbd
00000070: 0443 d93c a745 39bd 032b f4bc 41c2 843d
00000080: 378b d73d ca7a 13bd 6c79 b7bc caad 3a3d
00000090: 70c2 353e 9e87 7a3d 89fc 333d d9b4 963d
000000a0: 6da5 8ebd b13f cabb 2f6b 38bd 3a56 7a3d
000000b0: 7342 7f3d 770b 703d a157 80bc 3432 c23b
000000c0: 8686 db3d 64bc febc 2496 6ebc 73a4 293d
000000d0: ba0a e63c 8ddc 313e 48d9 b83d b415 72ba
000000e0: d408 febc 04f4 d13d 73d0 773d 56b9 1fbd
000000f0: f76c 2d3c c5f3 133d 00e1 62bd 9ade b1bb
00000100: a376 cabd 59c2 46bd ee5d 9abd bed7 08bd
00000110: 86bf 06bd 29fb 593d e1dd 8dbd 0bd1 e13c
00000120: adcf c53d cf01 84bd 290c a43c 6023 a8bd
00000130: 8279 ed3a e553 33bd 1d45 bf3c e725 aebc
00000140: eccc 7f3d 5710 3bbd 1781 e8bb 47a4 35bd
00000150: 67b0 5b3d 4bc8 5b3b 9fca 943d cf1e 763e
00000160: 0924 df3c 6a6e dcbc 9824 32bd ba07 56bc
00000170: 27eb 1d3d 3565 7ebd 651f 8d3d b596 38bd
00000180: 007e 003e b421 1bbd de4f 06bd 64ed 30bd
00000190: 26d9 dabd 5857 8abd fba6 8e3d a1a8 83bc
000001a0: f8f6 c6bc b665 b63d 95e2 a83d 50a1 43bd
000001b0: 0b88 463d 89d9 ff3d 7b7e 1a3d 8da4 d0bc
000001c0: 77fc a23d 75ac f7bd f445 e2bc d179 02be
000001d0: b7da 89bb ab16 99bd 0643 273d aef1 3fbd
000001e0: cac3 7cbd f17c 16be 0fec 02bd 8303 b6bd
000001f0: 546d d03d 20b4 a43c 26fa debd 8561 963d
00000200: ae48 1d3e 9cfc 56bd 2ea2 ea3c c7f8 c93c
00000210: 9b09 133e 6263 7b3d 833b 133e e905 9f3d
00000220: ab34 92bd 81ec aabd 5a83 473d 1583 803d
00000230: 2abc 5ebd 3c53 f9bc 8a32 7b3d 38ef 643d
00000240: 25db 8bbd 3834 063e 7a2a 303d d308 343d
00000250: 2139 c639 6a92 463e ca06 0d3d aefc 633d
00000260: 98d8 56bd 535a da3d 413a db3b a55a e5bd
00000270: 9b53 48bd 7025 a5bc aed5 1dbe ceb7 8f3d
00000280: 5775 d4bd 4842 8f3c 687c c4bd b2e6 233d
00000290: 5a19 ffbd 13bf 68bc 7d3e e5bd d9ab 243d
000002a0: 6a39 043e 7225 bebd f817 44bc b53e 963d
000002b0: d551 7cbd 864b 44bd e1ae c63d 8698 bbbd
000002c0: c3a7 02be 9e2d b4bd 38e8 ebbd e951 82bd
000002d0: a5c1 753c c47f a43d c099 5c3d f71b 613e
000002e0: 5aeb 253d 40d5 293e 77f5 143d b34b 5b3d
000002f0: a3a5 e83d 3640 32bd 885a 973d 02d9 a03d
00000300: c894 0d3e 278d b53c bf9b 81bd bb5f 5a3c
00000310: 94b5 12bd 6804 dcbc 4ea1 aa3d 59c3 e3bc
00000320: 40cb 3ebd 70b6 b23c 1cd4 993d e65e 09bd
00000330: 95b9 05bd 47e0 233d 76f1 30bd aba3 5c3c
00000340: f3b8 313d a1c6 7bbd 2900 9e3d aa78 84bd
00000350: ed11 073e d46a 8e3d 0b66 4e3d bf62 023d
00000360: 9d26 90bd fdbe 1cbe fa4e e63c 3dcf 34bd
00000370: 5405 bc3c dac1 b23c 8da2 05bd e231 2e3d
00000380: ccda eb3d 2ea1 1bbd d45b 1abd b300 9bba
00000390: 1775 4b3e 7899 d23c 659c 67bd c342 e13c
000003a0: b67f 42bd a673 1b3d 284b b8bd 64f8 043d
000003b0: ae7c 933d e1f7 a03d 45cc 0fbd 1392 fe3b
000003c0: db2a 86bd c662 bfbb 0a97 18bd a94a 6d3d
000003d0: c4a5 843d 142e 233e 1309 13bb 1705 be3c
000003e0: ef53 4ebd 62af d03d 5302 8b3d a828 94bc
000003f0: 7d80 5ebd f4f9 283d e4cf 37bd 441f 073d

layer3.bias f4 [4]
0.026852055 0.03830761 -0.0271448 0.03855742
00000000: d7f8 db3c 71e8 1c3d c65e debc 63ee 1d3d
