models/model_final/nets/20_policy_net.pt (torch, 58884 bytes, 6 tensors)

layer1.weight f4 [128, 9]
000000 e6 a0 62 be 69 24 3b 3e 1d cd e2 3d 33 45 43 bd
       -0.2213169 0.18275608 0.110742785 -0.047673415
000010 00 07 8e be 53 68 71 3e 43 32 06 ba 21 a3 ca 3d
       -0.27739716 0.23574953 -0.0005119184 0.098943956
000020 53 6c 8a 3e e6 83 81 3e 9b 9a 04 3e bf 2a 58 3e
       0.2703577 0.25295943 0.12949602 0.21110056
000030 cc 9c 7d be a8 45 73 3d ec 1b 91 be 92 e4 05 be
       -0.24766845 0.0593926 -0.28341615 -0.13075474
000040 8b 15 f4 3c d7 b9 84 bd 81 a9 32 be 66 2f 1e 3e
       0.029795429 -0.06480759 -0.17447473 0.15447769
000050 9b b3 39 3d 40 e2 43 3d c9 1d 73 be ca 85 94 3e
       0.0453373 0.04782319 -0.23741831 0.29008323
000060 41 3c 2e 3e ca 0d d2 3d 10 36 96 be 2c 48 84 3d
       0.17015173 0.10256536 -0.2933812 0.06459078
000070 a4 0a 8a 3e 66 b7 fd 3c 0f 5f 2e be 6b 32 69 3e
       0.26961243 0.03097124 -0.1702845 0.22773139
000080 66 eb 26 bd 72 2a 4e be f8 65 a4 3d 79 43 a2 3e
       -0.040751837 -0.20133379 0.080272615 0.31692103
000090 fb 0c 2c 3e 6b d5 f0 bd 62 c1 ff 3a d4 d3 df bd
       0.16801827 -0.11759456 0.0019512589 -0.10929075
0000a0 28 f0 63 3e b5 be 02 be 07 60 c0 bd 98 20 7d 3e
       0.22259581 -0.12768061 -0.09393316 0.24719465
0000b0 76 88 85 be 82 14 98 bd 5e 6e 00 3e a6 30 68 be
       -0.26080674 -0.074257866 0.12542102 -0.22674808
0000c0 83 b6 df 3d 58 18 7b 3e aa 6b b9 3d 2f a3 cf bd
       0.10923483 0.24521005 0.090537384 -0.10138547
0000d0 c0 11 dd bc d1 1a 38 bc 0b c8 59 be 08 93 35 3d
       -0.026986003 -0.011236862 -0.21267717 0.044329673
0000e0 65 90 eb bd 0f 19 1f 3d 02 8c a4 be 88 c0 4d 3e
       -0.115021504 0.038842257 -0.32138067 0.20092976
0000f0 10 0f d4 3d 15 23 5b be c4 85 ad bd 9c ef 40 3e
       0.103544354 -0.21400101 -0.084727794 0.18841404
000100 f9 8a e4 3d 5c cd 68 3d 5a 1d 98 3d 10 c1 69 3e
       0.111593194 0.05683647 0.07427473 0.22827554
000110 42 40 8f 3c e6 dc b2 be f9 f9 68 be 00 12 2e be
       0.017486695 -0.34934157 -0.22751607 -0.16999054
000120 ea 05 9a 3d 55 7c 3e 3e e8 df ae bc 92 2a 03 3e
       0.07520659 0.18602116 -0.021347001 0.12809208
000130 dd 09 02 3e 3f 1d ab be 5b 63 8c 3d df 69 20 3e
       0.12699075 -0.3342075 0.06854888 0.15665387
000140 82 c7 1e bd 41 07 34 3d 83 fa 8b be a3 23 8e bd
       -0.038764484 0.04395223 -0.27339563 -0.06940391
000150 85 02 4d 3e ef 1a 29 3e 2a 08 85 3e e4 e0 2b be
       0.20020492 0.1651418 0.2598279 -0.16785008
000160 20 ca f9 bc e9 61 99 3e 82 4b b4 bd 4b 31 08 be
       -0.030491889 0.29957512 -0.088034645 -0.13300054
000170 49 7b 60 3e 37 7f ab bd 4f c2 c6 3c df 46 97 3e
       0.2192203 -0.08373874 0.024262575 0.29546258
000180 49 e3 a8 3c bc 5c 70 3c 9a 54 17 3d 10 79 35 3c
       0.02061619 0.014670547 0.036945917 0.011076227
000190 40 e9 70 3d e5 eb 70 3d 40 7b 23 bd a7 2f 6b be
       0.058816195 0.058818717 -0.039912462 -0.22967397
0001a0 52 1d 24 3e eb 04 4a be 75 0f 70 3e 0b 38 34 bd
       0.1602681 -0.19728439 0.23443396 -0.04399876
0001b0 57 a0 0b 3e d0 d5 5c 3d c4 92 62 be 2e 88 c4 bd
       0.13635384 0.053914845 -0.22126299 -0.09596287
0001c0 28 fd f1 3d 2a 48 b3 be 28 78 40 3e 85 ad 91 bb
       0.11815864 -0.35015994 0.18795836 -0.004445734
0001d0 8f 4c e4 3d ea a9 b8 3d 19 7d c8 bd bc 04 8a 3d
       0.11147415 0.090167835 -0.097894855 0.06739184
0001e0 ef 19 f8 bb 5c e9 38 bd e0 76 aa 3e 78 f1 87 3d
       -0.007571451 -0.045144424 0.3329382 0.066378534
0001f0 56 3c 32 be cb 13 f1 3d cd c6 7a be 3f 5a 95 3d
       -0.17405829 0.11771353 -0.24489899 0.07292604
000200 0c 87 4f 3e db cd 9c 3d 48 47 6f be 71 94 28 3e
       0.2026636 0.07656451 -0.23367035 0.16462876
000210 3f 3f 7b be 3e 1c 7f bd 47 7b f9 3c ab 43 fc bb
       -0.24535845 -0.062282793 0.030454291 -0.0076984963
000220 68 89 55 3c 14 c9 04 be 4d 2f 4e 3d 10 76 77 3e
       0.0130332485 -0.1296733 0.05033808 0.24166131
000230 b8 57 12 3d cf 37 45 bd 0b cd f4 3d dc 98 88 be
       0.035728186 -0.048148926 0.11953171 -0.26679122
000240 c9 21 33 3e 37 6d 49 3e b5 8a 43 bd 36 70 58 3d
       0.17493357 0.19670568 -0.047739703 0.052841388
000250 d5 dc 0f be 9d 6c 8b 3e 2b 0a 10 3d ed 74 3a be
       -0.14049084 0.27231303 0.035165947 -0.18208666
000260 9d 53 02 3e 80 4d 06 3d 98 5e 3c bc 18 f6 36 3e
       0.12727208 0.032788754 -0.011497162 0.17867315
000270 40 d9 85 be e8 dc 0b 3e 90 35 09 be 31 82 27 bd
       -0.2614231 0.13658488 -0.13399339 -0.040895645
000280 ef 61 5a 3e 77 a2 5a 3e 0f ae 8f 3e 8a 68 8c be
       0.21326421 0.21351038 0.28062484 -0.27423507
000290 43 65 5f 3d 86 9c 8f 3d 4f 05 99 be 81 9d b5 3d
       0.05453993 0.07012276 -0.29886863 0.08867932
0002a0 a1 95 64 be 44 29 f9 3d fe be fe bd 35 1b 91 3e
       -0.22322704 0.12166074 -0.124387726 0.2834107
0002b0 47 c2 e0 bd 57 1a 9b 3c fb 47 34 be 7c f1 a3 3c
       -0.109745555 0.018933458 -0.17605583 0.02001261
0002c0 14 fa 1f be 9a 26 22 be 09 f0 a6 3d 6d 57 18 3e
       -0.15622741 -0.15835038 0.08151252 0.148771
0002d0 01 65 65 be ad f5 1c 3e 7c 57 a3 be a6 12 a1 be
       -0.22401811 0.15328093 -0.31902683 -0.3145954
0002e0 e3 17 4e bd aa f3 67 3e 80 73 2d 3d 62 ee ba 3d
       -0.05031575 0.22651544 0.042346478 0.09127499
0002f0 7d 92 3f 3d 4b 73 0a bd 1d 33 82 bd a2 b2 0c 3e
       0.04677056 -0.03380136 -0.06357405 0.13740018
000300 59 74 23 3d 74 95 a6 be 91 d7 f1 3b b4 1d 42 3e
       0.03990588 -0.325359 0.007380434 0.18956643
000310 e6 28 c9 3d 43 8c 8d be 80 44 56 3e 78 80 df 3d
       0.09822254 -0.27646074 0.20924568 0.10913175
000320 35 93 b7 bd d1 79 27 3c 6f 4a b2 be 08 ef 20 be
       -0.089636244 0.010221914 -0.34822413 -0.15716183
000330 82 d1 fc 3d b3 b0 2e be 89 e1 38 3e d1 d5 1c be
       0.12344648 -0.17059593 0.18054785 -0.1531594
000340 c4 bd da 3d 4d 53 ff 3d 3e d8 7a be 04 59 16 3e
       0.10680726 0.1246706 -0.24496552 0.14682394
000350 b4 b4 a6 bd b2 9c 4f bd 3a e5 aa bd 6e dd 9d be
       -0.08139935 -0.050686546 -0.08344503 -0.30833
000360 38 14 01 be 31 0a 8c 3e 95 49 0b 3e 24 a0 0b bc
       -0.12605369 0.27351525 0.13602288 -0.008522067
000370 c8 fd 91 be af 63 40 be 34 04 27 bd dc 2a 19 3e
       -0.28513932 -0.18788026 -0.040775493 0.14957756
000380 23 75 08 3d 40 0e 8c 3e 1b ad 5f 3e f4 5f f9 3d
       0.033314835 0.27354622 0.21843378 0.12176505
000390 44 56 91 3e 6c 34 a8 3e 2d 55 cf bd a6 22 51 be
       0.28386128 0.32852495 -0.10123668 -0.20423374
0003a0 98 10 73 be 28 08 2c 3e 2f 68 d3 bd 49 56 17 be
       -0.23736799 0.16799986 -0.10322606 -0.14779009
0003b0 7c 95 3b be d4 f3 06 be c8 78 66 be 5c 48 d2 38
       -0.18318743 -0.1317895 -0.22507012 0.00010027058
0003c0 23 61 5f be af 12 8b bc 84 5f 0d be e0 89 8b be
       -0.21814398 -0.016976682 -0.13805968 -0.27253628
0003d0 fb 4c 1d 3e 2a da ad 3d 8f 20 0f be 39 f4 a9 3d
       0.15361397 0.08488877 -0.13977264 0.08298535
0003e0 ce 50 82 be 9e 50 05 3d bc 3e 64 be f7 91 8c 3e
       -0.25452274 0.032547586 -0.22289556 0.27455112
0003f0 1e 01 7e 3d da 9b 00 be 97 03 39 be f1 71 26 3d
       0.062012784 -0.12559453 -0.18067776 0.040636007

layer1.bias f4 [128]
000000 cd f0 fc 3a d2 88 81 bd 67 b0 1f be 89 52 3b be
       0.0019297838 -0.063249245 -0.15594636 -0.18293203
000010 17 cd 14 3e 39 46 a0 3c 57 9d 54 bc b5 0e e4 3d
       0.1453136 0.019564735 -0.012976966 0.11135618
000020 d7 d2 2a 3d e0 9c 3e be d1 b9 be 3c 62 89 6b 3e
       0.04170498 -0.1861453 0.023281964 0.23001626
000030 3f a5 f6 bd ca a1 a6 bd 6a 13 84 be 18 6d 1f 3d
       -0.12043237 -0.081363276 -0.25796062 0.0389224
000040 7b 51 eb bd 19 a2 29 bd 48 ea 14 be f9 a1 06 be
       -0.114901505 -0.041414354 -0.14542496 -0.13147725
000050 63 aa 3e 3e 46 9c 19 3e f5 c6 d0 3d 12 96 8b ba
       0.18619685 0.1500102 0.10194198 -0.0010649583
000060 4d c8 5e be c2 9d 44 be c0 2a 80 be f1 6b 30 3e
       -0.21756096 -0.19200805 -0.25032616 0.17228676
000070 ab 89 12 3e 07 18 72 3d 89 d0 6f bd 2b 1b ae bd
       0.14310329 0.059104946 -0.058548484 -0.08501276
000080 60 b0 89 3e 06 23 30 3e 8f 75 18 3e d4 ec 22 3e
       0.26892376 0.1720086 0.14888595 0.15910655
000090 58 41 95 3e 97 c7 83 bc 9b d6 45 3e 95 58 af 3d
       0.29151416 -0.016086383 0.19320147 0.085618176
0000a0 f1 93 ee 3c 9c 4f 69 3e dd ef b0 3d 6a 92 9c 3d
       0.029123278 0.22784275 0.086395 0.07645114
0000b0 75 95 20 3e c1 e8 a4 3d cb 37 4b be 6b e6 33 be
       0.15682013 0.08052207 -0.19845502 -0.17568366
0000c0 0c 36 84 3d ca b0 03 3d 2a 02 f8 3d 3b 9b 0a 3e
       0.06455621 0.03215102 0.12109788 0.13535778
0000d0 54 1e 4a 3e 78 bc 85 3e b6 d6 84 be 1f c6 89 3d
       0.19738132 0.26120353 -0.2594506 0.06727242
0000e0 06 ad 46 3e c9 08 5c 3e 9f 3b 1c be ee 0f 4a be
       0.1940194 0.21487726 -0.15257119 -0.19732639
0000f0 41 43 cc ba 81 ac 09 be da e9 f1 bd 4e 78 16 be
       -0.0015584008 -0.13444711 -0.11812182 -0.1469433
000100 76 62 1b bd cf 34 18 be ec 35 ba 3d 73 32 bb 3d
       -0.037935697 -0.14863895 0.09092316 0.09140482
000110 98 c3 6b 3e 84 74 41 bd 68 9e 61 be 6a 0d 1b 3b
       0.23023832 -0.04723026 -0.22033083 0.0023659118
000120 7b e4 f5 bd 52 01 0e be c9 4b 3e 3e de e0 0c bd
       -0.1200647 -0.13867691 0.18583597 -0.034394138
000130 4a ea 74 be a0 c4 85 3d 8f 1f 65 3d 32 e6 91 be
       -0.23917499 0.06531644 0.0559383 -0.28495938
000140 5b cb 08 3d 35 8c ea bd 8f 1a 78 3e a5 c0 2d 3e
       0.03339706 -0.114525236 0.24228881 0.1696802
000150 91 dc 14 3e cd cc 62 be 8a 00 bd 3d c2 32 96 3e
       0.14537264 -0.22148438 0.092286184 0.293356
000160 9a 23 09 3e ca 05 ed bd 09 6e 93 3d 92 94 23 3e
       0.13392487 -0.1157337 0.07198722 0.15974644
000170 95 51 3f be c7 ff 28 be fe 85 81 3e a6 c4 26 be
       -0.18683465 -0.16503821 0.2529754 -0.16285953
000180 78 23 a7 3d 1f e5 49 3d 38 ba ae bc 04 25 42 be
       0.08161062 0.049290773 -0.02132903 -0.18959433
000190 ac a0 a5 3d f9 72 1c be a2 45 9b bb fb 36 05 be
       0.08087286 -0.15278234 -0.0047385255 -0.13009255
0001a0 2f 68 34 3e e6 d6 31 be 5a e7 21 3e 1e 27 a2 bd
       0.17617868 -0.17367133 0.1581091 -0.07917617
0001b0 3a 0c 63 3d ef 5d c1 bd c1 a5 11 3e 0a 49 27 be
       0.055431582 -0.094417445 0.14223386 -0.16336456
0001c0 18 43 22 3d c8 16 2d bc ee 00 00 3d 82 c9 ef bd
       0.039614767 -0.0105645135 0.031250887 -0.117083564
0001d0 39 fb 82 3e 39 37 81 3e a9 e4 bb 3d c4 3f 84 bd
       0.25582293 0.25237444 0.09174473 -0.06457475
0001e0 ad 4b 28 3e 10 6b 5a bd f2 7d 24 be 40 3b b6 bd
       0.16435118 -0.05332476 -0.1606367 -0.0889802
0001f0 1c ed 49 be 23 ba 84 be a1 c6 07 3e 6e a4 25 3e
       -0.19719356 -0.2592326 0.13259365 0.16176006

layer2.weight f4 [96, 128]
000000 68 58 e3 bb 64 25 10 3d 4b 83 be 3d 31 1a a9 bd
       -0.006938029 0.03519191 0.09302386 -0.08256949
000010 57 28 4c 3e 49 e4 cc bb e5 e8 38 3e 4c 6c e8 bc
       0.19937263 -0.0062527996 0.18057592 -0.028371952
000020 26 d1 d5 bc 7e 86 80 bd 33 2b 1b bd 3f 49 64 3d
       -0.026100706 -0.06275652 -0.037882995 0.055733915
000030 ab 00 be bd ad b5 3d 3d cf 6a 6c 3d e7 a7 20 bf
       -0.09277471 0.046315838 0.057719048 -0.627562
000040 d8 f3 4e bd 88 bf 41 be 26 26 8d be c9 54 8b be
       -0.050525516 -0.1892072 -0.27568167 -0.27213123
000050 a5 3f 75 3d bb 20 32 3e 4c 6e 48 3d ee 80 03 3e
       0.05987515 0.17395298 0.048933312 0.12842152
000060 78 73 f7 be 94 6e 90 bd cb 56 36 bd 3c de 0a bc
       -0.48330283 -0.07052341 -0.044516366 -0.008475836
000070 fc 0b 0d 3d 7e 9b da 3d 08 31 30 bc c3 4b c1 bd
       0.034435257 0.10674189 -0.010753877 -0.094382785
000080 66 b9 2b be 0e 6a 97 3d 34 39 c1 3c f1 86 23 be
       -0.16769943 0.07393275 0.023586847 -0.15969445
000090 5b 6f 1d be 7d b1 e5 3d d8 82 ff be b8 54 01 bd
       -0.1537451 0.11215494 -0.49904513 -0.031574935
0000a0 02 bd 11 3e 37 68 cf bc 33 9d 51 be 23 df 95 bd
       0.14232257 -0.025318248 -0.20470123 -0.073179506
0000b0 fe 94 10 3c 10 62 84 3d 88 f0 28 be a0 96 b8 3c
       0.008824585 0.064640164 -0.16498005 0.022532761
0000c0 ca 07 f2 bc d4 f6 31 3d 22 53 86 bc 23 0f 67 3d
       -0.02954473 0.043448284 -0.016397063 0.05641092
0000d0 e2 f3 b1 bc b5 cc 73 be e3 59 6e 3d 68 ad 9f 3c
       -0.021722738 -0.23808558 0.05819119 0.019491866
0000e0 39 66 3c bb 93 a9 f5 3d 58 6f 2a 3c 03 14 ac be
       -0.0028747453 0.11995234 0.010402523 -0.33609018
0000f0 fb 3c 3b be 97 95 9f 3b c4 39 08 3d 83 e8 90 3d
       -0.18284981 0.0048701274 0.033258215 0.07075598
000100 18 3d 26 3e 74 57 30 be 3d 76 0f bc b5 f0 52 bd
       0.16234243 -0.1722086 -0.008756218 -0.051499087
000110 71 b2 49 bb 83 e8 96 bd c1 4e 18 3d 16 31 0c 3e
       -0.0030776525 -0.07368567 0.03718448 0.136906
000120 c2 84 a9 3d fe 14 21 3d 1d f2 24 bd 6f 40 d7 be
       0.08277275 0.03932666 -0.04026996 -0.42041346
000130 68 0c 0a 3d 15 6c fe bb d3 84 3f 3d d3 6a 9a 3b
       0.033703238 -0.007764349 0.04675753 0.0047124415
000140 59 5f c9 3d 9b 83 31 3e 9b 9d ab 3a 8d ee 08 3d
       0.09832639 0.1733536 0.0013093235 0.033430625
000150 67 04 dd bc 1a 23 1e 3e 36 3a 88 bd ca da 08 3e
       -0.026979638 0.15443078 -0.06651728 0.13364711
000160 47 0a ad bc 81 39 79 3d 51 ee 8b be 87 5f 4c 3d
       -0.021123065 0.060845856 -0.27330258 0.04989579
000170 e0 8d 93 be 76 5a 92 bc 83 5f c3 bd 8b 47 f6 3d
       -0.2881918 -0.0178654 -0.09539702 0.120253645
000180 91 5b 97 3d 05 06 6d 3e c6 53 29 3e e5 bb d3 bc
       0.07390512 0.23146828 0.16535863 -0.025846431
000190 67 70 62 3d 0f 4b b0 bd 72 f2 e7 3d e4 41 f8 bd
       0.055282976 -0.08608066 0.1132554 -0.12121943
0001a0 3b f5 39 3d 64 a0 6c be 6b ba cb bd 18 91 09 39
       0.045399886 -0.23108059 -0.09947666 0.0001311939
0001b0 14 0e 13 bd c6 5e ed 3d 22 06 8c 3e 55 19 7b 3b
       -0.035902098 0.11590342 0.2734843 0.003831466
0001c0 e3 b5 30 bd 09 ea 58 bd 23 1e 61 be ac 3a 8a bd
       -0.04314221 -0.05295757 -0.21984152 -0.06749472
0001d0 cf e7 b5 bd bb 38 73 be fa 08 12 3e c2 78 b7 3b
       -0.088821046 -0.2375211 0.14261237 0.0055991122
0001e0 d2 24 98 3d 94 55 48 bd 49 1b 15 bc 48 2e 1b 3d
       0.07428898 -0.04890974 -0.009100744 0.037885934
0001f0 1e 50 54 be 24 16 17 3d 2b 84 34 3d e5 71 8b bb
       -0.20733687 0.03688635 0.044071358 -0.0042555206
000200 cb 86 cf bc 27 f2 0b 3d c2 ee 88 bd 8e a8 77 bd
       -0.025332829 0.03416648 -0.066861644 -0.06046348
000210 ec d7 8d 3d 43 62 30 bd 4e 84 42 bd e6 9d 2a bd
       0.069259495 -0.04306246 -0.047489457 -0.04165449
000220 e4 95 1d 3c c5 62 94 3d d7 8c 58 3c d6 cc 60 bd
       0.009618256 0.07245401 0.013217173 -0.054882847
000230 e2 77 8c 3b b5 c9 10 3c c3 94 dc 3b 24 82 36 3d
       0.004286752 0.008837153 0.006731601 0.044557706
000240 50 82 2d bc ab 45 91 3d 46 cc 82 3c ff d7 8d 3d
       -0.010590151 0.07093366 0.015966546 0.069259636
000250 ad f1 84 bd 2d b5 71 3d 7f 32 23 3a db 28 47 3d
       -0.064914085 0.059010673 0.0006225481 0.048622947
000260 9b 68 8c bd 41 55 bf 3d 57 93 dc bb 3e 95 00 bd
       -0.068558894 0.09342433 -0.0067314315 -0.03139233
000270 6b 65 82 3d e3 26 45 3d 3c 43 8c 3c 3d 83 84 bd
       0.06367 0.04813279 0.017121904 -0.06470344
000280 66 9b 87 bd f3 3e 6b 3d f8 5f 09 bd 8f 0d 89 3d
       -0.06621437 0.05743308 -0.03353879 0.06692039
000290 f7 e3 58 bd 1c 44 f0 bd 22 4a 92 3c c3 b4 60 3d
       -0.05295178 -0.11731741 0.017857615 0.054859888
0002a0 9f ac 0b bd 74 4c 63 bd 63 66 04 bc 2e a5 06 ba
       -0.03410017 -0.055492833 -0.0080810515 -0.0005136308
0002b0 27 ef 82 bc e2 43 51 3d ff e8 5f bd c2 50 68 bd
       -0.015983177 0.05109013 -0.05466556 -0.05671764
0002c0 fa d5 80 3d df 38 f8 bc 64 30 72 3d 17 88 6a bd
       0.06290813 -0.030300556 0.05912818 -0.05725869
0002d0 55 c9 57 bd d1 44 da 3c 67 15 52 3d 5a 5a 4d 3d
       -0.05268224 0.026644142 0.051289942 0.050134994
0002e0 99 42 b0 bc ae 9d e5 bc c4 5b 68 3c 03 57 18 3c
       -0.021516131 -0.02802929 0.014182035 0.009298089
0002f0 75 ef 35 3e 3f 8a e2 3d 7f 41 01 bc 1f ac cc bc
       0.17767127 0.110615246 -0.007889151 -0.024984417
000300 32 7d f0 3c 26 f1 90 bd a4 9a 61 3d 10 e0 18 bc
       0.029356573 -0.070772454 0.055079117 -0.009330764
000310 e3 37 2e bd 7c 24 66 3c 0c 69 81 bd 64 4d e3 bd
       -0.042533766 0.0140467845 -0.06318864 -0.110987455
000320 f3 4b ea 3b 8b 00 cb bd c3 5c f4 bc c2 38 32 bd
       0.007150167 -0.09912213 -0.029829388 -0.04351116
000330 e7 08 50 bd 76 f2 59 bc 58 e2 81 bd b6 1b 31 bc
       -0.05078974 -0.013302436 -0.06342 -0.010809829
000340 de 83 75 bd bd 10 db 39 e3 75 2e bd b8 51 64 bd
       -0.05994021 0.00041783406 -0.042592894 -0.055741996
000350 2f 57 76 3d 11 c7 8a bd ac 4b 63 3b 7d 11 24 3d
       0.06014174 -0.0677625 0.0034682555 0.04005574
000360 f2 2b 19 3d f8 38 a4 3c c4 1c ac 3d 77 e7 58 bd
       0.037395425 0.020046696 0.08403924 -0.052955117
000370 c2 48 b1 bb aa 44 59 bd 37 89 31 3c 84 40 c5 bc
       -0.0054102847 -0.053044 0.010835937 -0.024078615
000380 08 02 ea 3c 56 3b 2b bd ad c2 ba 3c 74 16 e9 bc
       0.028565422 -0.041804634 0.022797907 -0.02845309
000390 87 3e bb 3c 7b c6 cd 3c 08 ac 1a bc 1f b9 43 3d
       0.022856964 0.025119057 -0.0094404295 0.047783967
0003a0 13 eb 4b 3d 19 d3 1a bd 9b 36 22 bc 0c 52 4a bb
       0.04978473 -0.037798975 -0.009900714 -0.0030871658
0003b0 52 d1 3c bc 9f 46 60 3e b0 00 8c bc 16 6d 08 bd
       -0.011524515 0.2190194 -0.017090172 -0.033307157
0003c0 32 9b 4f 3d ab 03 ad bd 4d 04 a7 bc f7 42 30 bd
       0.050685115 -0.08447965 -0.020387793 -0.043032613
0003d0 07 ce 93 3c a8 c3 85 3d 1a d6 94 bb c0 5f 05 3d
       0.018042577 0.06531459 -0.0045421245 0.032562017
0003e0 e4 d5 69 3c 26 d4 4a 3d 1e c3 5c ba 5a bc 4c 3c
       0.014272187 0.049518727 -0.0008421409 0.012496078
0003f0 cd 4e 47 3b 9c 34 50 bd 50 2b 4f 3d 9a 33 2f bc
       0.003041196 -0.050831422 0.050578415 -0.010693455

layer2.bias f4 [96]
000000 6e 2d 20 bd f9 ec c3 3c a3 45 06 bc 02 82 3d 3b
       -0.039105825 0.023916708 -0.008195314 0.0028916602
000010 e9 f0 ce bc 4d 09 cf bb f3 a8 b5 3d 70 8a 85 3c
       -0.02526136 -0.0063182474 0.08870115 0.016301364
000020 f4 c0 5f 3d 00 b5 f8 bc ff 62 01 3d 87 27 32 3d
       0.054627374 -0.030359745 0.03158855 0.043494727
000030 e7 fe 0b bd 9e b6 54 bd b6 b7 05 bd a0 0b cd bc
       -0.03417864 -0.05193197 -0.032645904 -0.025029957
000040 cd 96 d8 bc 7f c3 a5 3c 92 61 a4 bc 39 76 e0 3c
       -0.026439095 0.020234821 -0.020066056 0.027400123
000050 8d f0 18 bc 54 47 9c ba e3 6b 70 bc 44 c4 1b 3d
       -0.0093346955 -0.0011923113 -0.01467416 0.03802897
000060 3f e4 70 bd a1 2b 2c 3d 3c ff 6f 3c 41 d3 e1 bc
       -0.058811422 0.042033795 0.014648255 -0.027566554
000070 ac 44 bf bb 96 e2 44 bd 38 ac 85 bd ea 15 03 bd
       -0.0058370437 -0.04806765 -0.06526989 -0.03200332
000080 e8 f6 fb 3c 7d a6 07 3d b6 1a 13 bd 54 a4 87 bd
       0.030757383 0.03311776 -0.035914145 -0.0662314
000090 d1 47 49 bd 02 10 50 3d e8 be 2a 3d b8 17 f2 bc
       -0.049140755 0.050796516 0.04168597 -0.029552326
0000a0 8c 57 ee 3c b4 af 4c 3d 64 58 3a bd c6 6e 34 bd
       0.02909448 0.04997225 -0.045494452 -0.044050954
0000b0 e7 54 a2 bc b1 77 50 3d 84 f3 d8 b9 76 03 c6 b9
       -0.019815875 0.050895397 -0.00041380164 -0.00037768082
0000c0 86 9e 58 bd 2d 17 1a bc ab 61 cf 3a 2c 87 b1 3c
       -0.052885555 -0.00940494 0.0015821954 0.0216709
0000d0 46 d2 8e 3d d7 a3 14 3d b4 d5 2f 3c 49 44 98 3c
       0.069737 0.036289062 0.010732103 0.018587248
0000e0 24 e9 b3 bb a1 c6 63 bd af 14 92 3d 41 82 04 bd
       -0.005490439 -0.05560935 0.07132851 -0.032350782
0000f0 40 ca d0 3c 7d d0 90 3b 86 19 2d 3d 7b 89 79 3d
       0.025487065 0.004419385 0.04226067 0.060922127
000100 04 5d 8a bd f6 38 4f 3d 3a 7f 37 3c 5a 95 05 bc
       -0.067560226 0.05059143 0.011199767 -0.008153284
000110 77 e0 84 3c d6 3a 37 3d 73 90 ae 3d 6d 73 8d 3d
       0.016220314 0.044733845 0.08523645 0.06906781
000120 7d ec 4f 3d 2c c5 79 bd cd cf c0 3b 7b 7e 60 bd
       0.050762642 -0.060979053 0.005884147 -0.05480812
000130 a6 72 b1 3c 94 de ee bc 4c 65 b0 3c 75 bb f1 bb
       0.021661114 -0.029158868 0.021532677 -0.007377083
000140 ad 2c be 3b 7e 42 e4 bc f7 e3 81 3d 16 21 5d bc
       0.0058036656 -0.027863737 0.06342309 -0.013496658
000150 1a eb 86 bd 3d 0f 78 bd 4c a3 89 3c 6a 5e 0e 3d
       -0.06587811 -0.060561407 0.016801499 0.03475801
000160 66 dc 38 3d 1b 6d c2 3c 82 c8 26 3b 67 9a 45 3d
       0.045132063 0.023733666 0.0025449102 0.048242953
000170 9f aa 54 bd d7 e2 b4 bc a6 d1 a5 3c 68 fc e4 3c
       -0.05192053 -0.022080822 0.02024157 0.027952388

layer3.weight f4 [4, 96]
000000 10 42 86 3e f3 cb 49 bb 3f 45 16 be 33 a8 10 3d
       0.26222277 -0.003079173 -0.14674853 0.035316657
000010 1f 9f 57 be e4 f0 95 bc d9 08 7a 3d 00 ed a0 bc
       -0.21056794 -0.018303342 0.061043594 -0.01964426
000020 0e 1d 85 bd 4c 82 bc 3d 10 8a e5 3d 83 c5 10 be
       -0.06499682 0.0920454 0.11207974 -0.14137845
000030 44 1b 7c bd b3 28 e8 3d 12 07 2d 3d 8c 62 16 3d
       -0.06154944 0.11335888 0.04224307 0.036715075
000040 96 ea 05 3e c9 21 e2 bd c2 cf 3c 3d 63 eb a8 bd
       0.13077769 -0.110416 0.04609657 -0.082480215
000050 5d 9f 85 3e d1 40 6c bd e1 c4 8e 3d 52 4a 41 3c
       0.26098147 -0.057679 0.069711454 0.0117975045
000060 84 09 37 bc e5 c4 23 be 77 42 24 3d e2 49 b2 bd
       -0.011171702 -0.15993078 0.04010245 -0.08705498
000070 77 2d 3d 3d ff d6 cd bc 01 e9 86 bd 04 bb ef bc
       0.046185937 -0.025126932 -0.06587411 -0.02926398
000080 44 73 2f 3e 95 bf 3f bd c3 c1 96 bd e7 37 d1 3c
       0.17133814 -0.046813566 -0.07361176 0.025539352
000090 25 d3 33 3e 85 43 43 3d f4 db 48 3e aa a2 d8 3d
       0.17561014 0.047671814 0.19615155 0.10577901
0000a0 5a 0d 2e bd 31 95 a5 3e 0c c6 1e bd a4 ac 57 3d
       -0.0424932 0.32340387 -0.03876309 0.052654877
0000b0 5b b5 46 3d d2 c3 4e 3d 45 28 c2 3c 49 4e 36 3d
       0.048512798 0.050479718 0.023700843 0.044508252
0000c0 c8 17 bd 3d ab f3 43 3e a6 14 36 3c 79 df 86 3d
       0.092330515 0.1913592 0.011113321 0.06585593
0000d0 f4 ed a8 3c e6 4b 20 3e 15 05 94 3d 63 58 8e 3c
       0.020621277 0.15653953 0.07227532 0.01737613
0000e0 45 f7 c8 bd c1 a0 10 3e ac 53 21 3d c9 2f 44 bd
       -0.09812788 0.14123823 0.039386436 -0.047897134
0000f0 42 6a 36 bc 39 93 12 3d 96 0d 6f be 46 7b 24 3d
       -0.011133732 0.035784934 -0.23345026 0.040156625
000100 5f 48 e4 bd d4 d0 68 bc d7 a9 27 be 78 b6 c4 3b
       -0.11146616 -0.014209945 -0.16373383 0.0060031973
000110 50 07 47 3e 2a cf 84 3d 02 9d 64 be c7 b5 cc 3c
       0.19436383 0.06484826 -0.22325519 0.024989022
000120 ea 8f e4 3d 4a 70 60 bd f1 c0 1b be 31 5d 8f bd
       0.11160262 -0.054794587 -0.1521032 -0.07000197
000130 76 af a7 3b 06 44 b4 bd 7d b3 27 3e a8 59 00 be
       0.005117352 -0.08802037 0.16377063 -0.12534201
000140 8a 94 ac bc 4c 1a b4 bd 59 66 18 be e0 b1 a3 bd
       -0.021066923 -0.08794078 -0.14882793 -0.07992911
000150 1d a4 a7 3d c8 50 3d 3b a6 a8 42 3d 9a a8 51 3e
       0.08185599 0.002888726 0.047524117 0.20474473
000160 02 77 db 3c d7 6f fb 3d 36 33 71 bc 4f 05 c1 3b
       0.026790146 0.12277191 -0.014721682 0.0058905254
000170 4c 8c 08 3e 50 97 97 bd 1b 11 e0 3d b1 cd 25 3c
       0.13334769 -0.074019074 0.109407626 0.010119841
000180 f0 6a 7c 3e 02 90 a4 bc d7 f9 e3 bd f0 ba 96 bb
       0.24650168 -0.0200882 -0.111316375 -0.0045999214
000190 9d e0 75 be 1b 82 64 bd 68 aa 86 3d 90 cd ba bd
       -0.24011464 -0.05578814 0.06575471 -0.09121239
0001a0 0e ca 8f bd 00 46 10 3e 71 74 05 3e 65 83 8d 3b
       -0.07020961 0.14089203 0.130327 0.004318642
0001b0 6a 22 a5 3d 26 e9 0c 3e ac 0d 2f 3d 68 7e b5 bc
       0.080632046 0.13760814 0.042737648 -0.022155002
0001c0 6d bd 48 3e 09 25 1a be e3 f0 c2 bc dd 43 fd bd
       0.1960351 -0.1505319 -0.023796504 -0.123664595
0001d0 d8 92 80 3e 6c 69 83 bd 4f 8e 74 3d 71 a3 9b bc
       0.25112033 -0.06416592 0.05970603 -0.018998833
0001e0 13 28 3a bd fa d5 34 be a4 59 e1 bc 35 cc e6 bd
       -0.045448374 -0.1765975 -0.027508564 -0.11269418
0001f0 07 41 e2 3d a3 91 5b 3c b3 1c e6 bd 28 52 59 3b
       0.11047559 0.013401422 -0.11235943 0.0033160541
000200 8e 9d 48 3e 5f c1 b4 bd d9 94 01 ba 7e ef 78 3c
       0.19591352 -0.08825945 -0.00049431395 0.015193818
000210 5a d4 30 3e 52 95 51 3d a2 b2 7a 3e 0a cd ef 3d
       0.17268506 0.051167794 0.24482206 0.1170903
000220 ab 5d 8c bd 01 54 1e be 9f d0 2b 3d 5a 55 5d 3d
       -0.06853803 -0.15461732 0.041947003 0.054036476
000230 f5 24 ad bc 5a d7 d6 bc 7a 46 7f 3d eb bb 94 3d
       -0.021135787 -0.026225735 0.06232307 0.07262405
000240 fd b1 70 bd 4b bb 8e 3e 80 94 08 3d 51 7b 83 3d
       -0.058763493 0.27877268 0.033344746 0.06420005
000250 86 87 3a 3c d9 fa 4a 3e f3 ff fb 3c 32 17 39 3d
       0.01138485 0.19822253 0.030761695 0.045188136
000260 b9 db d5 bd d5 51 2e 3e b4 77 83 3c 4c d4 c4 bd
       -0.104422994 0.17023404 0.01604829 -0.09610805
000270 46 64 3e bd 20 01 ac bb 5b 90 9c be 87 aa 99 3d
       -0.046482347 -0.0052491575 -0.30578884 0.07503229
000280 6c 87 fe bd d3 80 8f 3c f3 bd 34 be 68 62 d0 3c
       -0.124281734 0.017517483 -0.17650585 0.025437549
000290 24 21 35 be c1 87 36 bd 40 93 84 be e0 a3 c7 3c
       -0.17688423 -0.04456306 -0.25893593 0.024370134
0002a0 c0 28 03 3e 0a a1 ac bd ef bf 11 be 7f 4f 81 3d
       0.12808514 -0.08429153 -0.14233373 0.06313991
0002b0 99 db 0e bd b0 03 d7 bd 46 cd 5e 3e df 16 11 be
       -0.034877393 -0.1049875 0.21757993 -0.14168881
0002c0 04 0b 05 be 55 8a ed bd 6d 20 b5 be 7e 15 ce bd
       -0.12992483 -0.1159865 -0.353763 -0.10062693
0002d0 73 81 36 3d fc 9d 8d 3d 15 87 4a 3d cc 26 5a 3e
       0.044557046 0.06914899 0.04944523 0.21303862
0002e0 ea 4b 0a 3d 74 ef 6e 3e 29 ad ac 3c 15 4f 15 3d
       0.033763804 0.23333532 0.021078663 0.03645237
0002f0 bc 6a 4b 3e 9f d6 a4 bd 27 09 de 3d 8f 2d 8b 3d
       0.19864935 -0.08048748 0.108415894 0.06795799
000300 06 50 87 3e 89 6e 11 3d 80 bd 23 be 29 ff b5 3b
       0.2642824 0.035505805 -0.15990257 0.005554099
000310 da 37 3f be bb e3 ea bc 9b 93 bb 3d 9f b3 d2 bb
       -0.1867365 -0.028673043 0.09159013 -0.006430104
000320 ad 0d 86 bd 5b d7 a5 3d ab 2b df 3d 84 f4 13 be
       -0.06545577 0.080977164 0.10897001 -0.14448744
000330 d1 49 94 bd 43 4c e7 3d 50 3e d1 3b f5 34 3d 3c
       -0.07240642 0.11293843 0.006385602 0.0115482705
000340 22 64 03 3e b7 b1 e9 bd ef 32 88 3d 03 06 ad bd
       0.12831166 -0.114108495 0.0665034 -0.08448412
000350 42 8c 85 3e a7 26 75 3d 5f a2 82 3d c8 38 00 3d
       0.2608357 0.059851315 0.06378626 0.03130415
000360 45 61 ef bd 9d 69 15 be 2c 70 c6 3c c4 34 bc bd
       -0.116884746 -0.1459107 0.02422341 -0.09189752
000370 bc 2c 2b 3d 2f 7f 10 3c dc 3d 6f bd b9 9b f2 bd
       0.04179071 0.008819385 -0.058408603 -0.11846108
000380 4b 23 30 3e 5a 96 4e bd 5e a1 80 bd af 6b 0d bc
       0.17200963 -0.050436355 -0.06280778 -0.008631631
000390 f1 b8 2d 3e f5 fb 8b 3c 21 ac 18 3e d4 ef de 3d
       0.16965081 0.017087916 0.14909412 0.10885587
0003a0 7c 91 97 bc 0b 2e aa 3e b0 a8 9e bd 88 c3 e4 3c
       -0.01850199 0.33238253 -0.07747018 0.027925268
0003b0 f4 e3 49 3d da 2b 87 3d 4e 0a 9f 3c e1 00 dc 3c
       0.04928966 0.06600161 0.019414093 0.026855888
0003c0 4e c2 66 bd f8 be 47 3e 58 cb 3a bb f7 e7 81 3d
       -0.056337647 0.19506443 -0.002850255 0.06343072
0003d0 19 08 1f 3d 20 82 14 3e ef df 06 3c e1 ad b0 3c
       0.038826082 0.14502764 0.008232101 0.021567287
0003e0 59 ef dc bd 05 b4 0e 3e 30 32 6c 3d 24 8a ed bc
       -0.107878394 0.1393586 0.05766505 -0.028996535
0003f0 bd 56 80 bc ac 06 60 3d 5b 74 6e be 42 96 0a 3d
       -0.01566636 0.054693863 -0.23286574 0.033834703

layer3.bias f4 [4]
000000 94 54 19 3d c8 ac 2b 3d e0 b4 2c 3c ed af 42 3d
       0.037434176 0.041912824 0.010541171 0.047531057
