models/model_final/nets/30_policy_net.pt (torch, 58884 bytes, 6 tensors)

layer1.weight f4 [128, 9]
000000 3d 31 3a be 3d 18 3f 3e ae 61 27 3d 6c 9d 4c bd
       -0.18182845 0.1866159 0.04086464 -0.049954817
000010 fb da 8e be a9 6c 6d 3e 17 97 26 bd b9 a6 81 3d
       -0.27901444 0.23185982 -0.040671434 0.06330628
000020 76 05 7a 3e 9b d2 65 3e ad 0c 13 3e 52 0c ff 3d
       0.24416146 0.22443621 0.14360304 0.12453522
000030 b5 d9 48 be 6c 79 34 3d e3 94 9b be 0d eb 02 be
       -0.19614299 0.04406111 -0.3038703 -0.12784977
000040 b8 b5 3c 3c 26 d8 dd bc b5 48 d6 bd af e1 28 3e
       0.0115179345 -0.027080607 -0.104630865 0.16492341
000050 e8 87 a8 bd 50 5c 00 3d 55 0d 8d be 1e 81 a2 3e
       -0.08229047 0.031338036 -0.27549234 0.31739134
000060 27 5b 10 3e dc 9e bd 3d 14 c4 93 be a8 0b 4f 3d
       0.14097272 0.09258816 -0.28860533 0.050548226
000070 f6 60 7f 3e 3e 6e e0 3c 18 65 17 be 91 75 6d 3e
       0.24939331 0.027396318 -0.14784658 0.2318938
000080 a4 e4 05 bd 0d 1a 38 be 0c b6 95 3d 2d 20 96 3e
       -0.03268875 -0.17978688 0.07310113 0.29321423
000090 c0 1f 19 3e 96 cc b0 bd b8 30 04 bd 50 56 a7 bd
       0.14953518 -0.08632772 -0.032273024 -0.0817076
0000a0 7c 98 73 3e e9 a7 06 be 3f ee c2 bd c9 67 62 3e
       0.23788637 -0.1314999 -0.09518098 0.22109903
0000b0 52 59 80 be 4b de a5 bd cf 87 d4 3d 9f 6c 75 be
       -0.25068146 -0.0809904 0.10377466 -0.23967217
0000c0 5e e3 b4 3d cd 3e 9a 3e 51 45 dc 3d 13 ac 9e bd
       0.08832429 0.30126038 0.107554086 -0.07747664
0000d0 2f 84 07 bd bf 34 d8 bb bb 36 23 be 0d 09 fb ba
       -0.033085044 -0.0065980847 -0.15938847 -0.0019152478
0000e0 3b b9 b4 bd 45 62 dc 3c d2 4d ac be 16 4f 3e 3e
       -0.088243924 0.026902327 -0.33653122 0.18584856
0000f0 92 3f c8 3d 05 ff 4e be 61 97 88 bd 9e 12 3d 3e
       0.0977775 -0.2021447 -0.06669498 0.18464133
000100 f2 d8 a6 3d 71 4f 43 bd ad 16 9e 3d 8f 15 68 3e
       0.08146848 -0.047683183 0.07719169 0.22664474
000110 6c e0 35 bc 57 d3 b3 be 27 4b 33 be 2f 95 2a be
       -0.01110087 -0.35122177 -0.17509137 -0.16658472
000120 22 82 2b 3d 9f 19 0a 3e 69 cd 0c bd cd a3 ec 3d
       0.04187215 0.13486336 -0.034375582 0.1155468
000130 50 bb de 3d a4 8e b9 be 83 20 0e 3d bd 52 ec 3d
       0.10875571 -0.3624164 0.034698974 0.115392186
000140 e9 b7 69 bd 44 86 12 3d a3 10 7c be 1f 72 8e bd
       -0.057060156 0.035772577 -0.24615721 -0.069553606
000150 fd e9 33 3e 6b 00 51 3e ed 1b 99 3e 0e 08 28 be
       0.17569728 0.20410316 0.29904118 -0.16409323
000160 eb 99 57 bd f6 23 85 3e 40 49 b8 bd 1a bb 05 be
       -0.052637022 0.26004 -0.08998346 -0.13059655
000170 c3 0f 30 3e 08 c5 8c bd 9a 23 0c 3d 26 2a a3 3e
       0.17193513 -0.06873518 0.03421364 0.31868094
000180 96 6e 6a 3c 4d 19 cc 3c e0 9a 75 3c 4e 88 4c 3c
       0.014308592 0.024914408 0.014990538 0.012483669
000190 72 cc 36 3d 0f d6 9c 37 fb 4e 38 bd ed eb 7b be
       0.044628568 1.8696328e-05 -0.044997197 -0.24601717
0001a0 d4 01 0b 3e fc 79 3c be 38 01 58 3e d8 fe df bc
       0.13574916 -0.18405908 0.21094215 -0.027343199
0001b0 f9 87 ed 3d f8 78 9d 3d 7c a0 44 be 90 f9 be bd
       0.115982 0.076890886 -0.19201845 -0.09324944
0001c0 bb e6 0e 3e 02 21 b2 be 2d 84 26 3e d1 1f 1e bd
       0.13955204 -0.34790808 0.16261359 -0.03860456
0001d0 80 15 e1 3d 76 ba 80 3d 3c 91 ca bd 2a a8 22 3d
       0.10990429 0.062855646 -0.098909825 0.039711155
0001e0 61 4c 95 bc 5c e8 92 bd 46 1e ac 3e 7e b3 8c 3d
       -0.018224897 -0.07173225 0.33616847 0.06870173
0001f0 7c 9a 17 be a5 b5 96 3d 42 f7 61 be 88 80 80 3d
       -0.14805025 0.07358865 -0.22066978 0.062745154
000200 2d 52 36 3e af 39 8c 3d dc 5f 57 be 87 08 13 3e
       0.17804785 0.0684694 -0.21032661 0.14358722
000210 94 1c 64 be 68 da 6b bd f3 e5 c0 3c 51 1c f3 bc
       -0.22276527 -0.057581335 0.023547148 -0.029676588
000220 bc ff f3 3b bd 38 16 be e9 12 2f 3d 7f c1 96 3e
       0.0074462574 -0.14670081 0.042742644 0.294445
000230 d8 0d 60 3d c4 c0 1b bd 46 b9 f5 3d 6d 15 86 be
       0.054700702 -0.038025633 0.11998229 -0.26188222
000240 43 da 23 3e f5 85 2b 3e bb 84 00 be 7a 37 9b 3c
       0.16001229 0.1675032 -0.12550633 0.018947352
000250 46 75 09 be 95 bc 8a 3e b2 01 0d 3d 10 bf 1f be
       -0.13423643 0.27097002 0.034425445 -0.15600228
000260 d8 e7 d5 3d ba 44 75 3c 32 3c 09 3c 60 8a fe 3d
       0.10444611 0.014969999 0.008376168 0.12428737
000270 3a 07 76 be 7b e9 ed 3d 42 76 0d be 77 a0 09 bd
       -0.24026194 0.116167985 -0.13814643 -0.033600297
000280 6c 92 39 3e 8c 0f 49 3e d9 1b 7b 3e 98 5b 8c be
       0.18122262 0.19634837 0.24522342 -0.2741363
000290 bf 33 e8 3c ac 93 a1 3d bd d3 89 be 3a b8 d2 3d
       0.028344987 0.07889494 -0.26919356 0.10289045
0002a0 f0 6b 21 be 8b 76 05 3e 35 00 21 be 46 61 82 3e
       -0.15763831 0.13033502 -0.15722735 0.2546484
0002b0 57 4c c7 bd 43 60 f6 3c 97 0e 33 be d4 ec cd 3c
       -0.097313575 0.030075198 -0.17486034 0.025137343
0002c0 a9 a7 00 be 74 37 02 be 61 fd 94 3d 62 52 17 3e
       -0.12563957 -0.12716466 0.07274891 0.1477752
0002d0 b4 51 30 be 76 bf 08 3e d5 df 97 be 59 76 a6 be
       -0.17218667 0.13354287 -0.29662958 -0.32512167
0002e0 c7 bf 5c bd 8a dc 58 3e 33 04 88 3d 4b 1d 90 3d
       -0.05389383 0.21177879 0.06641426 0.07036837
0002f0 0a 09 70 3c 9e 1d ea bc 3c d7 bf bd 87 38 6a 3d
       0.014650593 -0.028578576 -0.093672246 0.057182815
000300 3f 24 37 3d 12 21 a8 be 7b 6c df 39 9f 1e 39 3e
       0.0447123 -0.3283773 0.000426147 0.18078087
000310 b0 b0 f2 3d ba e3 6f be 71 9d 50 3e b6 8c ae 3d
       0.11850107 -0.23426715 0.20372559 0.08522932
000320 77 66 41 bd c2 7f 42 3d 54 e0 bc be 7e 8a 7b be
       -0.04721686 0.04748512 -0.368899 -0.2456455
000330 e6 00 d0 3d 95 5c 0f be 13 24 2b 3e f7 b4 c4 bd
       0.10156421 -0.14000161 0.1671298 -0.09604829
000340 b6 35 dc 3d 6f 05 f1 3d a5 48 60 be e0 db cf 3d
       0.10752432 0.117686145 -0.21902712 0.1014936
000350 82 76 d5 bd 1e 5e 6f bd d0 15 aa bd 73 32 97 be
       -0.10422994 -0.058439367 -0.08304942 -0.29530677
000360 8e aa ca bd e3 5f 87 3e 5c bc 8b 3d 51 e1 9d bc
       -0.09895812 0.26440343 0.06823036 -0.019272478
000370 61 26 af be b4 c1 4d be 64 50 10 bd 04 35 e3 3d
       -0.34208968 -0.20093423 -0.035232916 0.11094096
000380 08 cd 09 3d 49 8b 7a 3e 8a b3 40 3e 3d 9c a8 3d
       0.0336428 0.24467196 0.18818489 0.08232925
000390 94 05 69 3e fe 0d a0 3e 29 76 96 bd f9 48 44 be
       0.22756034 0.31260675 -0.07346756 -0.19168462
0003a0 6b b3 63 be bd 7c 11 3e a3 dd bc bd 12 4e 07 be
       -0.22236411 0.1420774 -0.09221961 -0.13213375
0003b0 e2 cc 27 be 21 e3 f0 bd 47 03 4e be 83 da bb 38
       -0.1638675 -0.117620714 -0.20118438 8.957556e-05
0003c0 01 ac 47 be 6d 36 78 bc 8a 8a fc bd cd cd 82 be
       -0.19499208 -0.015149695 -0.12331112 -0.2554764
0003d0 c6 dd 08 3e 54 8b e4 3d bc bf b7 bd 21 52 f0 3d
       0.1336585 0.11159387 -0.08972117 0.11734415
0003e0 b4 9f 6c be d3 d3 3d 3d 03 df 84 be 5b 95 83 3e
       -0.23107797 0.04634459 -0.25951394 0.25699887
0003f0 24 48 74 3d da 04 e1 bd 40 46 19 be eb 4d 21 3c
       0.05963911 -0.109872535 -0.14968204 0.009845237

layer1.bias f4 [128]
000000 da 89 01 bc 26 c6 3c bd 1b af 0b be 7d 13 19 be
       -0.0079064015 -0.046087407 -0.13641016 -0.1494884
000010 4a 7f 04 3e 5d 21 00 3c b6 d7 05 bb 93 d4 d5 3d
       0.12939182 0.007820454 -0.0020422763 0.10440936
000020 6e 7d 7c 3c 93 8b 2f be 9c 2e f4 3b eb fe 4a 3e
       0.015410764 -0.17143087 0.0074518453 0.19823806
000030 2b a5 d4 bd cd d5 b5 bd 4a fb 6e be 92 f1 f5 3c
       -0.10383066 -0.0887867 -0.23338047 0.030022416
000040 ed 94 f9 bd b4 ba d8 bc 26 92 08 be 1e 84 fb bd
       -0.121866085 -0.026456214 -0.13337001 -0.12281059
000050 30 c2 2a 3e dc 59 0b 3e 2b 52 df 3d 12 f2 90 3b
       0.16675639 0.13608497 0.10904344 0.0044233883
000060 3d fc 41 be 47 55 2c be 63 1c 65 be e3 a1 17 3e
       -0.18943878 -0.16829406 -0.2237411 0.14807849
000070 fd 9f 0b 3e c5 1f 7b 3d 40 b7 51 bd 44 e1 8a bd
       0.1363525 0.061309595 -0.05120015 -0.06781247
000080 60 e5 85 3e a5 47 0f 3e 22 b1 e2 3d f6 fe 06 3e
       0.26151562 0.13992174 0.11068942 0.13183197
000090 81 4f 8c 3e 55 11 b7 bc f6 96 2a 3e 6a 54 a7 3d
       0.27404407 -0.022347132 0.1665915 0.081703976
0000a0 22 a0 e2 3c cd 78 5e 3e 98 4f ae 3d fa fb 0f 3d
       0.027664248 0.2172577 0.08511275 0.035152413
0000b0 e3 7d f9 3d ee 65 93 3d 77 10 39 be 15 b7 2e be
       0.12182214 0.07197176 -0.18072687 -0.17062028
0000c0 bc a4 a2 3d 98 28 1b 3c f5 88 ec 3d f7 ff f2 3d
       0.07941577 0.0094701275 0.1154956 0.11865228
0000d0 9d 02 2b 3e 31 d5 60 3e 25 21 6d be 3b c0 6a 3d
       0.16700216 0.21956326 -0.23157175 0.05731223
0000e0 ba 43 2e 3e 71 94 53 3e 07 59 0b be e0 de 41 be
       0.17018023 0.20662095 -0.1360818 -0.18932676
0000f0 94 f8 b4 bb a2 bb ed bd 1e 32 d8 bd 08 bf f7 bd
       -0.005522797 -0.11608054 -0.10556434 -0.12096983
000100 f2 5b 04 bd 19 89 fb bd 68 f1 a5 3d c7 c3 63 3d
       -0.03231425 -0.12282009 0.08102685 0.05560663
000110 8d 11 5b 3e d9 5f 3c bd 73 9d 59 be 14 ec 42 3c
       0.21393414 -0.045989845 -0.21251468 0.011897106
000120 ce 3e dd bd 73 b8 f6 bd 38 26 2a 3e 17 a0 25 bd
       -0.10802995 -0.120469 0.16616142 -0.040435877
000130 45 b8 3c be 43 58 aa 3d ca 40 48 3d fe 6c 89 be
       -0.18429668 0.08317616 0.048889913 -0.26840967
000140 ff 28 cb 3b d9 e3 ce bd a3 4c 4e 3e 00 3b 0f 3e
       0.0061999555 -0.10102052 0.20146422 0.1398735
000150 d2 0e e3 3d 48 6d 52 be 03 c5 b2 3d 5c 7e 89 3e
       0.11086811 -0.205495 0.08728983 0.26854217
000160 26 15 ec 3d e4 ba bd bd c9 2c 7a 3d be b4 01 3e
       0.11527471 -0.09264162 0.061077867 0.12666604
000170 05 c3 2f be 08 c0 07 be 67 39 69 3e d6 27 04 be
       -0.17164238 -0.13256848 0.22775804 -0.12905821
000180 f2 70 38 3d 83 b0 79 3d c4 8a 6a bc de c2 37 be
       0.045029588 0.06095935 -0.014315311 -0.1794543
000190 9e a3 54 3d e5 b7 0c be 96 de 0b bc cb 3b f6 bd
       0.05191385 -0.13742025 -0.008536955 -0.12023123
0001a0 a9 bd 0b 3e 80 fe 17 be af fc 00 3e dc e1 85 bd
       0.13646568 -0.14843178 0.12596391 -0.0653722
0001b0 14 20 3d 3d 94 3a 97 bd aa 06 14 3e 63 e9 1b be
       0.04617317 -0.0738422 0.14455667 -0.15225749
0001c0 86 36 99 3c cf 6b 70 3b d2 3e 21 3d 5c 93 d0 bd
       0.018702757 0.0036685353 0.03936655 -0.101843566
0001d0 94 80 68 3e b1 93 7c 3e e0 6a 8d 3d 1f d8 1d bd
       0.22705299 0.24665715 0.069051504 -0.038536187
0001e0 4d 67 ff 3d da a1 42 bd 25 12 0d be d5 e4 a2 bd
       0.12470875 -0.047517635 -0.13776453 -0.079538025
0001f0 50 e9 3c be 3e 28 7c be 65 19 c3 3d 14 7c 31 3e
       -0.18448377 -0.24624726 0.09526328 0.17332488

layer2.weight f4 [96, 128]
000000 86 26 95 3c ef ae 52 3d 2a e6 a8 3d d8 d6 d0 bd
       0.018206846 0.05143636 0.08247025 -0.10197228
000010 18 38 33 3e 56 11 e6 bc f1 6a 5b 3e 1c a7 cc bc
       0.17501867 -0.028084438 0.21427514 -0.024982028
000020 0a a6 ed bc ea cf 8e be ed cf c7 bd 24 19 71 3d
       -0.029009838 -0.27893 -0.097564556 0.058861867
000030 5d 0a 77 bd 0b 3e 3a 3d f4 62 53 3d d9 7b 2c bf
       -0.060312618 0.045469325 0.05160804 -0.67376477
000040 75 a2 32 bd 9c b5 42 be 0e 97 83 be bf be 98 be
       -0.043611962 -0.19014591 -0.25701183 -0.29833028
000050 53 e5 5a 3d 9b 21 43 3e 5d 1a 68 3d 79 5c ef 3d
       0.053441357 0.19055788 0.056665767 0.1168756
000060 53 6b 14 bf 4c d5 57 bd 15 fe 22 bd 68 db a2 3c
       -0.57976264 -0.05269365 -0.039793093 0.019880012
000070 b3 dc 51 3d 1a af fc 3d 30 30 17 bb 75 ad e6 bd
       0.051235866 0.123380855 -0.0023069493 -0.11263553
000080 f1 26 29 be d2 2c 7b 3d f6 2f b9 3c 76 a2 3a be
       -0.16518761 0.06132204 0.022605877 -0.18226036
000090 2f f4 27 be 05 70 e1 3d 50 d5 ee be ef c6 aa 3b
       -0.16401742 0.11007694 -0.4664712 0.005211703
0000a0 58 f3 06 3e fe b1 f7 bc 72 70 2b be e1 16 8f bd
       0.13178766 -0.03023624 -0.16742113 -0.06986786
0000b0 2d ee 9a bb c5 51 6c 3d af 94 1f be 64 0a a6 3d
       -0.0047281 0.05769517 -0.15584062 0.081074506
0000c0 f0 86 26 bd fe c6 45 3b 17 68 1a bc 33 e3 94 3d
       -0.04065603 0.0030178423 -0.009424231 0.07269897
0000d0 28 4b 23 bd bb 95 7b be 26 14 55 3d fc d1 2f 3c
       -0.039866596 -0.24568836 0.05202117 0.0107312165
0000e0 e8 67 90 3b c4 e5 27 3e ce 35 cc 3b bd e2 eb be
       0.004406918 0.16396242 0.006232 -0.46071425
0000f0 ae 23 38 be 6b 36 a8 bc 93 26 f3 3c 02 c4 9b 3d
       -0.1798236 -0.020533761 0.02968148 0.07605745
000100 fa 15 31 3e e0 b6 8a be a1 37 00 bc bc 82 2a bd
       0.1729354 -0.27092648 -0.007825763 -0.041628584
000110 74 7d 3d bd b5 b8 ea bd 1f 6c ec 3c 3b 9b 19 3d
       -0.04626222 -0.11461011 0.02886015 0.037501555
000120 0d 14 85 3d fe b0 a5 3d e5 4d 3a bd 99 3d c4 be
       0.06497965 0.08090399 -0.045484442 -0.38328245
000130 44 e7 55 3c c4 56 5d bc d2 e1 e8 3c a9 5e 92 bc
       0.013055626 -0.013509456 0.028427992 -0.017867403
000140 5f 0d 82 3d 67 db 13 3e 91 c9 6b bc 8a 4f bd 3b
       0.063502066 0.14439164 -0.014391319 0.005777304
000150 2b cf 2f bc 30 95 d7 3d ba 59 49 bd b5 1e 7c 3d
       -0.010730545 0.10526502 -0.049157836 0.061552722
000160 6c bb 05 3b fe 57 3c 3d bf 34 95 be 2f c2 54 3d
       0.0020405902 0.045982353 -0.29141805 0.051943
000170 1c b6 9a be 59 ac 8a bd 64 29 6e bd 3b b3 96 3d
       -0.30217063 -0.06771154 -0.058144942 0.07358404
000180 e5 34 40 3d 39 08 6f 3e 04 3b 24 3e 3c cb 85 bc
       0.046925444 0.2334298 0.16038138 -0.016332261
000190 93 86 41 3d df f3 81 bd fa 4c e1 3b f2 c4 18 be
       0.04724748 -0.06345343 0.0068756314 -0.14918879
0001a0 8d 4b dd 3c 1c 9f 3f be c1 0b 06 be 05 23 87 3c
       0.027013564 -0.18713039 -0.13090421 0.01649619
0001b0 68 f8 27 bd d5 ea e1 3d f8 92 7b 3e b6 85 4f bc
       -0.041008383 0.11031119 0.24567783 -0.0126661565
0001c0 1d bb 52 bd 52 ce a9 bd 19 8f 4c be 18 fa 75 bd
       -0.051447976 -0.082913056 -0.19976462 -0.06005296
0001d0 c1 39 d7 bd 76 b9 8f be 7c df 21 3e a1 7b 7e 3c
       -0.105090626 -0.28071183 0.15807909 0.015532405
0001e0 9c 8b aa 3d 9a 21 33 bd 76 7c a6 bc ab c3 0a 3d
       0.083274096 -0.043733217 -0.02032302 0.03387801
0001f0 cb e8 4f be 35 c1 24 bc 13 b7 0f 3d df 8d d4 bb
       -0.20303647 -0.01005583 0.035086703 -0.006486639
000200 db b7 28 bd d1 4d 0a 3d d3 bf 8e bd b1 69 4c bd
       -0.041190963 0.033765618 -0.06970181 -0.049905483
000210 e7 eb a3 3d 86 5e 14 bd ab b4 02 bd ba 4c ca bc
       0.08003979 -0.036222957 -0.03191058 -0.02469479
000220 f3 c8 06 3c f7 ef 9d 3d d1 43 70 bc 14 2e 5b bd
       0.008226621 0.07711785 -0.014664606 -0.05351074
000230 bf 18 8b 3b 1e 50 c2 3c ed 4a c2 3b 95 35 7f 3d
       0.0042448933 0.023719843 0.005929342 0.06230696
000240 7e cf 2a bc ef bf 90 3d 9e 7a 1f 3d 6e 4f 91 3d
       -0.010425447 0.070678584 0.038935296 0.07095228
000250 06 cc 88 bd 7c 38 4a 3d 28 e4 89 bb b9 1a 37 3d
       -0.066795394 0.049370274 -0.0042081065 0.04470322
000260 a5 d0 43 bd 77 db a2 3d ea 3d c5 bb 10 d7 9b bc
       -0.0478064 0.07952016 -0.0060193436 -0.019023448
000270 a0 1a 1a 3d 16 5c 61 3d 69 a5 51 3b dd 5c 74 bd
       0.037623048 0.05501946 0.0031989461 -0.059658874
000280 dc 10 b9 bd e2 0f 67 3d 5a be 03 bd 49 6d 7b 3d
       -0.09036419 0.05641163 -0.032163955 0.06138352
000290 9e bb 61 bd 4a 66 c4 bd 7e 20 ab 3c ad 41 58 3d
       -0.055110566 -0.095898226 0.020889517 0.05279701
0002a0 8a 7d 04 bd dc 29 65 bd c0 2f ff 3b f5 7f e2 ba
       -0.032346286 -0.055948123 0.0077876747 -0.0017280566
0002b0 33 bb 1c bc 3f fb 3a 3d 64 6c 54 bd 0f c7 58 bd
       -0.009566116 0.045649763 -0.05186118 -0.052924212
0002c0 e8 e5 76 3d 9f 3a 40 bc ad 8b 6f 3d 59 8c 52 bd
       0.06027785 -0.011732726 0.058482815 -0.051403377
0002d0 97 30 6b bd 45 a7 89 3c d6 ae 3b 3d bc 5a 22 3d
       -0.057419386 0.016803393 0.045821033 0.039637312
0002e0 01 4d a9 bc 6f 58 3c bd 2b da 1b bb 0f 0b f9 bb
       -0.020666601 -0.045982774 -0.0023781161 -0.0076001952
0002f0 e2 f8 0f 3e 37 84 b9 3d f7 ec e6 bb 1f 70 17 bd
       0.14059785 0.09058421 -0.0070472914 -0.03697216
000300 87 b0 68 3b a3 3f 0e bd 28 b2 5b 3d 1e 1d 65 bc
       0.003550561 -0.034728657 0.0536367 -0.013983993
000310 ae d3 ee bc 39 ca ca 3c 6e 3e 4d bd 8e 96 76 bd
       -0.029153671 0.02475463 -0.050108366 -0.060202174
000320 53 0f c4 3c be f1 d2 bd da d7 82 bc b6 26 46 bd
       0.023933088 -0.10300015 -0.015972067 -0.04837676
000330 d8 a6 f3 bd 75 3a d2 bc d2 d4 32 bd 43 6d 9e bc
       -0.11897057 -0.02566264 -0.043659993 -0.01933921
000340 31 1c 4c bd 25 9a c1 3a a7 9d 03 bd c9 99 4b bd
       -0.049831573 0.001477067 -0.03213277 -0.049707208
000350 f6 50 51 3d 50 03 83 bd 20 42 97 bc 4f d6 0c 3c
       0.0511026 -0.06397116 -0.018464148 0.008596017
000360 f1 3e eb 3c 3e ba e2 3c e8 88 c5 3d 4b 6c 6c bd
       0.028716536 0.027676698 0.096452534 -0.057720464
000370 45 9d 17 3b 4e 52 21 bd 21 15 c6 3b e5 1e 34 3c
       0.0023134511 -0.039385132 0.006044999 0.010993694
000380 64 42 05 3d 0d 51 e5 bc 10 f0 06 3d 83 6c 10 bc
       0.03253402 -0.02799275 0.032943785 -0.008814934
000390 b3 b7 b5 3c 3c 55 a8 3c b2 00 97 3b f5 bc e4 3c
       0.022182321 0.020548455 0.004608237 0.027922133
0003a0 2d f9 20 3d e0 35 1b bd 80 43 5a b5 b9 9c 12 bc
       0.039300133 -0.037893176 -8.1309554e-07 -0.008948498
0003b0 a7 03 82 bc f4 47 10 3e 0e 94 59 bc fd 9d ba bc
       -0.015870882 0.14089948 -0.013279928 -0.022780413
0003c0 12 b3 47 3d 56 62 90 bd 42 53 2f bc 8e 7a 40 bd
       0.04875476 -0.07050006 -0.010701003 -0.046991877
0003d0 30 31 27 3c 0d 13 58 3d d1 70 60 bc 05 58 8a 3c
       0.010204598 0.052752543 -0.0136987725 0.016887674
0003e0 ec a0 a4 3b d2 90 26 3d ee d9 b7 bb 5d 19 37 3c
       0.005024066 0.040665455 -0.005610696 0.011175481
0003f0 8e ea 58 bc 07 4b 4e 3c dc 86 3f 3d dd 00 ec bb
       -0.013239516 0.01259113 0.04675947 -0.0072022513

layer2.bias f4 [96]
000000 60 ac f2 bc 6c 51 74 3c a9 39 90 bb 3b ba b7 39
       -0.02962321 0.014911991 -0.004401405 0.00035043232
000010 0e 60 d6 bc cd 61 38 bc 6f e3 b8 3d 25 1e 4c 3c
       -0.02616885 -0.011253786 0.090277545 0.012458359
000020 4f 9b 48 3d 39 95 05 bd 10 03 cc 3c fa 4c 05 3d
       0.04897624 -0.032613013 0.024903804 0.032544114
000030 df 88 04 bd b3 d6 5f bd ec 99 eb bc 50 5d b7 bc
       -0.032357093 -0.054648113 -0.02875992 -0.022383362
000040 02 64 e6 bc 91 2e 70 3c f9 a5 3a bc 58 17 57 3c
       -0.02812386 0.01465954 -0.01139211 0.013128124
000050 3e fe ac bb 08 4d c6 ba 32 70 3d bc 63 d5 14 3d
       -0.0052793315 -0.0015129158 -0.011562394 0.036336314
000060 0f 7b 60 bd 0f 1a 15 3d 8c ff fb 3b 46 39 d7 bc
       -0.054804858 0.036401805 0.0076903757 -0.026272427
000070 7b ed 80 bb 91 eb 27 bd 8e 48 80 bd f0 03 13 bd
       -0.00393456 -0.040996138 -0.06263839 -0.035892427
000080 68 22 ad 3c 0f 9b f7 3c 5e 89 ba bc 44 0e 7a bd
       0.02113457 0.030225305 -0.02277058 -0.06104876
000090 b2 64 26 bd 3f 12 4e 3d 34 f8 2e 3d 65 92 00 bd
       -0.040623374 0.05031037 0.042717174 -0.031389613
0000a0 ef 17 0b 3d 71 86 16 3d 36 aa 26 bd bb 3e 21 bd
       0.03395837 0.036749307 -0.04068967 -0.039366465
0000b0 c3 99 63 bc 8c 32 32 3d 2b 59 03 bc 6b dc 00 3b
       -0.01389164 0.043505237 -0.008016865 0.001966263
0000c0 ab b4 41 bd f3 0d b7 3b 32 42 a6 ba a2 f7 ca 3c
       -0.04729144 0.0055863797 -0.0012684523 0.024776284
0000d0 4e 30 83 3d 62 9c 15 3d 3f dc 51 3c b9 c6 b3 3c
       0.06405698 0.03652609 0.012808858 0.021945344
0000e0 9d c5 02 bc 57 b4 8e bd 72 77 7f 3d b9 72 f1 bc
       -0.007981685 -0.06967991 0.06236977 -0.02947365
0000f0 1b 88 8c 3c f7 6b 7d bb 5f 5c 27 3d f2 0e 57 3d
       0.017154744 -0.0038669088 0.040859576 0.052504487
000100 df 7b 52 bd c9 13 3c 3d a9 0d 67 3c 7d a5 3d bb
       -0.051387664 0.045917306 0.014102378 -0.002893775
000110 ff 13 29 3c ae ae ec 3c 24 6f a1 3d 8f 9c 87 3d
       0.010319709 0.028891888 0.078825265 0.06621658
000120 4c 1d 6c 3d 79 79 61 bd f3 1c 1a 3b 4e a3 48 bd
       0.057645127 -0.055047486 0.002351579 -0.048983864
000130 ab 71 ab 3c df a3 70 bc 0d 1e ba 3c ca be 9f bc
       0.020928225 -0.014687507 0.022719407 -0.019500155
000140 b9 6e 45 3b c7 61 f4 bc 64 a6 6a 3d 86 1c a5 bc
       0.003012581 -0.02983178 0.05728759 -0.020155203
000150 26 4d 78 bd b9 cd 5d bd 80 ab 4a 3c 30 08 28 3d
       -0.06062045 -0.05415127 0.01236999 0.041023433
000160 05 d0 31 3d 64 53 c8 3c d3 aa 44 3c e8 a4 37 3d
       0.043411274 0.024453826 0.012003618 0.044835
000170 a8 2b 4f bd ca 5d e4 bc d5 a9 8d 3c 20 ba f7 3c
       -0.050578743 -0.027876753 0.017292896 0.030240119

layer3.weight f4 [4, 96]
000000 f0 b8 91 3e e4 ca 64 3c 60 4a 2a be 2a ed f9 3c
       0.2846141 0.0139643885 -0.16629934 0.030508596
000010 18 b2 5e be 28 10 03 bd 53 c5 81 3d 2b 7f 9c bb
       -0.21747625 -0.03199783 0.06336465 -0.004775902
000020 53 54 ed bd d4 df d8 3d aa c5 fb 3d d7 7a 05 be
       -0.11588349 0.10589567 0.12293561 -0.13035141
000030 a6 9b f6 3b eb 2d c3 3d 4e aa 65 3d b5 72 06 3d
       0.007525879 0.095302425 0.05607062 0.032824237
000040 14 15 64 3e 23 47 d9 bd 58 a8 7b 3d 49 8c b6 bd
       0.22273666 -0.106092714 0.061439842 -0.08913476
000050 92 cb 8b 3e 6e 97 ed 3c ef a3 a8 3d b3 e2 81 3c
       0.2730375 0.029002871 0.08234393 0.015855169
000060 e6 cc ee bb b2 1a 11 be ef 7a 11 3d d2 3e 9f bd
       -0.0072876094 -0.1417034 0.03551763 -0.07775654
000070 8c a8 3f 3d a4 7a 89 bc 36 56 dc bd 67 e9 fe bd
       0.0467916 -0.016782112 -0.10758631 -0.12446862
000080 05 46 40 3e f8 76 9c bd c8 b9 a3 bd 24 b4 18 3d
       0.1877671 -0.07639879 -0.07994419 0.03728117
000090 ed b8 42 3e 41 89 39 3d fe 6a 8a 3e 12 ad 12 3e
       0.19015856 0.04529691 0.27034754 0.14323834
0000a0 45 d3 34 bd 1f 83 bd 3e b7 f1 0d bd 10 d4 40 3d
       -0.044146795 0.370141 -0.034654345 0.04707724
0000b0 2b fc 2a 3d 9f d6 38 3d 77 79 01 3d d5 ba c9 3d
       0.041744392 0.045126554 0.03160998 0.098500885
0000c0 81 1f a9 3d e6 c3 83 3e d1 af f6 3b 03 74 41 3d
       0.08257962 0.25735396 0.007528283 0.047229778
0000d0 ee 1d d1 3c 36 3a 3c 3e 3e f8 72 3d c8 05 bb 3c
       0.025526967 0.1838158 0.059318773 0.022829905
0000e0 65 33 23 be e7 3c 3a 3e 39 28 04 3d 8a aa 4f bd
       -0.15937574 0.18187295 0.03226492 -0.050699748
0000f0 12 b9 d9 bc a1 ea f3 3c 24 2a 83 be b6 2e 22 3d
       -0.026577506 0.029774966 -0.25618088 0.03959533
000100 63 22 cd bd e0 66 30 bc 0e e2 37 be 89 e8 56 b8
       -0.10016324 -0.010766715 -0.17957327 -5.123814e-05
000110 27 80 8d 3e 5a 38 9f 3d 67 bb 76 be 56 03 bc 3c
       0.27636835 0.0777442 -0.24094926 0.02295081
000120 34 7e e7 3d 71 d0 6b bd e6 5a 21 be 16 21 80 bd
       0.11303368 -0.057571832 -0.15757331 -0.06256311
000130 7b 80 5a 3c 90 e5 fc bd 19 a3 69 3e 59 33 2f be
       0.013336296 -0.12348473 0.22816123 -0.17109431
000140 0a 0e dd bd 2b 60 d7 bd 3a c8 95 be 0d 0e f9 bd
       -0.10793693 -0.105163895 -0.29254323 -0.12160883
000150 da 54 d1 3d bc 4f 29 3b 74 69 2e 3d 2f 46 38 3e
       0.10221262 0.002583488 0.042581037 0.17995523
000160 f7 5f ae 3c b7 fe 2e 3e 71 21 ec 3a 96 2e 12 3c
       0.021285994 0.17089354 0.0018015337 0.00892224
000170 35 a7 1a 3e 2c a8 94 bd b2 51 dd 3d 6c cc 3b 3d
       0.15102847 -0.07258639 0.10806598 0.04584925
000180 f9 5f 8b 3e 00 e0 17 bc 3e 30 20 be e5 bd d2 3b
       0.2722166 -0.009269714 -0.15643403 0.0064313286
000190 4b 3a 80 be 2e 02 8a bd e1 7b 72 3d b2 03 20 be
       -0.25044474 -0.06738697 0.05920017 -0.1562641
0001a0 35 5b fa bd 29 c2 15 3e 36 b8 18 3e 1d 34 50 bd
       -0.122244276 0.14624847 0.14914021 -0.05083095
0001b0 73 5b e9 3d d7 02 e9 3d 9f 98 32 3d ba 37 a2 bc
       0.11394396 0.11377495 0.043602582 -0.019801963
0001c0 65 fb 98 3e 2f 09 11 be 91 77 92 3c 7e a4 03 be
       0.298793 -0.1416366 0.01787928 -0.12855718
0001d0 0b 58 8b 3e b4 94 84 bd 1c 9c 99 3d 25 91 53 bc
       0.2721561 -0.06473675 0.075004786 -0.012913023
0001e0 9b 3a 26 bd 7e 21 18 be 89 e4 ca bc cb 58 f1 bd
       -0.040583234 -0.14856526 -0.024767177 -0.11784514
0001f0 44 ac b4 3d 27 8b 3d 3c 77 d5 0b be 9b 7c 03 be
       0.088219196 0.011568821 -0.13655649 -0.12840502
000200 b4 3c 55 3e 3f bb c9 bd c2 c3 33 bc 85 05 de 3c
       0.20823938 -0.098501675 -0.010971965 0.027102241
000210 6b 2b 3c 3e d4 9c 4e 3d 3e 48 a1 3e fb 4e 24 3e
       0.18375938 0.05044253 0.3150043 0.16045754
000220 df f1 97 bd f8 cf 1d be 15 ad 19 3d 0f e6 45 3d
       -0.0741918 -0.15411365 0.03751858 0.048315104
000230 a1 b8 ea bb 02 0e c0 bc 6c d5 64 3d 67 6a cd 3d
       -0.0071631228 -0.02344418 0.055867597 0.1003006
000240 3c 21 57 bd 3e 79 9b 3e a6 8d d8 3c e3 80 97 3d
       -0.05252193 0.30365938 0.02643473 0.0739763
000250 b2 05 82 3c e8 47 49 3e a8 05 da 3c 7f be 32 3d
       0.015871856 0.19656336 0.026614025 0.043638702
000260 38 23 2d be 11 54 4e 3e b2 6c c4 3c 7e 67 9b bd
       -0.16907966 0.20149256 0.023977611 -0.07588099
000270 42 69 58 bd 52 28 bb bb 24 bf b4 be d3 f1 8c 3d
       -0.052834757 -0.0057115937 -0.3530208 0.06882062
000280 24 cf eb bd 6c 6c 96 3c af 3f 40 be cc f2 84 3c
       -0.11514118 0.018362246 -0.18774293 0.016229056
000290 ae f2 3a be 6a 51 59 be 11 8e 86 be 3d a0 b6 3c
       -0.18256637 -0.21222463 -0.26280263 0.022293204
0002a0 0e c1 ff 3d c5 ac 8e bd c0 61 2d be 4c 04 67 3d
       0.12487994 -0.06966547 -0.1693182 0.056400582
0002b0 e2 f4 b4 bc c4 d5 00 be f4 0d 81 3e 3b 77 35 be
       -0.022089425 -0.12581545 0.25205958 -0.17721264
0002c0 14 74 0d be 03 02 05 be a8 fe d0 be 13 ae 12 be
       -0.13813812 -0.12989049 -0.40819287 -0.14324217
0002d0 8b 7c b1 3d 8a 00 7d 3d 0e 00 35 3d 0c 8d 47 3e
       0.08666333 0.061768092 0.044189505 0.19487399
0002e0 a1 79 e6 3c ff 9d 82 3e ae 8c a4 3c 90 15 c4 3c
       0.028134169 0.25511166 0.020086613 0.023936063
0002f0 61 1e 53 3e 1c 68 95 bd 00 40 02 3e 29 da 8f 3d
       0.20617057 -0.07295248 0.12719727 0.070240326
000300 98 2a 98 3e 66 97 64 3d 05 06 2c be bf 4c 98 3b
       0.29719996 0.055808447 -0.16799171 0.0046478207
000310 a1 97 4e be b9 83 de bc 7a d9 b2 3d f4 68 0b 3a
       -0.2017503 -0.02716242 0.087328866 0.00053180684
000320 12 5f f0 bd 84 86 f5 3d ec 66 e3 3d f7 04 11 be
       -0.11736883 0.119885474 0.11103615 -0.1416205
000330 d0 90 26 bc 93 af cb 3d 4c 5e 25 3d 31 38 29 3c
       -0.010166362 0.099455975 0.04037313 0.0103283385
000340 05 50 53 3e 2b 6f da bd 26 20 1b 3d c3 d8 c4 bd
       0.20635994 -0.10665735 0.037872456 -0.096116565
000350 2a 7f 8b 3e 2a 85 62 3d 76 86 a0 3d f5 2a 15 3d
       0.27245456 0.055302776 0.078381464 0.03641792
000360 b2 05 d7 bd 7d 92 03 be b2 b0 9a 3c c2 34 9c bd
       -0.10499133 -0.1284885 0.018883083 -0.0762725
000370 56 33 14 3d 8d b2 ca 39 05 4c dc bd b9 90 f9 bd
       0.03618177 0.00038661473 -0.10756687 -0.12185807
000380 ee d1 45 3e 85 28 8f bd 73 ef a6 bd a9 3e d4 3c
       0.19318363 -0.0699015 -0.0815114 0.025908785
000390 de 9b 41 3e e8 0b 44 3c c3 28 86 3e c7 75 11 3e
       0.18907115 0.011965729 0.26202974 0.14205085
0003a0 7b fc d1 bc 9b b7 bc 3e b2 d9 8d bd 2e 6b cc 3c
       -0.025633087 0.3685883 -0.06926288 0.024953451
0003b0 a3 dd 37 3d 17 27 70 3d 1d 95 ec 3c 72 a3 bd 3d
       0.044889104 0.05863103 0.028879697 0.0925969
0003c0 e7 47 4e bd 65 00 80 3e 0e a5 f2 bb 20 1a 34 3d
       -0.05036154 0.250003 -0.00740493 0.043970227
0003d0 05 e1 fd 3c b7 e7 3c 3e 37 7d 1b 3c ea 52 79 3c
       0.030991087 0.18447767 0.009490303 0.015217522
0003e0 63 dc 20 be 89 86 2f 3e 17 a8 3b 3d 35 2f 15 bd
       -0.15709071 0.17141165 0.0458146 -0.036421973
0003f0 9c 9d f9 bc 78 61 87 3d 56 1d 80 be fb 31 3a 3d
       -0.030470662 0.066103876 -0.25022382 0.04545782

layer3.bias f4 [4]
000000 f8 a5 38 3d a5 b1 4b 3d 53 37 f9 3c b4 d7 59 3d
       0.045080155 0.049729962 0.030421888 0.053184226
