models/model_final/nets/40_policy_net.pt (torch, 58884 bytes, 6 tensors)

layer1.weight f4 [128, 9]
0	0xbe0bf85f	-0.13668965
1	0x3e2895c4	0.16463381
2	0xbca83d2a	-0.020536978
3	0xbd44a2c5	-0.04800679
4	0xbe78a9f0	-0.24283576
5	0x3e5eb703	0.21749501
6	0xbdb591a1	-0.08865667
7	0x3d8a9ea7	0.06768542
8	0x3e42a1bf	0.19007014
9	0x3e34e71c	0.17666286
10	0x3dbc4440	0.09192705
11	0x3dc898d4	0.09794775
12	0xbe4c2b42	-0.19938377
13	0x3b838909	0.0040141386
14	0xbe9fa10b	-0.31177554
15	0xbdd80dfc	-0.10549542
16	0x3cbd7158	0.023125336
17	0xbb8e725e	-0.0043471297
18	0xbd4cf1cf	-0.050035294
19	0x3e28c384	0.16480833
20	0xbe394522	-0.18092778
21	0x3c9d434d	0.01919713
22	0xbe8a962e	-0.27067703
23	0x3e978053	0.2959009
24	0x3dbf0f5c	0.093291014
25	0x3daedf9f	0.08538746
26	0xbe908ce3	-0.28232488
27	0x3b9eeb43	0.0048498227
28	0x3e4561db	0.1927561
29	0x3c962070	0.018326014
30	0xbddd6ec0	-0.108121395
31	0x3e39d0f1	0.18146111
32	0xbd064687	-0.032782104
33	0xbe1fc80c	-0.15603656
34	0x3d9fe263	0.07806852
35	0x3e806e9b	0.25084385
36	0x3dc76766	0.097365186
37	0xbd56e6eb	-0.052466314
38	0xbd28a036	-0.041168414
39	0xbd91fc55	-0.07128207
40	0x3e53c683	0.20681195
41	0xbddd1612	-0.10795225
42	0xbd9f45ee	-0.0777701
43	0x3e45cd59	0.19316615
44	0xbe729a8f	-0.23691772
45	0xbdb5ff09	-0.08886535
46	0x3d8325d7	0.06403702
47	0xbe382c4c	-0.17985648
48	0x3d3813c3	0.04494072
49	0x3ea64fab	0.32482657
50	0x3df39449	0.118935175
51	0xbd30ca02	-0.0431614
52	0xbc26de2b	-0.010184805
53	0xbce1a760	-0.027545631
54	0xbe04af60	-0.12957525
55	0xbcb35e75	-0.021895627
56	0xbda1a139	-0.07892079
57	0x3d27f7d1	0.04100782
58	0xbe6b23a9	-0.22962822
59	0x3e0df18f	0.13861679
60	0x3db094d5	0.086221375
61	0xbe48603b	-0.19567959
62	0xbd69de90	-0.057097018
63	0x3e18f887	0.14938556
64	0x3d8f3ce8	0.06994039
65	0xbdb6da29	-0.089283295
66	0x3d845ad3	0.06462636
67	0x3e4d0046	0.20019636
68	0xbbac2a72	-0.0052540833
69	0xbeb11ecc	-0.3459381
70	0xbe04975e	-0.12948367
71	0xbe241306	-0.16022882
72	0x3bbeee36	0.005826737
73	0x3dd82726	0.10554342
74	0xbe2e248d	-0.1700613
75	0x3e0ee577	0.13954721
76	0x3db8241d	0.08991263
77	0xbecfe667	-0.4060547
78	0x3a4a51fc	0.0007717905
79	0x3d907daf	0.07055222
80	0xbd3434da	-0.043995716
81	0x3cc38d83	0.023871189
82	0xbe5b3a27	-0.21408902
83	0xbe1545dc	-0.1457743
84	0x3de5e24e	0.11224805
85	0x3e523321	0.20527317
86	0x3ebcbbf0	0.36862135
87	0xbe117793	-0.1420577
88	0xbc92d9d3	-0.017926132
89	0x3e45a55a	0.19301358
90	0xbd7eca56	-0.06220468
91	0xbe04000e	-0.12890646
92	0x3dfc65d2	0.12324108
93	0xbbaf9932	-0.0053588385
94	0x3d73c1ba	0.059510924
95	0x3eaf1759	0.341975
96	0xba590555	-0.00082786876
97	0x3d0f7526	0.03502383
98	0x3b67ba15	0.0035358716
99	0x3d2209d6	0.03956016
100	0x3d28131d	0.041033853
101	0xbd2cbf06	-0.04217436
102	0xbd046808	-0.032325774
103	0xbe894743	-0.2681218
104	0x3e15bceb	0.14622848
105	0xbe3c9dbb	-0.18419544
106	0x3e1b00a6	0.15136966
107	0xbcf9260e	-0.030413654
108	0x3d95a58c	0.07306966
109	0x3dc30d9d	0.09524081
110	0xbe2d86bb	-0.16945927
111	0xbd80fb86	-0.06297974
112	0x3e1514fd	0.14558788
113	0xbeb79305	-0.35854355
114	0x3e1aecb6	0.1512936
115	0xbd3f4a2d	-0.0467016
116	0x3dac459b	0.08411714
117	0x3d6ce540	0.057835817
118	0xbd6887e6	-0.056770228
119	0xbbf10882	-0.0073557505
120	0xbcd585e3	-0.026064819
121	0xbd3ccba5	-0.046092648
122	0x3ead4159	0.3383892
123	0x3d2c8c9a	0.042126276
124	0xbddbf3a0	-0.10739827
125	0x3cf9bde6	0.030486058
126	0xbe36d449	-0.17854418
127	0x3d4fe0a6	0.05075135
128	0x3e1381f2	0.14405039
129	0x3d62ab06	0.055338882
130	0xbe2e2f99	-0.17010345
131	0x3ded9d6f	0.11602294
132	0xbe388bbe	-0.18022057
133	0xbd3ed0c4	-0.046585813
134	0x3c9c05e7	0.019045783
135	0xbd209017	-0.039199915
136	0x3bf74337	0.0075458544
137	0xbdc85bb8	-0.09783119
138	0x3cf4782d	0.02984246
139	0x3eaa6915	0.33283296
140	0x3d812429	0.06305725
141	0xbd0d6656	-0.034521423
142	0x3dc05bf2	0.09392537
143	0xbe628414	-0.22120696
144	0x3de734a0	0.11289334
145	0x3dd635ee	0.10459505
146	0xbe170c8e	-0.14750883
147	0x3d51e02e	0.051239185
148	0xbdf227dc	-0.11824009
149	0x3e8b6f17	0.27233192
150	0x3cf84898	0.030308053
151	0xbdeb17a1	-0.11479116
152	0x3db9e78e	0.09077369
153	0x3c2c7bb6	0.010527542
154	0x3d56e694	0.05246599
155	0x3d8184a4	0.06324127
156	0xbe516dc9	-0.20452036
157	0x3e182682	0.1485844
158	0xbe273284	-0.16327864
159	0xbd1c3725	-0.038138527
160	0x3dde2f51	0.10848869
161	0x3e30b309	0.17255796
162	0x3e60c625	0.21950586
163	0xbe643c31	-0.22288586
164	0x3cbd1a06	0.023083698
165	0x3d1c8d86	0.038220905
166	0xbe4ead4b	-0.20183294
167	0x3db170cd	0.08664093
168	0xbdd4a827	-0.10383635
169	0x3de08e58	0.1096465
170	0xbe1f2361	-0.1554084
171	0x3e524ede	0.20537898
172	0xbdae00fe	-0.08496283
173	0xbd8b018b	-0.06787404
174	0xbe23dfe3	-0.16003375
175	0x3cf41f70	0.029800147
176	0xbdb11335	-0.086462416
177	0xbdd2f58b	-0.1030074
178	0x3d82d6b0	0.06388605
179	0x3df09832	0.11747779
180	0xbde26fa4	-0.1105645
181	0x3dccad59	0.09994001
182	0xbe917592	-0.28410012
183	0xbe887239	-0.26649645
184	0xbd7504ee	-0.059819154
185	0x3e37f21d	0.17963453
186	0x3d3e8297	0.04651126
187	0x3d8acd57	0.06777447
188	0x3c0a8d08	0.008456476
189	0xbccd2832	-0.02504358
190	0xbd9c4741	-0.07630778
191	0xbd242ad2	-0.0400799
192	0x3d763259	0.06010661
193	0xbe9bf526	-0.3046047
194	0xbb57ae1d	-0.0032910176
195	0x3e28c4de	0.16481349
196	0x3dc73100	0.09726143
197	0xbe567fb2	-0.2094715
198	0x3e536407	0.20643626
199	0x3d7d9d9c	0.061917886
200	0xbe257d77	-0.16161142
201	0x3cae7c20	0.021299422
202	0xbeabc20e	-0.3354649
203	0xbea3b550	-0.31974268
204	0x3d7493db	0.05971132
205	0xbdd99a1e	-0.10625099
206	0x3da625a6	0.081126496
207	0xbd812cc2	-0.06307365
208	0x3de40e80	0.11135578
209	0x3dcfeff2	0.10153188
210	0xbe357bcb	-0.17723005
211	0x3dab6efb	0.08370777
212	0xbdcf5cc2	-0.10125114
213	0xbdad6004	-0.08465579
214	0xbdb2e538	-0.08735126
215	0xbe872735	-0.263971
216	0xbd482054	-0.048858956
217	0x3e6de9a2	0.23233655
218	0x3bc1bd1a	0.0059124352
219	0xbc68fc81	-0.014220358
220	0xbecd22d7	-0.40065643
221	0xbe5ad56b	-0.21370475
222	0xbd150344	-0.036380067
223	0x3db7e266	0.08978729
224	0x3d5f013e	0.054444544
225	0x3e296207	0.165413
226	0x3e07807f	0.13232611
227	0x3d58c4e0	0.05292213
228	0x3e6b75a5	0.22994097
229	0x3e75ba19	0.23996772
230	0xbda40d7d	-0.08010385
231	0xbe2029b9	-0.15640916
232	0xbe4e6740	-0.20156574
233	0x3de8b71f	0.113630526
234	0xbd98ebd0	-0.07466853
235	0xbdda77ab	-0.10667356
236	0xbe07ce3f	-0.1326227
237	0xbdc2e7da	-0.095168784
238	0xbe26bf08	-0.1628381
239	0x38981e39	7.253554e-05
240	0xbe218b8f	-0.15775894
241	0xbc48db87	-0.012259371
242	0xbdcc3f82	-0.09973051
243	0xbe59d836	-0.21273884
244	0x3e036d26	0.12834606
245	0x3cc71b9d	0.02430516
246	0xbd9983fa	-0.07495876
247	0x3dca41b0	0.0987581
248	0xbe5d272d	-0.21596976
249	0x3d3275fb	0.043569546
250	0xbe77cf8f	-0.24200271
251	0x3e5f3b7c	0.21800035
252	0x3dad9484	0.08475593
253	0xbddae818	-0.106887996
254	0xbe2d8ba0	-0.16947794
255	0xbc1d8c21	-0.009615929

layer1.bias f4 [128]
0	0x38b38c65	8.561536e-05
1	0xbd16b1ab	-0.03679053
2	0xbe01a1ac	-0.12659329
3	0xbdeb3dca	-0.11486395
4	0x3dcdd4b9	0.10050339
5	0xbcea5dea	-0.028609235
6	0x3cf0a15e	0.02937382
7	0x3d972df9	0.073818155
8	0x3c923a7e	0.017850157
9	0xbe1b4a8f	-0.1516516
10	0xbd77a037	-0.060455527
11	0x3e37f7d7	0.17965637
12	0xbd88ae6e	-0.06673895
13	0xbdbd7989	-0.092516966
14	0xbe415b7b	-0.18882553
15	0xbb4c6da1	-0.0031193274
16	0xbe06c7e2	-0.13162187
17	0xbd0dd56c	-0.034627363
18	0xbdcea278	-0.10089582
19	0xbdd68bbf	-0.10475873
20	0x3ddfb094	0.109223515
21	0x3dff8415	0.124763645
22	0x3e0d6bcd	0.13810654
23	0xbbaba337	-0.0052379626
24	0xbdfca6e8	-0.12336522
25	0xbe0c8fac	-0.13726681
26	0xbe395863	-0.18100123
27	0x3dff2cac	0.12459692
28	0x3df0a9ac	0.11751112
29	0x3d889de3	0.066707395
30	0xbc82652b	-0.015917381
31	0xbd24e2d0	-0.040255368
32	0x3e6e96b5	0.23299678
33	0x3dbdd572	0.09269227
34	0x3d37e537	0.04489633
35	0x3dde413c	0.10852286
36	0x3e81baf3	0.25337943
37	0xbcbd9836	-0.023143869
38	0x3df9d069	0.12197954
39	0x3d9dc070	0.0770272
40	0x3d4be5a6	0.049779557
41	0x3e41fdb9	0.18944444
42	0x3d65098d	0.05591731
43	0xbd057a27	-0.032587197
44	0x3da08dd2	0.0783955
45	0x3d6e32e1	0.05815399
46	0xbdfe9ec0	-0.12432623
47	0xbe13ece7	-0.1444584
48	0x3da30cee	0.079614505
49	0xbca504ea	-0.020143945
50	0x3ddacb51	0.10683311
51	0x3dddae00	0.108242035
52	0x3db85104	0.089998275
53	0x3e2a2c4e	0.16618463
54	0xbe3fda3d	-0.18735595
55	0x3d2412ff	0.04005718
56	0x3e0f2c55	0.13981755
57	0x3e48712f	0.19574426
58	0xbe0f581c	-0.13998455
59	0xbe3af51f	-0.18257569
60	0x3b9a85bb	0.004715649
61	0xbd9f676a	-0.077833965
62	0xbdaee3d1	-0.08539546
63	0xbdbe9ca2	-0.09307219
64	0xbcef78d9	-0.02923243
65	0xbd9af70c	-0.07566652
66	0x3d8f959f	0.0701096
67	0xbc9d09bd	-0.019169683
68	0x3e3b4166	0.18286666
69	0xbd83a0a5	-0.06427125
70	0xbe5d5307	-0.21613704
71	0x3c5d79b0	0.013517782
72	0xbdb00573	-0.08594789
73	0xbddad9d3	-0.10686078
74	0x3e28034e	0.1640751
75	0xbced51ff	-0.028969763
76	0xbe0263f3	-0.1273344
77	0x3dbd7aeb	0.0925196
78	0x3ce60530	0.028078645
79	0xbe53546f	-0.20637678
80	0xbc80594f	-0.015667586
81	0xbd9a47f1	-0.07533253
82	0x3dfdcafe	0.12392233
83	0x3dfb4632	0.12269248
84	0x3d1d0580	0.038335323
85	0xbe224434	-0.1584633
86	0x3d910284	0.07080558
87	0x3e77a913	0.2418559
88	0x3dc44f37	0.095854215
89	0xbcdff41e	-0.027338084
90	0x3d5c462f	0.05377787
91	0x3dfd5cda	0.12371226
92	0xbe1cda77	-0.15317713
93	0xbe182480	-0.14857674
94	0x3e391671	0.18074967
95	0xbde27d92	-0.11059107
96	0xbc85b983	-0.01632381
97	0x3d3b0f68	0.04566899
98	0x3bb910e8	0.0056477673
99	0xbe3f19f5	-0.18662246
100	0x3b66a7d1	0.0035195241
101	0xbdca6e74	-0.098843485
102	0x3c8bfa95	0.01708726
103	0xbdb7cdd6	-0.08974807
104	0x3de7eaf3	0.1132411
105	0xbe0fd25f	-0.14045094
106	0x3d69626f	0.05697864
107	0xbd131918	-0.035912603
108	0x3d2fd95c	0.0429319
109	0xbd438f7a	-0.04774425
110	0x3e279e91	0.16369082
111	0xbe16ace4	-0.1471439
112	0xbc899668	-0.016795352
113	0x3c62d00f	0.01384355
114	0x3d95502f	0.072906844
115	0xbde3058a	-0.11085041
116	0x3e425f3e	0.18981645
117	0x3e54f3c1	0.2079611
118	0x3cbe0da3	0.023199862
119	0xbca11bf9	-0.019666659
120	0x3d96b75a	0.0735919
121	0xbb136fdd	-0.0022497096
122	0xbdcc25e1	-0.09968162
123	0xbd83ca92	-0.064351216
124	0xbe0734b2	-0.13203695
125	0xbe62c8f2	-0.22146967
126	0x3d2b2973	0.041787576
127	0x3e41e6a4	0.18935639

layer2.weight f4 [96, 128]
0	0xbc1b0f41	-0.009464086
1	0x3d3fb3ea	0.04680244
2	0x3cf8005e	0.030273613
3	0xbdcf476e	-0.10121046
4	0x3e2478c6	0.16061696
5	0xbc2a672d	-0.010400576
6	0x3e383ab4	0.17991143
7	0xbcb6dcf7	-0.022322161
8	0xbcd4c649	-0.025973456
9	0xbe910b28	-0.28328824
10	0xbe658d70	-0.22417235
11	0x3d7c92d3	0.06166346
12	0xbd98d2a4	-0.074620515
13	0x3c65d314	0.014027376
14	0x3d2af7ec	0.041740343
15	0xbf168bd1	-0.5880709
16	0xbd67d798	-0.05660209
17	0xbe66fdd3	-0.22557764
18	0xbe4f3ee2	-0.20238832
19	0xbe7ec714	-0.2488063
20	0x3d1e8c0d	0.03870778
21	0x3e2da3bb	0.1695699
22	0x3d264ff2	0.040603586
23	0x3dcb139d	0.0991585
24	0xbf2bc9bf	-0.67104715
25	0xbd414cfc	-0.04719256
26	0xbd03df3b	-0.03219531
27	0x3d5a2e3e	0.053266756
28	0x3c1c7b73	0.009550917
29	0x3dc73ae4	0.09728029
30	0xbc33e1d5	-0.0109791355
31	0xbd236fee	-0.039901666
32	0xbde0cb90	-0.109763265
33	0x3d5ee0c2	0.054413565
34	0x3d09af15	0.033614237
35	0xbe27c1b6	-0.16382489
36	0xbe874eda	-0.26427346
37	0x3d70b6e7	0.05876818
38	0xbec65db8	-0.38743377
39	0xbd0744e4	-0.033024684
40	0x3dddcd45	0.10830168
41	0xbd6551f6	-0.055986367
42	0xbe18414d	-0.1486866
43	0xbd71b99d	-0.059014905
44	0xb73a1aa9	-1.1092671e-05
45	0x3d3f31bf	0.0466783
46	0xbe2f5b4b	-0.17124669
47	0x3d5242f7	0.051333394
48	0xbd5b60c6	-0.053559087
49	0xbc9bb12d	-0.019005382
50	0x3ccc65bc	0.024950854
51	0x3d7b4fca	0.06135539
52	0xbc3297a2	-0.01090041
53	0xbe4bd5b4	-0.1990574
54	0x3d2c4c49	0.04206494
55	0xbbaabba2	-0.005210356
56	0x3c6ce0f5	0.014457931
57	0x3e175bdc	0.14781135
58	0xbc49b818	-0.012311958
59	0xbf0f1277	-0.5588755
60	0xbe91096c	-0.283275
61	0xbcaf4ef1	-0.021399947
62	0x3cc4bea6	0.02401669
63	0x3d9df462	0.07712628
64	0x3e172051	0.14758421
65	0xbeb0383b	-0.344179
66	0xbbcf6f40	-0.0063304007
67	0xbd1f930c	-0.038958594
68	0xbc172bbf	-0.0092267385
69	0xbdd8ddf8	-0.10589212
70	0xbb26fd8c	-0.0025480716
71	0x3d3bef61	0.045882586
72	0x3d2a5479	0.041584466
73	0x3d8b3c01	0.06798554
74	0xbd08baf0	-0.033381402
75	0xbe9c9592	-0.30582863
76	0x3cc38eee	0.023871865
77	0x3c3ed18c	0.01164664
78	0x3c6c53cb	0.014424275
79	0xbcb3b567	-0.021937085
80	0x3d2fbe86	0.042906307
81	0x3db526b7	0.08845275
82	0xbbfc151a	-0.007692945
83	0x3b880fa5	0.0041522556
84	0x3bf3ea64	0.007443713
85	0x3db63de4	0.088985234
86	0xbd8a473a	-0.06751867
87	0x3dbace8f	0.09121429
88	0x3c2d1219	0.010563397
89	0x3d0cb7c1	0.03435493
90	0xbe886105	-0.2663652
91	0x3d4de31a	0.05026541
92	0xbe97b0e1	-0.29627135
93	0xbe2107a8	-0.15725577
94	0xbd18ad69	-0.03727475
95	0xbb8cd54f	-0.0042978893
96	0x3d0ed0b7	0.034867015
97	0x3e5a005d	0.21289201
98	0x3de07bb4	0.109610945
99	0xbc1f7412	-0.009732263
100	0x3d0e5bc9	0.034755502
101	0xbd3f1bc6	-0.046657346
102	0xbac65bbb	-0.0015133539
103	0xbe03ff05	-0.12890251
104	0x3cd39649	0.025828497
105	0xbe2cde2e	-0.1688163
106	0xbdeff85b	-0.11717292
107	0xbc466285	-0.01210845
108	0xbd221caa	-0.039578117
109	0x3dbb8236	0.09155695
110	0x3e6ad399	0.2293228
111	0xbd98481b	-0.07435628
112	0xbd2dacb5	-0.042401034
113	0xbe1a4208	-0.15064251
114	0xbe25ea12	-0.16202572
115	0xbd47559f	-0.04866564
116	0xbdc345cb	-0.09534796
117	0xbe8df8ce	-0.27728885
118	0x3e162369	0.14661945
119	0x3b9945a8	0.004677493
120	0x3dac8069	0.0842293
121	0xbd10d977	-0.03536364
122	0xbd1de6d0	-0.038550198
123	0x3ce03bab	0.027372202
124	0xbe7e957e	-0.24861714
125	0x3c74b9bd	0.014936862
126	0x3ccab409	0.02474405
127	0xbce5bfa3	-0.028045481
128	0xbd31ca6e	-0.043405943
129	0xbc3f0a69	-0.011660197
130	0xbda10965	-0.0786312
131	0xbd2acd3e	-0.04169964
132	0x3d8896c2	0.0666938
133	0xbc08aaf4	-0.00834154
134	0xbccfdc67	-0.02537365
135	0x3bf8eee8	0.007596839
136	0x3c614658	0.013749681
137	0x3da3dfc6	0.08001666
138	0xbd08dc8f	-0.033413466
139	0xbd6638ec	-0.05620663
140	0x3c9d1b4e	0.019178059
141	0x3da124dd	0.07868359
142	0x3b9d1880	0.0047941804
143	0x3dcf2f1f	0.101164095
144	0xbadefaa5	-0.0017011954
145	0x3d529e9a	0.051420785
146	0x3d7b1b5d	0.061305393
147	0x3d434d4d	0.04768114
148	0xbd7540df	-0.05987632
149	0x3d12fda8	0.035886437
150	0xbbda46ac	-0.006661257
151	0x3d83809e	0.06421016
152	0xbd7f05e1	-0.062261466
153	0x3d9c31e4	0.076267034
154	0xbb9f7d2c	-0.0048672166
155	0xbdd4c0aa	-0.1038831
156	0x3c9b67bd	0.018970365
157	0x3cf88d20	0.030340731
158	0xba6d15b8	-0.0009044069
159	0xbd13a144	-0.036042467
160	0xbd4f4be4	-0.050609484
161	0x3d62b49f	0.055348035
162	0xbcbda3fd	-0.023149485
163	0x3d69b1d4	0.057054356
164	0xbc655c00	-0.013998985
165	0xbdacc5be	-0.08436154
166	0x3cacf618	0.02111344
167	0x3d69651e	0.0569812
168	0xbd0e9c18	-0.03481683
169	0xbcfe8f77	-0.031074269
170	0x3bb65956	0.005564849
171	0xbb01c859	-0.0019803254
172	0xbc564396	-0.013077637
173	0x3d17642b	0.036960762
174	0xbd0a6bac	-0.03379409
175	0x3c8221c4	0.015885241
176	0x3d2a33cc	0.041553304
177	0x3bd6007d	0.00653082
178	0x3d166ef2	0.0367269
179	0xbd40945c	-0.047016487
180	0xbd6b450d	-0.0574389
181	0x3b8b2c88	0.004247252
182	0x3d17f9d4	0.03710349
183	0x3cd0f197	0.025505824
184	0xbc8937e5	-0.016750285
185	0xbd08f5c3	-0.0334375
186	0x3cbd97d1	0.02314368
187	0x3a59da6b	0.000831044
188	0x3deb9b7e	0.11504267
189	0x3d78c692	0.060736246
190	0xbbbacc0d	-0.0057005943
191	0xbb8a176c	-0.004214218
192	0xbcf65500	-0.030069828
193	0xbbf8a0cd	-0.0075875283
194	0x3d31d034	0.04341145
195	0xbc6c4170	-0.014419898
196	0x3b3c9a58	0.002877852
197	0x3cb36c5b	0.021902254
198	0x3c15722a	0.009121457
199	0xbc55f300	-0.013058424
200	0xbd5805a2	-0.052739747
201	0xbd9edca5	-0.07756928
202	0xbd62e009	-0.055389438
203	0xbcf9b6af	-0.030482618
204	0xbdbe6cf8	-0.09298128
205	0xbd21ed63	-0.03953303
206	0xbcb9556d	-0.022623742
207	0xbc96616d	-0.018357003
208	0xbd3e6de6	-0.046491526
209	0xbc5afa88	-0.013365395
210	0xbcc8bde1	-0.024504604
211	0xbd0e403f	-0.03472924
212	0x3d4a819f	0.049440023
213	0xbd4ff745	-0.050772924
214	0xbd364ac7	-0.044504907
215	0xbe09b1cf	-0.13446735
216	0x3c895eed	0.016768897
217	0x3d808486	0.06275277
218	0x3dd74b12	0.105123654
219	0xbd84579b	-0.06462022
220	0x3cd70316	0.026246589
221	0xbce4530e	-0.027871635
222	0x3998a26a	0.00029112707
223	0x39647c35	0.00021790045
224	0x3cf2f62e	0.029658403
225	0x3d2ca356	0.042147957
226	0x3bcc8503	0.006241442
227	0x3c911b65	0.017713258
228	0x3c50687b	0.012720223
229	0x3c8c7a7c	0.017148249
230	0x3c98bfc9	0.018646138
231	0x3c763bcd	0.015028906
232	0x3cc4f091	0.024040492
233	0xbc00566b	-0.007833104
234	0xbbad557f	-0.005289733
235	0xbcb25d7f	-0.021773098
236	0xbcfd8d60	-0.030951202
237	0x3e475c0e	0.1946871
238	0xbcaf9d92	-0.02143744
239	0x3bc5dacd	0.006038046
240	0x3d27d25c	0.0409721
241	0xbd45a79f	-0.04825556
242	0x3bbe1a06	0.005801442
243	0x3cae315f	0.021263776
244	0x3d0d4360	0.034488082
245	0x3d56e729	0.052466545
246	0xbcd400f0	-0.025879353
247	0x3baa276d	0.005192688
248	0xbca50417	-0.020143552
249	0x3d765c9c	0.060146913
250	0xbd163b4f	-0.036677655
251	0x3c1427ef	0.009042724
252	0xbd8c0172	-0.06836213
253	0xbbab0379	-0.00521892
254	0x3cf8577f	0.030315159
255	0x3bb71a18	0.0055878274

layer2.bias f4 [96]
0	0x3beca052	0.00722126
1	0xbc7ff99f	-0.015623479
2	0xbb1ce943	-0.0023942746
3	0xbb5ce736	-0.0033707148
4	0xbcdfc67b	-0.027316323
5	0xbcbc3c39	-0.022977935
6	0x3daf1541	0.08548976
7	0xbb9ae385	-0.0047268295
8	0x3d588a06	0.052866004
9	0xbbe61850	-0.0070219412
10	0x3c8cdf4b	0.017196318
11	0x3d1337b3	0.03594179
12	0xbd135444	-0.035969034
13	0xbd24a0ed	-0.040192533
14	0xbc6d1357	-0.014469943
15	0xbc94608f	-0.018112449
16	0xbcd52256	-0.02601735
17	0x3cbbca60	0.022923648
18	0xbb4d83f2	-0.0031359163
19	0x3b55a97a	0.0032602237
20	0x3bbd9ea8	0.0057867356
21	0xbcafbfa1	-0.02145368
22	0x3a867738	0.0010258919
23	0x3d144a4a	0.03620366
24	0xbd291a51	-0.041284863
25	0x3d1aac33	0.03776188
26	0x3b67ff02	0.00353998
27	0xbc9dd13f	-0.019264815
28	0xbc005225	-0.007832085
29	0xbce26204	-0.027634628
30	0xbd42c8f4	-0.047554925
31	0xbc4d06de	-0.012513844
32	0x3bc6d1bb	0.0060674823
33	0x3c4bff1c	0.0124509595
34	0xbcfccdeb	-0.030859908
35	0xbd8160cd	-0.063172914
36	0xbd06cf4f	-0.03291255
37	0x3d382bc2	0.044963606
38	0x3d561c50	0.052273095
39	0xbd263d64	-0.04058589
40	0x3cb8d882	0.022564176
41	0x3c60012f	0.013672157
42	0xbd10491d	-0.035225976
43	0xbd0665ba	-0.032811858
44	0xbc34f639	-0.011045032
45	0x3d0863e8	0.033298403
46	0xbbc41340	-0.00598374
47	0x3b65842f	0.0035021415
48	0xbd1ca4eb	-0.038243216
49	0x3c545ce7	0.012961603
50	0x3934b07d	0.00017231885
51	0x3cdfbf7f	0.027312992
52	0x3d4b5698	0.04964313
53	0x3d08dc10	0.033412993
54	0x3c496cd8	0.012294017
55	0x3cbc0328	0.022950724
56	0xbc835a3d	-0.01603424
57	0xbddc2a00	-0.10750198
58	0x3d63958c	0.05556254
59	0xbc97c99d	-0.018528754
60	0x3c5d6f95	0.013515373
61	0xbc4f46ef	-0.012651189
62	0x3d27d69b	0.040976148
63	0x3d1ecfb3	0.038772296
64	0xbd192b78	-0.03739497
65	0x3cf9a913	0.030476129
66	0x3cb60859	0.022220777
67	0x3a5f11a8	0.0008509406
68	0xbaa1c758	-0.0012342734
69	0x3c711900	0.014715433
70	0x3d96887d	0.07350252
71	0x3d5ddf5d	0.054168094
72	0x3d55d45b	0.05220447
73	0xbd2db0dc	-0.042404994
74	0x3a9b3e7a	0.0011844181
75	0xbd225cd0	-0.039639294
76	0x3c6b7035	0.014370014
77	0x38bfb89c	9.141976e-05
78	0x3d1fd2a2	0.039019234
79	0xbbc03b2b	-0.0058664284
80	0xbbe18783	-0.0068826093
81	0xbceb5ab3	-0.028729772
82	0x3d4fa02a	0.050689854
83	0xbcf96695	-0.030444423
84	0xbd42ecde	-0.047589175
85	0xbd337fdb	-0.043823104
86	0x3c8e77ed	0.01739117
87	0x3cfb07ab	0.030643305
88	0x3d12fd41	0.035886053
89	0x3cf6e141	0.030136706
90	0x3ca5f004	0.02025605
91	0x3d006767	0.031348612
92	0xbd2b2ff6	-0.041793786
93	0xbc9d8ae2	-0.019231264
94	0x3cce52d7	0.025185985
95	0x3d056949	0.03257111

layer3.weight f4 [4, 96]
0	0x3e98e1a7	0.2985966
1	0x3d568bd0	0.05237943
2	0xbe541010	-0.20709252
3	0x3d1985e4	0.037481204
4	0xbe6e9e17	-0.23302494
5	0xbd0b4e1e	-0.034010045
6	0x3d88e62b	0.06684526
7	0xbe39b542	-0.1813555
8	0xbe37ad20	-0.17937136
9	0x3e002486	0.12513933
10	0x3e2a1aa0	0.16611719
11	0xbddf0575	-0.10889713
12	0x3e2efad2	0.17087868
13	0x3dada1cb	0.08478125
14	0x3da0a4bc	0.078439206
15	0x3cd9207c	0.026504748
16	0x3e8ba1f7	0.27272007
17	0xbddb243a	-0.10700269
18	0x3e4ae943	0.19815545
19	0xbdc6c387	-0.09705263
20	0x3e9305dc	0.28715408
21	0x3e7d1efb	0.2471885
22	0x3da6b794	0.081404835
23	0x3ce220c8	0.027603522
24	0x3be12700	0.0068711042
25	0xbdf9c96b	-0.121966206
26	0x3da77d01	0.081781395
27	0xbda4a0a0	-0.08038449
28	0x3d52f73d	0.051505316
29	0xbb6a2639	-0.003572835
30	0xbe4a067e	-0.19729039
31	0xbe539c6d	-0.2066514
32	0x3e2f60b1	0.17126729
33	0xbdb97a7d	-0.09056566
34	0xbdada1d0	-0.08478129
35	0x3da74c27	0.08168822
36	0x3e5ba757	0.21450554
37	0x3d1b6352	0.037936516
38	0x3edb73c8	0.42861772
39	0x3e3ad938	0.18246925
40	0xbcc24dd8	-0.02371876
41	0x3ec7afcb	0.39001307
42	0xbce5886a	-0.028019149
43	0x3d1bf825	0.038078446
44	0x3d2308f8	0.039803475
45	0x3d149e07	0.03628352
46	0x3cf7e2e9	0.030259566
47	0x3e25c849	0.16189684
48	0x3d88e34d	0.06683979
49	0x3e96d5a6	0.29459876
50	0x3b48f722	0.003066488
51	0x3d2aa544	0.041661516
52	0x3cfc2b4e	0.030782368
53	0x3e4ec30e	0.20191595
54	0x3d4ed159	0.05049262
55	0x3ce0d1df	0.027443824
56	0xbe62d19a	-0.22150269
57	0x3e7f05e8	0.24904597
58	0x3d41c473	0.04730649
59	0xbd4a80b7	-0.04943916
60	0xbd21f3ac	-0.039539024
61	0x3d3f22d9	0.046664093
62	0xbea86e8d	-0.32896844
63	0x3d2f3d7d	0.04278325
64	0xbdbc7504	-0.092020065
65	0xbc654217	-0.013992808
66	0xbe607cfd	-0.21922679
67	0xba572076	-0.0008206436
68	0x3e81e910	0.25373125
69	0xbe02da7c	-0.12778658
70	0xbe8934fd	-0.2679824
71	0x3cbcfd4b	0.023069998
72	0x3dddd07f	0.10830783
73	0xbd6c04bf	-0.057621714
74	0xbe0070cb	-0.12543027
75	0xbd4f4c2e	-0.05060976
76	0x3ceb7cb3	0.028745985
77	0xbe04a447	-0.12953292
78	0x3e9501bf	0.29102895
79	0xbe498a32	-0.19681624
80	0xbe729036	-0.23687825
81	0xbe1afe06	-0.15135965
82	0xbebd8dab	-0.37022147
83	0xbe430b8e	-0.19047377
84	0x3e033f6e	0.12817165
85	0x3b090ac3	0.0020910955
86	0xbd35a031	-0.044342224
87	0x3e3440ff	0.17602919
88	0x3cc3ecff	0.02391672
89	0x3e2d5b3e	0.16929337
90	0x3c559916	0.013036987
91	0x3c6f0e77	0.014590851
92	0x3e210f61	0.15728523
93	0xbd982da4	-0.0743058
94	0x3e13376e	0.14376613
95	0x3d8c86e0	0.06861663
96	0x3e94a5bb	0.29032692
97	0x3c1ae064	0.009452913
98	0xbe4fd3a4	-0.20295578
99	0x3c9526a8	0.01820691
100	0xbe8c2247	-0.27369902
101	0xbd8859c7	-0.06657749
102	0x3d773b9b	0.06035958
103	0xbe96137e	-0.29311746
104	0xbe431aa9	-0.19053139
105	0x3e225fdc	0.1585688
106	0x3e3a0e96	0.18169627
107	0xbdd4bfe4	-0.10388163
108	0x3e835e70	0.25657988
109	0x3de0b377	0.1097173
110	0x3d8efd6b	0.069819294
111	0xbc833cf0	-0.016020268
112	0x3eb35979	0.350292
113	0xbe137ead	-0.14403792
114	0x3e5b9af7	0.21445833
115	0xbe22befe	-0.1589317
116	0x3e96c93e	0.2945041
117	0xbe2e2dcd	-0.17009659
118	0x3da4bc17	0.08043688
119	0xbc4c1050	-0.012455061
120	0xbd15c9e2	-0.036569484
121	0xbdefc9c4	-0.117084056
122	0xbbe2c5a1	-0.006920532
123	0xbde40197	-0.11133116
124	0x3da312c0	0.07962561
125	0x3c7ab848	0.015302725
126	0xbe615dbe	-0.22008416
127	0xbe5c1ed4	-0.21496135
128	0x3e476a7f	0.19474219
129	0xbdd87235	-0.10568658
130	0xbd35c0fd	-0.0443735
131	0x3dab0ca2	0.08352019
132	0x3e5b7c50	0.2143414
133	0x3d5f20ef	0.054474767
134	0x3edc2036	0.42993325
135	0x3e60eadb	0.2196459
136	0xbd8c5aa6	-0.06853227
137	0xbe06b2cd	-0.13154145
138	0x3cf06e58	0.029349491
139	0x3d200b73	0.03907342
140	0x3a5e1510	0.00084717665
141	0xbc8e7581	-0.017390015
142	0x3d684747	0.0567086
143	0x3e1c9955	0.15292867
144	0xbd2df9eb	-0.04247467
145	0x3ea5e458	0.32400775
146	0x3cb946f1	0.022616835
147	0x3dac26ab	0.08405813
148	0x3cbc9e61	0.02302474
149	0x3e558e1c	0.20854992
150	0x3d0c8ba2	0.03431285
151	0x3d445c98	0.047939867
152	0xbe695938	-0.2278794
153	0x3e897f35	0.26854864
154	0x3d10a657	0.035314884
155	0xbd976712	-0.07392706
156	0xbd702a4a	-0.05863408
157	0xbb0f50dd	-0.0021868267
158	0xbee43fe3	-0.44579992
159	0x3db03754	0.08604303
160	0xbdcb94f7	-0.09940522
161	0x3cb38cfb	0.02191781
162	0xbe7cdc92	-0.24693516
163	0x3c8d8b42	0.017278317
164	0xbe4925c8	-0.19643319
165	0xbea0c147	-0.3139746
166	0xbe902ef6	-0.28160828
167	0x3d00c2f2	0.031435914
168	0x3de9ae96	0.11410253
169	0xbdb70c38	-0.089378774
170	0xbe01689a	-0.12637559
171	0x3d3adeb7	0.045622554
172	0xbc241959	-0.010015809
173	0xbe08e1ad	-0.13367338
174	0x3ea78143	0.32715806
175	0xbe571f7e	-0.21008107
176	0xbe7e81da	-0.24854222
177	0xbe3c44ce	-0.18385622
178	0xbef89fac	-0.4855932
179	0xbe644b24	-0.22294289
180	0x3e050a27	0.12992154
181	0x3d4ca0af	0.049957927
182	0x3d74fa1d	0.05980884
183	0x3e3c322b	0.18378513
184	0x3cedd656	0.029032867
185	0x3e92f547	0.28702757
186	0x3cde1118	0.02710776
187	0x3c9e9397	0.019357486
188	0x3e559265	0.20856626
189	0xbd9288c9	-0.07154996
190	0x3e33cc8c	0.17558497
191	0x3d94b15a	0.072603896
192	0x3ea074bb	0.31339058
193	0x3daa69be	0.0832095
194	0xbe53ceac	-0.20684308
195	0x3c871be2	0.016492788
196	0xbe5b9378	-0.21442974
197	0xbcb4bece	-0.022063639
198	0x3db12213	0.08649077
199	0xbe2e5685	-0.17025192
200	0xbe356e72	-0.17717913
201	0x3df56d6c	0.11983761
202	0x3e245b66	0.1605049
203	0xbdea404a	-0.114380434
204	0x3e2424f2	0.16029719
205	0x3da8327a	0.08212753
206	0x3da30a57	0.079609565
207	0x3c08f780	0.00835979
208	0x3e815154	0.2525736
209	0xbdda8016	-0.10668962
210	0x3e4f23e6	0.20228538
211	0xbdbb890a	-0.091569975
212	0x3e9191ac	0.2843145
213	0x3e870d71	0.26377442
214	0x3dad2ab8	0.084554136
215	0x3d4eb71e	0.050467603
216	0xbdadbab1	-0.08482874
217	0xbde7a836	-0.113113806
218	0x3b6e2587	0.0036338286
219	0xbd91f208	-0.07126242
220	0x3d0f281e	0.034950368
221	0xbb8f437e	-0.0043720594
222	0xbe4a6b2a	-0.19767442
223	0xbe4d1249	-0.20026506
224	0x3e340633	0.1758049
225	0xbdb00352	-0.08594383
226	0xbdb1119d	-0.086459376
227	0x3d92edac	0.071742386
228	0x3e561489	0.20906271
229	0x3cc99f41	0.024612071
230	0x3ee40902	0.44538122
231	0x3e383a26	0.17990932
232	0xbc3b23fb	-0.011422153
233	0x3ed986de	0.42485708
234	0xbd656061	-0.056000117
235	0x3c9a4647	0.018832339
236	0x3d418b1b	0.047251802
237	0x3d431328	0.04762569
238	0x3c92213b	0.017838111
239	0x3e1f2810	0.15542626
240	0xbd26f4f3	-0.040760946
241	0x3e93e45d	0.28885165
242	0xbc76d9c5	-0.015066569
243	0x3d028933	0.031869125
244	0x3cfb481f	0.030674038
245	0x3e5f9e14	0.21837646
246	0x3c84ca59	0.016209768
247	0x3b912877	0.0044298726
248	0xbe659c73	-0.22422962
249	0x3e7f3711	0.2492335
250	0x3d3b2dc6	0.04569795
251	0xbd067209	-0.032823596
252	0xbcca710a	-0.024712104
253	0x3dad02e4	0.08447817
254	0xbea487e3	-0.32134923
255	0x3d3aeb6f	0.045634683

layer3.bias f4 [4]
0	0x3d69e1ef	0.057100233
1	0x3d6e5e68	0.0581955
2	0x3d496123	0.049164902
3	0x3d7828e2	0.060585864
