models/model_final/nets/50_policy_net.pt (torch, 58884 bytes, 6 tensors)

layer1.weight f4 [128, 9]
000000 b3 4e bb bd 22 d6 04 3e ed 2e 46 bd 45 2a 21 bd
       -0.0914587 0.1297231 -0.048384596 -0.039346952
000010 64 7e 8d be a9 85 5a 3e d2 a0 a0 bd ea 79 bc 3d
       -0.2763549 0.2134005 -0.07843174 0.09202941
000020 26 1b 08 3e 2f be 01 3e 20 69 88 3d 1e c5 c7 3d
       0.13291606 0.12670206 0.06660676 0.09754394
000030 61 6b a7 bd 26 a8 43 3d 54 03 a4 be 95 6d d0 bd
       -0.08174778 0.04776778 -0.3203379 -0.10177151
000040 f4 a7 26 bc f6 d2 27 3d 73 eb 23 bd 37 8a 18 3e
       -0.010171879 0.040972672 -0.040019464 0.14896475
000050 91 d0 a6 bd 98 6d 05 3d ee 7f 8c be 7f bf 94 3e
       -0.0814525 0.03257522 -0.27441353 0.2905235
000060 20 c8 92 3d 9a 8d 82 3d 1d 54 16 be e5 ea f6 bb
       0.07167077 0.063746646 -0.14680524 -0.007535326
000070 64 d3 ea 3d 8e a9 93 bc e3 ec 99 bd e9 70 00 3e
       0.11466101 -0.018025186 -0.07515886 0.12543072
000080 a2 4d 1a bd 16 d2 dc bd ae c7 6f 3d 3c 0c 2d 3e
       -0.037671693 -0.10782258 0.05854004 0.16899198
000090 f4 78 4d 3d 72 31 69 bd 8f f8 be bd a1 17 c9 bc
       0.050164178 -0.05693192 -0.093247525 -0.0245474
0000a0 3c 07 2e 3e ab 9f 0b be 04 91 a3 bd c7 23 1e 3e
       0.16994947 -0.13635127 -0.07986644 0.15443335
0000b0 36 84 52 be 1e 1c 95 bd 63 3b 4a 3c db 2c b7 be
       -0.20558247 -0.072807536 0.01234326 -0.3577641
0000c0 38 43 78 3d 37 0c b7 3e cd 07 f8 3d db b3 73 bc
       0.06061098 0.35751507 0.12110863 -0.014874424
0000d0 07 42 d8 bc e7 d7 27 bc c9 46 04 be fa 44 3e bd
       -0.026398672 -0.010244346 -0.12917627 -0.0464525
0000e0 c1 4d 35 bc e9 5a 32 3d f4 c2 1a be c6 09 03 3e
       -0.011065901 0.04354373 -0.15113431 0.12796697
0000f0 b3 cd a6 3d 50 74 0a be 82 7b 82 bd ce 8d e2 3d
       0.08144703 -0.13520932 -0.063712135 0.11062203
000100 55 c1 95 3d de 57 be bc 8f aa 8f 3c dc 6f 3f 3e
       0.07312266 -0.023235258 0.017537383 0.18695015
000110 04 60 35 bd d7 b2 73 be 61 20 eb bd 2c 54 f1 bd
       -0.04428102 -0.2379869 -0.11480785 -0.11783633
000120 a6 0b b7 3b 06 de f6 3d 95 77 72 be b8 2d b9 3d
       0.0055861054 0.12054066 -0.2367843 0.09041923
000130 84 61 0d 3e 6d eb d8 be 0c c2 92 3c f4 01 f6 3c
       0.1380673 -0.42367116 0.017914794 0.030030228
000140 fe 38 37 bd d4 d7 3b 3c 9e 09 3f be f4 4f 75 bd
       -0.044732086 0.011465032 -0.18656012 -0.059890702
000150 3c 58 0a 3d c0 39 62 3e 4f 7a da 3e 1b cc f3 bc
       0.033775553 0.22092342 0.4267144 -0.029760411
000160 1e 02 99 bc 4b 33 06 3d 15 3f 35 bd 99 9f 00 be
       -0.018677767 0.03276376 -0.044249613 -0.12560882
000170 3f d8 d5 3d 9b b4 22 3c ca 41 43 3d e4 df b0 3e
       0.10441636 0.009930755 0.047670163 0.34545815
000180 c3 11 2f 3c 9a 3c aa 3c 72 df a6 bb 7d a1 0b 3d
       0.010685387 0.02078085 -0.0050925547 0.034089554
000190 2d 0d 39 3d e6 46 91 bc 5f 33 0e bc a5 d2 8a be
       0.04517858 -0.017734002 -0.00867924 -0.27113834
0001a0 25 c0 09 3e 68 1b 2b be 21 ec d5 3d f3 de 4c bd
       0.13452204 -0.16709673 0.10445429 -0.05001731
0001b0 79 fd 98 3c 66 10 db 3d 07 be cc bd 09 7e 84 bd
       0.018675553 0.10696487 -0.09997182 -0.06469352
0001c0 a2 c3 b9 3d 9c b4 a6 be ef c8 f4 3d f9 58 2f bd
       0.09070517 -0.3255967 0.119523875 -0.04280946
0001d0 83 69 80 3d 3d 9c 3c 3d ea 4b 5b bc 66 ac 88 bd
       0.06270125 0.046047438 -0.013384799 -0.066735074
0001e0 60 fa a0 b8 0e b8 8b bc 9f 1e b5 3e b0 85 0f 3b
       -7.6760305e-05 -0.017055538 0.35374925 0.0021899752
0001f0 9e ed bd bd a8 31 ff bb e9 6a 04 be 0f 99 16 3d
       -0.092738375 -0.007787902 -0.12931408 0.03676706
000200 1e 60 d5 3d a2 2c 24 3d 86 19 fc bd 6a 02 ac 3d
       0.104187235 0.040081628 -0.12309556 0.08398898
000210 80 b4 05 be 29 42 0a bd 09 cb 61 3c 7d a6 53 bd
       -0.13057137 -0.0337545 0.0137813175 -0.051672447
000220 89 a3 09 3c 8c 36 c6 bd e8 7a 35 bc a7 b8 b0 3e
       0.008400806 -0.09678373 -0.011076666 0.3451588
000230 b3 57 14 3d 5d d0 84 bc d4 18 99 3d ce 25 1c be
       0.03621645 -0.016212637 0.07475439 -0.15248796
000240 f8 43 9e 3d 76 57 93 3d 72 ea 27 be 36 cb a9 3c
       0.07727808 0.07194416 -0.16398028 0.020726781
000250 9b 68 b8 bd 7d b3 a4 3e 23 d0 00 3d e8 e9 94 bd
       -0.09004327 0.3216819 0.031448495 -0.072711766
000260 f6 83 aa 3c 9f 29 2c bd 64 f9 e7 3c 0a 3e 4b 3d
       0.020814877 -0.04203188 0.02831716 0.049619712
000270 7b 0c ec bd 10 ee 44 3e 25 81 4d be 9d 05 e9 3a
       -0.11525818 0.19231439 -0.20068796 0.0017778162
000280 e0 08 29 3d 5d 61 00 3e 19 74 3d 3e 6b 6a 24 be
       0.04126823 0.12537141 0.18501319 -0.1605622
000290 f9 74 fc bc 0b ba df bc 46 15 42 be ed 95 5e bb
       -0.030817496 -0.027310392 -0.18953428 -0.0033963874
0002a0 e9 6f 9c bd ac dd e4 3d ee d6 ba bd 09 d5 27 3e
       -0.07638533 0.11175093 -0.09123026 0.1638986
0002b0 ea f0 72 bd f0 48 93 be e5 01 b9 bd f8 34 83 3d
       -0.059311785 -0.28766584 -0.090335645 0.06406587
0002c0 c1 80 a9 bd 01 90 db bd c4 dd 54 3d f7 83 cd 3d
       -0.08276511 -0.10720826 0.051969305 0.10034936
0002d0 1b c9 28 bd 28 2b 9b 3d 11 e2 90 be 69 cd 62 be
       -0.041207414 0.07576591 -0.28297475 -0.2214867
0002e0 e7 15 83 bc 8b ac 03 3e be 68 f3 3c 3d 6f 2a 3d
       -0.016001655 0.12858789 0.02971303 0.04160999
0002f0 7a 58 f3 3b 1c b3 e0 ba 89 f8 c7 bd cb 52 96 bd
       0.0074263187 -0.0017143223 -0.09764201 -0.0734001
000300 9e 19 70 3d c6 b6 a2 be df 54 ba bc a3 9a 0e 3e
       0.05861818 -0.3178007 -0.022745548 0.13926177
000310 84 d2 87 3d e1 b7 0c be 6e 41 35 3e 7b 03 8b 3d
       0.066319495 -0.13742019 0.1770074 0.06787773
000320 8f e5 4c be 0e b4 a2 bb a6 3f 96 be de e6 a5 be
       -0.20009445 -0.004965312 -0.29345435 -0.324027
000330 a3 ee 23 3d 40 18 be bd 79 c8 a3 3d 6c 20 53 bd
       0.040022504 -0.09281969 0.079972215 -0.05154459
000340 6e 2d d8 3d 8b b9 14 3d 8b 68 03 be 7c 7f b1 3d
       0.1055554 0.03630976 -0.12832849 0.08666894
000350 17 cb a3 bd 9c b5 a6 bd 79 5a b8 bd 7f d8 58 be
       -0.07997721 -0.08140108 -0.09001631 -0.21176337
000360 be 28 9d 3c 4e d0 33 3e 5a 3e 15 3c 27 1d 8d bc
       0.019184466 0.1755993 0.009109104 -0.017225815
000370 89 ab ca be e3 ff 52 be 4a 61 3d bc a2 45 6d 3d
       -0.39583996 -0.20605426 -0.01155884 0.057927735
000380 1b ee b8 3c 79 8d 00 3e 92 b8 a3 3d 89 da 7c 3d
       0.022574475 0.12553968 0.07994188 0.06173185
000390 74 fe 3c 3e 7f ea 30 3e 1c 54 8d bd 0f 1a 04 be
       0.18456441 0.17276953 -0.06900808 -0.12900566
0003a0 4a e5 0c be 37 da c2 3d e7 23 5d bd 1b 29 9e bd
       -0.13759342 0.095142774 -0.053989317 -0.07722684
0003b0 27 65 c4 bd 11 17 8d bd ec 2f f1 bd 85 ef 5b 38
       -0.09589606 -0.06889165 -0.117767185 5.243674e-05
0003c0 3c 9f e9 bd 21 73 11 bc 63 01 94 bd 61 58 e5 bd
       -0.11407325 -0.0088775465 -0.07226827 -0.111984976
0003d0 85 f9 ee 3d 01 98 6f bc 9d e5 3f bd 68 72 da 3d
       0.11668686 -0.014623643 -0.046849836 0.106663525
0003e0 79 66 1f be b8 de 22 3d 72 c7 86 be b2 dc 37 3e
       -0.15566434 0.039763182 -0.2632404 0.17955282
0003f0 e4 6a df 3d b9 e6 da bd 45 59 33 be 84 2f 0f bc
       0.1090906 -0.10688538 -0.17514522 -0.008739356

layer1.bias f4 [128]
000000 c5 19 5a 3c cd c6 a3 3c d7 94 c3 bd 9a 9e c9 bd
       0.013311808 0.019992257 -0.09549873 -0.09844704
000010 6b 79 dc 3d 10 39 40 bd 16 49 3c 3d 52 1e 7f 3d
       0.10765346 -0.04692942 0.045968138 0.062284775
000020 95 51 33 3d 15 f6 17 be b5 32 a3 bd 21 07 22 3e
       0.043778975 -0.14839967 -0.07968656 0.15823032
000030 f1 98 09 bd f2 fb b2 bd a8 04 0c be ba fa d8 bc
       -0.033593122 -0.08739461 -0.13673651 -0.026486743
000040 43 f9 e9 bd da 6e 13 bd d6 1e 7c bd d2 be d0 bd
       -0.11424496 -0.03599439 -0.061552845 -0.10192646
000050 eb 5b 80 3d 0a 82 e8 3d 34 e7 1f 3e 78 47 eb ba
       0.06267532 0.11352928 0.1561554 -0.0017950376
000060 22 84 83 bd 75 b0 d8 bd fd 4d 06 be 06 4e d0 3d
       -0.06421687 -0.105805315 -0.13115688 0.10171132
000070 ce 54 d1 3d 06 a2 95 3d 4b dc c4 3c 32 07 80 bd
       0.10221253 0.07306294 0.024030825 -0.062513724
000080 49 c4 5c 3e 4c 05 ec 3c e4 35 04 bb 97 fe dd 3d
       0.21559252 0.02881112 -0.0020173723 0.10839575
000090 ca 5a 84 3e 78 95 d2 3b b8 f1 cd 3d 89 8e 95 3d
       0.25850517 0.0064265095 0.1005587 0.07302577
0000a0 3c c6 4a 3d a3 da 21 3e 00 76 44 3d 6f 7c b4 bd
       0.049505457 0.1580606 0.047964096 -0.08812796
0000b0 52 c0 b0 3d 28 69 2c 3d 33 3a 7d bd 94 d9 cf bd
       0.08630432 0.042092472 -0.06182308 -0.101489216
0000c0 be 8a 58 3d f4 e0 41 bd c9 19 b9 3d 70 b2 ea 3d
       0.05286669 -0.047333673 0.09038121 0.114598155
0000d0 b5 fb 26 3d 53 a3 0c 3e f3 f9 0a be 36 7d ab 3c
       0.04076739 0.13734178 -0.1357191 0.020933729
0000e0 8d 3b ea 3d 23 53 4f 3e eb a5 17 be bb 8d 41 be
       0.1143714 0.20246558 -0.14809386 -0.18901722
0000f0 ba c1 5f 3d 27 1f 85 bd d6 18 7d bd 17 0c 93 bd
       0.05462811 -0.065000825 -0.061791264 -0.0718004
000100 97 0e f2 bc 73 89 29 bd 80 d1 45 3d d1 ee cb bd
       -0.029547973 -0.041390847 0.048295498 -0.0995766
000110 80 f3 38 3e db 63 71 bd b0 a1 60 be c5 af 9b 3c
       0.18061638 -0.05893312 -0.21936679 0.019004712
000120 0e 9c e2 bc a0 29 8e bd 29 a1 55 3e f6 91 0b 3b
       -0.027662303 -0.06941533 0.20862259 0.0021296716
000130 75 18 6e bd d5 40 93 3d 4d 8c d2 3b de 85 0f be
       -0.058128793 0.071901 0.0064254166 -0.1401591
000140 f4 c0 05 bd 20 78 c6 bc bd fc 75 3d 2f 3b c6 3d
       -0.032654718 -0.024227202 0.060055483 0.09679257
000150 7a 61 a2 bc 41 3e 19 be 90 91 55 3d f9 28 49 3e
       -0.019821871 -0.14965154 0.052140772 0.19644536
000160 92 01 8e 3d 89 ce 3b 3c 1b ed ae 3d c0 36 ff 3d
       0.06933893 0.011462816 0.08541318 0.124616146
000170 c9 4c 07 be 37 03 30 be c0 77 13 3e f9 a8 c8 bd
       -0.13212885 -0.17188726 0.1440115 -0.09797854
000180 cc 85 82 bd c7 91 83 3d d6 3a 22 3d 71 43 4e be
       -0.06373176 0.06424289 0.03960689 -0.20142914
000190 84 3f 9b bd ab 49 84 bd 2f 6f 6b 3d 88 85 80 bd
       -0.07580474 -0.064593635 0.05747908 -0.06275469
0001a0 18 6a e0 3d 43 b5 b8 bd 05 79 86 ba ba cc 2a bc
       0.10957736 -0.09018948 -0.0010259455 -0.010424787
0001b0 d0 6d 1b 3d 8f 2c 51 bc a7 8d 05 3e 05 76 fe bd
       0.037946522 -0.012766971 0.13042317 -0.12424854
0001c0 91 b8 00 bd 25 39 fe 3c 8a 27 af 3d 84 8b b4 bd
       -0.031426016 0.031033108 0.08552463 -0.08815673
0001d0 bc 8c 21 3e 98 1c 21 3e b3 32 07 3c dc ea 9a 3b
       0.15776342 0.15733564 0.008251834 0.0047277045
0001e0 1d 16 01 3d a3 d6 da 3c 35 36 52 bd bc 98 3e bd
       0.03151523 0.026713675 -0.051321227 -0.046532378
0001f0 14 e6 58 bd 1c 9f 63 be 48 63 3c bc 33 bc 2a 3e
       -0.052953795 -0.22228664 -0.01149828 0.16673355

layer2.weight f4 [96, 128]
000000 63 08 bd bc 67 be 2e 3d 1d 40 06 3c 82 10 bc bd
       -0.023075288 0.04266205 0.008193997 -0.09182836
000010 8c 9d e9 3d 50 d5 c7 3c 6f 2d 1d 3e 6e eb 84 bc
       0.11407003 0.024393708 0.15349363 -0.016225543
000020 df 1a 8f bc e8 3f 96 be fc d1 39 be 33 d7 02 bc
       -0.017468868 -0.29345632 -0.18146509 -0.007985878
000030 09 92 cb bd 4e ed 2b 3d 1f 54 f7 3c ea 4b 00 bf
       -0.09939963 0.04197436 0.03019148 -0.50115836
000040 14 5e fc bc d9 0c 8c be 06 3d 2b be 8c 7d f6 bd
       -0.030806579 -0.27353552 -0.16722497 -0.12035665
000050 ff 27 3b 3c a3 fe 08 3e 19 a0 a8 3c 56 f6 92 3d
       0.01142311 0.13378386 0.020584153 0.07175891
000060 4e 59 25 bf da f5 12 bd 93 b6 be bc 7c ad da 3c
       -0.64589393 -0.035878994 -0.023280418 0.026694052
000070 df 44 60 3b d0 ea 3f 3d 55 84 9c ba 02 d7 44 bd
       0.0034220738 0.046854794 -0.0011941293 -0.04805661
000080 2c ac d8 bd 56 83 5d 3d 79 99 94 3d 54 99 30 be
       -0.10579714 0.05408033 0.07255835 -0.1724599
000090 68 65 bc be 60 7f 35 3d 3a c7 99 be 45 39 3b bd
       -0.36796117 0.044310927 -0.3003481 -0.045708913
0000a0 6a 51 9b 3d f2 e4 89 bd b4 54 14 be 16 5d 1e bd
       0.07583888 -0.06733121 -0.14485437 -0.038662992
0000b0 b8 f4 f2 bc 4d 85 0a 3d 42 68 df bd bb 1a b2 3d
       -0.029657707 0.03381853 -0.109085575 0.08696505
0000c0 b3 ad 82 bd 5b 89 12 bd ea 06 3f 3c 29 41 25 3d
       -0.06380787 -0.035775524 0.011659363 0.040345345
0000d0 18 1a b8 3c d1 4c 2a be df 4f f9 3c 76 ba 5e bc
       0.02247338 -0.16630866 0.030433593 -0.01359426
0000e0 82 8d 11 3d 6d 8c cc 3d ce 53 16 3c 92 ef f2 be
       0.035535343 0.099877216 0.009175254 -0.47448403
0000f0 ba 59 dd be 08 df 32 bd 01 5d 8e 3c 24 4c c2 3d
       -0.43232518 -0.04366973 0.017378332 0.09487179
000100 fb ce ff 3d 9b 59 54 be 0f 48 96 bb 6d 98 c7 bc
       0.1249065 -0.20737307 -0.004586227 -0.024364674
000110 33 0a ac bc 31 21 fa bd e5 e3 95 bb ec ce 19 3c
       -0.021000957 -0.12213362 -0.0045742863 0.009387713
000120 6a cb f5 3c e6 30 a0 3d 68 46 71 bd 36 2f 63 be
       0.030004222 0.07821827 -0.058905035 -0.22185978
000130 0c f2 bd bd a1 ce 1b bc 0e 99 4b 3b 77 a0 f6 bc
       -0.092746824 -0.009509713 0.003106657 -0.030105812
000140 6a 64 19 3c 19 64 23 3d d0 49 85 bc 9f c3 44 3b
       0.0093623195 0.039890382 -0.016270548 0.0030023826
000150 6b 81 3b 3d 24 71 9a 3d e9 27 78 bd e5 80 3a 3c
       0.04577772 0.07541111 -0.060584936 0.01138327
000160 11 1e 80 3c 0c e0 1b 3c 12 1e c5 be 34 66 41 3d
       0.015639337 0.009513866 -0.38499504 0.04721661
000170 8f 80 6c be 5c fb 32 be bd 51 57 bc a9 1d 0a bd
       -0.23095916 -0.17478698 -0.0131420465 -0.033719692
000180 bc 99 a3 3c b9 9e 30 3e 66 1f bb 3d ec b5 91 bc
       0.019970767 0.17248048 0.09136848 -0.017786942
000190 b9 71 4b 3d c8 3f f6 bc eb 8d c2 bc e1 6d 58 bd
       0.049669 -0.03005971 -0.023749312 -0.052839164
0001a0 7f 6b 61 bc b0 3a f8 bd 9b 11 98 bd b5 be d0 bc
       -0.013758539 -0.12120569 -0.07425233 -0.025481561
0001b0 38 e4 26 3d 1f fa 6a 3d 5d 63 2f 3e 96 2e 01 be
       0.04074499 0.05736744 0.17127748 -0.12615427
0001c0 fe a5 bf bc af e2 8f bd ff be ef bd 94 b7 24 bd
       -0.02339458 -0.07025658 -0.117063515 -0.040214136
0001d0 ab 8e cb bd 76 1d 6e be b7 ec 0f 3e 4c a6 6a bb
       -0.09939321 -0.23253426 0.14055143 -0.0035804687
0001e0 a2 8a 9a 3d e3 ba d2 bc 06 ba cd bc 80 63 a2 3c
       0.07545973 -0.02572388 -0.025113117 0.019822836
0001f0 90 5b 9a be ca cf 8f be d4 6f 1a 3d 82 de b6 bd
       -0.30147982 -0.28088218 0.037704304 -0.08929159
000200 2a 7c 73 bd 53 97 8d bd 0a ed ce bd 11 21 00 bd
       -0.059444584 -0.069136284 -0.10103805 -0.031281535
000210 44 97 b5 3d 46 c9 4d 3c 45 c5 92 bc f3 e4 d6 3c
       0.08866742 0.012560194 -0.017916331 0.026232218
000220 34 f4 b3 38 90 e3 8f 3d d8 d1 e3 3b 20 77 1f bd
       8.5808715e-05 0.07025826 0.0069525056 -0.038931966
000230 68 21 0d 3d c6 76 9a 3d ed 66 63 3b 91 2c 18 3e
       0.034455687 0.075421855 0.00346988 0.1486075
000240 4c fa eb bb 03 19 00 3d c8 c1 06 3e ef 88 75 3d
       -0.0072014686 0.031273853 0.13159859 0.059945043
000250 2d 46 2b bd a5 d5 a3 3c 38 c3 7e 3b 88 0d b9 3d
       -0.04181497 0.019999335 0.0038873684 0.09035784
000260 00 ba 5b be 4c 95 9c 3d 12 ce 66 bb e7 8a de bd
       -0.21457672 0.076456636 -0.0035218042 -0.10866337
000270 48 67 f2 ba 32 3f 26 3d 48 bb 46 bd e5 b9 3b bd
       -0.0018493915 0.04058761 -0.04851845 -0.04583158
000280 41 76 a0 bd 3d 66 93 3d a9 78 8f b8 12 a1 4a 3a
       -0.07835055 0.07197235 -6.841246e-05 0.000772969
000290 1a 24 0e bc 57 01 a9 bc 5b 94 1f bc 49 55 ca 3c
       -0.0086755995 -0.020630522 -0.009739961 0.02469887
0002a0 2e 14 d0 bc b6 5b 88 bb a7 ee 84 3b 7f 8b b9 ba
       -0.025400247 -0.0041613234 0.00405677 -0.0014155953
0002b0 9e 6e d5 bb 70 d8 da 3c 2d bc b4 bd d2 20 d4 3c
       -0.0065134307 0.026714534 -0.08824954 0.025894556
0002c0 df f6 0a 3a 4e 1c 29 3d 0b 0a 15 3d a7 90 ed bd
       0.0005301069 0.04128676 0.03638653 -0.11599856
0002d0 06 48 31 bd 66 4e c6 3d ed b8 db 3c da bf af 3c
       -0.043281578 0.09682922 0.026821578 0.021453787
0002e0 66 a6 8d bc d4 27 9e bd 51 4f 38 3d fc 99 75 3c
       -0.017291259 -0.0772244 0.044997517 0.014990326
0002f0 4b 9c a9 3d 05 37 b9 3c bc 64 87 bb 78 1a 19 bc
       0.08281764 0.022609243 -0.0041318815 -0.00934469
000300 77 6f bc bd 8f 0c 13 be d9 a7 00 3d 8c d6 52 bc
       -0.09200948 -0.1436026 0.031410072 -0.012868535
000310 5f 2d e1 3c f4 4c e5 3c b3 34 11 3d db 6f 11 be
       0.027487455 0.027990796 0.03545065 -0.14202826
000320 c3 0f 1e bd 7d 94 38 bd c6 5f 66 bd c4 8f 8c bd
       -0.03858925 -0.045063484 -0.05624368 -0.068633586
000330 86 44 01 be a3 49 9a 3c c4 fb 71 3c b9 4d 34 bd
       -0.12623796 0.01883394 0.014769498 -0.044019435
000340 68 d4 38 bd 4e 0e 90 bb a7 85 cc bc 4b e4 cd bc
       -0.04512444 -0.0043962365 -0.024966074 -0.025133273
000350 6c b6 f9 3c 7a 16 23 bd 40 2a 2b bd 65 f9 f1 bd
       0.030482493 -0.039816357 -0.04178834 -0.11815146
000360 4d 8c 4a 3c c2 80 68 3e 9b 99 be 3c 31 db 1c bd
       0.012362552 0.22705367 0.023266604 -0.038294975
000370 4d b3 32 3c e7 c6 88 3b d7 aa 20 bc be 97 5b bd
       0.010907006 0.0041741016 -0.009806356 -0.05361151
000380 a7 ab 24 3d 78 12 03 3e ac 2f 56 bd 0e 0e 8c 3c
       0.040202763 0.12800014 -0.052291557 0.017096546
000390 8d a3 5a 3c 66 71 54 3b bc af ae 3d c7 29 96 bd
       0.013344658 0.0032416224 0.085296124 -0.07332187
0003a0 9b 77 9a 3c ba c7 fb 3b ae c0 36 3c c3 f1 cd bc
       0.01885586 0.0076837214 0.011154337 -0.025139695
0003b0 b5 ba b5 3b 72 70 73 bb fe 01 e4 bc 59 2d 0d 3d
       0.005545939 -0.003714588 -0.027832981 0.034467075
0003c0 5d 92 07 3d 92 08 08 bd 00 d0 99 3c ef 91 af 3d
       0.033098567 -0.0332113 0.01877594 0.085727565
0003d0 8f 32 88 3c 0f 87 30 3d 07 7e 54 bc eb 8d 11 3d
       0.01662567 0.043097552 -0.0129695 0.035535734
0003e0 07 cf 86 bd a2 4f 7f 3d a8 21 0f bd 80 48 d6 3b
       -0.06582456 0.062331803 -0.034944206 0.0065394044
0003f0 fe 62 b3 bd 4e 1a 43 be 53 7e 23 3c d8 e5 56 3c
       -0.08759116 -0.19053003 0.0099788485 0.013116322

layer2.bias f4 [96]
000000 e3 0c bd 3c 5a 93 e9 bb aa d5 c8 3a 1b f0 8e 3c
       0.023077434 -0.0071281614 0.0015322466 0.017448476
000010 d0 8e a8 bc 42 76 0c bd 33 c6 d5 3d a0 48 89 bb
       -0.02057591 -0.034292467 0.10438194 -0.004189566
000020 50 f6 3f 3d 86 95 88 3c 98 f9 64 3b 62 5b c9 3c
       0.04686576 0.01667286 0.0034938809 0.024579708
000030 6a 38 6f bd 02 92 4d bd d0 1b b4 3c c6 97 56 bc
       -0.05840341 -0.050188072 0.021985918 -0.013097709
000040 cd 1a aa bc 00 a9 99 3c 74 58 8a ba 99 01 ef bb
       -0.020764733 0.018757343 -0.0010554926 -0.0072938916
000050 d1 ae 1a 3c 4d f4 a9 bc 3d 13 80 3c 8d 13 c2 3c
       0.009441094 -0.020746375 0.015634174 0.023690963
000060 20 e5 ce 3c 44 6f 01 3d 7d 4a 0a bc e0 ab f5 bc
       0.02525574 0.03160025 -0.008440611 -0.029989183
000070 55 f0 12 bb fd 20 f1 ba 71 23 29 bd 11 77 62 bb
       -0.002242108 -0.0018396672 -0.041293565 -0.0034555832
000080 1a a7 74 3c 7e 9f 2f 3c 98 b6 0a bd 03 b3 19 bd
       0.014932418 0.010719178 -0.03386554 -0.037524235
000090 c9 b9 09 bd 12 4f 84 3d 85 da 34 3d 4f 62 ac bc
       -0.033624444 0.06460394 0.04415371 -0.021042971
0000a0 ac 8d 49 bc 73 38 14 3c 5a dd d0 bc a8 0a cc bc
       -0.012301844 0.009046662 -0.025496174 -0.024907425
0000b0 ea dc 63 bb 86 9d 95 3c 5b 07 02 3c 91 e3 04 3d
       -0.0034769126 0.01826359 0.007936324 0.032443587
0000c0 8e b9 e2 bc 70 e6 1c 3c 4f 18 17 3c c3 33 31 3d
       -0.02767637 0.009576425 0.009222104 0.043262254
0000d0 a0 25 83 3d 20 41 50 3d 64 83 1e 3d 02 66 43 3d
       0.06403661 0.050843358 0.038699523 0.047704704
0000e0 3d b0 70 bc 34 47 05 be 6f b9 94 3d d0 20 6b bc
       -0.014690456 -0.13015443 0.07261931 -0.014351085
0000f0 11 fa 34 3c 6c c6 35 bc ef c9 12 3d 40 11 b6 3c
       0.011045949 -0.011094671 0.03583711 0.022225022
000100 f7 81 ea bb f2 32 ea 3c c8 7b b9 3c d7 93 0e 3a
       -0.0071566063 0.028588746 0.022642031 0.00054389
000110 2d 3b 31 3c b3 dd 97 bb 86 72 38 3d 5b 2d 83 3d
       0.010817331 -0.004634583 0.045031093 0.06405135
000120 6a 1e 85 3d 68 03 6a bc 3f 40 22 bc 9a cf ea bc
       0.06499942 -0.014283039 -0.009903013 -0.028663445
000130 d3 e9 88 3d cf d7 14 bc f3 35 06 3d a7 01 e4 3b
       0.066852234 -0.009084656 0.032766294 0.006958205
000140 bf 60 b6 ba 45 17 9e bc 2d dc 07 3d 9b 99 dd bc
       -0.0013914331 -0.019298205 0.03316896 -0.027050784
000150 d3 bb 27 bd 97 eb 01 bd d7 d4 cd 3b a5 31 a3 3c
       -0.040950608 -0.031718817 0.006281476 0.019921133
000160 4e d8 4a 3d 20 a8 29 3d a3 8e 20 3d ea 77 fb 3c
       0.04952269 0.041420102 0.03919853 0.030696828
000170 68 9d 02 bd e5 93 b5 bc ba 13 eb 3c e5 d5 2d 3d
       -0.031888396 -0.022165248 0.02869593 0.042440314

layer3.weight f4 [4, 96]
000000 a8 a7 9c 3e 57 9b bf 3d 94 26 4b be e0 97 4d 3d
       0.30596662 0.093558006 -0.19838935 0.050193667
000010 da c4 95 be 90 e0 90 bd d6 59 b2 3d 4a 25 43 be
       -0.29251748 -0.07074082 0.08708541 -0.19057193
000020 b2 32 89 be e9 7e 1a 3e 9b 9d 6a 3e 3e a5 92 bd
       -0.2679649 0.15087475 0.22911684 -0.07160424
000030 80 d4 a6 3e b8 c4 07 3e db 22 f1 3d 5e 34 9d 3c
       0.32584 0.13258636 0.11774226 0.01919001
000040 08 1e 9d 3e 4c 47 22 be dc 82 5b 3e 96 e0 b4 bd
       0.30686975 -0.1584751 0.21436638 -0.08831899
000050 42 53 82 3e 5e 37 4b 3e e2 f2 bf 3d 05 94 10 3d
       0.25454146 0.1984534 0.09372498 0.035297412
000060 3a db 5d 3e bf 0c 10 be 74 f8 d1 3e 07 f6 c5 bd
       0.2166566 -0.14067362 0.41009867 -0.096660666
000070 81 c8 31 3d b6 05 a5 3a 77 13 96 be a6 e8 9a be
       0.043404106 0.0012590203 -0.29311725 -0.30255622
000080 17 f1 3f 3e 02 49 41 be d8 2e 06 be 82 91 f3 3d
       0.18744312 -0.18875507 -0.13103807 0.11892988
000090 49 92 86 3e 06 0c 77 3d 86 17 01 3f 14 2f 66 3e
       0.26283482 0.0603142 0.5042652 0.22478896
0000a0 ec 92 29 bd 4b 34 df 3e 73 46 a6 bc 65 b6 e1 3c
       -0.04139988 0.43594584 -0.020297265 0.027552793
0000b0 62 4a 17 3d 4d cf 8b 3c 7c 92 a2 3c e8 47 78 3e
       0.03693617 0.017066622 0.01984524 0.2424618
0000c0 59 f5 45 3d 4c 58 7a 3e a5 1d 4c 3c d4 ea 7a 3d
       0.048329685 0.24447745 0.01245824 0.061259106
0000d0 aa cd 61 3d bc c0 52 3e e5 d7 69 3d 35 e6 13 3d
       0.055127777 0.20581335 0.05709066 0.036108214
0000e0 a0 3f 8e be f6 54 c4 3e e9 05 aa 3d 0f 2b c0 bc
       -0.27782917 0.3834607 0.083019085 -0.023458032
0000f0 e1 e8 6a bd a1 de 91 3d f0 eb c9 be 34 db 2e 3c
       -0.057350997 0.07122541 -0.3943782 0.010672379
000100 b0 bc ab bd a9 58 b9 bc f9 0a 95 be f9 f9 4f ba
       -0.08385599 -0.022625284 -0.29109934 -0.0007933672
000110 b3 e1 a4 3e a4 46 a4 be 36 6f b4 be df 72 fd 3c
       0.32203445 -0.32085145 -0.35241097 0.030938564
000120 63 9e c4 3d 61 b3 b6 bd b0 15 0e be 03 2f 16 bd
       0.09600522 -0.089209326 -0.1387546 -0.036665928
000130 44 a3 97 3d f3 d2 15 be a5 80 de 3e 8d d4 8c be
       0.07404187 -0.14631252 0.43457523 -0.27505913
000140 a8 a8 a3 be ce a4 1f be d2 86 ba be e0 84 a1 be
       -0.31964612 -0.15590212 -0.36430985 -0.31546688
000150 26 8a 33 3e 58 2e c6 3a 6c 97 f5 bd 57 32 6b 3e
       0.17533168 0.0015120013 -0.11991772 0.22968422
000160 2a 88 19 3d 7d e2 6a 3e 4c fb 63 3c eb 00 05 3d
       0.03748337 0.22937961 0.013914894 0.03247158
000170 21 3d 60 3e 96 35 d8 bd 1e 0e 23 3e e4 bc ce 3d
       0.21898319 -0.10557096 0.15923354 0.10094622
000180 3e 35 99 3e 21 c7 74 3d e1 9d 76 be 98 db 2e 3d
       0.29923433 0.059760217 -0.24083664 0.04268989
000190 eb 57 9e be 74 1b cb bd 7a db 9a 3d 66 e0 ae be
       -0.3092645 -0.09917346 0.07561393 -0.34155577
0001a0 2a 78 97 be 57 f3 5b 3e 67 cd 71 3e 7b ec b6 bd
       -0.29583865 0.21479546 0.23613511 -0.08931824
0001b0 91 8d b1 3e 46 6b 08 3e 5c 09 e0 3d 28 cc 3d bc
       0.3467832 0.13322172 0.10939285 -0.011584319
0001c0 07 47 d8 3e cf b5 72 be a1 23 6f 3e a0 e0 52 be
       0.4224169 -0.23702167 0.23353435 -0.205935
0001d0 41 4a 85 3e 41 59 d8 be 21 5a be 3d dd df 36 bb
       0.26033214 -0.42255595 0.092945345 -0.002790443
0001e0 d5 2c b9 3d ca 07 d9 bd b7 45 59 be 95 6f e8 bd
       0.09041754 -0.10597189 -0.21218 -0.113494076
0001f0 19 47 81 3d d2 d3 ed 3c b3 28 b7 be 6c f5 aa be
       0.06312389 0.029031668 -0.3577324 -0.33390367
000200 a1 b7 42 3e c4 20 3f be 1b 93 9a bd a5 c3 0a 3e
       0.19015361 -0.18664843 -0.075475894 0.13551195
000210 87 3e 88 3e a6 2e 8b 3d 13 40 0c 3f 86 0a 88 3e
       0.26610205 0.06796007 0.5478527 0.2657053
000220 88 b1 b2 bd 14 8a 33 be f0 03 ae 3c 15 90 e7 3c
       -0.08725268 -0.17533141 0.021242112 0.028266946
000230 38 de 83 3c f6 be 49 bc ee 34 a6 3d 44 c4 69 3e
       0.016097173 -0.012313595 0.08115564 0.22828776
000240 7b cd fb bc f8 98 97 3e 39 e5 c5 3c 34 2a ce 3d
       -0.03073763 0.29608893 0.024157153 0.10066643
000250 8d a7 51 3d 55 28 78 3e 28 fe 63 3d 8d bc 84 3d
       0.05118518 0.24234135 0.055662304 0.06481276
000260 4c 09 9d be 23 da e6 3e 52 c2 87 3d 38 ec a7 bd
       -0.30671155 0.450883 0.066288605 -0.08199352
000270 e5 1b 64 bd 5f 6e 0e 3d 1c b3 ef be 19 2a c3 3d
       -0.055690665 0.034773227 -0.46816337 0.09529514
000280 9f 7d af bd f5 33 3c 3d bc ca a4 be a5 4d 8a 3c
       -0.08568882 0.045947988 -0.32185924 0.016882727
000290 0e 2a 60 be ec ef e2 be 03 b0 bc be 44 2b 62 3d
       -0.21891043 -0.4432367 -0.36853036 0.055217043
0002a0 71 83 de 3d fb 59 e5 bd cd 34 f2 bd bc 72 07 3d
       0.10864914 -0.11198803 -0.11826477 0.033068404
0002b0 89 ce 21 3c dd 0a 0b be a3 87 dd 3e 21 c8 8b be
       0.009875902 -0.13578363 0.43267545 -0.27301124
0002c0 70 9a bc be bb 5f 21 be e3 d9 05 bf dd b3 b2 be
       -0.36836576 -0.15759175 -0.52285594 -0.3490285
0002d0 a9 a4 3d 3e cc 46 14 3d e5 f0 f3 3d bf 1b 5a 3e
       0.18519844 0.03620033 0.11911181 0.21299647
0002e0 98 02 5b 3d 21 46 99 3e 64 f6 0e 3d e4 97 fc 3c
       0.05346927 0.29936317 0.034902945 0.030834146
0002f0 6a 43 91 3e a2 0c d9 bd a2 f9 4d 3e 97 a4 c4 3d
       0.28371745 -0.10598113 0.20114759 0.096017055
000300 40 91 a9 3e 64 1d 07 3e 03 b2 53 be cd 31 93 3c
       0.3311863 0.13194805 -0.20673375 0.017968083
000310 f5 c4 8d be 86 0f 71 bd 01 bb fd 3d 78 26 26 be
       -0.2768933 -0.058852695 0.12389184 -0.16225612
000320 03 fa 88 be 07 17 31 3e 1a 7b 6c 3e 3d d9 b6 bd
       -0.26753244 0.1729394 0.23093835 -0.08928154
000330 5f fe a5 3e 5b d3 07 3e 56 d7 f7 3d 86 12 c6 3b
       0.32420632 0.1326422 0.12101619 0.0060446886
000340 0a ee 92 3e 25 6f 1d be 63 a8 68 3e 01 10 99 bd
       0.28697234 -0.1537443 0.22720484 -0.07473756
000350 bb 4d 7d 3e de 8a 77 3e 31 ec ce 3d 76 ca 8a 3d
       0.24736683 0.24174067 0.10103644 0.067768976
000360 e2 30 5b 3e bd e8 f1 bd c5 d5 d9 3e 0f 04 b3 bd
       0.21405366 -0.118119694 0.42545906 -0.087410085
000370 7e 2a bd 3c ab 4c 76 bd 71 b4 97 be 65 1e 92 be
       0.02309155 -0.06013171 -0.29629853 -0.28538814
000380 22 ce 47 3e a9 9f 4f be a2 d9 11 be 32 b6 be 3d
       0.19512227 -0.2027575 -0.14243177 0.09312095
000390 d4 ff 85 3e 50 b1 74 3d 32 9e 00 3f e1 6e 5f 3e
       0.26171744 0.05973941 0.50241387 0.2181964
0003a0 d3 26 7c bc 1a 87 ec 3e 17 29 26 bd 54 0d 44 3c
       -0.015390116 0.46196824 -0.04056653 0.011966068
0003b0 52 ee ba 3d 2c 91 05 3d 24 82 a3 bc 29 15 75 3e
       0.09127487 0.03260915 -0.019959517 0.23933853
0003c0 58 7e f1 bc dc ed 79 3e b0 6e a8 bc 24 76 74 3d
       -0.02947919 0.24407142 -0.020560592 0.05968298
0003d0 c9 af 37 3d a3 12 73 3e 3d 82 b6 3c e2 18 1d 3c
       0.044845376 0.23737578 0.0222789 0.009588452
0003e0 93 39 90 be fa aa ce 3e 28 00 93 3d a6 38 35 bc
       -0.28168926 0.4036482 0.07177764 -0.011060869
0003f0 d3 86 bc bc c1 bc 07 3e 38 94 cb be 20 a4 5f 3c
       -0.023013508 0.13255598 -0.3976152 0.01364997

layer3.bias f4 [4]
000000 36 42 b2 3d 9c 9a b1 3d c3 87 a9 3d 63 39 ba 3d
       0.08704035 0.086720675 0.082778476 0.09092977
