models/model_final/nets/70_policy_net.pt (torch, 58884 bytes, 6 tensors)

layer1.weight f4 [128, 9]
-0.08211561 0.10101314 -0.030792037 -0.015987828 -0.29174346 0.22719792 -0.105617724 0.11711467
0.1062591 0.110227875 0.042363003 0.087331176 -0.016017225 0.030041425 -0.4060658 -0.06668271
-0.0627508 0.086634316 0.018337868 0.07143539 -0.04137852 -0.008133435 -0.22141106 0.2757377
0.03167697 0.04745539 -0.10405133 -0.034133475 0.08057111 -0.020859117 -0.034554105 0.05590681
-0.009509888 -0.12247997 0.0599314 0.1945637 0.03024615 0.017397152 -0.1328131 -0.06975212
0.13177234 -0.117518276 -0.11838383 0.10771629 -0.24918756 -0.07222699 0.004350554 -0.27127326
0.074942 0.325278 0.116246685 0.011702791 -0.040248573 0.03663813 -0.1368585 -0.040254824
-0.109776616 0.01671497 -0.24152379 0.1899697 0.044737346 -0.141371 -0.027366025 0.0448177
0.08426135 -0.024342967 0.006741286 0.0967541 -0.014401788 -0.19839224 -0.05454691 -0.03544122
-0.056245808 0.1425572 -0.047451522 0.008163443 0.14513415 -0.33774507 0.012399403 -0.023451785
0.020195242 -0.012613576 -0.17333317 0.06344416 -0.007739888 0.14689365 0.41002193 0.018482635
0.031317536 -0.0021903948 -0.091131315 -0.11727158 0.09663865 0.007194623 0.15529609 0.28913507
0.021120107 0.025009481 -0.0067067877 0.020534247 0.010527047 0.025380634 0.0110562965 -0.2838142
0.06345159 -0.17664737 0.015223557 0.055475615 -0.0032098368 0.1468382 -0.08684531 -0.020489793
0.0659046 -0.28880948 0.07058271 -0.0339144 0.018930573 0.037589677 0.012451083 -0.04399002
-0.009993882 -0.047637735 0.2926192 -0.010171179 -0.051559262 -0.03471589 -0.061235704 0.016333854
0.047848783 0.018763663 -0.058222562 0.038214915 -0.061596777 -0.016596865 0.0060963877 -0.058793984
-0.02101439 -0.07268348 -0.015540615 0.37327528 -0.057918876 0.0074557015 0.045296974 -0.04106961
0.01223167 0.07022427 -0.06948417 0.020561537 -0.011472504 0.30075377 0.021178555 -0.012082329
-0.038219653 -0.040505257 0.043067854 0.28671205 -0.04780538 0.25349724 -0.22980732 0.029208237
-0.0020070435 0.019813633 0.14096014 -0.12209651 -0.041394863 -0.019505225 -0.22103812 0.04075
-0.04523411 0.062440287 0.021400705 0.112367675 0.025483254 -0.97102785 -0.11881817 0.10536221
-0.021454517 -0.015320894 0.010075538 0.08056415 -0.034065142 0.0135171 -0.22043203 -0.17734621
0.0045983484 0.06610247 0.044326536 -0.0023807494 0.03071658 0.007483705 -0.037953418 -0.07925112
0.003453424 -0.26840746 0.0046881055 0.11585196 0.058270916 -0.11454257 0.14118677 0.11033554
-0.036037564 0.012790827 -0.27642825 -0.24012658 -0.017219665 -0.026299918 -0.018875021 -0.01797168
0.1080096 0.04683169 -0.16052005 0.12774679 0.002150511 -0.1071478 -0.02603664 -0.059613958
0.03589628 0.10612175 -0.016251136 -0.011361825 -0.3720865 -0.107572205 -0.0015231156 0.03267845
-0.004128795 0.09515234 0.0328744 -0.010514652 0.11391999 0.07631868 -0.051564958 -0.0798816
-0.07124938 0.06915239 -0.025278063 -0.036192592 -0.044890936 -0.03226794 -0.055135135 2.455158e-05
-0.0534036 -0.004159241 -0.03383548 -0.07291868 0.09402245 0.0166352 -0.012906248 0.03542161
-0.12916118 0.031448998 -0.23999159 0.21741977 0.10951284 -0.109349295 -0.03214118 0.005017961
00000000: 3b2c a8bd fadf ce3d 953f fcbc e8f8 82bc
00000010: 665f 95be 92a6 683e 1b4e d8bd d1d9 ef3d
00000020: 5f9e d93d 27bf e13d d484 2d3d b0da b23d
00000030: 8e36 83bc 6f19 f63c dbe7 cfbe f290 88bd
00000040: 7e83 80bd 556d b13d 4c39 963c b84c 923d
00000050: 867c 29bd 1942 05bc 95b9 62be 7e2d 8d3e
00000060: b6bf 013d 9560 423d dd18 d5bd 8bcf 0bbd
00000070: 7702 a53d bde0 aabc 9b88 0dbd 8afe 643d
00000080: 5ccf 1bbc c7d6 fabd a17a 753d b53b 473e
00000090: c6c6 f73c 7984 8e3c 2800 08be 33da 8ebd
000000a0: 54ef 063e 6cad f0bd 3973 f2bd 5c9a dc3d
000000b0: 062b 7fbe beeb 93bd 188f 8e3b 54e4 8abe
000000c0: 317b 993d d78a a63e be12 ee3d 10bd 3f3c
000000d0: b0db 24bd dd11 163d a224 0cbe 3ee2 24bd
000000e0: 90d2 e0bd d5ed 883c 0352 77be 6b87 423e
000000f0: 823e 373d 8fc3 10be b72e e0bc c492 373d
00000100: 3791 ac3d e76a c7bc 01e6 dc3b 0327 c63d
00000110: 7af5 6bbc 5627 4bbe 956c 5fbd d02a 11bd
00000120: 0162 66bd 84fa 113e 875c 42bd f6bf 053c
00000130: 0c9e 143e ecec acbe de26 4b3c f51d c0bc
00000140: 7e70 a53c 2ca9 4ebc 407e 31be 03ef 813d
00000150: e39e fdbb 4a6b 163e 65ee d13e e568 973c
00000160: d146 003d ba8c 0fbb 0ea3 babd 152c f0bd
00000170: 7cea c53d dfc0 eb3b f005 1f3e 8309 943e
00000180: 1304 ad3c afe0 cc3c 9dc4 dbbb 7037 a83c
00000190: a379 2c3c 0ceb cf3c 7825 353c 1850 91be
000001a0: e8f2 813d 0ce3 34be 3a6c 793c 663a 633d
000001b0: 205c 52bb c15c 163e f4db b1bd 36da a7bc
000001c0: fef8 863d d6de 93be ab8d 903d d3e9 0abd
000001d0: 4a14 9b3c a2f7 193d a1ff 4b3c e12e 34bd
000001e0: 61bd 23bc c91f 43bd 2fd2 953e 04a5 26bc
000001f0: ce2f 53bd 4032 0ebd 4ad2 7abd 93ce 853c
00000200: 16fd 433d 41b6 993c c87a 6ebd 3e87 1c3d
00000210: e74c 7cbd 26f6 87bc 35c4 c73b f6d1 70bd
00000220: 5f26 acbc 14db 94bd 109e 7ebc f01d bf3e
00000230: 583c 6dbd f54e f43b 5289 393d 9b38 28bd
00000240: 5867 483c bed1 8f3d b74d 8ebd ab70 a83c
00000250: 2bf7 3bbc 66fc 993e a67e ad3c f6f4 45bc
00000260: 368c 1cbd d7e8 25bd eb67 303d eccb 923e
00000270: 93cf 43bd 64ca 813e 9c52 6bbe 1d46 ef3c
00000280: 9a88 03bb 3350 a23c db57 103e bc0d fabd
00000290: a98d 29bd 6cc9 9fbc d157 62be 79e9 263d
000002a0: 6747 39bd 63c1 7f3d 8850 af3c 0621 e63d
000002b0: 42c2 d03c 4895 78bf f156 f3bd 24c8 d73d
000002c0: 62c1 afbc 7d04 7bbc df13 253c d1fe a43d
000002d0: e487 0bbd d476 5d3c efb8 61be 3f9a 35be
000002e0: bead 963b bb60 873d be8f 353d 5906 1cbb
000002f0: 56a1 fb3c de39 f53b 0b75 1bbd 694e a2bd
00000300: d752 623b b46c 89be ae9e 993b cb43 ed3d
00000310: 7cad 6e3d 4c95 eabd 4493 103e 99f7 e13d
00000320: 209c 13bd 9e90 513c 0188 8dbe bee3 75be
00000330: 4110 8dbc ed72 d7bc ca9f 9abc 5839 93bc
00000340: 2334 dd3d 96d2 3f3d 5e5f 24be 0ed0 023e
00000350: 96ef 0c3b 4e70 dbbd cb4a d5bc c42d 74bd
00000360: fa07 133d 5c56 d93d 1a21 85bc f326 3abc
00000370: 1f82 bebe d14e dcbd 47a3 c7ba d7d9 053d
00000380: d84a 87bb 3bdf c23d 4fa7 063d a645 2cbc
00000390: e24e e93d f84c 9c3d c735 53bd f798 a3bd
000003a0: 32eb 91bd c59f 8d3d f113 cfbc af3e 14bd
000003b0: 8fdf 37bd 632b 04bd 61d5 61bd 1ef4 cd37
000003c0: bcbd 5abd 3e4a 88bb 1397 0abd 6456 95bd
000003d0: d88e c03d 8b46 883c ba74 53bc 4016 113d
000003e0: d442 04be aad0 003d 5bc0 75be 4aa3 5e3e
000003f0: 4548 e03d 86f2 dfbd 78a6 03bd b56d a43b

layer1.bias f4 [128]
0.02193425 0.039272696 -0.05644751 -0.0962371 0.14742447 -0.057369858 0.12637171 0.06393537
0.04125944 -0.13213946 -0.06978678 0.18816744 -0.049438693 -0.08138015 -0.06488364 -0.040051483
-0.13482225 -0.05591286 -0.04061135 -0.013984779 0.07601442 0.094553806 0.068437815 -0.04106937
0.0068231816 -0.06521357 -0.061293628 0.078517124 0.025493389 0.013479204 0.01952144 0.029983934
0.17178403 -0.014192989 0.03288705 0.07532328 0.17935412 0.011294234 0.10074439 0.081215836
0.024996057 0.13371068 0.021624655 -0.13715194 0.041026298 0.017302282 -0.038805548 0.010326675
0.09346451 -0.04881755 0.06902616 0.14074929 -0.010487053 0.1569931 -0.06350378 -0.06876454
0.11686334 0.19084856 -0.21888784 -0.16083883 0.13767204 -0.021943102 -0.02892651 -0.029871143
-0.035123516 0.006693887 0.020626433 -0.18180783 0.11769013 -0.14215682 -0.18528354 0.010394633
0.029329533 -0.01880165 0.16847858 -0.038300607 0.016289214 -0.004251826 -0.0029511845 -0.07461106
-0.0889968 0.023575537 0.014455569 0.14085007 -0.025345458 -0.13609383 0.03768092 0.14378896
0.105465606 0.03295506 0.1193794 0.06866929 -0.062443726 -0.1568803 0.17224845 -0.09267189
-0.09257566 0.057482626 -0.005000506 -0.29139212 -0.13802028 -0.03335458 0.083272874 0.024997998
0.032616884 -0.034465633 -0.040430076 0.03381806 0.025636025 0.060650565 0.06397975 -0.1502952
-0.008547749 0.04792531 0.11578173 -0.015801642 0.13974911 0.10447658 0.013274864 0.00091296795
0.012000709 0.049440973 -0.05459473 -0.021792091 0.030218646 -0.24284852 -0.05823847 0.0780141
00000000: 75af b33c 68dc 203d 8135 67bd f517 c5bd
00000010: 71f6 163e a8fc 6abd 9667 013e 8cf0 823d
00000020: a9ff 283d 914f 07be 5fec 8ebd f7ae 403e
00000030: 3a80 4abd a3aa a6bd b7e1 84bd 060d 24bd
00000040: d80e 0abe e204 65bd 1658 26bd 6a20 65bc
00000050: 73ad 9b3d 6da5 c13d 2029 8c3d 5b38 28bd
00000060: ff94 df3b b18e 85bd 070f 7bbd 96cd a03d
00000070: 83d7 d03c e1d7 5c3c 6deb 9f3c dea0 f53c
00000080: 27e8 2f3e b689 68bc 92b4 063d 1843 9a3d
00000090: 9ba8 373e 730b 393c 1353 ce3d 7d54 a63d
000000a0: 88c4 cc3c 74eb 083e 3026 b13c 8f71 0cbe
000000b0: 310b 283d 84bd 8d3c 91f2 1ebd 3731 293c
000000c0: 526a bf3d e9f4 47bd 965d 8d3d 9520 103e
000000d0: e3d1 2bbc cdc2 203e 450e 82bd 6cd4 8cbd
000000e0: 0c56 ef3d ce6d 433e 2224 60be efb2 24be
000000f0: e6f9 0c3e 05c2 b3bc 4af7 ecbc 54b4 f4bc
00000100: addd 0fbd 6558 db3b c4f8 a83c d52b 3abe
00000110: 8607 f13d 8f91 11be f8ba 3dbe 404e 2a3c
00000120: 7d44 f03c eb05 9abc a685 2c3e 19e1 1cbd
00000130: f570 853c e752 8bbb a968 41bb afcd 98bd
00000140: f443 b6bd 7c21 c13c 0dd7 6c3c 003b 103e
00000150: 47a1 cfbc 2e5c 0bbe 4f57 1a3d 6a3d 133e
00000160: 5afe d73d e3fb 063d 307d f43d 7ca2 8c3d
00000170: fec4 7fbd 3ba5 20be e661 303e c3ca bdbd
00000180: 4f98 bdbd e772 6b3d 49db a3bb 5931 95be
00000190: 3055 0dbe d09e 08bd f88a aa3d 9ac8 cc3c
000001a0: 4899 053d d62b 0dbd 029a 25bd ce84 0a3d
000001b0: a402 d23c ba6c 783d d107 833d fce6 19be
000001c0: dc0b 0cbc 544d 443d f91e ed3d 7272 81bc
000001d0: 641a 0f3e d1f7 d53d d17e 593c 3e54 6f3a
000001e0: 9f9e 443c 9e82 4a3d b99e 5fbd 5485 b2bc
000001f0: 188d f73c 48ad 78be 768b 6ebd dbc5 9f3d

layer2.weight f4 [96, 128]
-0.014513731 0.11229777 0.0054268306 -0.02762681 0.012943236 0.083466955 0.108926244 0.042707678
0.022246946 0.0913491 -0.05872431 -0.11738861 -0.0024971087 0.068374224 0.014135198 -0.27885562
0.013474488 -0.33617392 0.06942344 -0.18104723 0.016400358 0.07216106 0.04266917 0.11824349
-0.2770277 0.010560113 -0.0109026125 0.044436708 0.047635183 0.059420265 0.061593845 -0.034191485
-0.039291974 0.047041554 0.0785859 -0.07851692 -0.38363138 -0.03256589 -0.1152869 0.010806859
0.0138222305 -0.094133236 -0.0110932 -0.04232313 -0.0041066417 0.015820323 0.072784826 0.042055886
-0.013024365 -0.030528245 0.02973388 -0.094940476 0.099317595 -0.061647557 0.014245857 0.0040840525
0.032068666 0.07016314 0.026213337 -0.22505194 -0.6255934 -0.027460823 0.008144694 0.070171155
0.15956028 0.04887617 -0.0021459744 0.019718869 -0.02617698 -0.08393393 -0.17029259 0.12666501
-0.22531639 0.06385972 -0.0167177 -0.102566175 -0.4564773 -0.018860336 -0.08866429 0.17607953
0.006943838 -0.028901523 -0.0060366425 -0.43059853 0.06609578 0.0152126225 0.009306496 0.05335869
0.07457609 0.33891997 -0.3105149 0.026957337 -0.09084415 -0.10594363 -0.025435561 -0.04592239
-0.0229215 0.3773422 0.059097394 -0.009534967 0.03135492 0.039278224 0.18222065 0.047469735
-0.014650424 -0.09913707 -0.0143537335 -0.044095166 0.0012842859 0.03584715 0.08139621 -0.4306072
-0.018533045 0.35988984 -0.016100721 -0.069435835 0.02855945 -0.079902604 0.11513584 -0.020755496
0.084095016 -0.41833875 0.019546887 0.009282751 -0.29544502 -0.9006357 0.03974192 -0.023279293
-0.097033076 -0.16348934 -0.20604892 0.040085897 0.12578627 0.098189846 -0.0796488 -0.011898338
0.002854832 -0.036616605 -0.042780407 -0.12501542 0.04164644 0.07395326 0.0016244678 0.15067299
0.035218727 -0.0011710511 0.114313714 0.057213325 -0.058148723 -0.01750369 -0.025223192 0.025929743
-0.37630355 0.08157009 -0.0016486992 -0.15437996 0.032668795 0.08646432 -0.12858449 0.06431289
-0.023567395 0.0627815 -0.023374435 -0.08341272 -0.13673866 0.009998948 0.035660625 -0.058513444
-0.036072165 0.032772604 -0.004648264 0.04927206 -0.0030745072 0.0123745045 -0.05931649 0.12837727
-0.053622343 0.031661805 0.017184142 0.011627051 -0.011220292 0.18557243 0.01255826 -0.0038898475
-0.07845677 -0.29408866 0.015877925 0.057236772 0.121435806 -0.057977375 -0.0019311175 -0.082338
-0.17268316 -0.045902636 0.014701161 0.012467358 0.05487083 0.049198866 0.1125817 -0.16407521
0.037515335 -0.16161874 -0.04238986 -0.09208927 -0.15459749 0.18407258 0.058323942 -0.023690563
-0.061685164 0.028936384 -0.048381034 0.18740441 -0.017267697 0.022604583 -0.25702253 -0.087631494
-0.029067265 0.2590366 -0.054174725 -0.10234832 0.07524818 0.12633687 -0.12837152 0.033309538
0.06654466 0.072778426 -0.1649542 0.07534839 0.034256015 -0.053131055 0.11941556 0.07121953
0.022537647 0.044727392 0.062372137 -0.07090723 -0.016046247 -0.15325926 -0.13067201 0.093919635
0.05292254 0.03987229 -0.059027046 0.11328008 -0.119925044 0.10804334 -0.0046022125 -0.019483566
-0.0022491922 0.18721089 0.0075045796 0.0030611102 -0.03465941 -0.09913794 -0.057383697 -0.02755264
00000000: 00cb 6dbc 60fc e53d 8ed3 b13b 9f51 e2bc
00000010: de0f 543c b9f0 aa3d b914 df3d 3fee 2e3d
00000020: 3a3f b63c 3d15 bb3d e788 70bd 7169 f0bd
00000030: 88a6 23bb c907 8c3d 5197 673c 2ac6 8ebe
00000040: 19c4 5c3c fd1e acbe e02d 8e3d 7264 39be
00000050: 0b5a 863c 2ec9 933d dec5 2e3d a529 f23d
00000060: 93d6 8dbe 5304 2d3c dfa0 32bc 4403 363d
00000070: 1c1d 433d aa62 733d d449 7c3d 5f0c 0cbd
00000080: 9ff0 20bd a5ae 403d a5f1 a03d 7bcd a0bd
00000090: 556b c4be d063 05bd 8a1b ecbd 400f 313c
000000a0: a376 623c edc8 c0bd 41c0 35bc 055b 2dbd
000000b0: 0291 86bb 9f99 813c 3610 953d cb42 2c3d
000000c0: 2564 55bc 5f16 fabc 7794 f33c 2770 c2bd
000000d0: 0667 cb3d 2682 7cbd 7467 693c 84d3 853b
000000e0: 6f5a 033d b1b1 8f3d 5abd d63c 0474 66be
000000f0: e426 20bf 85f5 e0bc 5371 053c e5b5 8f3d
00000100: c563 233e 6132 483d 7aa3 0cbb 7789 a13c
00000110: 1b71 d6bc 8de5 abbd 2e61 2ebe 79b4 013e
00000120: 57b9 66be e3c8 823d 8ff3 88bc 370e d2bd
00000130: 65b7 e9be fe80 9abc a095 b5bd 314e 343e
00000140: 2389 e33b e3c2 ecbc 07cf c5bb 6977 dcbe
00000150: 395d 873d 5d3e 793c 467a 183c a48e 5a3d
00000160: 59bb 983d eb86 ad3e cffb 9ebe a2d5 dc3c
00000170: 7f0c babd f9f8 d8bd 3d5e d0bc 1e19 3cbd
00000180: dfc5 bbbc ff32 c13e 1c10 723d 8d38 1cbc
00000190: 046e 003d 34e2 203d 0d98 3a3e a06f 423d
000001a0: 5508 70bc 6008 cbbd ec2b 6bbc 229d 34bd
000001b0: 7c55 a83a 76d4 123d 0eb3 a63d 8c78 dcbe
000001c0: 9dd2 97bc 7b43 b83e a9e5 83bc 6034 8ebd
000001d0: 82f5 e93c faa3 a3bd 57cc eb3d 6e07 aabc
000001e0: 023a ac3d 7f30 d6be cb20 a03c ae16 183c
000001f0: 9244 97be 1090 66bf 6cc8 223d 37b4 bebc
00000200: 47b9 c6bd c069 27be 7dfe 52be 1c31 243d
00000210: 1ece 003e c217 c93d e91e a3bd 3ff1 42bc
00000220: 2218 3b3b 4bfb 15bd 823a 2fbd 0b04 00be
00000230: 7595 2a3d cf74 973d 18ec d43a 054a 1a3e
00000240: 8341 103d f47d 99ba 4f1d ea3d 8558 6a3d
00000250: 5b2d 6ebd e663 8fbc dea0 cebc 9d6a d43c
00000260: dcaa c0be 380e a73d 2a19 d8ba c815 1ebe
00000270: b7cf 053d 3514 b13d a7ab 03be 7ab6 833d
00000280: 6910 c1bc 9693 803d be7b bfbc 4ad4 aabd
00000290: 3805 0cbe a1d2 233c e010 123d cbab 6fbd
000002a0: 68c0 13bd 913c 063d 7750 98bb 80d1 493d
000002b0: ac7d 49bb 6fbe 4a3c d9f5 72bd 5575 033e
000002c0: 1aa3 5bbd cfaf 013d c2c5 8c3c 637f 3e3c
000002d0: 51d5 37bc b306 3e3e 29c1 4d3c d0ec 7ebb
000002e0: f1ad a0bd ca92 96be 6c12 823c 1b71 6a3d
000002f0: 56b3 f83d af79 6dbd 8d1d fdba d3a0 a8bd
00000300: dbd3 30be 6704 3cbd 23dd 703c e443 4c3c
00000310: 3cc0 603d c084 493d 3c91 e63d 5503 28be
00000320: aea9 193d 627f 25be fda0 2dbd 4d99 bcbd
00000330: ce4e 1ebe 867d 3c3e 16e5 6e3d b612 c2bc
00000340: 95a9 7cbd ff0b ed3c 312b 46bd f1e6 3f3e
00000350: fc74 8dbc 3f2d b93c 7598 83be 2478 b3bd
00000360: 791e eebc 72a0 843e 51e6 5dbd ff9b d1bd
00000370: b81b 9a3d 745e 013e d373 03be 956f 083d
00000380: 9148 883d db0c 953d c1e9 28be 4250 9a3d
00000390: 0950 0c3d f39f 59bd 2590 f43d 8cdb 913d
000003a0: dfa0 b83c 1234 373d ed79 7f3d cf37 91bd
000003b0: 6b73 83bc ffef 1cbe e2ce 05be f058 c03d
000003c0: 4ec5 583d 2051 233d 58c6 71bd 63ff e73d
000003d0: 439b f5bd d445 dd3d 28ce 96bb 009c 9fbc
000003e0: 2f67 13bb 36b4 3f3e fae8 f53b e89c 483b
000003f0: 07f7 0dbd d508 cbbd 2b0b 6bbd 13b6 e1bc

layer2.bias f4 [96]
0.03367121 0.035447404 0.007449371 0.06264893 -0.00051279395 -0.04666595 0.12712936 0.02310158
0.015459989 0.091822885 0.007191324 -0.001155083 -0.11193179 -0.07244297 0.06411838 -0.008965902
-0.05224186 -0.010074121 -0.057856448 -0.0013055062 0.06479098 -0.04818341 0.030923696 0.037440915
0.079449706 -0.007004641 -0.029194403 -0.04874573 -0.03332788 0.015130348 -0.045363083 0.011261698
0.037982427 0.021226937 -0.003805704 0.014241465 -0.017442971 0.09738249 0.05258286 0.014646084
-0.025183238 -0.03746074 -0.012421043 -0.013935139 0.04934453 0.0527835 0.011196236 0.056882214
-0.012957163 -0.07224023 0.068570524 0.03767349 0.098317906 0.03772579 0.077889726 0.07739404
-0.020601502 -0.15839946 0.14047842 -0.02620334 -0.010083776 0.04307212 0.0298891 0.010227452
-0.023465887 0.04780259 0.018071951 0.014376973 -0.011223685 -0.026707351 0.0064998968 0.078106865
0.069765314 -0.003717427 -0.033868715 -0.0134189315 0.14563206 -0.072964855 0.038157117 -0.0034535355
-0.02623205 0.01395809 0.0098475795 -0.03545176 -0.025547165 -0.01483838 -0.020282513 0.025301352
0.07362346 0.0642993 0.089863464 0.03567726 -0.030575257 -0.038137034 0.017400708 0.041594174
00000000: d3ea 093d 4c31 113d da19 f43b 154e 803d
00000010: 056d 06ba cc24 3fbd 332e 023e 863f bd3c
00000020: e54b 7d3c a30d bc3d 33a5 eb3b 2766 97ba
00000030: 7f3c e5bd fb5c 94bd 7f50 833d b8e5 12bc
00000040: 90fb 55bd ed0d 25bc e2fa 6cbd 851d abba
00000050: 22b1 843d f85b 45bd b153 fd3c a55b 193d
00000060: 87b6 a23d 3087 e5bb 1a29 efbc 9aa9 47bd
00000070: d182 08bd 47e5 773c a4ce 39bd fc82 383c
00000080: 7693 1b3d 1de4 ad3c 1e69 79bb 0955 693c
00000090: 90e4 8ebc 7970 c73d 2061 573d 21f6 6f3c
000000a0: 144d cebc 6f70 19bd a181 4bbc 3650 64bc
000000b0: 7d1d 4a3d 8333 583d 6b70 373c 53fd 683d
000000c0: 484a 54bc b0f2 93bd b46e 8c3d 844f 1a3d
000000d0: e65a c93d 5c86 1a3d a684 9f3d c480 9e3d
000000e0: 7bc4 a8bc 7833 22be 93d9 0f3e 63a8 d6bc
000000f0: 6c36 25bc 646c 303d fcd9 f43c 0b91 273c
00000100: 883b c0bc a6cc 433d a10b 943c 658d 6b3c
00000110: 8ce3 37bc 60c9 dabc 16fd d43b 7ef6 9f3d
00000120: 1ee1 8e3d 13a0 73bb ecb9 0abd 14db 5bbc
00000130: 9220 153e 996e 95bd a34a 1c3d b654 62bb
00000140: 99e4 d6bc 79b0 643c be57 213c dd35 11bd
00000150: 4a48 d1bc ad1c 73bc 8327 a6bc c844 cf3c
00000160: e6c7 963d 5aaf 833d 560a b83d 5222 123d
00000170: f678 fabc 9435 1cbd ee8b 8e3c a75e 2a3d

layer3.weight f4 [4, 96]
0.34871832 0.19318612 -0.28278607 0.093951054 -0.4305315 -0.15531246 0.10725439 -0.3736848
-0.2942379 0.31923968 0.3112385 -0.100965425 0.40084666 0.19189057 0.18798526 0.011646262
0.29502535 -0.414603 0.39617494 -0.20329423 0.35122737 0.27899492 0.12502548 0.094863765
0.5686889 -0.29560113 0.13608202 -0.25226593 0.03336861 -0.05645837 -0.3651436 -0.43889645
0.32110175 -0.38314506 -0.25703958 0.15978375 0.3627679 0.08560912 0.55258715 0.17711909
-0.22745101 0.57223725 -0.0094984 0.012899494 0.06777224 0.5238702 -0.03608729 0.34173357
0.022621617 0.41177103 0.04506044 0.048864946 0.08438506 0.21354535 0.07791286 0.049774695
-0.3454913 0.5112697 0.16072653 0.049018815 -0.20723023 0.17449701 -0.321162 0.019156905
-0.120386615 -0.14779247 -0.3213546 -0.047813546 0.4366185 -0.52660626 -0.32012686 0.038711235
0.12551354 -0.21388286 -0.33801904 -0.017157046 0.1753333 -0.31130964 0.60790205 -0.3659266
-0.4578082 -0.21970987 -0.36774608 -0.34130612 0.26944083 0.0007077095 -0.44399464 0.3146677
0.04724988 0.24724676 0.058121838 0.027259354 0.34729978 -0.18531506 0.26449302 0.13249491
0.33441803 0.16047785 -0.30085993 0.1098454 -0.40665805 -0.17171167 0.09532816 -0.44054306
-0.39025757 0.31270885 0.27822417 -0.10670634 0.43430236 0.20645878 0.16123268 -0.0035458384
0.4541321 -0.49226755 0.47020125 -0.29925358 0.3258585 -2.0221848 0.101185486 0.05680301
0.52337044 -0.20282653 -2.353121 -0.23131442 0.12228118 0.021406127 -0.42364937 -0.47895673
0.31084448 -0.35912815 -0.2589963 0.20514703 0.34356686 0.09232772 0.5255206 0.27945817
-0.27647224 -0.68813646 0.009867072 0.012440061 0.054844342 0.39926988 0.14257745 0.34185255
-0.014388901 0.4047184 0.06976121 0.112957895 0.08263163 0.2812634 0.08570284 0.09290696
-0.41583657 0.55013865 0.14275268 -0.10952087 -0.19157095 0.17118433 -0.5627645 0.1670684
-0.08092893 0.04923417 -0.48292404 0.15636314 -1.1534623 -0.60060465 -0.40537322 0.08795741
0.11748702 -0.32836613 -0.3614362 0.015455244 0.1347154 -0.3129433 0.5840115 -0.42385045
-0.62863547 -0.24257009 -0.5456188 -0.44071075 0.27958336 0.016947528 -0.038057752 0.30607814
0.085371315 0.33547562 0.05134958 0.10753193 0.40179583 -0.19940381 0.31084654 0.1418135
0.38643837 0.19148107 -0.3030067 0.008259113 -0.42468357 -0.14522453 0.13938414 -0.4076103
-0.29402533 0.33729187 0.30356333 -0.12242344 0.41894752 0.18206681 0.18393971 0.0050850883
0.2593431 -0.4107407 0.40227818 -0.1958858 0.34489292 0.31130084 0.14271776 0.15817122
0.55986214 -0.2706762 0.17861822 -0.21017595 0.047061455 -0.16102433 -0.34742156 -0.42520759
0.34346515 -0.40632516 -0.24582571 0.12847573 0.36589488 0.081028216 0.5356054 0.16411118
-0.20415437 0.6045779 -0.018984074 0.0055489405 0.16364096 0.50005347 -0.12881337 0.3661926
-0.013801313 0.41321585 -0.05816568 0.041850653 0.08855249 0.22870763 0.038567126 0.019506909
-0.3275012 0.52255505 0.14332896 0.07091729 -0.19228892 0.21873042 -0.35410184 -0.00067165226
00000000: 358b b23e 95d2 453e 56c9 90be 6969 c03d
00000010: a06e dcbe 3b0a 1fbe 31a8 db3d 9d53 bfbe
00000020: 5aa6 96be 6273 a33e a75a 9f3e f6c6 cebd
00000030: c63b cd3e f67e 443e 357f 403e f7cf 3e3c
00000040: 900d 973e d846 d4be 71d7 ca3e 5d2c 50be
00000050: 13d4 b33e 6cd8 8e3e ae06 003e ef47 c23d
00000060: 9995 113f 0859 97be 1659 0b3e 0029 81be
00000070: 86ad 083d e440 67bd 1af4 babe 09b7 e0be
00000080: 7367 a43e 972b c4be b19a 83be 5a9e 233e
00000090: b7bc b93e d653 af3d 5a76 0d3f b55e 353e
000000a0: ebe8 68be 247e 123f 2d9f 1bbc 6658 533c
000000b0: 2ccc 8a3d 5c1c 063f 44d0 13bd b4f7 ae3e
000000c0: f850 b93c a7d3 d23e 4c91 383d 9c26 483d
000000d0: 13d2 ac3d a2ab 5a3e c790 9f3d 8de0 4b3d
000000e0: 3ce4 b0be 92e2 023f 7f95 243e f4c7 483d
000000f0: 2934 54be 58af 323e 586f a4be f1ee 9c3c
00000100: 428d f6bd e956 17be 9788 a4be 23d8 43bd
00000110: 768c df3e abcf 06bf abe7 a3be ac8f 1e3d
00000120: 9f86 003e 1c04 5bbe d510 adbe ef8c 8cbc
00000130: 938a 333e fa63 9fbe 789f 1b3f bb5a bbbe
00000140: d665 eabe a0fb 60be 3749 bcbe adbf aebe
00000150: 26f4 893e 9585 393a 4453 e3be 201c a13e
00000160: 1789 413d 412e 7d3e 2a11 6e3d 024f df3c
00000170: 47d1 b13e 3bc3 3dbe a16b 873e bfac 073e
00000180: d738 ab3e 4e54 243e 500a 9abe a0f6 e03d
00000190: 7c35 d0be 2fd5 2fbe 693b c33d dc8e e1be
000001a0: d7cf c7be 601b a03e 6673 8e3e db88 dabd
000001b0: e15c de3e ee69 533e 2e1a 253e 4c61 68bb
000001c0: 0184 e83e 7e0a fcbe 38be f03e c437 99be
000001d0: edd6 a63e 7a6b 01c0 563a cf3d 46aa 683d
000001e0: 9bfb 053f c2b1 4fbe 8999 16c0 b0dd 6cbe
000001f0: 8e6e fa3d e75b af3c 92e8 d8be d139 f5be
00000200: 0227 9f3e a5df b7be 2a9b 84be 1012 523e
00000210: ffe7 af3e 5116 bd3d 8588 063f 2415 8f3e
00000220: c58d 8dbe b629 30bf 80a9 213c 66d1 4b3c
00000230: 76a4 603d 1a6d cc3e d3ff 113e 4c07 af3e
00000240: 6dbf 6bbc 4037 cf3e f7de 8e3d 7856 e73d
00000250: c63a a93d c201 903e f884 af3d 0146 be3d
00000260: 88e8 d4be e3d5 0c3f c22d 123e 7a4c e0bd
00000270: 2d2b 44be f24a 2f3e 5611 10bf fb13 2b3e
00000280: 11be a5bd c5a9 493d d241 f7be a91d 203e
00000290: a7a4 93bf 3ac1 19bf 148d cfbe 0423 b43d
000002a0: 099d f03d 9b1f a8be 2a0e b9be fe37 7d3c
000002b0: d5f2 093e 1b3a a0be c781 153f ed02 d9be
000002c0: 41ee 20bf 4b64 78be acad 0bbf d7a4 e1be
000002d0: 8d25 8f3e 8bd5 8a3c 72e2 1bbd 46b6 9c3e
000002e0: 28d7 ae3d 76c3 ab3e f053 523d b339 dc3d
000002f0: 2fb8 cd3e 8330 4cbe 4727 9f3e 8f37 113e
00000300: 40db c53e 9d13 443e b223 9bbe 3b51 073c
00000310: 2070 d9be bdb5 14be b7ba 0e3e 4cb2 d0be
00000320: 7d8a 96be 85b1 ac3e a76c 9b3e 24b9 fabd
00000330: 4a80 d63e b96f 3a3e b15a 3c3e d0a0 a63b
00000340: 9ec8 843e 9b4c d2be 68f7 cd3e 4a96 48be
00000350: ce95 b03e d362 9f3e 9b24 123e a3f7 213e
00000360: 2053 0f3f 1296 8abe b2e7 363e 5d38 57be
00000370: 83c3 403d 90e3 24be 3de1 b1be cfb4 d9be
00000380: aada af3e da09 d0be bcb9 7bbe 248f 033e
00000390: 9356 bb3e 1ff2 a53d 6f1d 093f c30c 283e
000003a0: d80d 51be 9ec5 1a3f 7d84 9bbc e3d3 b53b
000003b0: 7f91 273e 8103 003f a7e7 03be 997d bb3e
000003c0: e71e 62bc 0791 d33e 233f 6ebd 976b 2b3d
000003d0: 025b b53d 5532 6a3e 90f8 1d3d f4cc 9f3c
000003e0: 3dae a7be 2bc6 053f d4c4 123e 163d 913d
000003f0: 63e7 44be defa 5f3e d64c b5be d211 30ba

layer3.bias f4 [4]
0.12923299 0.11976849 0.13018833 0.1275378
00000000: a755 043e 2f49 f53d 1750 053e 4599 023e
