models/model_final/nets/80_policy_net.pt (torch, 58884 bytes, 6 tensors)

layer1.weight f4 [128, 9]
000000 ab 11 64 bd 88 a7 8e 3d 19 90 30 bd 93 62 4f bc
       -0.055680912 0.06965548 -0.043106172 -0.012657779
000010 6b 97 8f be 71 18 19 3e 53 85 b6 bd 89 b6 de 3d
       -0.2804521 0.1495073 -0.08912148 0.108746596
000020 03 26 a5 3d 26 27 b2 3d 7f 41 84 3d c0 7d b9 3c
       0.08063891 0.08698873 0.06457805 0.02264297
000030 ec 3d 09 bc 51 25 51 3d bd 92 f5 be 8b 27 f8 bc
       -0.00837658 0.05106098 -0.47963515 -0.030292293
000040 ac 68 b8 bd e5 e0 b1 3d 07 3c 89 3b e4 41 c3 3c
       -0.090043396 0.08685473 0.004188064 0.02383513
000050 15 54 85 bc 9d 5c e3 bb ff a9 21 be df 4d 71 3e
       -0.016275445 -0.0069385306 -0.15787505 0.23564862
000060 88 9a d7 3c 48 2c 16 3d 4f 82 fa bd d9 21 89 bc
       0.026318803 0.036663324 -0.12231886 -0.016739773
000070 03 4c af 3d d5 6c 91 bb c5 9b 25 bd 9e d9 30 3d
       0.0855942 -0.0044380226 -0.040431757 0.043176286
000080 76 f8 65 bc e8 89 04 be a6 18 8d 3d 26 1b 26 3e
       -0.0140362885 -0.12943232 0.06889467 0.16221294
000090 81 97 70 bc 29 ee 0b bb 4c c5 8e bd c4 a4 94 bc
       -0.014684559 -0.0021351671 -0.06971225 -0.018144973
0000a0 9e 39 09 3e 33 7d f8 bd a0 4b dd bd c6 8a c4 3d
       0.13400885 -0.12133255 -0.1080544 0.095967814
0000b0 b5 e1 58 be 1c e4 8f bd 6e 99 bc bb 42 2b 79 be
       -0.2117985 -0.0702593 -0.005755595 -0.24332908
0000c0 74 00 93 3d 4a a8 94 3e 59 cb 9c 3d 48 2b eb bb
       0.07177821 0.29034644 0.07655973 -0.0071767904
0000d0 31 d3 1f bd 9a 62 f8 3c ad 20 ce bd 5f c0 5d bd
       -0.039019767 0.030320454 -0.10064826 -0.054138537
0000e0 47 e6 d8 3b f6 f0 bd 3c 29 21 b3 be 19 96 a2 3e
       0.006619248 0.023186188 -0.34986237 0.3175514
0000f0 13 c3 d1 bb 81 be b6 bd c3 79 22 be 8c 4f ae 3c
       -0.0064014285 -0.089230545 -0.15866761 0.021278165
000100 b2 2a 86 3d d6 97 84 bd 80 c8 96 3c 2c bb 8f 3d
       0.06551112 -0.06474273 0.018406153 0.07018122
000110 a8 b9 47 3d 84 33 71 be c3 7a b8 bc 0c 15 89 bd
       0.04876104 -0.23554808 -0.022519475 -0.066934675
000120 98 1c 4a bd 44 3c c8 3d b2 65 db bc 72 16 8e 3b
       -0.049343675 0.0977712 -0.02678189 0.004336172
000130 25 17 fb 3d 21 9d 67 be b1 0f fd 3b fc c4 8d bc
       0.12260274 -0.22618534 0.007722818 -0.017305844
000140 17 1d 04 3c d5 f6 be bb 04 ad 06 be 60 84 bc 3d
       0.008063576 -0.0058277645 -0.13151938 0.09204936
000150 32 48 1d ba a9 6f dc 3d c0 73 ab 3e 19 a9 76 b9
       -0.00059998326 0.10763485 0.33486748 -0.00023523382
000160 b0 65 de 3c de a1 a5 bb 86 26 c5 bd 80 34 10 be
       0.027148098 -0.0050546965 -0.096264884 -0.14082527
000170 5c 4b 4f 3d cb 29 15 bc e8 fa 27 3e 07 4f a5 3e
       0.050608978 -0.0091042025 0.16404307 0.32286856
000180 2f dc 7e 3c fe f9 df 3c fb e0 a2 3c 31 2a 4b 3c
       0.015555426 0.027340885 0.01988267 0.012400196
000190 a2 40 3c 3a 34 10 b9 bb e9 07 e3 ba dc 79 48 be
       0.0007181262 -0.0056476835 -0.0017321083 -0.19577736
0001a0 a4 49 40 3c 58 fe 29 be 1c 6e 33 bb ee 87 83 3d
       0.011736307 -0.1660093 -0.0027378863 0.06422411
0001b0 7f 67 ed bc b1 fb ef 3d 0a 2b 14 3c 80 2b ca bb
       -0.028980015 0.11717928 0.009043464 -0.0061697364
0001c0 15 ee aa 3d c9 96 67 be 59 a9 c2 3c f1 ac 27 bc
       0.08346192 -0.22616114 0.023762392 -0.010234104
0001d0 16 16 21 3d 88 c6 a6 3c 2e cc de 3c 92 88 7f bd
       0.039327703 0.020358339 0.02719697 -0.062386103
0001e0 c1 ea 91 bb 48 88 1a bd dd 58 81 3e 84 60 c2 3c
       -0.0044530337 -0.037727624 0.2526311 0.023727663
0001f0 72 1e 3d bd 71 1f a7 bc 18 3f a1 bc d5 b1 ab 3b
       -0.046171613 -0.020400735 -0.019683406 0.005239705
000200 91 9f 7b 3c 1a 62 c5 3b b6 55 99 bc 64 0b 49 3c
       0.015357868 0.0060236575 -0.018717628 0.012270782
000210 14 34 a2 bc c7 6e ae bb 60 4c 00 3b 84 39 81 bd
       -0.019800223 -0.0053232643 0.0019576773 -0.06309798
000220 aa 16 03 bc 57 30 de bd f9 e9 e1 ba 34 bc be 3e
       -0.008001009 -0.10849064 -0.0017235867 0.37252963
000230 0c 9f a4 bd 8e 86 0e 3b b8 7c 2d 3d ee 8f 2d bc
       -0.08038148 0.0021747681 0.04235527 -0.010593398
000240 75 6b df bc 32 42 2c 3c 2c 03 79 bd 1e 4c 31 3b
       -0.02727292 0.010513829 -0.06079404 0.0027053426
000250 0c ff c8 bc 57 48 94 3e a1 fb 82 bb e0 a0 0e 3d
       -0.024535678 0.2896144 -0.0039972817 0.03482139
000260 2c 73 6d 3d b8 1b 92 bd 24 f1 a8 3d ca 65 75 3e
       0.057971165 -0.07134193 0.08249119 0.2396461
000270 4a a9 43 bc c3 f6 53 3e 6c 9a 70 be 1d 43 6f 3c
       -0.011942217 0.20699601 -0.23496407 0.014603403
000280 00 62 a3 bc 5c dc dc ba e0 73 00 3e b5 96 ba bd
       -0.019944191 -0.001685034 0.12544203 -0.09110776
000290 90 93 d0 bc b4 45 37 bc 82 4b 69 be c3 7c 28 3c
       -0.025460988 -0.011186052 -0.2278271 0.010283652
0002a0 c2 1d 59 bd 64 ff 40 3d 00 9a 49 3d 35 91 9e 3d
       -0.053006895 0.04711856 0.04921913 0.0774254
0002b0 c1 e2 9e 3c 2b 23 f1 be 12 a5 0a bd ed d2 11 3e
       0.019395234 -0.47097144 -0.03384883 0.14240618
0002c0 d0 11 ae bb 20 cc a3 3a 84 05 c6 bc 62 14 20 3c
       -0.005312182 0.0012496747 -0.024172552 0.009770485
0002d0 1d 40 2d bc 00 f7 2a 3d 95 73 e2 bd 41 fb 3c be
       -0.010574368 0.041739464 -0.11057202 -0.18455221
0002e0 be c4 0c bd 82 aa 2c 3d c0 0e b1 3c 63 d7 d3 bc
       -0.034367315 0.042154796 0.021613479 -0.02585954
0002f0 77 b1 15 3d 35 fa 70 3c 5b e5 3d bd 9f 84 07 be
       0.036546197 0.0147080915 -0.04636131 -0.13234185
000300 0b e1 4d bb c2 6d 28 be fa cd e3 3c 58 72 71 3d
       -0.0031414654 -0.1644812 0.027808178 0.058946937
000310 4c df 8c 3d 7a 65 10 be ca 7d cd 3d 99 d6 9c 3d
       0.06878528 -0.1410121 0.10033758 0.07658119
000320 9a e3 b4 3b 2a e5 09 3b 87 84 4a be 5a f2 20 be
       0.0055202963 0.0021041133 -0.19777118 -0.1571745
000330 14 b2 b7 bc 6f 16 99 bc 5b 31 eb 3a 4f f9 d4 3a
       -0.022423781 -0.018687455 0.0017943786 0.0016248616
000340 b0 06 c5 3d 1e bd c8 3c 6b 2a d1 bd 89 97 2e 3e
       0.09620416 0.02450424 -0.10213169 0.17049994
000350 aa a6 c4 3c ab ea e5 bd dd 97 46 bd bc 07 aa bd
       0.024005253 -0.112264 -0.04848467 -0.083022565
000360 5c a0 cc 3d bc 71 a7 3d 71 01 40 bd 41 f3 2b bb
       0.099915236 0.0817599 -0.046876375 -0.002623752
000370 25 fe bb be 35 65 74 bd 74 b8 81 bc 48 c3 33 3c
       -0.36717334 -0.05966683 -0.015835024 0.010971852
000380 06 fe fc bc d5 dc 31 3d 75 07 6e bc 6f 1a 96 be
       -0.030882847 0.043423492 -0.014528145 -0.29317042
000390 7e ec ac 3d ac 73 38 3e f7 80 a9 bd 0a 9d a8 bd
       0.08443545 0.18012875 -0.08276551 -0.08233078
0003a0 38 97 6f bd c1 9a c6 3d 4a 2c 05 bc a9 46 3e bc
       -0.058493823 0.09697486 -0.008128235 -0.011613526
0003b0 4d 14 6c bc 7e b1 29 bc 80 1d 91 bc 42 73 04 37
       -0.014409137 -0.010357259 -0.017714262 7.894649e-06
0003c0 78 a7 8c bc e7 de ae ba 03 f0 31 bc a2 8f 81 bd
       -0.0171697 -0.0013341577 -0.010860446 -0.06326224
0003d0 31 7e 03 3e 5a 78 23 3c ad 31 31 bd 17 6d 70 3d
       0.12841107 0.0099774245 -0.043260265 0.058697786
0003e0 82 5e 24 bd 54 29 c6 bc d1 fa 38 be f6 cc 42 3e
       -0.040129192 -0.024189629 -0.18064429 0.19023499
0003f0 2b f2 ab 3d 89 78 ba bd ff ba c7 bc 1d f1 4d 3b
       0.08395799 -0.091050215 -0.024381159 0.0031424232

layer1.bias f4 [128]
000000 22 64 3c 3d 07 a2 a7 3d f3 59 a4 bc f8 a2 9c bd
       0.04599393 0.08185201 -0.020062422 -0.07648271
000010 a4 36 3d 3e 02 46 0f 3c 86 de 58 3e f0 18 b4 3d
       0.18477875 0.0087447185 0.21178636 0.08793819
000020 d1 00 f2 3c ef d0 dc bd 8d 55 6f bd c6 8a 64 3e
       0.029541405 -0.107820384 -0.058431197 0.22318563
000030 aa fc 11 bd 04 3e fa bd 56 90 aa bc d3 e0 7c bd
       -0.03564135 -0.1221886 -0.020820778 -0.061737847
000040 8b 8d 19 be 1a 3f b9 bc 56 04 b4 bc 37 2b 75 3d
       -0.149954 -0.022613097 -0.021974724 0.059855666
000050 ea f9 97 3d df 39 28 3d b8 bb 2f 3d 54 45 ca bc
       0.07420714 0.041070815 0.042903632 -0.024691261
000060 4d 98 35 3d 23 36 8f bc 65 66 a1 bc 7b a3 1b 3d
       0.0443347 -0.01748187 -0.019702146 0.037997704
000070 f2 ae 54 3c fb 21 3c bc 5b 69 15 3c b6 94 ca 3d
       0.012981163 -0.011482711 0.009119357 0.098916456
000080 ac 64 24 3e ac a9 0f bd f0 44 25 3d 7e 79 04 3d
       0.16054028 -0.03507392 0.040348947 0.032342426
000090 1e c6 0b 3e 74 f0 65 3c 51 ec 22 3e 5c 9f bf 3d
       0.13649794 0.014034379 0.1591046 0.09356567
0000a0 92 01 f7 3b 3c 72 f2 3d ac 54 0a 3d ae 62 57 3c
       0.007538029 0.11838195 0.033772156 0.013146086
0000b0 33 c2 b7 bc 45 23 b6 3b 4d a0 a3 bc 9b 6d 4a 3d
       -0.022431469 0.0055584037 -0.019973898 0.049420934
0000c0 2f d1 ac 3d 4f 99 82 bd d9 60 7e 3d d9 59 3f 3e
       0.08438336 -0.063768975 0.06210408 0.18686618
0000d0 67 9c 08 bd 57 5a 53 3e 20 1c a7 bc 8b 0d 10 be
       -0.033352282 0.2063993 -0.020399153 -0.14067666
0000e0 9c ab f4 3d 23 9f 1a 3e e4 0a 65 be 89 71 16 be
       0.119467944 0.15099768 -0.22367436 -0.14691748
0000f0 40 ac 69 3e fb 70 d4 bc 87 63 18 bc 2d c4 91 bc
       0.22819614 -0.02593278 -0.009301073 -0.01779374
000100 98 64 02 bd a4 11 f6 3c 2c e9 d8 3b 3b e1 01 be
       -0.031834215 0.030037709 0.006619593 -0.12683575
000110 f8 b4 67 3d 26 94 80 be 5b 3a 42 be 1a 01 88 bc
       0.05656907 -0.25113028 -0.18967573 -0.016602088
000120 5d 95 b7 3d 28 14 9c 3d 1b d4 03 3e 5a 8a bf bd
       0.08964036 0.07621032 0.1287388 -0.0935256
000130 c2 bc 27 3d d8 55 30 bd 3b 2c 8f bd 72 cf f2 bc
       0.040951498 -0.043050617 -0.06990858 -0.029639933
000140 85 b6 05 be 35 ef aa 3c 0c d2 a4 bc 21 e9 0c 3e
       -0.13057907 0.020866016 -0.02011969 0.13760807
000150 d2 df 7f bc 82 e9 fb bd 9d e5 1c 3d db 26 b9 3d
       -0.015617328 -0.123003975 0.038304914 0.09040614
000160 db ff 9a 3d cc c4 97 3c a3 81 1b 3e 7f 46 b2 3d
       0.07568332 0.018526457 0.15186171 0.08704852
000170 71 59 91 bc 1b ce 05 be a2 34 2e 3e b5 6e 2e bd
       -0.017742844 -0.13066904 0.17012265 -0.042586047
000180 8b eb 27 be 97 bd bf 3d 38 5c 97 3b 27 9e b2 be
       -0.16398446 0.09362333 0.0046191476 -0.34886286
000190 82 41 bd bd 50 33 79 bc 71 0f d6 3d fc 26 97 3d
       -0.0924101 -0.015209988 0.10452164 0.073804826
0001a0 bb 88 c7 3c 4f dc 59 3d 13 6f 28 bd 28 8c b4 3d
       0.02435719 0.05318862 -0.041121554 0.08815795
0001b0 5e dd 32 bd 94 00 bc 3d ab f2 9f 3d 6f 97 3d be
       -0.043668143 0.09179798 0.07809957 -0.18514799
0001c0 06 9a 08 bd 9c 1c 7d 3d cb c0 36 3e cb c8 90 3d
       -0.033350013 0.061794862 0.17846982 0.07069548
0001d0 67 78 d5 3d 54 cd 9b 3c fc a1 18 3d 59 4b 5b bd
       0.104233555 0.019018807 0.037263855 -0.053538654
0001e0 6c 1a ac bc 0b cd 5c 3d 5d e1 fa bd d4 38 e5 bb
       -0.021008693 0.05390648 -0.12250016 -0.0069953
0001f0 e8 6c 66 3d b7 e3 5d be c0 6c 18 bd d4 64 54 3d
       0.056256205 -0.21668898 -0.037213087 0.05185397

layer2.weight f4 [96, 128]
000000 5c 72 d1 3c 0d 21 a2 3e e0 d4 58 3d 3f e0 09 3d
       0.025567226 0.3166584 0.05293739 0.033661123
000010 3f fe 18 3e 00 1a 20 3d cf b0 c0 3d 7c 1d f0 bd
       0.14940737 0.039087296 0.094087236 -0.11724374
000020 e4 c1 10 bc 28 85 5b 3e b1 2c 78 3d 6e 9b 53 be
       -0.00883529 0.21437514 0.060589496 -0.2066476
000030 9a 44 f0 3c ee e8 e1 3d 21 f4 94 3b 34 82 15 be
       0.029329587 0.11030756 0.004545704 -0.1460045
000040 92 10 8d 3d 51 b9 85 be 40 d2 e1 bd b2 0c 90 bc
       0.06887926 -0.26117948 -0.1102643 -0.017584179
000050 5e a1 d0 3c 8e 69 95 bc 23 2b 91 3c c8 0c df 3b
       0.02546757 -0.018238809 0.017720765 0.0068069436
000060 fb 9d 41 be 6d 94 dd bd 42 5b 65 bb 4f 55 42 3c
       -0.18907921 -0.108193256 -0.003499702 0.0118611595
000070 b9 d7 a2 3d 0d 61 31 bd 88 69 8c bd a7 36 e7 bd
       0.07951302 -0.043305445 -0.06856066 -0.11289721
000080 45 6d 7a bd 9d 73 1f 3d 81 b1 03 3d d7 17 20 be
       -0.061139364 0.038928617 0.032151703 -0.15634094
000090 a6 50 dc be ff 03 45 3d cc 02 ea bc a8 af 55 bd
       -0.4303028 0.048099514 -0.028565787 -0.052169472
0000a0 23 df 92 3c d2 15 cd bd c2 2b 35 3d ef c8 b5 bd
       0.017928666 -0.100139275 0.044231184 -0.08876216
0000b0 ca 71 02 bc 8e 8d a6 3b e1 45 85 3d f0 62 94 bc
       -0.0079617 0.0050827926 0.06507469 -0.018113583
0000c0 7b 71 e5 3c 36 d0 92 bd 99 79 5e bd fe 63 8f be
       0.028008213 -0.07168619 -0.054315183 -0.28005975
0000d0 bc f8 ca 3d 2c fc 87 be 8d 29 96 3b 4c 6c 86 3d
       0.099107236 -0.2655958 0.00458259 0.06563625
0000e0 3e 9d 57 3d 18 a5 0f 3e 36 d3 7c 3d 34 e2 ed bd
       0.052640192 0.14027822 0.061724864 -0.116154104
0000f0 d3 3a e2 be 90 04 23 bd dc 3f 2b 3b b9 2d c9 3c
       -0.44185504 -0.039799273 0.0026130592 0.024557935
000100 4a 5d f1 3d b9 a5 b8 3d 38 ab 34 ba d9 ff 83 3d
       0.117853716 0.09015984 -0.00068919687 0.064452834
000110 82 5c b4 3c c4 5e bf 3c ad 48 77 be 3f 13 b4 3d
       0.022016767 0.023360617 -0.24148817 0.087927334
000120 c9 40 11 3e 96 69 cf 3c fb 16 17 3c ad 86 dd bc
       0.1418487 0.025318902 0.009221788 -0.027041757
000130 88 d9 bc bf 72 b5 06 3d 0c 3d 12 be d0 c3 1f 3e
       -1.4753885 0.032887883 -0.142811 0.1560204
000140 b3 c3 8c 3d df a4 44 bd 7c c6 0f bd c9 bb 94 be
       0.06873264 -0.048008796 -0.0351014 -0.2904952
000150 b4 43 be bd f4 cb 58 bd f5 23 66 3d 63 2e c1 3c
       -0.09290257 -0.05292888 0.056186635 0.02358169
000160 85 4b 2d 3d 4c 7d dd 3e 55 4c ab be 67 bc 98 3d
       0.04230835 0.43259656 -0.33456674 0.0745781
000170 33 1e 0d 3c 76 c4 41 3d d0 3c 35 3d 46 64 9a 3b
       0.008613157 0.0473065 0.04424745 0.0047116606
000180 ad 2a 4f bd b4 62 ad 3c b6 77 b9 3c 9a 4d 2a bd
       -0.05057781 0.02116523 0.02264009 -0.041577913
000190 7b a2 44 3d bc a6 67 be 1d 7d 92 3e f5 69 9d 3c
       0.048006516 -0.22622198 0.2861108 0.019215563
0001a0 ff 9a 78 be 0c a5 b7 bd c8 0b 26 3d 1d 52 6b 3d
       -0.24277876 -0.08967027 0.04053858 0.057451356
0001b0 2e 50 9c bd a6 f6 94 bb ed 75 a6 3d e9 27 47 be
       -0.076324806 -0.0045460043 0.08127961 -0.19448818
0001c0 02 ae a5 bb 5f 62 a0 3c 44 f8 c9 bd 9f 8e d5 bd
       -0.0050561437 0.019578157 -0.09861806 -0.104275934
0001d0 69 85 8f bc 46 d7 5e bd a0 94 30 bd 70 66 ed bc
       -0.01751967 -0.05440452 -0.04311049 -0.02897951
0001e0 e6 a2 7c 3d fa 87 32 be 85 73 dd bd dc 45 43 3b
       0.06167879 -0.17434683 -0.10813049 0.0029796278
0001f0 f2 2c 64 be d9 e8 fd be 76 a3 0e bc fd a0 1a 3d
       -0.2228277 -0.4959171 -0.008705964 0.037751187
000200 b0 fe 8a bd d7 77 1f be 81 bd 86 bd 7f fe f7 3d
       -0.06786859 -0.15573059 -0.06579114 0.12109088
000210 0c 5e de 3d 12 e3 eb 3d b1 05 37 3d 36 67 54 3d
       0.10857782 0.115179196 0.044683162 0.051856242
000220 5f db af 3b a7 c4 41 bd 2b 0c ab 3c 62 71 dc be
       0.0053667272 -0.047306683 0.020879826 -0.43055254
000230 51 09 37 3d f1 de 54 3e 1b ee 08 3a 32 0c 0b 3e
       0.04468662 0.2078817 0.0005223469 0.13578871
000240 c8 79 e3 3d 5c f1 84 bd 52 2f d6 3d 30 7c 8b 3d
       0.11107212 -0.06491348 0.104582444 0.06810796
000250 27 10 5d bd 07 23 53 bc 0c b3 d4 bb 9b f0 e7 bd
       -0.053970482 -0.012886769 -0.0064910706 -0.11325189
000260 b8 1b f8 be c1 87 89 3d ca f8 0a ba d9 0d 08 be
       -0.48458648 0.06715346 -0.00053013547 -0.13286532
000270 10 91 a7 bd 19 85 cf 3d 35 a9 79 bd b0 db 5e bd
       -0.08181965 0.10132808 -0.060952384 -0.05440873
000280 89 f5 dc bd 04 a1 da 3d ef 04 c6 bc 55 49 e4 bd
       -0.107890196 0.106752425 -0.024172274 -0.111467995
000290 7b de a4 be a5 63 8a 3d b2 c6 8e 3d 8e 9f 10 be
       -0.3220099 0.06757287 0.06971492 -0.14123365
0002a0 a0 24 1b bd 5d f3 95 3c 75 aa 1a 3d f7 8e 79 3c
       -0.037876725 0.018304521 0.037760217 0.015231839
0002b0 f9 be 85 bc 12 5c 82 3b 8d c6 51 3d 38 d3 2b be
       -0.016326414 0.003978261 0.051214743 -0.16779792
0002c0 40 dc 3e 3c f2 22 5e 3d 3b d0 e7 bc 83 bf 13 bc
       0.011649191 0.054232545 -0.028297534 -0.009017828
0002d0 9d 7b 95 bd 2f f0 49 3d 81 52 84 3b 63 1c c9 3c
       -0.07298968 0.049301323 0.0040381555 0.024549669
0002e0 9f 10 c5 bb 72 3b 95 be 34 ac ef 3d fc ff dc 3d
       -0.0060139443 -0.29146916 0.11702767 0.10791013
0002f0 c4 82 4f be 92 7f bb bb 16 bb 22 ba 62 f5 19 bc
       -0.20264727 -0.0057219947 -0.00062076875 -0.009396883
000300 be 3f 4b be a9 2d 77 bd 2f d3 9a 3b 4c 37 57 bc
       -0.19848534 -0.06034628 0.004724882 -0.013135742
000310 2f 94 ab 3d 0f 67 0a 3e c0 24 12 3e d7 54 02 be
       0.08377873 0.13515876 0.14271832 -0.12727676
000320 9e 1d 12 3e e3 86 97 bd e4 e3 5b bd 7b 4f e5 bd
       0.1426911 -0.073987745 -0.05368413 -0.111968
000330 2d 06 cd bd b7 af 10 3e 35 41 45 3d fa 6b 8e 3c
       -0.100109436 0.1412953 0.04815789 0.017385472
000340 d3 0e 18 3d 37 df ee 3c 0b d7 5c 3c 48 8a 0f 3e
       0.037123512 0.029159172 0.013479005 0.14017594
000350 d1 25 e3 3d ed 72 ab 3d de c9 3c be d2 67 a5 bc
       0.11091197 0.0837153 -0.18436381 -0.020191107
000360 e9 98 a3 3c e0 e8 d6 3d e4 04 27 be 47 1c 22 bd
       0.019970374 0.10493636 -0.1631046 -0.03957775
000370 1c 75 94 3d ed 64 29 3e e1 73 ce bd c5 06 3d 3b
       0.07248899 0.16542406 -0.10080696 0.0028843146
000380 63 1a 8c 3d 0d e3 a6 3d a4 c5 34 be a3 10 18 3e
       0.0684097 0.08148775 -0.17653519 0.14850096
000390 99 fe 8a 3d b9 52 1d 3d 98 b9 23 3e 58 f5 c1 3a
       0.06786842 0.03840897 0.15988767 0.001479785
0003a0 eb 10 36 3d 7d 01 d2 bd b1 61 c4 3d 5f fd 02 bf
       0.044449728 -0.1025419 0.09588946 -0.51167864
0003b0 39 e0 25 bc b6 a5 8e be 27 47 e9 bd 02 0b 10 3e
       -0.01012426 -0.27860802 -0.11390524 0.14066699
0003c0 93 5c 05 3e 63 23 17 3c f6 b2 61 bd ce a9 34 3e
       0.13023596 0.009224745 -0.05510231 0.176429
0003d0 e1 7d 8b be c4 cb ee 3d 6e 13 6a 3d 6c b7 2f bd
       -0.27244475 0.11659959 0.057147436 -0.042899534
0003e0 1c 98 ae bc 7c 00 0f 3e b7 b9 ba 3d 66 e2 80 3a
       -0.021312766 0.13965029 0.091174535 0.0009833097
0003f0 08 b7 00 be 43 00 61 3d 1c 32 80 3c 6c 9a 44 bd
       -0.12569821 0.05493189 0.015648894 -0.04799883

layer2.bias f4 [96]
000000 f9 e6 d1 3c 24 bc 46 3d 8e 15 af bd 23 b6 a9 3d
       0.025622832 0.04851927 -0.08549033 0.08286693
000010 2c 8a c0 3b 2c ae 2d bd ab a6 f2 3d d6 d6 09 3c
       0.0058758464 -0.04240243 0.11848196 0.008413037
000020 27 e3 af ba 29 8f a1 3d fd 7f ad 3c 95 55 19 3d
       -0.0013419137 0.07888634 0.021179194 0.037435133
000030 2d 75 d9 bd 32 06 cd bd ca 25 bb 3d 3a bf 3e bb
       -0.10618053 -0.10010947 0.09138067 -0.002910568
000040 71 40 68 bd 32 87 13 bd 67 96 59 bd dc 59 c8 3b
       -0.05670208 -0.036017604 -0.05312195 0.0061142277
000050 70 55 5e 3d 45 5f 06 bd db 78 58 3d 5d bd e2 3d
       0.0542807 -0.0328057 0.05284963 0.110712744
000060 d7 48 8a 3d e5 80 1d 3c ed 60 86 bc 72 80 1d bd
       0.06752174 0.00961325 -0.01640364 -0.038452573
000070 ee 73 75 bd 09 a9 99 ba 7d 79 4d bd 01 13 0f bc
       -0.059925012 -0.001172335 -0.05016469 -0.008732558
000080 bd 68 e5 3c 9e 34 1e 3d d6 62 1f bb 5c 09 cd 3c
       0.028004045 0.0386244 -0.0024320385 0.025028877
000090 3b 59 e5 3c 12 17 ca 3d 07 37 4e 3d e0 ac bf bc
       0.02799665 0.098676816 0.050345447 -0.023397863
0000a0 db 2d 9b bc 33 be 92 bc 85 e0 82 bb ed ac 9e bb
       -0.018942764 -0.01791296 -0.00399405 -0.0048423917
0000b0 05 01 ce 3d 72 3f ea 3d 73 65 d9 3b 7b b1 be 3d
       0.10058788 0.114378825 0.006634408 0.093111955
0000c0 7f df 8e b9 b7 21 98 bd 45 46 2e 3d 82 14 53 3d
       -0.00027250868 -0.074283056 0.042547483 0.05153323
0000d0 6d 36 d4 3d 98 27 6f 3d af e4 ab 3d 5c 50 9a 3d
       0.103619434 0.05838737 0.08393227 0.075348586
0000e0 d6 00 f5 bc b0 4c 39 be c2 52 34 3e 2a a9 fc bc
       -0.029907625 -0.1809566 0.17609695 -0.030842382
0000f0 58 27 4d 3c ac 02 bf 3d 1a 3a 53 3c ea 9f f7 3b
       0.012521587 0.093266815 0.01289227 0.007556905
000100 95 d5 57 bd 67 9b a1 3c 88 66 f9 bc 48 7a 05 3d
       -0.052693922 0.019727422 -0.030444399 0.03258732
000110 d7 e2 19 bd f1 c0 75 bd ef 71 c6 bb ce 86 93 3d
       -0.037569847 -0.059998456 -0.0060560624 0.07203446
000120 07 04 24 3d 53 3e 30 3c 5c b4 ae bc 23 ea 99 bb
       0.040042903 0.010757047 -0.021326236 -0.0046971007
000130 f9 b0 30 3e 86 ad ae bd 8e b8 0d 3d 6e e2 2f bd
       0.1725501 -0.08529191 0.034599833 -0.04294055
000140 55 7f 0a bd 5a 35 17 bd e7 90 f4 3a f4 0a 36 bd
       -0.03381284 -0.036916114 0.0018658907 -0.04444404
000150 b7 54 85 3c e5 3a 9c bb bc eb 4b bd 98 82 55 3d
       0.016275747 -0.004767763 -0.04978536 0.052126497
000160 e9 f4 9b 3d 3c 05 a5 3d 74 fe f9 3d d5 0c 14 3d
       0.07615072 0.08057639 0.12206736 0.03614505
000170 34 5d 95 bd e9 57 01 bd 50 e2 44 3d db d8 8e 3d
       -0.07293168 -0.03157798 0.04806739 0.06974956

layer3.weight f4 [4, 96]
000000 0d 03 0d 3f 1a 09 87 3e 03 d3 17 bf da 91 ea 3d
       0.5508278 0.2637413 -0.59306353 0.114536
000010 12 6e 06 bf 39 6e 71 be 82 57 c7 3d 8f 04 2f bf
       -0.52511704 -0.23577203 0.09733488 -0.6836633
000020 da 29 91 be 1e 65 a7 3e a5 6f b2 3e 40 eb 9e be
       -0.28352243 0.32694334 0.34850803 -0.31038857
000030 3c 49 bf 3e 78 a4 b3 3e ed 6c 58 3e 2d 11 75 3b
       0.3736056 0.35086417 0.21135302 0.003739427
000040 1a 41 9d 3e 88 e0 ec be cb 99 1c 3f b0 fb 67 be
       0.3071373 -0.46265054 0.6117217 -0.22654605
000050 79 5f b0 3e 6c b2 03 3e 51 08 01 3e cf 58 aa 3e
       0.3444784 0.12861031 0.12600829 0.3327088
000060 0b e8 17 3f c4 8d a4 be 71 d5 02 3e dc 94 9f be
       0.59338444 -0.3213941 0.12776734 -0.31168258
000070 7f ff 13 3e d1 17 0f be 6d 22 ac be d5 89 e3 be
       0.14452933 -0.13973929 -0.33620015 -0.44441095
000080 2f 42 a8 3e 58 60 ca be bd 39 91 be c9 8d 4f 3e
       0.32862994 -0.3952663 -0.28364363 0.2026893
000090 0b c3 ec 3e c0 b3 b0 3d dc 79 0b 3f 12 ab 0a 3e
       0.46242556 0.086280346 0.5448282 0.1354182
0000a0 e2 9c 90 be 55 cf 36 3e b5 dd 47 bb 2b 06 09 3a
       -0.28244692 0.17852528 -0.0030497138 0.00052270544
0000b0 92 6e 34 3e 4f 3c 5b 3f ce 6e 80 bd 2e c3 de 3e
       0.17620304 0.856389 -0.06271134 0.43508285
0000c0 b5 2e 13 3e 6e ad e1 3e 80 3b 30 3c d7 9f 4d 3d
       0.14373286 0.4407763 0.010756373 0.050201263
0000d0 7e 55 a0 3d e6 d9 68 3e ce 16 a7 3d 67 b5 2e 3d
       0.07828806 0.22739372 0.081586465 0.042653468
0000e0 29 41 af be fa f6 0f 3f 7f ab 89 3e 29 3b 0f 3e
       -0.342294 0.5623623 0.26888654 0.13987412
0000f0 cb 83 a1 be 0e 77 96 3e ef ac 91 be 3b b9 65 3e
       -0.31545863 0.29387707 -0.2845225 0.22433941
000100 07 1a 82 be a7 6c 6f be 4c db c1 be 16 4d 71 bc
       -0.25410482 -0.23381291 -0.37862623 -0.014727851
000110 9a 9f d6 3e 92 e6 27 bf 12 41 a6 be ed 8f d5 3c
       0.4191864 -0.655862 -0.3247152 0.026069606
000120 e7 02 08 3e e6 f6 67 be 9f a8 cb be 9e db ab bb
       0.13282357 -0.22652778 -0.39777085 -0.0052446863
000130 d6 6b 7f 3e 39 03 eb be cc f4 5a 3f 23 2a d2 be
       0.2494348 -0.45900896 0.8552978 -0.41047773
000140 30 0a 8b bd b6 8a c4 be 29 2f ba be c6 b1 aa be
       -0.067890525 -0.38387078 -0.36364105 -0.33338755
000150 0c 93 a6 3e ff 46 6e 39 a7 c8 8b bf 81 04 b4 3e
       0.32534063 0.00022723897 -1.0920609 0.35159686
000160 75 15 4b 3d 88 26 15 3f 91 16 3c 3e 64 44 b5 3d
       0.04958101 0.5826192 0.18367983 0.08850935
000170 56 69 bf 3e 1f fb a9 be 3e d1 cc 3e fd 76 2a 3e
       0.37385052 -0.33199403 0.4000339 0.16646953
000180 fe e0 0d 3f b6 ae 59 3e 8a bf 10 bf 04 45 1b 3e
       0.55421436 0.21258053 -0.56542265 0.15163046
000190 32 16 01 bf 95 13 8a be 97 1c bc 3d 52 55 28 bf
       -0.5042449 -0.26968065 0.091851406 -0.6575519
0001a0 09 e0 cb be f0 b8 b1 3e 94 b1 92 3e a2 3d 8b be
       -0.39819363 0.3471141 0.28651106 -0.2719546
0001b0 90 7b d3 3e b7 5f b4 3e 05 2a 39 3e c8 7a 95 ba
       0.41305208 0.35229275 0.18082435 -0.001140439
0001c0 ff c7 d3 3e 78 7a 11 bf 40 ba 29 3f 10 b5 b4 be
       0.41363522 -0.568275 0.6629982 -0.3529439
0001d0 42 50 ac 3e 4b 96 75 c0 dc 2a dc 3d cb 66 a9 3e
       0.33654982 -3.8372982 0.10750362 0.33086237
0001e0 f2 71 13 3f e9 b7 87 be 6d 82 6a c0 17 e3 98 be
       0.5759574 -0.265075 -3.6642106 -0.29860756
0001f0 44 29 78 3e 84 b4 91 bd d3 03 fd be 6e 05 f9 be
       0.24234492 -0.07114509 -0.4941698 -0.48636955
000200 10 f1 9e 3e 3d 7e ab be 61 66 ac be 8c aa 8e 3e
       0.3104329 -0.3349475 -0.3367186 0.27864492
000210 b6 12 ce 3e 53 a0 c2 3d 27 de 04 3f d5 e7 c2 3e
       0.4024865 0.09503236 0.5190148 0.380675
000220 bf 9f b6 be 9c 17 e5 bf 91 9b 4f 3b 98 89 ce 3b
       -0.35668752 -1.789783 0.0031678418 0.0063030235
000230 70 88 02 3e 5a 15 57 3f c6 ee 25 3e 5a 0c dd 3e
       0.1274736 0.84016955 0.16204366 0.43173486
000240 19 e4 86 3c a7 4f da 3e 71 12 7e 3d 57 6d e6 3d
       0.016466187 0.42638895 0.062029306 0.11251324
000250 40 64 ba 3d d3 d9 8a 3e e1 c4 be 3d b0 cb cb 3d
       0.091011524 0.27119312 0.093148954 0.0995096
000260 ff 16 d2 be 68 2b 19 3f d3 3c 76 3e ea fc 0b be
       -0.4103317 0.5983186 0.2404664 -0.13670698
000270 a9 d7 a6 be 10 20 8b 3e eb ce 49 bf 58 d5 cd 3e
       -0.3258641 0.271729 -0.78831357 0.4020183
000280 2d 0b 39 be 5b 9c 1f be d2 cf fa be 00 ab 8b 3e
       -0.1807067 -0.15586989 -0.4898668 0.272789
000290 b0 23 3d c0 6f 64 2b bf 46 cb ba be 17 e1 c3 3d
       -2.9553032 -0.66950125 -0.3648321 0.09564417
0002a0 15 ba d9 3d c8 92 d7 be 6c aa d3 be dc 8b a5 3b
       0.106311955 -0.42104173 -0.4134096 0.005052073
0002b0 d4 ea 6c 3e 8a 3c ee be 8c 2b 53 3f 86 cd 01 bf
       0.23136455 -0.46530563 0.8248832 -0.5070423
0002c0 83 a9 15 c0 79 24 cc be 3e 47 04 bf 47 09 ed be
       -2.3384712 -0.39871576 -0.51671207 -0.4629614
0002d0 04 1b ac 3e 4e 43 b2 3b 3e 9d 82 bf d6 16 af 3e
       0.3361436 0.0054401523 -1.0204237 0.3419711
0002e0 40 a2 bb 3d e4 08 0f 3f 9f 5e 3f 3e e6 c3 3b 3e
       0.09161806 0.5587294 0.18688439 0.18336448
0002f0 fb 29 f1 3e 7c 23 b4 be ec 5c d7 3e e6 b7 25 3e
       0.4710234 -0.35183322 0.4206308 0.16183433
000300 79 60 0e 3f 66 61 87 3e 70 7b 1c bf d0 c2 4b bc
       0.55615956 0.26441497 -0.6112585 -0.012436584
000310 c0 ce 06 bf 32 55 26 be 24 8d f1 3d a3 90 33 bf
       -0.52659225 -0.16243437 0.117944986 -0.70142573
000320 17 e1 83 be 22 3d ab 3e ae c9 a6 3e ec fc a2 be
       -0.25757667 0.33445078 0.32575744 -0.3183359
000330 1e e1 c0 3e 89 97 ba 3e a8 f0 57 3e 9a ed d5 3a
       0.3767175 0.36443737 0.21087897 0.0016321421
000340 62 17 76 3e c2 c0 e8 be fb fd 23 3f e4 35 5f be
       0.24032357 -0.45459563 0.6405942 -0.21797901
000350 5f ac a9 3e 35 40 98 3e 74 38 22 3e 0d 7a b8 3e
       0.3313932 0.29736486 0.15841848 0.36030617
000360 42 3d 19 3f dd 11 8c be f5 35 85 3e 85 48 96 be
       0.59859097 -0.2735738 0.26017728 -0.29352203
000370 79 c5 0d 3e f9 71 8d be 5c 22 98 be f7 02 f6 be
       0.13844861 -0.27626017 -0.29713714 -0.48049137
000380 a9 78 ac 3e ef e8 e5 be 94 14 90 be c7 3a 1d 3e
       0.33685806 -0.44904277 -0.281407 0.15354453
000390 7d 97 e7 3e 68 12 92 3d 3b 84 0c 3f c4 28 e9 3d
       0.45232764 0.07132417 0.5488927 0.113847286
0003a0 35 f5 87 be 6f f0 36 3e 02 bb c7 bb 31 cd 3b 3b
       -0.26554266 0.17865156 -0.006095291 0.002865624
0003b0 13 a6 71 3e a6 86 4a 3f a6 87 1d be 89 e4 e5 3e
       0.23598509 0.7911171 -0.15383777 0.4490092
0003c0 67 21 d0 3e e4 9c d8 3e bd 21 00 be f5 21 f6 3c
       0.40650484 0.42307198 -0.1251287 0.030045489
0003d0 d6 12 b9 3d ee bf 58 3e 83 0c f4 3c a1 36 8d 3c
       0.09036796 0.21166965 0.029791122 0.017237963
0003e0 32 99 a0 be 61 34 17 3f c9 9f 75 3e f4 5b 1c 3e
       -0.3136688 0.590643 0.23986734 0.15269452
0003f0 4b 9c 9c be 6b a8 a8 3e e1 8e 89 be df 2f 56 3e
       -0.30587992 0.32940993 -0.2686682 0.20916699

layer3.bias f4 [4]
000000 fe e6 06 3e ce 89 f4 3d 46 90 12 3e 12 0e fc 3d
       0.13174054 0.11940347 0.14312848 0.12307371
