models/model_final/nets/90_policy_net.pt (torch, 58884 bytes, 6 tensors)

layer1.weight f4 [128, 9]
-0.028134186 0.03291809 0.007050568 -0.0086135855 -0.24931069 0.14988416 -0.08538617 0.09797031
0.11136005 0.043047614 0.08012918 0.016347084 -3.3252854e-05 0.09572935 -0.36647397 -0.012585204
-0.078630455 0.038314104 0.026720969 0.0132277785 -0.022784915 -0.024319492 -0.1250278 0.27476478
0.030480254 0.047045987 -0.06853175 -0.028946133 0.10575139 0.048673023 -0.027674835 -0.019969959
0.0037806095 -0.12075316 0.06358167 0.111957625 -0.020710295 0.028469337 -0.113438345 0.0023750928
0.09459513 -0.08752839 -0.052566085 0.061626505 -0.25004148 -0.098581046 0.0071304203 -0.2904418
0.007617518 0.3135972 0.05601245 -0.016445527 -0.01232159 0.0043430086 -0.049232148 -0.056599118
-0.03313778 0.014306178 -0.2846186 0.2543957 -0.027229393 -0.03099352 -0.18437752 0.042801928
0.04349183 -0.058404673 -0.0074168853 0.12988867 0.08200435 -0.27827606 -0.024998676 -0.06596863
-0.037349228 0.09081177 -0.015301288 0.005543742 0.08633208 -0.20808147 0.0070138355 -0.018170215
0.009953773 -0.00092909747 -0.11568383 0.032169208 0.004065868 0.06910964 0.3070525 -0.010851636
0.03013394 0.0006179738 -0.041350443 -0.13162313 0.07689753 -0.002227115 0.022457927 0.3194285
0.008953176 0.029221758 0.00523636 0.016571697 0.0035038611 -0.0029068522 0.001821205 -0.14652972
-0.0068319137 -0.15172954 -0.00047955776 0.0155002 -0.013591363 0.10083062 0.010736434 0.0063358303
0.051412474 -0.21738018 0.023083823 -0.032915313 0.04485633 0.0019496578 0.028328132 -0.068141475
0.015986219 -0.009283196 0.24963182 0.017143613 -0.011825337 -0.068369195 -0.0057318634 0.0015123783
0.0044581 0.0017518437 -0.005454935 0.0035512273 -0.005763692 -0.0015621372 0.00055785006 -0.027302586
-0.03337223 -0.21227683 -0.010609974 0.30720687 -0.03190787 -0.0027889176 0.053335633 -0.025762066
-0.012963099 -0.01533552 -0.10987831 0.0069284528 -0.027134284 0.3175001 -0.0075430973 0.041241396
0.07158477 -0.060978793 0.0711861 0.14916874 -0.004976182 0.15428706 -0.21574335 0.017030833
-0.023237009 -0.0274248 0.10235861 -0.072209015 -0.026745334 -0.0038128148 -0.22127758 -0.067969754
-0.081417195 0.02161809 0.14809081 0.034941953 0.0035790876 -0.22411883 -0.0024188724 0.10728772
-0.01622439 0.002139413 -0.014285948 0.010220871 -0.008544265 -0.002396551 -0.17114046 -0.222215
-0.01708909 0.03791612 -0.012080659 -0.014326796 0.14088514 0.011475349 -0.07814417 -0.1574039
-0.027557407 -0.13299367 -0.004196607 0.102545224 0.08830154 -0.15782103 0.08413013 0.060183104
0.007781739 -0.00011115456 -0.17001303 -0.12061703 -0.023821663 -0.012437088 0.0026629271 0.012440234
0.06798815 -0.004766675 -0.00011249018 0.21327807 0.03934044 -0.12305485 -0.09575457 -0.21313955
0.112557545 0.044694547 -0.09743442 -0.0047038794 -0.33791307 0.0058609685 -0.023993343 -0.0007235864
-0.013012142 0.022595365 0.0021236711 -0.5992316 -0.11253858 0.19516005 -0.025595808 0.0074960445
-0.026123988 0.13174236 -0.0023633963 -0.003378556 -0.0041984683 -0.0030130309 -0.0051547014 2.2960373e-06
-0.0049959775 -0.0003879987 -0.0031585852 -0.06679653 0.09874606 0.084049724 -0.037487213 0.058021445
0.009316204 -0.012867201 -0.21258575 0.18859284 0.08191671 -0.07741295 0.0026284386 0.00088070106
00000000: aa79 e6bc 1ed5 063d 7308 e73b ff1f 0dbc
00000010: 4d4b 7fbe 3c7b 193e f2de aebd a8a4 c83d
00000020: bd10 e43d b252 303d c41a a43d 52ea 853c
00000030: fb78 0bb8 c00d c43d 7aa2 bbbe 2c32 4ebc
00000040: 0109 a1bd 40ef 1c3d efe5 da3c 53b9 583c
00000050: 6ea7 babc ac39 c7bc 4a07 00be f8ad 8c3e
00000060: bab1 f93c 4bb3 403d 605a 8cbd 7120 edbc
00000070: 2f94 d83d 5d5d 473d 56b6 e2bc 0a98 a3bc
00000080: 1ac4 773b 6f4d f7bd 1b37 823d 0a4a e53d
00000090: a3a8 a9bc 8738 e93c 5d52 e8bd 72a7 1b3b
000000a0: 17bb c13d 1642 b3bd 894f 57bd 136c 7c3d
000000b0: 7005 80be dce4 c9bd 4da6 e93b cab4 94be
000000c0: 5f9c f93b d08f a03e 506d 653d c5b8 86bc
000000d0: 7fe0 49bc cc4f 8e3b a6a7 49bd 7ad4 67bd
000000e0: 7bbb 07bd 7664 6a3c 87b9 91be 2740 823e
000000f0: 2d10 dfbc 1fe6 fdbc 76cd 3cbe 1351 2f3d
00000100: 7d24 323d bd39 6fbd 5809 f3bb 8901 053e
00000110: e6f1 a73d 337a 8ebe 06ca ccbc 901a 87bd
00000120: 81fb 18bd 85fb b93d 41b2 7abc 47a8 b53b
00000130: e0ce b03d 4f13 55be 51d4 e53b b4d9 94bc
00000140: 2615 233c ad8e 73ba a5eb ecbd dcc3 033d
00000150: f93a 853b 5b89 8d3d fc35 9d3e 0fcb 31bc
00000160: 74db f63c 85ff 213a 155f 29bd 37c8 06be
00000170: 747c 9d3d caf4 11bb b0f9 b73c 228c a33e
00000180: 58b0 123c 7862 ef3c c595 ab3b 5ec1 873c
00000190: 09a1 653b e380 3ebb 80b5 ee3a e30b 16be
000001a0: 3fde dfbb fd5e 1bbe 276d fbb9 8df4 7d3c
000001b0: 4fae 5ebc 4980 ce3d dee7 2f3c cc9c cf3b
000001c0: e395 523d e998 5ebe 491a bd3c 35d2 06bd
000001d0: 45bb 373d a98b ff3a 6610 e83c c28d 8bbd
000001e0: 88f5 823c 8c18 18bc 7c9f 7f3e c370 8c3c
000001f0: 0fbf 41bc 2605 8cbd 5bd2 bbbb ff3a c63a
00000200: 4115 923b 1f9e e53a 50bf b2bb b5bb 683b
00000210: 5add bcbb a0c0 ccba af3c 123a aca9 dfbc
00000220: 52b1 08bd 195f 59be 75d5 2dbc 384a 9d3e
00000230: d4b1 02bd 46c6 36bb 7776 5a3d f80a d3bc
00000240: 2e63 54bc d541 7bbc e107 e1bd 1308 e33b
00000250: b848 debc 608f a23e 162c f7bb bdec 283d
00000260: 099b 923d e6c4 79bd 05ca 913d b1bf 183e
00000270: 3d0f a3bb 6dfd 1d3e d3eb 5cbe 3f84 8b3c
00000280: 8a5b bebc f9a9 e0bc 64a1 d13d 52e2 93bd
00000290: 0819 dbbc 6be0 79bb 9796 62be ba33 8bbd
000002a0: 0fbe a6bd 6c18 b13c 1ea5 173e 4b1f 0f3d
000002b0: 208f 6a3b 687f 65be f285 1ebb aab9 db3d
000002c0: 03e9 84bc 6535 0c3b 9c0f 6abc 7175 273c
000002d0: 3ffd 0bbc 740f 1dbb 723f 2fbe 548c 63be
000002e0: 6bfe 8bbc ef4d 1b3d f5ed 45bc f0ba 6abc
000002f0: 3244 103e 1a03 3c3c 0d0a a0bd 7d2e 21be
00000300: 12c0 e1bc 7e2f 08be b183 89bb 3b03 d23d
00000310: 70d7 b43d d69b 21be 6b4c ac3d 8f82 763d
00000320: f5fd fe3b a61b e9b8 e517 2ebe 1006 f7bd
00000330: a625 c3bc eec4 4bbc 8184 2e3b 20d2 4b3c
00000340: 5f3d 8b3d c531 9cbb b5e8 ebb8 9165 5a3e
00000350: 7123 213d 2e04 fcbd f91a c4bd 4141 5abe
00000360: 9284 e63d a111 373d b28b c7bd 0023 9abb
00000370: f102 adbe 5e0d c03b b08d c4bc 10af 3dba
00000380: e130 55bc ea19 b93c 4a2d 0b3b 3e67 19bf
00000390: a17a e6bd 09d8 473e 4dae d1bc 61a1 f53b
000003a0: f901 d6bc 78e7 063e 36e3 1abb c46a 5dbb
000003b0: 4e93 89bb 4576 45bb c5e8 a8bb 9f15 1a36
000003c0: 4cb5 a3bb 4e6c cbb9 4400 4fbb 9ecc 88bd
000003d0: 603b ca3d 4322 ac3d 318c 19bd e5a7 6d3d
000003e0: fea2 183c f4d0 52bc 14b0 59be 7b1e 413e
000003f0: f3c3 a73d ae8a 9ebd e241 2c3b d9de 663a

layer1.bias f4 [128]
-0.0019362168 0.03816683 -0.13060421 -0.04797165 0.17122656 0.06534356 0.19366752 0.058306526
0.02249569 -0.08940866 -0.033664126 0.22055005 -0.027108885 -0.14024608 -0.006070723 -0.061591845
-0.16114488 0.02883673 -0.0123017095 0.026595755 0.071818605 0.062148526 0.03967897 0.027391408
0.026417885 0.008270178 -0.0057283 0.04153175 0.0116896015 0.0017474128 0.032644656 0.087059125
0.15514024 -0.07861471 0.051058475 0.022475528 0.13174133 0.010141086 0.19377509 0.090409
0.039930135 0.09401116 0.057101753 0.044801954 0.0047599124 0.0016166787 0.009735567 0.057243627
0.08513322 -0.06809433 0.06482909 0.21171756 -0.03015235 0.15884262 -0.005932886 -0.14389198
0.07724527 0.11163056 -0.21356274 -0.15435591 0.24260324 -0.030711362 -0.002704614 -0.03541299
-0.04077242 0.019143848 0.001925925 -0.10311025 0.027437577 -0.22753297 -0.16723306 -0.02079075
0.13562712 0.07788629 0.11060806 -0.06676874 0.0374332 -0.025824305 -0.1405726 -0.016167965
-0.15404935 0.011914553 -0.028138865 0.1274295 -0.020623695 -0.1251651 0.026162058 0.10847044
0.06235038 0.0042197076 0.121217355 0.07660817 -0.021065509 -0.091618195 0.23718691 -0.04585536
-0.19946773 0.08702896 0.0047382545 -0.33466944 -0.053316355 0.003072453 0.08824972 0.11733138
0.022996854 0.07040763 -0.044006374 0.08482241 -0.0255429 0.0991357 0.03793261 -0.22886099
-0.047781643 0.09122501 0.2115921 0.15135291 0.1021702 0.08074224 0.08609627 -0.084637254
-0.012891193 0.023189833 -0.16283506 -0.00203798 0.05745281 -0.13900068 -0.035803374 0.04379103
00000000: a8c8 fdba d254 1c3d 1cbd 05be ec7d 44bd
00000010: 0456 2f3e d8d2 853d c750 463e d3d2 6e3d
00000020: e248 b83c e31b b7bd 65e3 09bd dfd7 613e
00000030: 7413 debc ab9c 0fbe eaec c6bb bb47 7cbd
00000040: 2a03 25be 023b ec3c 1c8d 49bc 57df d93c
00000050: a215 933d 748f 7e3d 6a86 223d f263 e03c
00000060: 526a d83c a47f 073c 77b4 bbbb 321d 2a3d
00000070: be85 3f3c 7209 e53a 67b6 053d 0e4c b23d
00000080: 15dd 1e3e c000 a1bd b122 513d 991e b83c
00000090: 33e7 063e cc26 263c fa6c 463e 5b28 b93d
000000a0: c88d 233d ec88 c03d 87e3 693d 4182 373d
000000b0: 0af9 9b3b bce6 d33a ed81 1f3c 4b78 6a3d
000000c0: 535a ae3d 0a75 8bbd 1dc5 843d 7dcc 583e
000000d0: 1002 f7bc a4a7 223e a868 c2bb 6b58 13be
000000e0: c532 9e3d 909e e43d 31b0 5abe 7a0f 1ebe
000000f0: fc6c 783e 6596 fbbc e53f 31bb 360d 11bd
00000100: fb00 27bd 8fd3 9c3c 526f fc3a 772b d3bd
00000110: c5c4 e03c 67fe 68be 253f 2bbe 5d51 aabc
00000120: d6e1 0a3e d982 9f3d 7b86 e23d 0dbe 88bd
00000130: 8e53 193d 7e8d d3bc 43f2 0fbe ae72 84bc
00000140: 1dbf 1dbe 4235 433c 7a83 e6bc e17c 023e
00000150: 06f3 a8bc 482b 00be d051 d63c c025 de3d
00000160: 1d63 7f3d 7945 8a3b ce40 f83d bfe4 9c3d
00000170: 9391 acbc 52a2 bbbd 20e1 723e d4d2 3bbd
00000180: 4541 4cbe 3d3c b23d 5c43 9b3b cb59 abbe
00000190: 4062 5abd 355b 493b 45bc b43d 6f4b f03d
000001a0: e663 bc3c e031 903d 0740 34bd 5fb7 ad3d
000001b0: 583f d1bc a807 cb3d 395f 1b3d 895a 6abe
000001c0: afb6 43bd 2ed4 ba3d 99ab 583e 42fc 1a3e
000001d0: 9c3e d13d 305c a53d 3e53 b03d 4c56 adbd
000001e0: 9535 53bc 9bf8 bd3c 3cbe 26be a18f 05bb
000001f0: a353 6b3d 3256 0ebe 8fa6 12bd 395e 333d

layer2.weight f4 [96, 128]
0.05179696 0.23383334 0.04449338 0.0050795116 -0.09958247 0.029189702 0.05684353 -0.14959604
-0.019350808 0.24203798 -0.0824673 -0.38698944 -0.04258842 0.0814672 0.0013208884 -0.03211987
0.12614581 0.016495626 -0.057177596 0.01199116 0.09593487 -0.07981284 -0.043650284 -0.101064906
-0.02729841 -0.22298403 -0.0010196057 0.06420118 -0.011710039 -0.114718325 -0.0401664 -0.08437682
-0.001257371 0.017584523 0.026285712 -0.14401963 -0.1314048 0.014543849 0.01305855 -0.012216507
0.059063584 -0.0060065626 -0.013050786 0.06671344 -0.013342386 0.0014782001 0.062302362 0.06607235
0.016691813 0.023586618 0.008748049 -0.22105853 0.078934245 0.022169428 0.0013319231 0.14422612
0.034494 0.020685777 0.012179508 0.06830349 -0.38430062 -0.11227731 0.00076027313 0.030880604
-0.013587235 -0.04525671 -0.00020045045 0.13442501 0.05825294 -0.04857652 -0.26186913 0.045791123
0.21880825 0.04644379 0.08831891 -0.03141173 -1.5265342 -0.045129262 -0.094411336 0.08405283
-0.025807709 -0.12819985 -0.008427691 -0.18584952 -0.049983177 0.033465907 0.08824173 0.0022250726
-0.050413016 0.24316464 0.06773671 0.07590342 -0.00866652 0.0074805063 0.07468162 -0.056105062
-0.10532565 -0.27037227 0.039194603 -0.19076884 0.056939166 0.26639023 0.27441925 0.018735822
-0.051545937 -0.036164172 0.020606356 0.008851739 -0.07029325 -0.25084323 0.07745784 -0.14030483
-0.1259967 -0.10324844 -0.09148689 0.2539981 -0.07544229 -0.094102606 -0.06689096 0.02585155
0.07540854 -0.000926356 -0.1679584 0.00086663314 0.0041900743 -0.17651938 0.020786852 -0.03944012
-0.040721625 -0.10813406 -0.035755467 -0.010670332 -0.013739864 0.13005567 -0.10695084 -0.035198286
0.040014375 -0.028059462 -0.008993291 -0.5275871 0.06248302 0.10294459 0.0001517835 0.16857174
0.05420939 -0.073658794 0.112478614 0.07090312 0.007830226 0.077565946 -0.029637644 -0.13335842
-0.27297777 0.14226519 -0.00015416335 -0.07991867 -0.09859659 0.061797924 -0.16455989 -0.047665656
0.045204453 0.14487432 0.00289131 0.012648033 -0.42376682 -0.013750364 0.01483103 -0.1957871
-0.12863936 0.025910929 0.102095604 0.013870393 -0.060900412 0.0011578491 0.07959956 -0.432082
0.032356244 0.13092014 -0.11396235 -0.037618898 0.10664842 -0.060261734 0.0011744865 -0.0005231569
0.026204178 -0.061986625 0.10368005 0.12671794 -0.82226616 0.10636028 -0.00018046718 -0.012135676
-0.10263043 0.07047275 0.0013746107 0.03328798 0.1451399 0.18054888 0.18958053 -0.30558822
0.07271371 -0.14445938 -0.14866723 0.019760469 -0.111306146 0.056562442 0.074240394 0.011509537
0.07909124 0.00609941 0.1083344 -0.1636684 0.10279676 0.12585793 -0.14278023 -0.06025489
-0.02576611 -0.023586217 -0.15094201 -0.07082216 0.06391694 0.12512955 -0.14685632 0.034205835
0.14204352 -0.013450141 -0.08537058 0.19807458 0.021724282 0.019720294 0.050271243 0.07468242
0.20882444 -0.117818534 0.0001906876 -0.43066782 -0.033642996 -0.34078416 -0.07860246 0.1823291
0.111371964 0.064423904 -0.07526413 0.12566406 -0.22588973 0.10999781 0.02512161 -0.048952132
0.07578882 0.04629288 0.06645356 0.00028633574 -0.15383859 0.14808588 0.067563154 0.07157311
00000000: 0d29 543d 0272 6f3e b13e 363d 0872 a63b
00000010: e5f1 cbbd 3e1f ef3c c3d4 683d b42f 19be
00000020: 9685 9ebc ced8 773e 9ee4 a8bd 7b23 c6be
00000030: 3271 2ebd 46d8 a63d a921 ad3a 2090 03bd
00000040: 5e2c 013e d621 873c 0e33 6abd 9276 443c
00000050: 8079 c43d ea74 a3bd a4ca 32bd 1efb cebd
00000060: eaa0 dfbc ed55 64be 4aa4 85ba e97b 833d
00000070: 77db 3fbc 71f1 eabd 8685 24bd c1cd acbd
00000080: 5fce a4ba 6b0d 903c 2255 d73c e279 13be
00000090: fb8e 06be 5349 6e3c 87f3 553c bf27 48bc
000000a0: a8ec 713d b3d2 c4bb f7d2 55bc 0ea1 883d
000000b0: 069a 5abc 2ac0 c13a c330 7f3d f150 873d
000000c0: 45bd 883c b938 c13c fa53 0f3c 2b5d 62be
000000d0: 47a8 a13d a99c b53c ec93 ae3a 03b0 133e
000000e0: 9549 0d3d 3875 a93c 8f8c 473c b3e2 8b3d
000000f0: 0dc3 c4be a5f1 e5bd 114d 473a 52f9 fc3c
00000100: fe9c 5ebc 1a5f 39bd 0230 52b9 b6a6 093e
00000110: a39a 6e3d 2cf8 46bd b613 86be 798f 3b3d
00000120: 450f 603e d83b 3e3d 8be0 b43d 96a9 00bd
00000130: 7965 c3bf 76d9 38bd bb5a c1bd e423 ac3d
00000140: b06a d3bc d246 03be 4c14 0abc 564f 3ebe
00000150: 29bb 4cbd 8c13 093d 15b8 b43d 86d2 113b
00000160: e17d 4ebd 2700 793e 8bb9 8a3d 4173 9b3d
00000170: 05fe 0dbc 091f f53b adf2 983d 6cce 65bd
00000180: f9b4 d7bd 3c6e 8abe 858a 203d e858 43be
00000190: 0b39 693d 4d64 883e ae80 8c3e de7b 993c
000001a0: d521 53bd e220 14bd a9ce a83c e206 113c
000001b0: e8f5 8fbd 866e 80be 37a2 9e3d 12ac 0fbe
000001c0: 4705 01be eb73 d3bd 7b5d bbbd 0a0c 823e
000001d0: 7d81 9abd deb8 c0bd 21fe 88bd a1c6 d33c
000001e0: cb6f 9a3d b3d6 72ba 49fd 2bbe c42e 633a
000001f0: e44c 893b 7fc1 34be 3049 aa3c f78b 21bd
00000200: b8cb 26bd 6475 ddbd 5374 12bd 9ed2 2ebc
00000210: 2b1d 61bc 502d 053e 0b09 dbbd 142c 10bd
00000220: 1de6 233d f5dc e5bc 9958 13bc f30f 07bf
00000230: 32ee 7f3d 9dd4 d23d 1328 1f39 129e 2c3e
00000240: aa0a 5e3d 6cda 96bd 305b e63d a835 913d
00000250: 594a 003c e5da 9e3d a5ca f2bc 1c8f 08be
00000260: bec3 8bbe f7ad 113e e9a6 21b9 66ac a3bd
00000270: 02ed c9bd d21f 7d3d 6382 28be 103d 43bd
00000280: 4e28 393d ef59 143e 227c 3d3b b239 4f3c
00000290: f7f7 d8be 3549 61bc d9fd 723c 6a7c 48be
000002a0: 09ba 03be 2843 d43c 8017 d13d a540 633c
000002b0: b672 79bd f8c2 973a 1805 a33d da39 ddbe
000002c0: fb87 043d ee0f 063e 1865 e9bd 4616 1abd
000002d0: 7d6a da3d 02d5 76bd 3af1 993a 7724 09ba
000002e0: 25aa d63c b0e5 7dbd 3556 d43d 59c2 013e
000002f0: 0980 52bf 6bd3 d93d ca3b 3db9 b7d4 46bc
00000300: e72f d2bd 0454 903d 482c b43a fa58 083d
00000310: 8e9f 143e cee1 383e 6621 423e 0f76 9cbe
00000320: edea 943d 29ed 13be 393c 18be b5e0 a13c
00000330: 7af4 e3bd 05ae 673d 590b 983d 7f92 3c3c
00000340: 97fa a13d 8fdd c73b 6dde dd3d b098 27be
00000350: 1c87 d23d e7e0 003e fb34 12be d5cd 76bd
00000360: 7313 d3bc e237 c1bc 8b90 1abe 350b 91bd
00000370: e2e6 823d f621 003e 8161 16be 6b1b 0c3d
00000380: db73 113e fb5d 5cbc c5d6 aebd 10d4 4a3e
00000390: 1ff7 b13c 748c a13c 38e9 4d3d 19f3 983d
000003a0: 13d6 553e d84a f1bd 50f3 4739 7e80 dcbe
000003b0: 3dcd 09bd 437b aebe 54fa a0bd 7bb4 3a3e
000003c0: fc16 e43d aef0 833d 1524 9abd 14ae 003e
000003d0: a34f 67be 8846 e13d d6cb cd3c 0882 48bd
000003e0: 2b37 9b3d 9a9d 3d3d ce18 883d 551f 9639
000003f0: dd87 1dbe d3a3 173e 8d5e 8a3d ec94 923d

layer2.bias f4 [96]
0.02530608 0.028920086 -0.15654464 0.0710936 0.027547883 -0.059309106 0.09651188 -0.03772316
0.008718524 0.029192466 0.022401445 0.051802892 -0.10276544 -0.10055225 0.06260419 -0.00085175317
-0.095112026 -0.020509368 -0.09021084 -0.0033094073 0.028205246 -0.027288537 0.017214898 0.1217951
0.043555208 0.04215454 -0.013933334 -0.041352868 -0.05079384 0.0008091793 -0.052216165 0.008445525
0.0101117045 0.039055504 0.011593333 0.0053302348 0.014050612 0.08183784 0.011702629 -0.06264034
-0.01983366 0.003964397 -0.0012070666 -0.0014093992 0.09302056 0.10110394 -0.0231044 0.09925031
-0.07934835 -0.097500674 0.008337369 0.038813688 0.08875137 0.04770812 0.070264705 0.058324404
-0.073723905 -0.24561964 0.17562634 -0.018887388 0.023985613 0.08101933 0.026590884 0.053600393
-0.09153776 0.03158869 -0.032446027 0.041644868 -0.0300862 -0.063550256 0.016126474 0.062456086
0.032881252 0.034929857 0.0041370005 -0.0013662763 0.12083527 -0.1346888 0.016477559 -0.051136523
-0.02547037 -0.105241865 0.00042480047 -0.029941915 0.01463801 -0.001387475 -0.040595878 0.036047213
0.07381026 0.052849926 0.10856734 0.042315867 -0.097638324 -0.044983055 0.045410525 0.041440014
00000000: b24e cf3c d1e9 ec3c 3d4d 20be 8599 913d
00000010: 19ac e13c 1bee 72bd 05a8 c53d 9a83 1abd
00000020: 24d8 0e3c 0a25 ef3c 3c83 b73c 452f 543d
00000030: b076 d2bd 57ee cdbd a036 803d 3048 5fba
00000040: 18ca c2bd 4303 a8bc 76c0 b8bd a4e2 58bb
00000050: b00e e73c 368c dfbc 4206 8d3c b66f f93d
00000060: f266 323d 3daa 2c3d a348 64bc a061 29bd
00000070: 340d 50bd 1b1f 543a 9ee0 55bd 195f 0a3c
00000080: 90ab 253c aaf8 1f3d f7f1 3d3c 40a9 ae3b
00000090: 8a34 663c 999a a73d 62bc 3f3c 9449 80bd
000000a0: 337a a2bc c6e7 813b 6f36 9eba 97bb b8ba
000000b0: 9081 be3d 950f cf3d 7045 bdbc bf43 cb3d
000000c0: 6381 a2bd 6fae c7bd 7699 083c 1afb 1e3d
000000d0: 47c3 b53d 9769 433d f1e6 8f3d 92e5 6e3d
000000e0: 8ffc 96bd b783 7bbe 64d7 333e b9b9 9abc
000000f0: 7a7d c43c 76ed a53d 20d5 d93c 168c 5b3d
00000100: 2678 bbbd 2463 013d 20e6 04bd cf93 2a3d
00000110: 5677 f6bc a326 82bd ab1b 843c f4d1 7f3d
00000120: 7eae 063d 9c12 0f3d ad8f 873b a014 b3ba
00000130: 7b78 f73d dceb 09be f2fb 863c 8874 51bd
00000140: 3da7 d0bc 0c89 d7bd c1b7 de39 bf48 f5bc
00000150: 44d4 6f3c efdb b5ba dd47 26bd 3ea6 133d
00000160: d529 973d 2a79 583d 8e58 de3d 6753 2d3d
00000170: 9af6 c7bd 2740 38bd 6300 3a3d 01bd 293d

layer3.weight f4 [4, 96]
0.61664486 0.27712786 -0.81456256 0.19881766 -0.5381627 -0.41804516 0.09194935 -0.8000784
-0.24059783 0.29542977 0.33120105 -0.49315238 0.39821148 0.5080016 0.24009278 0.0010881885
0.27671942 -0.42232624 0.7085256 -0.5451059 0.3062262 0.04215065 0.11217842 0.431245
0.5137495 -0.2965977 0.11419232 -0.5392175 0.24647717 -0.15261313 -0.28401208 -0.41719294
0.2853077 -0.4196484 -0.36862716 0.28946462 0.54522103 0.09042338 0.6655036 0.24994567
-0.29246467 -0.32063767 -0.000891007 0.00015189307 0.2210579 0.73895305 -0.028179161 0.6089951
0.4432292 0.46167022 0.027014036 0.02169359 0.071553275 0.25534037 0.09306727 0.03396254
-0.35594222 0.6918564 0.2900001 0.14070737 -0.4926599 0.41874677 -0.52834517 0.37109825
-0.53687865 -0.26249933 -0.38902932 0.0032447667 0.2510382 -0.76223385 -0.27727428 0.004895267
0.20853 -0.27695736 -0.43454948 -0.0015260322 0.24148937 -0.60213107 0.8812626 -0.44136834
-0.6080556 -0.5598779 -0.2987162 -0.33973664 0.32974997 6.619062e-05 -1.307635 0.39727637
0.0571327 0.7841243 0.34115267 0.15284516 0.38090894 -0.5917137 0.34775898 0.22737963
0.54030615 0.2087868 -0.8249093 0.21571536 -0.51623666 -0.3976028 0.08919369 -0.7475573
-0.42500553 0.3037208 0.24807872 -0.43038136 0.42144027 0.5092632 0.20558295 -0.0003314182
0.3956327 -0.5420293 0.76030076 -0.5601921 0.30005005 -4.426007 0.11519737 0.42032018
0.5175036 -0.28498468 -3.5984156 -0.46081904 0.3610216 -0.11162931 -0.64825046 -0.44555992
0.2755271 -0.26581016 -0.45521024 0.31820178 0.47924104 0.09917155 0.62976927 0.49657232
-0.35647038 -2.1986399 0.00096244796 0.0018336974 0.16969912 0.747566 0.26240048 0.5539998
0.5042232 0.42943317 0.038254417 0.115197055 0.094620064 0.2895358 0.10345479 0.10866927
-0.4161448 0.71272534 0.27802333 -0.21133474 -0.45728272 0.4101425 -1.0132915 0.5399257
-0.47821003 -0.21090694 -0.5034892 0.26946798 -3.6586862 -0.7999084 -0.33180934 0.1168548
0.13352892 -0.4593836 -0.417644 0.0014691236 0.21784861 -0.57957536 0.80229414 -0.509202
-2.4304264 -0.58388996 -0.49078423 -0.50121236 0.36859426 0.0015821886 -1.3038846 0.39328754
0.1099112 0.7786433 0.34291846 0.22355743 0.612776 -0.648507 0.3789389 0.22792372
0.6691669 0.2827874 -0.8448548 0.05959849 -0.55190617 -0.3385065 0.109985135 -0.79633117
-0.19792719 0.3439937 0.2853045 -0.46928146 0.42268693 0.49200693 0.25335005 0.00047478554
0.181768 -0.39232394 0.73653084 -0.5811584 0.29823193 0.45461884 0.16478308 0.4763133
0.5133947 -0.24147177 0.4042884 -0.5663217 0.19499975 -0.36439902 -0.2227531 -0.4435547
0.30221507 -0.53167295 -0.4206475 0.25456685 0.553868 0.07380953 0.6726715 0.22785227
-0.27606946 -0.29876187 -0.0017151599 0.00083358836 0.28236786 0.69812137 -0.07987909 0.6269432
0.5169371 0.4238203 -0.1937983 -0.08115804 0.094178244 0.20752141 0.022593016 0.017108252
-0.29539818 0.73602766 0.22248955 0.19169638 -0.46089074 0.44144636 -0.45231825 0.33205757
00000000: 70dc 1d3f b4e3 8d3e 2c87 50bf db96 4b3e
00000010: 08c5 09bf 040a d6be f14f bc3d f0d1 4cbf
00000020: 475f 76be 9242 973e 2f93 a93e 787e fcbe
00000030: 60e2 cb3e 650c 023f e2da 753e 8ca1 8e3a
00000040: 2bae 8d3e 253b d8be ef61 353f 0f8c 0bbf
00000050: aec9 9c3e 29a6 2c3d cdbd e53d 25cc dc3e
00000060: 1685 033f a7db 97be aadd e93d 280a 0abf
00000070: 8364 7c3e 9e46 1cbe 086a 91be 509a d5be
00000080: da13 923e 28dc d6be b3bc bcbe b534 943e
00000090: 9b93 0b3f e52f b93d 725e 2a3f c2f1 7f3e
000000a0: eebd 95be 9f2a a4be 7892 69ba 7c45 1f39
000000b0: 015d 623e 072c 3d3f fcd7 e6bc 1ae7 1b3f
000000c0: f0ee e23e 0a60 ec3e 8a4c dd3c c1b6 b13c
000000d0: 868a 923d f9bb 823e 0e9a be3d 4e1c 0b3d
000000e0: 0f3e b6be 801d 313f e57a 943e 9815 103e
000000f0: eb3d fcbe fa65 d63e a141 07bf 9700 be3e
00000100: e170 09bf 5066 86be da2e c7be 27a6 543b
00000110: 1488 803e c221 43bf e5f6 8dbe 7a68 a03b
00000120: e388 553e 5bcd 8dbe 457d debe 2505 c8ba
00000130: fd48 773e 4325 1abf 6d9a 613f 08fb e1be
00000140: 88a9 1bbf 2854 0fbf 54f1 98be f6f1 adbe
00000150: fdd4 a83e d2cf 8a38 9560 a7bf cf67 cb3e
00000160: fa03 6a3d 5fbc 483f 90ab ae3e 7183 1c3e
00000170: 7f06 c33e 8d7a 17bf 770d b23e 35d6 683e
00000180: 8151 0a3f 35cc 553e 422d 53bf 7de4 5c3e
00000190: 1628 04bf 9892 cbbe 2eab b63d ea5f 3fbf
000001a0: 539a d9be 4b81 9b3e 5908 7e3e f25a dcbe
000001b0: 05c7 d73e 135f 023f 5684 523e 33c2 adb9
000001c0: 5f90 ca3e 6fc2 0abf 12a3 423f c068 0fbf
000001d0: 29a0 993e d9a1 8dc0 99ec eb3d 3534 d73e
000001e0: 1e7b 043f 83e9 91be 714c 66c0 79f0 ebbe
000001f0: d3d7 b83e e89d e4bd bef3 25bf 6e20 e4be
00000200: e311 8d3e 4518 88be 5111 e9be 58eb a23e
00000210: 155f f53e 741a cb3d 8f38 213f ba3e fe3e
00000220: 4983 b6be 84b6 0cc0 ca4c 7c3a ad58 f03a
00000230: 9bc5 2d3e 7c60 3f3f 5b59 863e eed2 0d3f
00000240: c614 013f aade db3e aab0 1c3d 6fec eb3d
00000250: 2ac8 c13d 093e 943e 1be0 d33d ff8d de3d
00000260: ee10 d5be 2b75 363f 1359 8e3e 2268 58be
00000270: f620 eabe 33fe d13e 89b3 81bf 9238 0a3f
00000280: f2d7 f4be fdf7 57be abe4 00bf b5f7 893e
00000290: ea27 6ac0 ccc6 4cbf eae2 a9be 9251 ef3d
000002a0: cebb 083e 5434 ebbe 6fd5 d5be 9c8f c03a
000002b0: b513 5f3e 0d5f 14bf 2663 4d3f 105b 02bf
000002c0: 1b8c 1bc0 d079 15bf 1248 fbbe 744f 00bf
000002d0: 63b8 bc3e 7161 cf3a b1e5 a6bf fc5c c93e
000002e0: 2019 e13d 2b55 473f 0293 af3e 3dec 643e
000002f0: e3de 1c3f 8e04 26bf 4804 c23e d664 693e
00000300: 864e 2b3f 83c9 903e 6748 58bf 8c1d 743d
00000310: b949 0dbf b950 adbe e33f e13d 5cdc 4bbf
00000320: 6dad 4abe f11f b03e 6e13 923e a945 f0be
00000330: 6c6a d83e 55e8 fb3e 19b7 813e a3ec f839
00000340: 6421 3a3e afde c8be 498d 3c3f ccc6 14bf
00000350: dbb1 983e cdc3 e83e e5bc 283e 56df f33e
00000360: d66d 033f 6044 77be e4fe ce3e 75fa 10bf
00000370: 04ae 473e 8292 babe 6319 64be 9a19 e3be
00000380: efbb 9a3e b81b 08bf 1c5f d7be 9656 823e
00000390: 4bca 0d3f 7329 973d 3334 2c3f 1b52 693e
000003a0: fa58 8dbe 51f7 98be 37cf e0ba 2b85 5a3a
000003b0: 8592 903e 15b8 323f a697 a3bd 597f 203f
000003c0: fd55 043f f9fe d83e 1073 46be 3036 a6bd
000003d0: 86e0 c03d 7e80 543e fd14 b93c 9b26 8c3c
000003e0: 6e3e 97be 4f6c 3c3f 4dd4 633e 0e4c 443e
000003f0: dff9 ebbe 4205 e23e 4296 e7be 7303 aa3e

layer3.bias f4 [4]
0.11468282 0.110362224 0.129375 0.10285127
00000000: d4de ea3d 9705 e23d e17a 043e b0a3 d23d
